models/best-vae_circ-ThreeGPP-genie-3gpp-4rx-3p.pt (torch, 98767 bytes, 44 tensors)

embed_data.weight f4 [17, 2, 1]
-0.9295605 0.40827852 -0.0002824068 0.0026466674 -1.1570941 -0.90913695 -1.46163 0.19800977
0.105914384 -0.8045788 -0.20928302 1.4092916 -0.6188596 1.1374768 0.0040772012 -0.004263707
-0.23265477 1.1339285 -0.008869694 -0.0011168998 0.9801913 0.15004808 -0.05232287 -1.7072372
-0.0003489324 0.002252668 1.293643 -0.36249664 -0.4181642 0.059992388 -1.0550627 -0.8333508
0.6896203 0.4903889
00000000: adf7 6dbf e209 d13e 0010 94b9 b673 2d3b
00000010: a91b 94bf 33bd 68bf b116 bbbf 13c3 4a3e
00000020: a4e9 d83d e0f8 4dbf 4a4e 56be ab63 b43f
00000030: 956d 1ebf d798 913f 0b9a 853b 91b6 8bbb
00000040: 0d3d 6ebe 9224 913f 3152 11bc f064 92ba
00000050: d1ed 7a3f 34a6 193e 8150 56bd c086 dabf
00000060: eaf0 b6b9 7fa1 133b 1896 a53f 2999 b9be
00000070: 9e19 d6be 94ba 753d 4b0c 87bf 7a56 55bf
00000080: f58a 303f 4114 fb3e

embed_data.bias f4 [17]
0.04851069 -0.0028279459 0.07030496 -0.04477685 0.04147143 0.038804654 0.06329056 -0.004521722
-0.061835255 0.48161238 0.08396621 0.04846862 0.005087442 -0.010013719 0.021118984 0.05523565
-0.04692331
00000000: 25b3 463d 0f55 39bb 0cfc 8f3d ee67 37bd
00000010: f2dd 293d a1f1 1e3d 7b9e 813d f42a 94bb
00000020: f746 7dbd e695 f63e 7af6 ab3d 0887 463d
00000030: 8fb4 a63b 9510 24bc b801 ad3c c73e 623d
00000040: a832 40bd

fc_mu_var.weight f4 [32, 52]
-0.005905052 -0.01520993 0.002430095 0.005966338 -0.0024836713 -2.7998643e-05 0.0015610862 -0.0013761462
0.0019859776 -0.0019838603 -0.0021044046 -0.016360559 0.0057953675 -0.0007556019 0.004249559 0.0044107446
0.0058305343 0.034707464 0.003279736 0.0064054835 0.00028824597 -0.063434936 0.005240632 0.008114789
-0.0077631464 0.09744665 -0.011509628 0.016653743 0.053800665 -0.018586198 0.004780486 -0.056995425
0.045937415 0.00081277755 0.04060067 -0.0033027246 0.009097443 -0.0027003628 -0.0026633255 0.0064882967
-0.0026001185 0.00027854118 0.015997158 0.0035173218 -0.000621695 -0.006883979 -0.0044662445 -0.007918344
0.04586898 0.0036621238 0.0032121025 0.041588936 -0.0038689803 0.018829657 0.00064679043 0.0050711194
-0.004513557 -0.0012155274 0.0004885112 -0.0013030866 -0.0019031321 -0.0016540941 -0.0051697576 -0.077954546
-0.060968343 0.0016572883 -0.0010595372 -0.001262794 0.034879446 -0.042279337 0.0034845867 0.00096707506
-5.7580637e-05 -0.031769414 0.0058151665 0.0016446079 -0.00017313716 0.046173003 0.019530807 0.03332092
0.00019234807 -0.010255148 0.016075637 -0.04189003 -0.010434759 0.0024656309 0.0056507285 -0.00042297755
0.004923979 -0.00249252 0.0018810108 0.0059987535 -0.002374557 -0.0041561066 -0.016355455 0.0014245737
0.00485087 -0.0015574503 -0.0052946173 -0.0052160197 -0.07053184 -0.00067123264 -0.0007102677 -0.03723815
-0.0031717932 0.010351671 0.001093487 0.004494456 -0.00071475975 0.0005677433 0.002238346 -0.005262357
0.0021933683 -0.003231779 -0.001062263 0.044002965 0.036059983 -0.0029641667 0.0033421149 0.0008127041
0.009214521 -0.0057794554 0.0009843002 0.002183591 -0.0017634232 0.020304896 0.0017258058 0.00584992
-0.0069006495 0.005973022 0.008034331 -0.03739988 -0.057069935 -0.010675788 -0.056155663 0.08704779
0.023310712 0.00093794474 0.02750643 -0.0041803094 0.0074690212 -0.002149548 -0.001008382 0.002914622
-0.0016619004 0.00020109216 -0.01989748 0.0022074895 0.00208563 -0.0038618024 -0.0027219485 -0.003279714
-0.091852464 0.0042136405 -0.002732371 0.012565721 -0.003644141 -0.020816876 0.002883252 0.001906964
-0.0007013931 -0.0011389753 0.00062752806 -0.003196501 0.0024368332 0.0008147636 0.001404063 0.035449702
-0.032372955 0.00032801478 0.005308721 0.0008955439 -0.045628276 0.03558146 -0.00014708271 0.0025225307
-0.0017743072 0.029187834 0.0029497973 -0.0001965162 -0.0034513155 0.023221828 0.005965949 -0.04566619
-0.015858296 0.0005791014 0.03926864 0.013263386 -0.09833028 -0.0029896584 0.0010930249 -0.0006693927
0.0006152987 -0.0022198078 -0.0029386308 -0.0015306696 -0.0010899445 0.0013466149 0.014223924 -0.0024067052
-0.0012426395 0.0011229296 -0.0007424488 -0.003514395 -0.02975103 0.0007542529 0.002402564 -0.013734887
-0.003444748 0.004484542 0.0034892098 0.002070466 -0.0042701764 -0.0031511832 0.0012884791 -0.004486947
0.0002466079 -0.00020803833 -0.009255733 0.015525885 -0.023956757 0.0032242404 -0.0005615417 -0.00046845028
-0.05518096 0.06050251 0.0053448756 0.003814993 0.00042780238 0.006941853 0.0051767044 0.0015802179
0.001052639 0.020734996 0.068191744 0.06498367 0.018076584 -0.014877412 0.0018666683 0.017151421
0.009567363 0.005626444 -0.026808476 -0.0007935387 0.008804848 -0.0012819589 -0.0024517034 0.005917404
7.641271e-05 -0.004957223 -0.05162092 0.0024604176 0.00212485 -0.0039553274 -0.004169528 -0.0021030714
00000000: 2b7f c1bb 1233 79bc 3b42 1f3b 4581 c33b
00000010: 17c5 22bb a1de eab7 5c9d cc3a ce5f b4ba
00000020: 2d27 023b a703 02bb 0dea 09bb 9406 86bc
00000030: 11e7 bd3b 9613 46ba e23f 8b3b 0288 903b
00000040: 110e bf3b 6a29 0e3d d7f0 563b 17e5 d13b
00000050: b81f 9739 2dea 81bd 9cb9 ab3b e4f3 043c
00000060: fe61 febb 1c92 c73d e192 3cbc 6e6d 883c
00000070: 165e 5c3d 1542 98bc a0a5 9c3b 0974 69bd
00000080: df28 3c3d 9410 553a e34c 263d 8672 58bb
00000090: 710d 153c 92f8 30bb 308b 2ebb c79b d43b
000000a0: c066 2abb 2a09 9239 790c 833c de82 663b
000000b0: 3ff9 22ba 0093 e1bb 9359 92bb f1bb 01bc
000000c0: 1de1 3b3d 3e00 703b 2382 523b 2959 2a3d
000000d0: b88e 7dbb a740 9a3c 5f8d 293a a22b a63b
000000e0: 76e6 93bb 5552 9fba 6f0f 003a 55cc aaba
000000f0: 8472 f9ba 30ce d8ba 1267 a9bb a2a6 9fbd
00000100: f1b9 79bd 5e39 d93a 2be0 8aba 5684 a5ba
00000110: c0dd 0e3d 192d 2dbd aa5d 643b 4f83 7d3a
00000120: bd82 71b8 a520 02bd 278d be3b e28f d73a
00000130: 278c 35b9 e71f 3d3d 12ff 9f3c 847b 083d
00000140: 0bb1 4939 3505 28bc 0eb1 833c e194 2bbd
00000150: 8df6 2abc 6c96 213b bf29 b93b 16c3 ddb9
00000160: 5459 a13b 8c59 23bb 408c f63a 3191 c43b
00000170: 759e 1bbb f32f 88bb e0fb 85bc c3b8 ba3a
00000180: 0cf4 9e3b 5c23 ccba 787e adbb 25eb aabb
00000190: ff72 90bd a9f5 2fba 4231 3aba 0887 18bd
000001a0: dcdd 4fbb 0e9a 293c 5653 8f3a 3b46 933b
000001b0: b75e 3bba 9cd4 143a 37b1 123b da6f acbb
000001c0: 9dbe 0f3b 41cc 53bb a23b 8bba 743c 343d
000001d0: a2b3 133d 7742 42bb 6207 5b3b a60b 553a
000001e0: 81f8 163c 9661 bdbb a203 813a 941a 0f3b
000001f0: aa22 e7ba 7456 a63c 6f34 e23a b0b0 bf3b
00000200: d81e e2bb 57b9 c33b 6da2 033c 9e30 19bd
00000210: 2ac2 69bd 80e9 2ebc 7b03 66bd 1d46 b23d
00000220: 1bf6 be3c 68e0 753a 2a55 e13c fafa 88bb
00000230: b1be f43b 6edf 0cbb af2b 84ba 3e03 3f3b
00000240: 20d4 d9ba 44dc 5239 0a00 a3bc 87ab 103b
00000250: 11af 083b 4b16 7dbb b862 32bb 78f0 56bb
00000260: 251d bcbd 9412 8a3b 9411 33bb 74e0 4d3c
00000270: 8ad2 6ebb 2788 aabc f1f4 3c3b 18f3 f93a
00000280: b2dd 37ba ab49 95ba b280 243a 637c 51bb
00000290: 47b3 1f3b dc95 553a 8908 b83a b533 113d
000002a0: 8199 04bd 66f9 ab39 c8f4 ad3b efc2 6a3a
000002b0: b7e4 3abd ddbd 113d 373a 1ab9 0b51 253b
000002c0: df8f e8ba 531b ef3c 6351 413b ea0f 4eb9
000002d0: 772f 62bb b43b be3c 027e c33b 790c 3bbd
000002e0: 42e9 81bc d6ce 173a 27d8 203d ac4e 593c
000002f0: 6361 c9bd 25ee 43bb d443 8f3a 2f7a 2fba
00000300: ff4b 213a 327a 11bb 0b96 40bb c0a0 c8ba
00000310: 78dc 8eba e680 b03a 760b 693c d0b9 1dbb
00000320: 10e0 a2ba 442f 933a e5a0 42ba c451 66bb
00000330: 6fb8 f3bc 0eb9 453a 5674 1d3b 4b08 61bc
00000340: 48c1 61bb 11f3 923b 3aab 643b a8b0 073b
00000350: d6ec 8bbb 1584 4ebb 2fe2 a83a 3d07 93bb
00000360: 274b 8139 dd24 5ab9 5ca5 17bc 4860 7e3c
00000370: f640 c4bc c74d 533b 6d34 13ba 559a f5b9
00000380: 6e05 62bd 7bd1 773d 1124 af3b f604 7a3b
00000390: aa4a e039 7c78 e33b 58a1 a93b 501f cf3a
000003a0: b4f8 893a 70dc a93c 1da8 8b3d 2916 853d
000003b0: 5815 943c 63c0 73bc ffaa f43a 2381 8c3c
000003c0: 6ec0 1c3c 085e b83b 739d dbbc 7b05 50ba
000003d0: 3642 103c 6707 a8ba c2ac 20bb c8e6 c13b
000003e0: c33f a038 3370 a2bb 7570 53bd f53e 213b
000003f0: 1141 0b3b b19b 81bb 89a0 88bb afd3 09bb

fc_mu_var.bias f4 [32]
-0.0007342328 0.0017833133 0.0004743539 0.0031603358 -0.0012077006 -0.00044009788 0.00021661559 0.8881131
-0.0010820369 -0.0006597733 0.0010860829 0.1802039 0.0005930169 0.0007946339 0.0011434389 0.0006409053
-0.00011994656 -0.00028627063 -0.00037128504 0.0003977534 -0.0003002287 0.00060117175 4.4922093e-05 -0.23515016
0.00039013266 0.00034735794 0.0005305188 0.031596355 0.0002609661 -0.0002395221 0.0005313683 -0.00022744422
00000000: 8779 40ba 11be e93a b4b2 f839 a31d 4f3b
00000010: b54b 9eba f0bc e6b9 4e23 6339 615b 633f
00000020: 22d3 8dba a3f4 2cba e55a 8e3a 5f87 383e
00000030: b174 1b3a fa4e 503a 71df 953a 6d02 283a
00000040: d28b fbb8 9816 96b9 09a9 c2b9 8f89 d039
00000050: 0468 9db9 f497 1d3a bb6a 3c38 34cb 70be
00000060: b88a cc39 981d b639 8412 0b3a 2e6b 013d
00000070: 47d2 8839 3928 7bb9 864b 0b3a 187e 6eb9

encoder.0.0.weight f4 [17, 17, 4]
-1.2217262 0.016118303 0.20906097 1.637599 0.059771918 -0.006264556 -0.092727065 -0.0631358
-0.3447268 0.032063935 0.12863205 0.54773355 -1.4938939 0.00077020854 0.19420344 1.3470049
1.2478789 -0.0012438054 -0.044979475 -0.6216296 -1.1893917 -0.012282217 0.056221463 0.8137046
-1.3462301 -0.0031471814 0.19270211 1.2702044 0.03950645 0.019219803 -0.071547076 -0.07697328
-1.4397135 0.04423497 0.08926942 0.76796234 0.16481991 0.28309777 -0.4434178 -0.17799906
1.0701979 -0.022001332 -0.1805179 -1.0608509 1.1941369 -0.05496603 -0.071441896 -0.49249336
-0.052527137 -0.025809772 -0.02417975 0.06931992 1.4147961 0.02821643 -0.20082153 -1.6446906
-0.78124183 0.015746128 0.13386992 1.1343349 -0.3755222 -0.0050302236 0.17524527 0.5034282
0.25690922 0.031557005 -0.0920748 -0.4312269 -0.029551305 0.17234966 -0.03718005 0.35857397
-0.004706275 0.052128293 -0.023752088 0.0042189946 0.07095273 0.100839384 0.10979554 6.7530704
0.032811046 0.110733844 0.030200671 1.1099268 -0.09003913 0.10831445 -0.011622901 1.1617997
-0.087909795 -0.0869934 0.04848755 -1.0574672 -0.09051766 -0.037810136 -0.028298587 -0.6224937
0.019714622 -0.020614985 0.046634056 0.028904868 0.062213518 -0.14472218 -0.02774744 -1.0613787
-1.4240203 0.10135282 0.08965896 -0.69546056 -0.23598509 -0.17121099 -0.024974097 -1.6213465
-0.059233982 0.12354734 0.045607384 1.5536264 0.016946793 0.013912486 -0.038538795 -0.00091591594
-0.008170754 -0.07284582 0.07496203 -0.63748354 -0.04532404 0.08056786 0.008431382 0.7678897
0.056612607 0.12991828 0.007853252 6.3292894 -0.012899405 -0.20173039 0.06575895 -4.536286
0.015729489 -2.0431547 0.0012610463 -0.11182059 0.015143167 -0.027664417 0.01622996 0.1040267
-0.04985623 0.028607273 0.035530932 -0.09330651 -0.11350215 -1.3087596 -0.001413679 -0.02874261
-0.012476348 1.2753147 0.054788224 0.008627444 0.050421707 -1.3740933 0.03463711 -0.008213707
0.07670015 -2.2733095 0.025025502 -0.020058548 -0.013724574 -0.057198305 -0.04112954 0.03527104
-0.032881755 -1.3705821 0.036810834 0.029686537 0.21282567 -0.18837279 0.44493216 -0.8297282
0.047339965 0.59814465 -0.029196037 -0.04321466 -0.044101045 1.0671704 -0.008186172 -0.0050901445
-0.026670426 0.0029198034 -0.049444698 0.0117263375 -0.036946613 1.719632 -0.08383021 -0.008643901
0.003967487 -1.1103798 0.00049322715 -0.09858328 -0.04461559 -0.058063462 0.026063602 -0.082162045
0.023021705 -0.030731784 -0.0247887 0.04619465 -0.011216948 0.07275913 -0.03493495 0.006054814
0.08730978 -0.0024844608 -0.10623394 -0.016156655 -0.0044249524 0.056619246 0.043670356 0.03959194
-0.028150281 0.02978449 -0.037809093 0.042391352 0.053868894 0.036658335 0.0068512815 -0.002240456
-0.025592484 -0.010599623 0.033250682 -0.07762631 -0.01961479 -0.003365018 -0.03808515 -0.041694306
0.046590336 -0.03219163 0.03091695 -0.021043364 0.011127536 0.09057642 0.044663634 0.0026177054
-0.048501603 -0.035052564 0.04865439 -0.0011547378 -0.07353306 -0.049186073 0.009642388 0.01620442
0.00034880053 0.034741852 -0.006639788 -0.0060643842 -0.09686359 -0.009457324 -0.027542695 0.08941514
00000000: 8661 9cbf 880a 843c 1414 563e d89c d13f
00000010: 66d3 743d e846 cdbb b0e7 bdbd 584d 81bd
00000020: 0880 b0be 7955 033d 1fb8 033e 4438 0c3f
00000030: ea37 bfbf d2e7 493a 44dd 463e a86a ac3f
00000040: 7fba 9f3f 2f07 a3ba 663c 38bd 1e23 1fbf
00000050: fd3d 98bf 5a3b 49bc 7a48 663d f24e 503f
00000060: 4551 acbf f140 4ebb b453 453e 0f96 a23f
00000070: 84d1 213d d972 9d3c 4687 92bd 2ba4 9dbd
00000080: 8848 b8bf ba2f 353d e3d2 b63d 2e99 443f
00000090: 8dc6 283e 31f2 903e a807 e3be 6345 36be
000000a0: 3ffc 883f 233c b4bc afd9 38be f6c9 87bf
000000b0: 7ad9 983f 0f24 61bd 2150 92bd 1728 fcbe
000000c0: b226 57bd 046f d3bc 9c14 c6bc 9af7 8d3d
000000d0: 0a18 b53f 2526 e73c 29a4 4dbe 3985 d2bf
000000e0: 77ff 47bf 06fe 803c 3215 093e e331 913f
000000f0: 7244 c0be 93d4 a4bb 7f73 333e ace0 003f
00000100: 9b89 833e eb41 013d b691 bcbd c6c9 dcbe
00000110: 9415 f2bc 6e7c 303e 1c4a 18bd 0297 b73e
00000120: 1937 9abb 7a84 553d bd93 c2bc 7e3f 8a3b
00000130: aa4f 913d e184 ce3d 7cdc e03d 2719 d840
00000140: e064 063d 6dc8 e23d 6667 f73c 1512 8e3f
00000150: 6f66 b8bd f7d3 dd3d fb6d 3ebc dab5 943f
00000160: 0d0a b4bd 9829 b2bd e29a 463d 165b 87bf
00000170: 5361 b9bd cdde 1abd 70d2 e7bc bf5b 1fbf
00000180: 8f80 a13c c2e0 a8bc 5a03 3f3d e7c9 ec3c
00000190: 9ad3 7e3d 0d32 14be 994e e3bc 42db 87bf
000001a0: 4c46 b6bf 1192 cf3d 1e9f b73d b409 32bf
000001b0: 13a6 71be ef51 2fbe 7a96 ccbc 4888 cfbf
000001c0: 559f 72bd 6306 fd3d cfce 3a3d 3bdd c63f
000001d0: 00d4 8a3c 32f1 633c dbda 1dbd 141a 70ba
000001e0: a0de 05bc 3030 95bd b185 993d 1f32 23bf
000001f0: b3a5 39bd c300 a53d c723 0a3c 6b94 443f
00000200: 9fe2 673d 4c09 053e edaa 003c 8a89 ca40
00000210: 0758 53bc 6992 4ebe a1ac 863d 4129 91c0
00000220: 21db 803c 0cc3 02c0 b149 a53a 3202 e5bd
00000230: 0c1b 783c 7da0 e2bc b1f4 843c f30b d53d
00000240: 0c36 4cbd cd59 ea3c e288 113d 7c17 bfbd
00000250: d173 e8bd 6f85 a7bf 324b b9ba 9f75 ebbc
00000260: 9969 4cbc 833d a33f 9e69 603d 1f5a 0d3c
00000270: fe86 4e3d 4ae2 afbf a4df 0d3d c992 06bc
00000280: f814 9d3d e77d 11c0 4802 cd3c d351 a4bc
00000290: 09dd 60bc c548 6abd 7377 28bd 5e78 103d
000002a0: 05af 06bd 3c6f afbf f5c6 163d 2e31 f33c
000002b0: f9ee 593e cce4 40be 26ce e33e 1169 54bf
000002c0: 8de7 413d 0220 193f 872c efbc db01 31bd
000002d0: 4ca3 34bd 0a99 883f 4b1f 06bc 3acb a6bb
000002e0: f07b dabc 2c5a 3f3b 8686 4abd d31f 403c
000002f0: 5555 17bd e71c dc3f 2caf abbd 269f 0dbc
00000300: b101 823b ed20 8ebf ea4b 013a 08e6 c9bd
00000310: d6be 36bd f4d3 6dbd 5683 d53c 9344 a8bd
00000320: 0498 bc3c 39c1 fbbc ac11 cbbc 9a36 3d3d
00000330: 4ac7 37bc bd02 953d f317 0fbd 7667 c63b
00000340: 78cf b23d 56d2 22bb 2e91 d9bd f65a 84bc
00000350: 31ff 90bb 95e9 673d b0df 323d 282b 223d
00000360: 6b9b e6bc 9afe f33c b5dd 1abd 8ea2 2d3d
00000370: a1a5 5c3d 0d27 163d b780 e03b 9dd4 12bb
00000380: 54a7 d1bc 0baa 2dbc de31 083d 8bfa 9ebd
00000390: 32af a0bc a287 5cbb 2dff 1bbd a6c7 2abd
000003a0: 82d5 3e3d 5fdb 03bd 8b45 fd3c 2263 acbc
000003b0: 4550 363c 2180 b93d 37f1 363d cf8d 2b3b
000003c0: 9ea9 46bd 4793 0fbd d349 473d 925a 97ba
000003d0: 8098 96bd 5677 49bd 1bfb 1d3c 22bf 843c
000003e0: 37df b639 794d 0e3d 9492 d9bb beb7 c6bb
000003f0: 6b60 c6bd e4f2 1abc 38a1 e1bc 491f b73d

encoder.0.0.bias f4 [17]
-0.17783947 0.06356582 0.23125549 -0.017009942 0.41516012 0.07633402 0.09367369 0.005661118
-0.16201213 0.11824982 0.02162894 0.40084675 0.086683534 -0.03478196 -0.29405227 0.04305652
-0.22987524
00000000: 8d1b 36be cc2e 823d 3dce 6c3e 6f58 8bbc
00000010: de8f d43e 0355 9c3d fed7 bf3d e680 b93b
00000020: 82e6 25be f62c f23d 2d2f b13c c93b cd3e
00000030: 2387 b13d 8777 0ebd 058e 96be 095c 303d
00000040: 6a64 6bbe

encoder.0.1.weight f4 [17]
-0.72759956 -0.93096447 0.7007649 -0.005411536 0.874123 -0.0058241636 0.74109447 -0.0005636515
-0.91331464 -1.0268512 0.6280764 1.2126656 0.0014534591 0.88823926 -0.7578816 -0.7823112
-0.8579041
00000000: f743 3abf b053 6ebf 5465 333f 4153 b1bb
00000010: 86c6 5f3f a0d8 bebb 5eb8 3d3f 03c2 13ba
00000020: fdce 69bf dc6f 83bf 9dc9 203f a038 9b3f
00000030: ff81 be3a a663 633f 8704 42bf 8c45 48bf
00000040: 9a9f 5bbf

encoder.0.1.bias f4 [17]
-0.018615771 -0.020564822 -0.005450292 -0.040775217 -0.009731379 -0.09619172 0.005778589 -0.06378797
-0.0017457644 -0.014675117 0.0017754729 0.003793009 -0.014572856 -0.007832651 -0.011076685 0.004615789
-0.017928772
00000000: 1a80 98bc 8f77 a8bc 5d98 b2bb ea03 27bd
00000010: 5d70 1fbc 2a00 c5bd 515a bd3b 44a3 82bd
00000020: 22d2 e4ba e76f 70bc fcb6 e83a 2294 783b
00000030: fdc2 6ebc 8554 00bc fc7a 35bc 0b40 973b
00000040: 5cdf 92bc

encoder.0.1.running_mean f4 [17]
-0.24779427 0.53863966 0.08268615 -0.029278807 0.3908411 0.0841044 0.3599836 -0.006940082
-0.01634283 0.12854066 0.23789184 0.53970194 0.08209484 -0.0024495972 -0.40688047 -0.09332851
-0.0679237
00000000: c8bd 7dbe 4ae4 093f 5b57 a93d 1cda efbc
00000010: 531c c83e ed3e ac3d c54f b83e a169 e3bb
00000020: 66e1 85bc 2aa0 033e eb99 733e e829 0a3f
00000030: 5721 a83d 6c89 20bb a352 d0be 0523 bfbd
00000040: 951b 8bbd

encoder.0.1.running_var f4 [17]
97.30528 208.37381 108.83036 0.05319611 216.73842 0.085540816 219.53625 0.05117367
90.8571 87.808586 102.54173 85.26767 0.039152924 99.89709 92.88118 339.6199
91.428696
00000000: 4e9c c242 b25f 5043 25a9 d942 2ae4 593d
00000010: 09bd 5843 0630 af3d 4889 5b43 7b9b 513d
00000020: d6b6 b542 ff9d af42 5e15 cd42 0c89 aa42
00000030: d15e 203d 4fcb c742 2ac3 b942 59cf a943
00000040: 7edb b642

encoder.1.0.weight f4 [29, 17, 4]
0.9010416 -0.16908567 -0.6922673 -0.33442354 0.36769673 -0.45320794 -0.23918542 1.6733605
-0.00045659146 -1.536259 0.069005094 1.1507287 -0.068113446 -0.015097337 -0.06335266 -0.11893325
-0.10277482 -1.6115388 -0.35542026 1.1093315 0.006778659 0.071086064 -0.001924769 -0.04322776
-0.05428758 -1.3229051 0.03049675 1.1695778 0.043815013 0.07013306 -0.07944381 -0.037134133
0.16496076 -0.28385964 -0.32181948 -0.7614039 -0.23578632 -0.08356911 -0.43449864 -0.55868626
0.030296514 -1.5024191 0.1441917 1.6674601 -0.21651104 -0.12874217 -0.21318832 -0.8100083
0.0288582 0.014837962 -0.019544477 -0.019776119 0.13861541 -0.19748725 -0.52727497 0.5552612
-0.5984595 0.036136527 -0.5077621 -0.48319027 -0.017246235 -1.3184065 0.03516343 0.9565225
-0.48291692 -0.1621222 -0.43374443 -0.22034112 -0.022520438 0.0663612 0.0036460154 0.009001746
-0.009688787 -0.0019491521 0.083231814 0.06886454 0.038352616 0.04707406 -0.08842474 0.031976625
0.030085862 0.046987697 -0.02902254 -0.025664477 -0.0013217067 -0.0433441 -0.017269509 0.025298499
0.036622245 -0.012108226 -0.050637167 -0.0029352705 -0.037348714 -0.06675924 0.021376116 -0.00095321913
0.08143937 -0.11678138 0.040705737 -0.103896074 0.03823631 0.028815622 0.019343425 -0.050005957
0.06784845 -0.10824429 -0.022181742 -0.04697269 -0.1314845 0.022973252 -0.06322315 0.0011623496
0.017853457 -0.16045089 0.03616996 0.039406553 0.011521544 -0.050674565 0.06424647 -0.03229567
-0.05560207 -0.011915544 0.017867975 0.013507955 -0.06912272 -0.029216649 -0.015850991 -0.02095497
-0.044304375 0.021130204 -0.048564658 0.095910594 -0.038530014 0.0009334505 -0.09559221 0.015073503
0.14158894 -0.0010178442 -0.122416936 -0.07329087 0.04413838 -0.049239747 0.058348224 -0.071438126
-0.0036247682 -0.11557296 -0.10194382 -0.0748963 0.097850166 0.12803869 0.0037730555 -0.04231784
0.00018260868 0.00014758465 -0.031112503 -0.055960417 -0.015633604 0.010103611 -0.06336769 -0.02325881
-0.029372783 -0.06371858 -0.043226797 -0.037996978 -0.10326735 0.07116735 0.024427954 -0.025121802
-0.06728951 0.07344821 -0.022699393 -0.054620184 -0.04826873 -0.091006085 -0.057120625 -0.028895106
-0.031645205 -0.09383547 -0.08215543 -0.034487285 0.027773676 0.04039157 -0.110862255 -0.012473433
0.012605785 0.026887437 0.02649754 -0.0042270636 0.054560356 -0.06822806 -0.04760819 -0.05685465
-0.10388793 -0.17390445 -0.058721405 -0.12958361 0.07579194 -0.01886239 -0.13461219 -0.032581557
-0.07140012 0.04707133 -0.06435129 -0.10818521 -0.54933286 -0.012873697 0.16401151 -0.40284434
-0.16174747 0.5872714 -0.07135549 1.4497513 -0.07248305 0.36980104 -0.5509935 -0.30694565
0.00019605496 0.025688255 -0.06788941 0.02047913 0.004728548 0.52357954 -1.0396037 -0.43031678
0.068452284 -0.030537317 -0.03279112 -0.10725389 0.03991781 0.4705627 -1.2635033 -0.49411997
-0.040584058 0.014804876 0.050783176 -0.011891144 -0.57237166 0.16427739 0.36833534 0.06968302
-0.04998507 0.051104262 0.6615458 0.27486712 -0.18655457 0.2672346 -0.8876292 -0.021306034
-0.094795324 0.16833861 1.06783 0.059753247 -0.06610863 -0.009317126 0.038373757 -0.02474034
00000000: aaaa 663f cb24 2dbe 6e38 31bf 9039 abbe
00000010: bf42 bc3e df0a e8be 06ed 74be ad30 d63f
00000020: ab62 efb9 23a4 c4bf 8b52 8d3d 144b 933f
00000030: 107f 8bbd d25a 77bc 0abf 81bd 4793 f3bd
00000040: 9b7b d2bd e746 cebf a5f9 b5be 93fe 8d3f
00000050: 831f de3b 9295 913d 8848 fcba 970f 31bd
00000060: a75c 5ebd f454 a9bf 52d4 f93c bab4 953f
00000070: 5f77 333d eca1 8f3d 70b3 a2bd f619 18bd
00000080: 79eb 283e 0d56 91be 86c5 a4be 5eeb 42bf
00000090: f871 71be 4826 abbd 9b76 debe 1006 0fbf
000000a0: 6530 f83c 454f c0bf fda6 133e 556f d53f
000000b0: 12b5 5dbe fdd4 03be 0a4e 5abe b45c 4fbf
000000c0: 0868 ec3c ec1a 733c bd1b a0bc 8701 a2bc
000000d0: 33f1 0d3e 193a 4abe 7efb 06bf 9925 0e3f
000000e0: a434 19bf e503 143d b2fc 01bf b764 f7be
000000f0: fa47 8dbc 8bc1 a8bf 8707 103d a9de 743f
00000100: e340 f7be 5d03 26be c013 debe 1aa1 61be
00000110: c87c b8bc 61e8 873d fdf1 6e3b 0f7c 133c
00000120: b8bd 1ebc b17a ffba 7175 aa3d da08 8d3d
00000130: a217 1d3d bbd0 403d 0818 b5bd ecf9 023d
00000140: a076 f63c 2c76 403d aec0 edbc 4f3e d2bc
00000150: 1e3d adba 9589 31bd c978 8dbc cc3e cf3c
00000160: 3501 163d 9561 46bc eb68 4fbd ab5d 40bb
00000170: f7fa 18bd 12b9 88bd f71c af3c 74e1 79ba
00000180: afc9 a63d 132b efbd 0fbb 263d 77c7 d4bd
00000190: ad9d 1c3d bd0e ec3c 1a76 9e3c 0cd3 4cbd
000001a0: 21f4 8a3d 2faf ddbd 7cb6 b5bc 6f66 40bd
000001b0: dfa3 06be 6732 bc3c 247b 81bd fb59 983a
000001c0: 6a41 923c 3d4d 24be f426 143d c468 213d
000001d0: dcc4 3c3c 2290 4fbd a793 833d 7748 04bd
000001e0: ffbe 63bd 6a39 43bc dc5f 923c 7850 5d3c
000001f0: 3690 8dbd c157 efbc f0d9 81bc c2a9 abbc
00000200: 8178 35bd 4019 ad3c bceb 46bd c66c c43d
00000210: a6d1 1dbd cdb2 743a d9c5 c3bd dbf6 763c
00000220: b1fc 103e 2f69 85ba bbb5 fabd 8619 96bd
00000230: 72ca 343d 9eaf 49bd 8cfe 6e3d 274e 92bd
00000240: 858d 6dbb 84b1 ecbd ecc7 d0bd 3b63 99bd
00000250: ab65 c83d 931c 033e 5e45 773b 7955 2dbd
00000260: a57a 3f39 f4c0 1a39 a6df febc c036 65bd
00000270: 0b12 80bc 9e89 253c ebc6 81bd 4389 bebc
00000280: 319f f0bc e37e 82bd 950e 31bd b8a2 1bbd
00000290: d57d d3bd 30c0 913d 221d c83c 3dcc cdbc
000002a0: 15cf 89bd 046c 963d 14f4 b9bc 6ab9 5fbd
000002b0: 6fb5 45bd 6661 babd 51f7 69bd 6eb5 ecbc
000002c0: 679e 01bd d02c c0bd 1b41 a8bd 8a42 0dbd
000002d0: 9f85 e33c a271 253d c00b e3bd 5f5d 4cbc
000002e0: 7f88 4e3c 0b43 dc3c 5e11 d93c 2e83 8abb
000002f0: ae7a 5f3d 27bb 8bbd ce00 43bd 6ce0 68bd
00000300: 32c3 d4bd 0214 32be db85 70bd 91b1 04be
00000310: ce38 9b3d 4d85 9abc c7d7 09be 3d74 05bd
00000320: 3a3a 92bd decd 403d 9cca 83bd 3590 ddbd
00000330: 14a1 0cbf 33ec 52bc a2f2 273e 9d41 cebe
00000340: 21a1 25be 6b57 163f d422 92bd 7391 b93f
00000350: fe71 94bd 9056 bd3e e90d 0dbf fb27 9dbe
00000360: 1a94 4d39 2d70 d23c 9a09 8bbd d9c3 a73c
00000370: f0f1 9a3b 4f09 063f bc11 85bf 7b52 dcbe
00000380: b630 8c3d 6529 fabc fb4f 06bd eda7 dbbd
00000390: dc80 233d 98ed f03e 7aba a1bf 4bfd fcbe
000003a0: 783b 26bd 2790 723c 0502 503d 13d3 42bc
000003b0: f386 12bf 5538 283e 7396 bc3e f9b5 8e3d
000003c0: 25bd 4cbd b452 513d 115b 293f 62bb 8c3e
000003d0: 2908 3fbe f9d2 883e ab3b 63bf fe89 aebc
000003e0: 0d24 c2bd f560 2c3e a7ae 883f d2bf 743d
000003f0: f663 87bd dca6 18bc cd2d 1d3d 41ac cabc

encoder.1.0.bias f4 [29]
-0.03845437 -0.025211489 0.020768734 -0.25677055 -0.061726816 0.05607049 -0.0129120825 -0.29995987
0.13254184 -0.041662075 0.11946088 -0.17665245 -0.01775239 0.31891623 -0.051940214 0.14875203
-0.26975343 0.037669767 -0.055583633 -0.005142697 -0.010095365 0.083719164 -0.04846355 -0.02408026
0.039289787 0.16535999 -0.23843762 -0.09593281 0.19176565
00000000: 5482 1dbd 5388 cebc 3123 aa3c 6e77 83be
00000010: 42d5 7cbd 2caa 653d 338d 53bc 5794 99be
00000020: 0cb9 073e daa5 2abd e8a7 f43d 61e4 34be
00000030: 766d 91bc fd48 a33e 43bf 54bd 7452 183e
00000040: 1f1d 8abe 9d4b 1a3d aaab 63bd 1284 a8bb
00000050: 0867 25bc f474 ab3d b781 46bd f743 c5bc
00000060: 54ee 203d 2154 293e fe28 74be 6c78 c4bd
00000070: 375e 443e

encoder.1.1.weight f4 [29]
0.4835746 0.0043452163 0.03111192 -0.30496225 -0.70663273 0.29047716 -0.005514731 0.9366221
0.8051635 -0.0043069394 0.41068086 -0.3998874 0.00017957865 0.8171384 0.38718328 0.58304024
-1.212087 0.95678806 0.009057776 0.013905512 0.0070744082 0.46691284 0.4144854 0.80383337
0.018736571 -0.33761358 -0.29787123 0.0026021095 0.5203813
00000000: 1797 f73e 5162 8e3b 6dde fe3c 0324 9cbe
00000010: e2e5 34bf 6cb9 943e ebb4 b4bb 77c6 6f3f
00000020: 321f 4e3f 3a21 8dbb c344 d23e 0bbe ccbe
00000030: 474d 3c39 fb2f 513f e33c c63e 2042 153f
00000040: ab25 9bbf 10f0 743f 1167 143c f2d3 633c
00000050: 70d0 e73b 330f ef3e 6e37 d43e 06c8 4d3f
00000060: 707d 993c b0db acbe 9482 98be 2788 2a3b
00000070: b537 053f

encoder.1.1.bias f4 [29]
-0.23727301 -0.072225265 -0.13325866 -0.0655314 -0.30393878 1.2262925 -0.025698783 -0.76686466
-0.18640998 -0.08660498 -0.16896996 0.044125162 -0.041778065 -0.49360725 0.22594605 -0.022279777
-0.25546777 -0.8080609 -0.09417142 -0.12329314 -0.050891098 -0.14486696 -0.22957729 -0.21828102
-0.13248336 0.18656802 -0.20158833 -0.057787918 -0.12849838
00000000: b2f7 72be d7ea 93bd f574 08be 5435 86bd
00000010: dd9d 9bbe 27f7 9c3f 4186 d2bc 3e51 44bf
00000020: 42e2 3ebe f45d b1bd 7606 2dbe 96bc 343d
00000030: 7a1f 2bbd 17ba fcbe 675e 673e 1484 b6bc
00000040: accc 82be 14dd 4ebf f2dc c0bd 1d81 fcbd
00000050: 2f73 50bd 0158 14be 4f16 6bbe 0f85 5fbe
00000060: b8a9 07be b00b 3f3e 2c6d 4ebe 06b3 6cbd
00000070: 1495 03be

encoder.1.1.running_mean f4 [29]
-3.494713 -0.20119835 -0.42022276 0.096507736 3.147473 3.7978222 0.2589913 -4.214353
-3.8956268 -0.043238416 -0.7693977 -0.040734906 -0.11025956 -4.0247307 1.0220946 1.1567334
1.6552198 -4.3102536 -0.04903359 -0.08071081 0.008853616 -3.2850604 -3.0008032 -2.2047079
-0.20518151 2.5007677 2.7523272 -0.23567669 -3.2845109
00000000: 61a9 5fc0 f106 4ebe 7027 d7be d9a5 c53d
00000010: 3370 4940 850f 7340 829a 843e fbdb 86c0
00000020: f351 79c0 c41a 31bd 3ff7 44bf a5d9 26bd
00000030: c4cf e1bd 98ca 80c0 ffd3 823f d70f 943f
00000040: 3ede d33f 99ed 89c0 72d7 48bd b64b a5bd
00000050: c20e 113c 6e3e 52c0 290d 40c0 ef19 0dc0
00000060: 1a1b 52be 940c 2040 2126 3040 3b55 71be
00000070: 6d35 52c0

encoder.1.1.running_var f4 [29]
4.2744827 0.05827158 0.09593032 3.130396 4.313366 4.098913 0.41991052 7.6842318
13.726262 0.042887513 2.3693972 3.7991064 0.035811022 5.6195908 3.070323 3.4854286
6.580998 5.693802 0.024623167 0.0216763 0.028004028 7.9226646 3.803063 9.372046
0.039373342 3.8958287 11.538982 0.17021702 4.9572124
00000000: 90c8 8840 2eae 6e3d 1e77 c43d 6858 4840
00000010: 1807 8a40 4c2a 8340 83fe d63e 3ae5 f540
00000020: c59e 5b41 d1aa 2f3d 34a4 1740 8f24 7340
00000030: 94ae 123d b0d3 b340 2c80 4440 4311 5f40
00000040: 8997 d240 a033 b640 86b6 c93c 7f92 b13c
00000050: b468 e53c 7886 fd40 6265 7340 e7f3 1541
00000060: f145 213d 4255 7940 ac9f 3841 5f4d 2e3e
00000070: 7ca1 9e40

encoder.2.0.weight f4 [52, 29, 4]
-0.008143019 0.022407122 1.5817376 0.06679054 -0.035739597 0.030379597 -0.00039132094 -0.035826314
0.022336122 -0.002040439 -0.0022212917 0.05854094 -0.029687589 0.38145623 1.1619906 0.010201825
-0.012271462 0.10515453 0.19652393 0.060268965 -0.056502905 -0.124745294 -0.63650197 0.05388492
-0.006696423 -0.024556682 -0.041428927 -0.14292154 -0.039525744 -0.42300817 0.6373699 0.059194695
-0.034847613 -0.06293496 -0.93345046 0.045712426 0.02165721 0.048898585 -0.073828585 0.0024509826
0.059484202 0.40364546 -0.17297833 -0.045789015 0.07797141 -0.17123626 0.07099335 0.016151348
-0.051535632 -0.018223565 0.12303386 0.0050745117 -0.0582272 -0.5027863 -0.099689834 0.024282454
0.056613863 0.6794795 0.35549754 0.030080995 -0.13203965 0.28828338 -0.081733294 0.016750794
0.05027349 -0.42649606 0.10443429 -0.035685506 0.036952112 -0.06854534 0.08685485 -0.07788615
-0.0010103186 5.5091117e-05 0.041096162 0.061321866 -0.13688764 -0.033658523 0.07222454 -0.026229432
-0.06211562 -0.023061622 -0.036959615 0.015469386 0.06811519 0.18285178 0.16288406 0.0052508386
-0.011256977 0.3546246 0.42212573 -0.046522956 0.02838016 0.88061976 -0.34132192 -0.011448919
-0.058049764 0.077151194 -0.033184532 0.06564542 0.04298465 -0.3812748 -0.5072255 0.007946072
0.038313083 -0.346213 0.33804432 -0.025496682 -0.06520207 -0.048446115 -0.004218423 -0.068802476
0.10059003 -1.413276 -0.625381 -0.07974608 -0.084364824 0.4083832 0.14819899 -0.093787454
0.028569058 0.025307147 0.0995063 0.032578923 0.0016005862 0.12967856 0.04547983 0.043453578
0.006630473 -0.045671545 0.07687453 -0.095249034 -0.059688967 0.92001504 0.1353251 0.0132082105
-0.09705643 0.1328014 0.057438284 0.06181364 -0.038765416 -0.061377387 0.001983027 0.011798532
-0.029717652 -0.62355447 -0.26920465 -0.02878501 0.02492969 -0.29060584 -0.24694264 0.093702175
0.053736854 0.09580054 0.083504125 -0.040289406 0.056200534 -0.29577237 0.10602416 0.051049914
-0.086286016 -0.3917068 -0.015008231 -0.024331974 0.09686936 -0.062146988 -0.046687003 0.0044792197
0.02765404 0.620966 -0.05712046 -0.03903535 0.027218139 0.032965694 -0.33875993 0.04524482
-0.05693834 -0.20110694 -0.46188498 -0.048669096 0.013523998 -0.14040102 -0.20027013 -0.051051527
-0.012457433 0.0359216 0.16379426 -0.103268504 -0.025694225 0.014768731 -0.054537024 0.06798393
0.008602646 0.010329726 0.01982522 -0.019787064 -0.014544978 0.039836604 0.023670478 -0.023074726
0.014826004 -0.039310746 -0.21962292 -0.021739675 0.012905173 -0.22488213 -0.039821565 -0.016729904
-0.03755006 0.3219118 0.6814955 0.040092807 -0.033287898 0.053440306 -0.01902978 0.036456488
-0.0004205707 0.17486182 -0.052922904 -0.044967398 0.05308038 -0.18380746 0.3414811 -0.01315372
-0.03623424 0.011741951 0.09410913 0.008845541 0.027694423 -0.12987643 -0.7138556 -0.035018
0.050819773 -0.8141105 -0.06311724 0.0015940523 -0.026122823 0.097560816 0.01955155 0.041034084
-0.0118406555 0.08538649 -0.034397423 0.012053924 0.055477172 -0.21283981 0.47378725 0.01445213
-0.044544037 0.8016856 0.34486073 -0.039644115 -0.004141293 0.13359015 0.60040975 0.025433604
00000000: 4c6a 05bc 248f b73c 6176 ca3f 7bc9 883d
00000010: af63 12bd a2de f83c 352a cdb9 9dbe 12bd
00000020: 3efa b63c e3b8 05bb 1793 11bb a0c8 6f3d
00000030: 6333 f3bc 3b4e c33e 1cbc 943f 8e25 273c
00000040: 3e0e 49bc 425b d73d 923d 493e 97dc 763d
00000050: 976f 67bd 767a ffbd cbf1 22bf 6fb6 5c3d
00000060: ab6d dbbb 182b c9bc 61b1 29bd 065a 12be
00000070: bfe5 21bd 8794 d8be ac2a 233f 2376 723d
00000080: 5fbc 0ebd 0be4 80bd 9cf6 6ebf f43c 3b3d
00000090: 766a b13c e249 483d 7133 97bd aaa0 203b
000000a0: b5a5 733d 9eaa ce3e 3b21 31be 438d 3bbd
000000b0: 79af 9f3d 8f58 2fbe f664 913d d54f 843c
000000c0: 0717 53bd 9649 95bc 2df9 fb3d 1748 a63b
000000d0: a57f 6ebd 9ab6 00bf 2f2a ccbd ffeb c63c
000000e0: f0e3 673d 5ef2 2d3f c603 b63e 6b6c f63c
000000f0: 6735 07be e199 933e c963 a7bd f638 893c
00000100: 93eb 4d3d b15d dabe a5e1 d53d f72a 12bd
00000110: 195b 173d 8061 8cbd f5e0 b13d c682 9fbd
00000120: ab6c 84ba a311 6738 7354 283d a32c 7b3d
00000130: 462c 0cbe 85dd 09bd 76ea 933d 1bdf d6bc
00000140: f36c 7ebd baeb bcbc f762 17bd 4f73 7d3c
00000150: fa7f 8b3d 7f3d 3b3e 14cb 263e 3a0f ac3b
00000160: 2f6f 38bc 5b91 b53e dd20 d83e db8e 3ebd
00000170: 827d e83c 4c70 613f bfc1 aebe 3f94 3bbc
00000180: 97c5 6dbd 7201 9e3d 81ec 07bd 1b71 863d
00000190: ac10 303d 7336 c3be 88d9 01bf 3e30 023c
000001a0: 2eee 1c3d d542 b1be 2514 ad3e 6bde d0bc
000001b0: aa88 85bd 6f6f 46bd b23a 8abb 50e8 8cbd
000001c0: 2502 ce3d 3ae6 b4bf f818 20bf ea51 a3bd
000001d0: 77c7 acbd 9a17 d13e 7ac1 173e a313 c0bd
000001e0: a809 ea3c ef50 cf3c f6c9 cb3d 7a71 053d
000001f0: c3ca d13a 75ca 043e 0f49 3a3d 61fc 313d
00000200: 7044 d93b 1612 3bbd 6570 9d3d ed11 c3bd
00000210: 6b7c 74bd 1b86 6b3f aa92 0a3e 4067 583c
00000220: 86c5 c6bd 17fd 073e 6844 6b3d 4d30 7d3d
00000230: 7cc8 1ebd db66 7bbd acf5 013b a14e 413c
00000240: 6f72 f3bc 44a1 1fbf 31d5 89be 8bce ebbc
00000250: 5939 cc3c 4aca 94be 88de 7cbe ede6 bf3d
00000260: 2d1b 5c3d 1333 c43d 3604 ab3d 8106 25bd
00000270: 8832 663d 7a6f 97be 3223 d93d b719 513d
00000280: b9b6 b0bd cb8d c8be 15e5 75bc d953 c7bc
00000290: 7163 c63d d78d 7ebd df3a 3fbd 6bc6 923b
000002a0: ba8a e23c a1f7 1e3f 25f7 69bd 88e3 1fbd
000002b0: 93f8 de3c 0907 073d f171 adbe a252 393d
000002c0: 2d38 69bd faee 4dbe 307c ecbe 3f59 47bd
000002d0: c293 5d3c 49c5 0fbe 9d13 4dbe 681b 51bd
000002e0: 431a 4cbc 8722 133d afb9 273e 707e d3bd
000002f0: b27c d2bc 8cf8 713c 3762 5fbd 293b 8b3d
00000300: 1df2 0c3c 033e 293c 8068 a23c 7b18 a2bc
00000310: 0f4e 6ebc b52b 233d 97e8 c13c 3507 bdbc
00000320: c5e8 723c 4e04 21bd d5e4 60be 6717 b2bc
00000330: 3870 533c 8047 66be f01b 23bd 270d 89bc
00000340: 17ce 19bd a0d1 a43e 7d76 2e3f 5b38 243d
00000350: e458 08bd 39e4 5a3d 57e4 9bbc 6653 153d
00000360: 0b80 dcb9 fa0e 333e b0c5 58bd bc2f 38bd
00000370: d06a 593d 0638 3cbe 9cd6 ae3e b382 57bc
00000380: 5b6a 14bd 5061 403c 4abc c03d e3ec 103c
00000390: 6adf e23c 54fe 04be 3ebf 36bf 096f 0fbd
000003a0: 6528 503d 8c69 50bf 9d43 81bd 85ef d03a
000003b0: 88ff d5bc f7cd c73d 922a a03c 5b13 283d
000003c0: 4fff 41bc 1ddf ae3d 50e4 0cbd d27d 453c
000003d0: 083c 633d aef2 59be 3e94 f23e a0c8 6c3c
000003e0: cf73 36bd 443b 4d3f 9691 b03e de61 22bd
000003f0: afb3 87bb dbcb 083e 74b4 193f 225a d03c

encoder.2.0.bias f4 [52]
0.13435331 0.011008492 0.040916484 -0.41458002 -0.20783642 -0.19148855 -0.11432141 -0.0023471978
-0.5281547 -0.0034507199 -0.107107066 -0.014255282 0.012364444 0.29153803 -0.25036764 -0.20493624
0.05680167 0.046808984 -0.02713648 0.12689742 0.14389937 -0.035453726 -0.6615659 -0.050913647
0.39936367 0.034674216 -0.10273386 0.0670351 -0.025123112 -0.053250335 -0.09697328 0.061297007
0.04664031 -0.3589689 0.05276419 -0.10020959 -0.36127624 0.42745912 -0.1406899 -0.26409274
-0.16153333 -0.6304858 0.011482483 0.27824065 0.17789921 -0.08954654 -0.08532931 -0.42685065
-0.015768299 0.00474092 -0.0070706173 0.01721356
00000000: ea93 093e f65c 343c 0b98 273d d543 d4be
00000010: 12d3 54be 9315 44be 5821 eabd 72d3 19bb
00000020: 2535 07bf 7925 62bb f35a dbbd fc8e 69bc
00000030: 3d94 4a3c 7944 953e 3030 80be ceda 51be
00000040: dea8 683d c7ba 3f3d 534d debc 66f1 013e
00000050: 5b5a 133e ed37 11bd 625c 29bf d48a 50bd
00000060: 6579 cc3e 8d06 0e3d 2166 d2bd b349 893d
00000070: fcce cdbc 061d 5abd ed99 c6bd 9212 7b3d
00000080: e909 3f3d c6ca b7be 431f 583d af3a cdbd
00000090: 33f9 b8be ecdb da3e 0311 10be 2a37 87be
000000a0: fe68 25be 8467 21bf 0621 3c3c 8f75 8e3e
000000b0: 362b 363e 2d64 b7bd 22c1 aebd 2b8c dabe
000000c0: 852c 81bc b859 9b3b a3b0 e7bb 7403 8d3c

encoder.2.1.weight f4 [52]
-0.36032706 0.0005132863 -0.3842645 0.63572425 0.30022362 -0.20201498 0.12532683 0.17339592
-0.3611972 0.36530098 -0.54798216 -0.0036737483 0.015913686 0.38614252 0.69629025 -0.20138685
-0.009391622 -8.689906e-05 -0.60611343 0.19526066 -0.27704614 -0.003029996 0.32829282 0.11797312
-0.39285785 -0.0052238214 -0.00018186848 0.00473085 0.013089338 -0.095970415 -0.012082465 -0.00063986
-0.008349576 -0.46577832 0.0021257817 0.5947983 0.4225524 0.18572536 -0.2579082 -0.46505117
0.596983 0.7539809 -0.0011641667 0.34821227 0.3701173 -0.14354727 0.2010026 -0.1481239
0.006482698 0.19693694 0.21959928 -0.010224154
00000000: ca7c b8be 0f8e 063a 51be c4be d3be 223f
00000010: e9b6 993e 04dd 4ebe ad55 003e b38e 313e
00000020: d7ee b8be bb08 bb3e 8f48 0cbf 45c3 70bb
00000030: 6b5d 823c 79b4 c53e 1440 323f 5b38 4ebe
00000040: 51df 19bc 943d b6b8 402a 1bbf 69f2 473e
00000050: fed8 8dbe e692 46bb ff15 a83e e49b f13d
00000060: aa24 c9be 972c abbb f3b3 3eb9 3f05 9b3b
00000070: aa74 563c 238c c4bd 88f5 45bc 47bc 27ba
00000080: a9cc 08bc 7f7a eebe b350 0b3b b444 183f
00000090: ca58 d83e ca2e 3e3e 8b0c 84be 301b eebe
000000a0: e1d3 183f e404 413f f496 98ba e148 b23e
000000b0: 0480 bd3e 0efe 12be a0d3 4d3e cbad 17be
000000c0: d06c d43b d6a9 493e a2de 603e 3683 27bc

encoder.2.1.bias f4 [52]
-0.198319 -0.0022640391 -0.16614571 -0.22279452 0.21260126 0.41245404 0.17040056 0.13222247
-0.0077053364 -0.0859487 -0.5545138 -0.04011006 -0.08748618 -0.53877634 -0.44179666 0.16521116
-0.06299056 -0.007374778 -0.3980004 0.40676716 0.24356206 -0.1055676 0.055900708 0.14037192
-0.6813034 -0.066654846 -0.00086747017 -0.031532653 -0.07414777 0.13286857 -0.056604624 -0.02630783
-0.09843462 -0.00075149786 -0.06347097 -0.09641019 0.044818483 0.2878411 0.0777846 -0.13468525
0.21550956 -0.44413474 -0.017290382 0.12525137 0.15443183 0.060694367 0.32071373 0.07909867
-0.15397355 0.18656671 0.06979153 -0.04603326
00000000: 2314 4bbe 4660 14bb 1a22 2abe 3f24 64be
00000010: 25b4 593e 2d2d d33e 7c7d 2e3e 5465 073e
00000020: 0c7d fcbb df05 b0bd 9ef4 0dbf 724a 24bd
00000030: f42b b3bd 3fed 09bf 2c33 e2be 1d2d 293e
00000040: 3201 81bd 1fa8 f1bb b5c6 cbbe c943 d03e
00000050: 5568 793e d333 d8bd 24f8 643d a8bd 0f3e
00000060: e669 2ebf 5682 88bd f066 63ba 6228 01bd
00000070: c9da 97bd b30e 083e 40da 67bd 8583 d7bc
00000080: 1798 c9bd 2b00 45ba 11fd 81bd b572 c5bd
00000090: 9693 373d e95f 933e 884d 9f3d eeea 09be
000000a0: 8aae 5c3e a165 e3be 8fa4 8dbc e541 003e
000000b0: 6123 1e3e a89a 783d 9734 a43e 7cfe a13d
000000c0: 3eab 1dbe 580b 3f3e ddee 8e3d 5f8d 3cbd

encoder.2.1.running_mean f4 [52]
-0.5724582 -0.14176781 0.7301567 -0.29167876 -1.5803769 -0.8240293 -1.0707 0.5544953
-1.8965079 0.63738865 0.1688097 0.53142506 -0.08916211 -1.7502067 -1.9854718 -1.402429
-0.22209118 -0.15718183 1.0408275 2.7923021 2.6746314 -0.14585176 -0.9285265 -1.440212
1.049467 0.16993406 -0.3299087 -0.09889176 -0.070169844 0.41377443 0.2787846 0.2991995
0.18242607 -0.20719716 0.09611834 -1.3049277 -0.26315615 2.1875286 -0.79460007 -0.04938122
0.4063873 -1.2036678 -0.17796226 -1.0591288 -1.1452441 -0.43841293 -1.1747872 -2.3407397
0.007819524 -0.9667025 2.4332864 0.66414994
00000000: 9f8c 12bf 952b 11be 8deb 3a3f eb56 95be
00000010: ca49 cabf 96f3 52bf b30c 89bf 67f3 0d3f
00000020: c5c0 f2bf e72b 233f 73dc 2c3e 790b 083f
00000030: a09a b6bd c606 e0bf f123 febf cb82 b3bf
00000040: df6b 63be 46f4 20be d639 853f 14b5 3240
00000050: 292d 2b40 2a5a 15be eab3 6dbf de58 b8bf
00000060: ef54 863f 3203 2e3e cbe9 a8be c387 cabd
00000070: 35b5 8fbd 3eda d33e dbbc 8e3e ad30 993e
00000080: e6cd 3a3e 7e2b 54be b1d9 c43d df07 a7bf
00000090: 67bc 86be 7800 0c40 e96a 4bbf f643 4abd
000000a0: ff11 d03e c911 9abf bd3b 36be 8891 87bf
000000b0: 5c97 92bf a977 e0be 6d5f 96bf aece 15c0
000000c0: 761d 003c d179 77bf f7ba 1b40 bb05 2a3f

encoder.2.1.running_var f4 [52]
0.36873454 0.2628835 0.67833036 1.2108849 0.81382585 0.65959424 0.54178864 0.96809816
0.41072312 0.39695716 1.2249627 0.18378335 0.004070195 0.13810545 0.39858887 1.1545428
0.014665284 0.20957494 0.75986725 1.4108297 2.723995 0.0057583177 0.519719 0.31390333
0.18487836 0.011041215 0.21118349 0.08795497 0.0026398366 0.5370058 0.1631755 0.0051157544
0.0079489555 1.1004125 0.002535403 1.9397161 0.93594486 0.37820244 1.0149841 2.0964713
1.0852162 1.9479805 0.0015058244 1.7171067 2.4038212 1.1490668 0.9507076 0.34786826
0.012990105 0.8593365 1.0868777 0.079869926
00000000: c6ca bc3e ab98 863e 0fa7 2d3f 47fe 9a3f
00000010: e456 503f 2bdb 283f a9b2 0a3f 48d5 773f
00000020: 4d4a d23e f83d cb3e 94cb 9c3f b431 3c3e
00000030: 455f 853b 846b 0d3e d713 cc3e 0fc8 933f
00000040: a946 703c d09a 563e a986 423f 1196 b43f
00000050: ef55 2e40 45b0 bc3b 4e0c 053f f0b7 a03e
00000060: c150 3d3e 36e6 343c 7c40 583e bc21 b43d
00000070: 1c01 2d3b 3679 093f 7a17 273e 0fa2 a73b
00000080: 563c 023c 51da 8c3f 0129 263b 9e48 f83f
00000090: 159a 6f3f c0a3 c13e 00eb 813f 962c 0640
000000a0: 5de8 8a3f 6d57 f93f 155f c53a 27ca db3f
000000b0: 35d8 1940 9f14 933f 9361 733f ca1b b23e
000000c0: 73d4 543c 7afd 5b3f cf1e 8b3f d892 a33d

decoder_input.weight f4 [52, 16]
0.041532632 -0.0067674797 0.04878206 -0.011669453 0.007985459 -0.03948079 -0.0018269834 -0.3183494
-0.045064643 0.0027861805 0.06944742 1.7356085 -0.018941784 -0.012343074 -0.02243423 -0.027013157
-0.03859616 -0.031427734 0.0049731364 0.020537212 -0.008278573 -0.014104832 -0.02105133 -3.694687
0.032336786 -0.011262812 0.009872187 -0.42301083 0.0099419 -0.009703899 0.019056724 -0.024179805
-0.0028110824 -0.05193033 -0.008958964 0.015871415 -0.016875785 -0.0033790462 0.018916784 0.26919624
0.0017498166 0.02030433 0.01405676 -1.4721476 0.009391819 -0.0021275904 -0.009499063 0.012721413
0.02449254 0.03129492 -0.009155737 0.005904596 0.010946121 -0.008883561 -0.045008253 0.35573256
-0.048867255 -0.019833094 0.019955121 -2.0319386 -0.02676288 -0.0072032274 -0.03764219 0.02889058
-0.0044138255 0.037211243 0.018155875 0.01306535 0.011191363 -0.012247017 0.019944854 2.4063191
-0.001451412 0.0007721562 0.0117789 0.018172812 0.0033979837 -0.011443484 -0.0027460845 -0.018626072
-0.049539745 0.0072608492 0.0053784302 0.014527177 -0.030457353 0.0049108057 0.019217046 3.920886
0.011009399 -0.03530665 0.014352053 0.46270877 -0.009921024 -0.011962285 0.009803172 0.045587078
0.0045881537 0.025775813 -0.013723249 0.0022726753 0.022027105 -0.022961104 -0.014867688 0.4192333
-0.024878474 -0.002228728 -0.02098615 -0.9098682 -0.022743057 0.026513929 -0.00029919538 0.0426349
-0.00783208 0.05821913 -0.029451856 0.0200955 0.026264906 -0.007599338 0.015544547 -0.11049859
0.017370984 -0.015199322 -0.071084045 1.5541279 0.01843006 0.046221897 0.040248733 0.06084951
0.02477192 0.022483138 -0.022509862 -0.0045349984 -0.00785338 0.0054301503 -0.00998291 0.27366853
0.0002860699 -0.007288028 -0.02964257 -1.1864014 0.007757922 0.0045273374 -0.0016525532 0.03772116
-0.013663474 -0.021815483 -0.024562102 -0.00764922 -0.02778705 -0.014807242 -0.005655443 -2.6012895
-0.004096468 -0.005727468 -0.038824253 -0.1530386 -0.0063254135 0.010720623 -0.0032926814 0.02397734
0.017968666 0.03014484 -0.0054921517 -0.014240763 -0.0118912095 -0.018491011 -0.012688355 0.34979805
-0.0041352324 -0.026751427 0.0003096504 -1.1250331 0.0025124406 0.013790518 0.006507375 0.018462563
-0.0023351219 -0.010264911 0.01593034 0.008795836 -0.013115778 0.03171221 0.03368371 0.4177456
0.023483872 -0.008559907 -0.039498337 -1.7203821 0.017128149 0.024639307 0.0401225 0.03232491
-0.009655774 -0.03558757 0.027646115 -0.034811005 -0.004910599 -0.03133266 -0.056861848 -0.2057553
0.015245276 -0.017733345 -0.019394122 1.9826101 -0.0313935 0.033947002 0.07362624 0.025981141
0.01702409 0.01799233 0.0059380676 -0.011536721 0.025157055 0.0036693001 -0.023813277 0.43279082
-0.018033423 -0.033707216 -0.014364009 -0.902387 -0.03143783 -0.0059611276 -0.014828736 0.022653896
0.00904951 -0.0014972072 -0.031922527 0.014927259 -0.015121239 -0.0045390273 0.017854225 0.29354146
0.002383872 -0.0019164477 0.021710262 -1.1818708 0.0060043335 0.015575577 -0.014166182 -0.005502029
0.009407818 0.018642176 0.037426893 -0.017108228 0.022888148 -0.027798394 0.0057056965 -3.7913997
0.014348903 -0.025930842 -0.0146154165 -0.43054232 -0.04743594 -0.013123528 -0.027973752 -0.029246047
00000000: 1f1e 2a3d bcc1 ddbb b3cf 473d 3c31 3fbc
00000010: 71d5 023c 9cb6 21bd 6477 efba b1fe a2be
00000020: b495 38bd 5a98 363b 733a 8e3d 6b28 de3f
00000030: cd2b 9bbc 9b3a 4abc fec7 b7bc b24a ddbc
00000040: 0217 1ebd 5eba 00bd b1f5 a23b a83d a83c
00000050: daa2 07bc f417 67bc d773 acbc c075 6cc0
00000060: 9473 043d a887 38bc f4be 213c e094 d8be
00000070: 5ae3 223c 1afd 1ebc d91c 9c3c ba14 c6bc
00000080: 233a 38bb e6b4 54bd 9ec8 12bc c504 823c
00000090: 163f 8abc fd72 5dbb 5ff7 9a3c 17d4 893e
000000a0: 1a5a e53a 4455 a63c 534e 663c 556f bcbf
000000b0: 25e0 193c 0b6f 0bbb f5a1 1bbc 796d 503c
000000c0: 94a4 c83c 1a2f 003d f201 16bc 577b c13b
000000d0: 5c57 333c 5b8c 11bc 935a 38bd 9422 b63e
000000e0: 0829 48bd 0379 a2bc ec78 a33c 480b 02c0
000000f0: d43d dbbc 0d09 ecbb b22e 1abd f0ab ec3c
00000100: daa1 90bb d16a 183d a1bb 943c 0d10 563c
00000110: fb5b 373c b6a7 48bc 6463 a33c 2201 1a40
00000120: 4e3d beba 876a 4a3a 4afc 403c 26df 943c
00000130: b5b0 5e3b 737d 3bbc a7f7 33bb b495 98bc
00000140: 30ea 4abd 6bec ed3b 8b3d b03b 6603 6e3c
00000150: b381 f9bc d3ea a03b 116d 9d3c ccef 7a40
00000160: c460 343c b59d 10bd e024 6b3c 2ae8 ec3e
00000170: ca8b 22bc 76fd 43bc 7c9d 203c 84b9 3a3d
00000180: 3958 963b cc27 d33c 7ad7 60bc 2af1 143b
00000190: 3072 b43c ed18 bcbc 9a97 73bc bfa5 d63e
000001a0: f1cd cbbc da0f 12bb 25eb abbc 1fed 68bf
000001b0: a64f babc bd33 d93c 53dd 9cb9 efa1 2e3d
000001c0: 2052 00bc 2f77 6e3d 0545 f1bc 519f a43c
000001d0: 8029 d73c de03 f9bb 8eae 7e3c 164d e2bd
000001e0: 984d 8e3c 9406 79bc 8394 91bd aaed c63f
000001f0: a3fa 963c 2c53 3d3d dbdb 243d 563d 793d
00000200: 7bee ca3c 8f2e b83c 9a66 b8bc 539a 94bb
00000210: 77ab 00bc 67ef b13b 5c8f 23bc 481e 8c3e
00000220: a7fb 9539 69d0 eebb fad4 f2bc 00dc 97bf
00000230: 2b36 fe3b 0f5a 943b 7c9a d8ba 8181 1a3d
00000240: c3dc 5fbc 62b6 b2bc 7636 c9bc 4fa6 fabb
00000250: aba1 e3bc 139a 72bc 4b51 b9bb 877b 26c0
00000260: aa3b 86bb 7cad bbbb 2e06 1fbd 27b6 1cbe
00000270: 6a45 cfbb 8da5 2f3c 07ca 57bb 206c c43c
00000280: 0633 933c 50f2 f63c 82f7 b3bb 1752 69bc
00000290: 59d3 42bc 767a 97bc d1e2 4fbc bb18 b33e
000002a0: d880 87bb cf25 dbbc 9358 a239 1601 90bf
000002b0: c2a7 243b a0f1 613c d13b d53b cd3e 973c
000002c0: d808 19bb 282e 28bc 5880 823c 691c 103c
000002d0: 8fe3 56bc aae4 013d eef7 093d c0e2 d53e
000002e0: 4061 c03c da3e 0cbc 02c9 21bd 7b35 dcbf
000002f0: 5550 8c3c 5fd8 c93c 7e57 243d 2067 043d
00000300: 4033 1ebc 46c4 11bd 1b7a e23c fc95 0ebd
00000310: 17e9 a0bb ad56 00bd f8e7 68bd 84b1 52be
00000320: 52c7 793c 8545 91bc 6ce0 9ebc 2bc6 fd3f
00000330: 7896 00bd 030c 0b3d 5bc9 963d 67d6 d43c
00000340: 1b76 8b3c a764 933c 1f94 c23b 8404 3dbc
00000350: 2b16 ce3c a478 703b 1014 c3bc c296 dd3e
00000360: d4ba 93bc 9410 0abd 0557 6bbc d602 67bf
00000370: f4c4 00bd 9055 c3bb 3af4 72bc aa94 b93c
00000380: 6544 143c f03d c4ba 32c1 02bd 7691 743c
00000390: 13bf 77bc 1fbc 94bb 0643 923c 114b 963e
000003a0: bc3a 1c3b 5031 fbba b8d9 b13c 8b47 97bf
000003b0: 00c0 c43b b430 7f3c 4619 68bc 5d4a b4bb
000003c0: 4023 1a3c 7ab7 983c f14c 193d 8e26 8cbc
000003d0: ed7f bb3c 75b9 e3bc daf6 ba3b 4ba6 72c0
000003e0: a917 6b3c eb6c d4bc 8075 6fbc 0b70 dcbe
000003f0: 304c 42bd 1104 57bc 3629 e5bc 6895 efbc

decoder_input.bias f4 [52]
-0.5672015 0.6543484 -1.0132656 0.09505136 -1.4080145 -0.46704197 -1.6210084 0.95189184
-1.2735107 1.2202202 -1.419997 0.5636362 -0.39899915 -1.3868325 -1.5681435 0.37145987
0.46022126 1.9733857 1.477641 0.21675304 -1.8263924 1.1099334 1.9151666 -0.8748472
-1.3314666 1.5656755 1.4434278 -0.13841018 -0.9154445 1.2780449 1.7400962 1.9797369
-1.231037 1.0736274 1.5571223 -1.570458 -0.37651983 0.7854213 -1.7139951 -0.88107276
-0.8439249 0.6096042 0.45314562 1.3841115 -1.9168143 0.09503621 0.4694189 0.46052247
0.511051 -1.290625 -0.581797 -0.096853614
00000000: 1e34 11bf 6083 273f b0b2 81bf 4aaa c23d
00000010: d239 b4bf 2020 efbe 347d cfbf 2faf 733f
00000020: 6602 a3bf 2d30 9c3f 76c2 b5bf 764a 103f
00000030: 9e49 ccbe ba83 b1bf edb8 c8bf fd2f be3e
00000040: 1fa2 eb3e e797 fc3f 5723 bd3f 82f4 5d3e
00000050: 3ac7 e9bf 4c12 8e3f 2e24 f53f fcf5 5fbf
00000060: 7f6d aabf 0e68 c83f 3ec2 b83f 66bb 0dbe
00000070: 925a 6abf fa96 a33f 79bb de3f 0568 fd3f
00000080: 9f92 9dbf 9f6c 893f c94f c73f c504 c9bf
00000090: 35c7 c0be 5f11 493f 3164 dbbf fc8d 61bf
000000a0: 760b 58bf 050f 1c3f b402 e83e 912a b13f
000000b0: 2c5a f5bf 58a2 c23d ad57 f03e 9ac9 eb3e
000000c0: 3dd4 023f 3333 a5bf a6f0 14bf 305b c6bd
