models/best-vae_circ_noisy-ThreeGPP-real-3gpp-32rx-3p.pt (torch, 485135 bytes, 44 tensors)

embed_data.weight f4 [32, 2, 1]
1.5196676 0.19199176 0.5120592 -0.22936939 0.0045695785 -0.10040401 -0.0021658943 -0.00071689487
1.1916518 -0.054036357 -0.0064032027 -7.998726e-05 0.0013219878 -0.00042355503 1.0165254 0.22446382
0.002031686 -0.0038161068 0.75239265 0.12557179 0.0011778217 -0.004057837 -0.10826359 -1.6329488
0.0044601853 0.0033360978 0.5102454 1.0410527 -0.005874518 -0.0067707533 0.0012545511 -0.0035130547
0.3209105 0.8208088 -0.0010990411 0.0026785564 7.454626e-05 0.008905304 -0.001526674 -0.0071508726
-0.003734457 0.0017484343 -0.0005896106 -0.0029001727 0.008741661 -0.0031068434 0.01364858 -0.008806247
0.005775674 -0.004748772 0.3342068 -0.31649318 -0.0020298033 0.0013916034 0.0011304264 0.00045799778
0.258025 -1.2779143 0.26061144 -1.69634 -0.29491 0.65815973 -0.625663 0.07864332
00000000: 7884 c23f 7d99 443e 5016 033f cfdf 6abe
00000010: 67bc 953b 9ea0 cdbd adf1 0dbb 00ee 3bba
00000020: 0c88 983f 3a55 5dbd f5d1 d1bb d5be a7b8
00000030: 8d46 ad3a 9810 deb9 811d 823f d8d9 653e
00000040: 0926 053b a617 7abb ce9c 403f e495 003e
00000050: 2361 9a3a 9bf7 84bb 4db9 ddbd 7704 d1bf
00000060: bf26 923b 6fa2 5a3b 719f 023f 3741 853f
00000070: 077f c0bb 32dd ddbb c06f a43a 473b 66bb
00000080: 624e a43e 8720 523f b30d 90ba b88a 2f3b
00000090: b855 9c38 8de7 113c ae1a c8ba de51 eabb
000000a0: cbbd 74bb b82b e53a 1990 1aba d310 3ebb
000000b0: 2f39 0f3c 2f9c 4bbb 4b9e 5f3c 1448 10bc
000000c0: dd41 bd3b 969b 9bbb 271d ab3e 650b a2be
000000d0: 7306 05bb 7666 b63a d12a 943a 6c1f f039
000000e0: da1b 843e b292 a3bf dd6e 853e ab21 d9bf
000000f0: 72fe 96be 287d 283f 732b 20bf c00f a13d

embed_data.bias f4 [32]
-1.7306489 0.20472276 -0.54898316 -0.003776069 -1.9781423 -0.008879956 -0.9061872 0.555151
-1.6780268 -1.8630509 0.008096089 -0.7471137 0.011632475 1.2474241 0.011430844 -1.4735428
0.77548426 1.098963 -0.011132105 -0.011591598 0.000928906 -0.00015287707 0.0025206425 -0.00715304
0.0038377317 -1.7468405 0.7160659 -0.0080051515 -0.041003995 0.7037529 -0.8811759 1.7466401
00000000: e785 ddbf d8a2 513e 298a 0cbf ed77 77bb
00000010: c433 fdbf 3c7d 11bc e2fb 67bf 601e 0e3f
00000020: 95c9 d6bf 7478 eebf 75a5 043c d842 3fbf
00000030: 2396 3e3c 98ab 9f3f 6f48 3b3c 0d9d bcbf
00000040: 2386 463f d2aa 8c3f 6f63 36bc b0ea 3dbc
00000050: d481 733a a04d 20b9 5d31 253b 0c64 eabb
00000060: 7482 7b3b 7898 dfbf 1850 373f 0a28 03bc
00000070: cef3 27bd 2629 343f be94 61bf e791 df3f

fc_mu_var.weight f4 [64, 294]
0.08333497 0.019100413 0.040506307 -0.0030924748 -0.090474285 0.10662772 0.017970504 -0.009822176
-0.013474913 0.027769675 0.015877578 -0.008386099 -0.016452521 -0.01333415 -0.0008030229 -0.0060415887
-0.021316718 -0.016803524 0.011727608 0.013342735 0.013790606 0.007775341 0.015637288 0.006133998
0.005112285 0.005776972 0.019308582 0.0038607367 0.022500727 -0.034259934 0.012247907 -0.0096297925
-0.020488398 0.07465247 0.063052334 0.07851585 -0.030101486 -0.021504829 -0.012400281 -0.033007
0.012297446 0.0038862866 -0.04292192 -0.03994897 0.020454293 0.010316527 -0.011093621 0.003645293
0.023315273 0.0080638295 0.010126498 -0.030119682 -0.048104405 -0.0705001 -0.039039455 0.0064462833
-0.016597051 0.015200075 0.045497976 0.028626287 0.06657499 -0.03949269 0.07043124 0.0006030546
-0.02335736 0.0005902275 0.0015626714 0.02540985 0.021749126 0.021287614 -0.025772918 0.0067750183
0.01598271 0.004190812 -0.009701379 0.004315524 -0.0019236803 -0.015115433 0.00022639848 -0.026264498
-0.0025350356 -0.015396142 0.0035205202 0.011272609 0.027069597 0.017925622 0.01053507 0.0039401245
0.03924815 -0.03213566 0.040188428 0.014674909 -0.013582049 -0.03796111 -0.0024917347 -0.014101982
-0.0691535 0.02073365 0.055886857 -0.011997019 -0.0031840375 0.009618412 0.016320692 -0.005126517
-0.029779792 0.02857395 -0.05142634 0.025530636 -0.0025337164 -0.000666458 0.006782276 0.006475076
0.032388404 0.039108813 -0.001966303 -0.006684377 0.025944317 0.036845155 -0.0077808066 0.16465288
-0.022486899 0.043523744 -0.045766417 0.032000408 -0.052721675 0.03592892 -0.00446502 -0.0010047547
0.011648788 -0.013474757 0.007863632 -0.0009356896 0.028705856 0.012971555 0.0064697927 0.0002603593
-0.007651042 -0.0150016295 -0.060196746 0.0046399315 0.074369766 0.023224095 0.026718585 -0.009198195
-0.03641965 0.03641197 0.01375374 -0.030106375 -0.015858082 -0.043599505 0.06420177 -0.03472025
-0.04171715 -0.014372213 -0.0005645034 -0.044962958 0.012864068 0.0027369165 0.0071167704 0.0012093494
0.012369377 -0.0015521185 -0.039286084 -0.035405558 -0.0007302968 -0.008469184 0.009435059 -0.00039305285
-0.03062699 -0.0075191734 -0.0034558657 0.0035534704 0.013475523 0.004156146 -0.027333422 -0.06260545
0.06048935 -0.006067302 0.0065120817 -0.0046763686 0.015977886 0.020619057 0.010731907 -0.021127945
0.00024646075 -0.039926916 0.01761793 0.0045827944 0.0012557198 -0.045051493 0.0102572115 -0.0026356129
0.06165365 -0.003173614 0.01762798 -0.024259033 -0.011520881 0.0002030246 -0.028465526 -0.016562719
0.0039829332 0.00036856867 0.002981311 0.020365719 0.025494263 -0.0422647 0.014748419 0.016241968
-0.0019475298 -0.00093271537 0.0076862434 -0.001637186 -0.0009902327 -0.0072247293 0.04944971 -0.0097456165
-0.037452154 -0.012553132 -0.00078445434 0.012202028 -0.0015771725 0.0075635724 -0.00428081 -0.010994907
-0.059647523 0.037622217 -0.025182609 -0.023623293 -0.028028488 0.009612064 -0.011811901 0.008390494
-0.0056246673 0.018775867 0.10825524 -0.010638735 0.0013148326 0.0096607795 0.0059446013 0.0074928408
-0.014354802 0.04308057 0.010262204 0.01358464 0.009786641 -0.004900329 -0.0011906028 -0.0038485664
0.023293301 -0.012101394 -0.010882244 -0.0030313642 0.021887926 -0.013566282 0.0038220698 -0.01883587
00000000: 86ab aa3d 7878 9c3c f1e9 253d 1eab 4abb
00000010: 954a b9bd a25f da3d e136 933c 31ed 20bc
00000020: e2c5 5cbc 3b7d e33c b211 823c d965 09bc
00000030: 70c7 86bc 7b77 5abc f481 52ba 85f8 c5bb
00000040: 66a0 aebc 8ba7 89bc 2725 403c 7d9b 5a3c
00000050: fef1 613c 4ac8 fe3b c519 803c b4ff c83b
00000060: f484 a73b c14c bd3b 082d 9e3c 6a04 7d3b
00000070: 7253 b83c 2554 0cbd 72ab 483c 47c6 1dbc
00000080: 49d7 a7bc 65e3 983d 9521 813d ebcc a03d
00000090: 6497 f6bc e52a b0bc 8c2a 4bbc 5932 07bd
000000a0: 3a7b 493c 12b1 7e3b e5ce 2fbd 88a1 23bd
000000b0: c38f a73c a706 293c 05c2 35bc dee5 6e3b
000000c0: acff be3c 271e 043c 9ce9 253c 8dbd f6bc
000000d0: 2009 45bd 5b62 90bd d6e7 1fbd 583b d33b
000000e0: 8af6 87bc bc09 793c 165c 3a3d ad81 ea3c
000000f0: 7858 883d 16c3 21bd 413e 903d 4f16 1e3a
00000100: ef57 bfbc 7fb9 1a3a 8dd2 cc3a 5128 d03c
00000110: 392b b23c 5d63 ae3c ba21 d3bc f900 de3b
00000120: 2cee 823c 1453 893b 88f2 1ebc 3d69 8d3b
00000130: 0024 fcba b9a6 77bc 6165 6d39 a528 d7bc
00000140: d722 26bb 1a40 7cbc 87b8 663b c0b0 383c
00000150: 0fc1 dd3c c1d8 923c 499b 2c3c 291c 813b
00000160: abc2 203d afa0 03bd 9f9c 243d 086f 703c
00000170: 3e87 5ebc 1c7d 1bbd 5f4c 23bb 000c 67bc
00000180: 5aa0 8dbd 9ed9 a93c 9ee9 643d 258f 44bc
00000190: 49ab 50bb 8b96 1d3c f9b2 853c 57fc a7bb
000001a0: c0f4 f3bc eb13 ea3c 6da4 52bd a025 d13c
000001b0: b50c 26bb 3db5 2eba db3d de3b e02c d43b
000001c0: b4a9 043d 9030 203d 17dd 00bb 9e08 dbbb
000001d0: 2d89 d43c f2ea 163d 23f6 febb c49a 283e
000001e0: 7236 b8bc f445 323d 9175 3bbd dc12 033d
000001f0: aff2 57bd 342a 133d 4d4f 92bb f9b1 83ba
00000200: 8fda 3e3c 3ac5 5cbc 77d6 003c 1149 75ba
00000210: 8b28 eb3c a586 543c 8e00 d43b d580 8839
00000220: 98b5 fabb 65c9 75bc dd90 76bd 910a 983b
00000230: 2d4f 983d 7540 be3c efe0 da3c 07b4 16bc
00000240: c52c 15bd b824 153d 5e57 613c a5a1 f6bc
00000250: cfe8 81bc 6595 32bd 387c 833d d236 0ebd
00000260: 9adf 2abd 6e79 6bbc 2ffb 13ba 142b 38bd
00000270: d0c3 523c d75d 333b cc33 e93b 0883 9e3a
00000280: eda8 4a3c 7470 cbba 72ea 20bd 6b05 11bd
00000290: 6371 3fba 55c2 0abc 8195 1a3c a912 ceb9
000002a0: 74e5 fabc 6663 f6bb ce7b 62bb 57e1 683b
000002b0: 71c8 5c3c 4830 883b 57ea dfbc 4937 80bd
000002c0: aec3 773d 38d0 c6bb 4d63 d53b 393c 99bb
000002d0: 0ee4 823c 4ce9 a83c e1d4 2f3c 8314 adbc
000002e0: 6737 8139 688a 23bd 7a53 903c 442b 963b
000002f0: f796 a43a ea87 38bd dd0d 283c 3fba 2cbb
00000300: 8a88 7c3d 68fc 4fbb 8e68 903c e1ba c6bc
00000310: 14c2 3cbc 00e3 5439 8930 e9bc 8aae 87bc
00000320: 4483 823b 733c c139 1962 433b 02d6 a63c
00000330: 58d9 d03c c01d 2dbd 5aa3 713c e00d 853c
00000340: 4244 ffba 7881 74ba e2dc fb3b d996 d6ba
00000350: b2ca 81ba 6cbd ecbb c78b 4a3d 14ac 1fbc
00000360: 6e67 19bd a7ab 4dbc d7a3 4dba 04eb 473c
00000370: 21b9 ceba d8d7 f73b 0946 8cbb fb23 34bc
00000380: f650 74bd c119 1a3d c24b cebc a385 c1bc
00000390: 009c e5bc eb7b 1d3c b486 41bc 4878 093c
000003a0: 214f b8bb d9cf 993c ecb4 dd3d 174e 2ebc
000003b0: 7656 ac3a 3f48 1e3c eeca c23b 8186 f53b
000003c0: 6730 6bbc 4075 303d ce22 283c 1c92 5e3c
000003d0: 2658 203c f092 a0bb 000e 9cba 3b38 7cbb
000003e0: 98d1 be3c ed44 46bc 714b 32bc daa9 46bb
000003f0: 4f4e b33c 1c45 5ebc b17b 7a3b af4d 9abc

fc_mu_var.bias f4 [64]
-0.0012091842 -0.0033025986 -0.06073031 0.09382225 0.17423503 -0.00018690282 -0.0013023524 -0.00082929275
-0.0007787319 0.001555025 -0.15662944 0.013263384 0.19158484 -0.0009537571 -0.006548525 0.0061695674
-0.18434936 -0.00082488445 -0.022633297 -0.0038979265 0.005344749 -0.0035024928 0.008192496 -0.23060943
-0.054011986 0.0010669533 -0.00034570432 0.12050723 -0.0032587398 -0.2046701 -0.0022493796 0.07764299
0.000120644254 0.0013487517 0.08309176 -0.35113633 -0.31171536 -0.0012755935 0.0019468893 0.0006189779
0.0008579039 0.00013040508 -0.17393848 -0.370514 0.09583433 0.002545942 -0.0010604676 -0.00047091203
-0.20809568 0.00041734538 -0.110974945 0.00057623885 0.00025126297 0.0003188963 0.000942743 -0.16106302
0.026284222 -0.0013062563 0.000736229 0.033350043 0.0008230256 0.047302555 9.019115e-05 -0.35275036
00000000: 7d7d 9eba 6970 58bb 58c0 78bd e125 c03d
00000010: ab6a 323e 58fb 43b9 b2b3 aaba e564 59ba
00000020: d023 4cba fbd1 cb3a 7863 20be aa4e 593c
00000030: d12e 443e 8e05 7aba 0295 d6bb 152a ca3b
00000040: 14c6 3cbe 0f3d 58ba 7769 b9bc 5b74 7fbb
00000050: 0123 af3b 148a 65bb d239 063c e124 6cbe
00000060: ac3b 5dbd 03d9 8b3a a63f b5b9 7fcc f63d
00000070: 9590 55bb 0a95 51be 546a 13bb 4a03 9f3d
00000080: 6402 fd38 99c8 b03a 032c aa3d 24c8 b3be
00000090: 2899 9fbe d131 a7ba c42e ff3a e742 223a
000000a0: f5e4 603a 59bd 0839 ee1c 32be 03b4 bdbe
000000b0: ca44 c43d d2d9 263b 63ff 8aba bee4 f6b9
000000c0: 0917 55be 26cf da39 d546 e3bd bc0e 173a
000000d0: f2bb 8339 8931 a739 6922 773a b4ed 24be
000000e0: 0252 d73c b036 abba 7eff 403a 0e9a 083d
000000f0: 50c0 573a 53c0 413d 0125 bd38 b29b b4be

encoder.0.0.weight f4 [32, 32, 5]
-0.05201636 0.07550073 -0.04422601 -0.018438015 -0.058785602 -0.03333673 0.0041725286 -0.04449274
-0.08748619 -0.06682603 0.068753 -0.07258405 0.021401472 -0.026371595 0.050929014 0.05926192
-0.009863914 0.024087522 -0.054333784 0.098351724 -0.046760876 -0.01475604 -0.040554173 -0.007762668
-0.095995195 -0.008751024 -0.08496777 0.02751541 0.03560191 0.018200133 -0.039546203 -0.041454636
-0.012690025 0.0071975105 -0.045930147 -0.011647238 -0.009301175 -0.027765602 0.027431797 0.099051334
-0.006621508 0.066549726 -0.085286334 0.07804473 0.02457638 -0.084114775 0.080369696 0.027695676
0.06355776 -0.024252435 0.033682786 0.010080901 -0.0050517074 -0.038999617 0.06161315 0.038996767
0.0333775 -0.07350923 0.025093727 -0.09283146 0.01626196 0.04085844 -0.048239622 0.071998544
0.021483405 0.11738063 0.007933136 0.0038060236 0.06989054 0.03189598 -0.13264836 0.017145505
-0.044468805 -0.04670982 -0.100863755 0.009399956 -0.038976684 0.10310089 -0.093066886 0.0009565566
-0.023114538 0.033527315 -0.045272402 -0.09065337 0.0056159175 -0.0444286 -0.03065478 0.05505566
-0.048808545 -0.049363904 -0.06774496 -0.02437905 -0.032647327 0.021472348 -0.044785444 0.031574067
-0.018956238 0.0036793351 0.04318086 0.00810123 -0.017732186 0.027234038 0.013776384 -0.10013528
0.00483159 0.0693347 0.014991416 -0.15419295 0.011577494 0.02557719 0.09901643 -0.005867488
-0.002876007 0.034161836 0.0066995355 -0.07102492 0.025100272 -0.1195403 0.04681127 -0.034994576
-0.009467836 -0.11466318 -0.14736077 0.005584145 -0.009551164 -0.03827396 -0.088277936 -0.004745928
-0.018023241 0.044743672 0.016925208 0.0034897742 -0.021001406 0.004255391 -0.057760566 -0.09726383
-0.08976842 0.04814343 -0.000856124 0.06378743 -0.009677045 0.011709819 -0.006191617 -0.013188025
-0.06169858 0.030043213 -0.008918194 -0.056326196 -0.053515404 -0.008161833 0.028715435 0.046025366
-0.014165539 -0.0411373 -0.019388247 0.05222774 -0.007037676 0.0020218696 0.0031652946 0.021508066
0.1105513 -0.6749245 -0.19600478 -0.31340367 -0.25831017 0.18164991 0.3010999 -0.1040384
-0.7691878 -0.041783407 0.06987951 1.7302468 -0.31649244 -1.2133085 -0.035673454 -0.06831486
-0.0023700777 0.02045216 -0.0013595133 -0.023062374 0.22051407 -0.3923385 -0.13772565 -0.48679408
-0.20464428 -0.039432645 0.09122343 0.018714739 0.08387382 0.034452304 -0.006433327 -0.11607558
-0.393701 0.057742435 0.03103103 0.049438212 -0.70539385 -0.14082503 0.06237631 -0.059308942
0.38686997 -0.31906694 -0.5794518 0.04066125 0.014419266 0.265868 -0.5400318 -0.05812615
-0.19474298 -0.21590355 -0.011158295 -0.06690424 0.0054570897 0.010555908 -0.041212928 0.116204105
2.249919 -0.15722491 -1.2416433 0.034173537 -0.045660686 0.03315109 0.23087981 -0.07927136
0.0009309989 -0.07512446 -2.1285875 0.15462704 1.0308187 -0.12300313 0.090214886 0.009497908
0.054202486 0.0044929986 -0.009391112 0.2887983 -0.2312685 -0.5712926 0.047901686 -0.035844468
-0.051696908 -2.1956584 0.2502175 1.0255461 0.059612855 -0.07006281 0.05218227 0.53821146
-0.083029486 -0.010239372 0.045705896 -0.32672703 0.08467838 0.06200416 -0.1529008 0.02613772
00000000: 1b0f 55bd 20a0 9a3d 5526 35bd 520b 97bc
00000010: 2cc9 70bd 188c 08bd b5b9 883b 053e 36bd
00000020: f62b b3bd 16dc 88bd 5fce 8c3d f2a6 94bd
00000030: 2452 af3c 3e09 d8bc f19a 503d a1bc 723d
00000040: 419c 21bc 3253 c53c 1a8d 5ebd a16c c93d
00000050: 5588 3fbd 51c3 71bc 221c 26bd fb5d febb
00000060: 2199 c4bd 7460 0fbc 9503 aebd ff67 e13c
00000070: 4fd3 113d 7218 953c 33fb 21bd 56cc 29bd
00000080: d3e9 4fbc 18d9 eb3b 4021 3cbd 0fd4 3ebc
00000090: f563 18bc b074 e3bc a6b8 e03c 6ddb ca3d
000000a0: 3cf9 d8bb 394b 883d 9aaa aebd ead5 9f3d
000000b0: 6854 c93c 5e44 acbd de98 a43d 0be2 e23c
000000c0: 922a 823d 0bad c6bc f6f6 093d 5d2a 253c
000000d0: cb88 a5bb 10be 1fbd 125e 7c3d 13bb 1f3d
000000e0: d8b6 083d 028c 96bd 5c91 cd3c 6c1e bebd
000000f0: cd37 853c 2e5b 273d e996 45bd f973 933d
00000100: f7fd af3c 4165 f03d fcf9 013c 7b6e 793b
00000110: c522 8f3d 5ca5 023d f9d4 07be bb74 8c3c
00000120: ec24 36bd cc52 3fbd a891 cebd 4602 1a3c
00000130: 04a6 1fbd 8f26 d33d da99 bebd 6dc1 7a3a
00000140: b35a bdbc f053 093d 8e6f 39bd 79a8 b9bd
00000150: bb05 b83b c4fa 35bd bc1f fbbc 0b82 613d
00000160: 78eb 47bd ce31 4abd dfbd 8abd 93b6 c7bc
00000170: 34b9 05bd c7e6 af3c f170 37bd cf53 013d
00000180: 1d4a 9bbc 0021 713b 6ade 303d 05bb 043c
00000190: 1743 91bc eb19 df3c 58b6 613c ba13 cdbd
000001a0: 5152 9e3b 5aff 8d3d 8e9e 753c c2e4 1dbe
000001b0: 88af 3d3c 4187 d13c 20c9 ca3d 0f44 c0bb
000001c0: 647b 3cbb 48ed 0b3d c787 db3b 8375 91bd
000001d0: 169f cd3c 8bd1 f4bd 2dbd 3f3d 7956 0fbd
000001e0: fb1e 1bbc 88d4 eabd bee5 16be 34fb b63b
000001f0: 7c7c 1cbc 28c5 1cbd 10cb b4bd bb83 9bbb
00000200: 7aa5 93bc 2445 373d bca6 8a3c b2b4 643b
00000210: 240b acbc cf70 8b3b 5896 6cbd 4232 c7bd
00000220: 81d8 b7bd 0c32 453d 826d 60ba fca2 823d
00000230: 788c 1ebc 8ada 3f3c 0ce3 cabb 9612 58bc
00000240: a6b7 7cbd 2f1d f63c 9e1d 12bc 4cb6 66bd
00000250: f832 5bbd 35b9 05bc a23c eb3c 1885 3c3d
00000260: 9416 68bc 967f 28bd 1ad4 9ebc c1ec 553d
00000270: 4e9c e6bb 5881 043b d570 4f3b af31 b03c
00000280: b868 e23d dac7 2cbf 7ab5 48be 7276 a0be
00000290: 3b41 84be 6f02 3a3e c429 9a3e 1612 d5bd
000002a0: 7ee9 44bf 1425 2bbd fd1c 8f3d ba78 dd3f
000002b0: 4c0b a2be b14d 9bbf 541e 12bd a9e8 8bbd
000002c0: 4e53 1bbb 4a8b a73c b231 b2ba 4eed bcbc
000002d0: 71ce 613e 98e0 c8be f407 0dbe 133d f9be
000002e0: 458e 51be 2084 21bd 5ad3 ba3d a74f 993c
000002f0: 0ac6 ab3d dc1d 0d3d a9ce d2bb 09b9 edbd
00000300: 2d93 c9be 5583 6c3d c934 fe3c b97f 4a3d
00000310: b194 34bf 7034 10be 4d7e 7f3d efed 72bd
00000320: d213 c63e be5c a3be f456 14bf 698c 263d
00000330: c93e 6c3c da1f 883e 863f 0abf b015 6ebd
00000340: b46a 47be d215 5dbe 48d1 36bc 1705 89bd
00000350: 63d1 b23b b0f2 2c3c e3ce 28bd 6bfc ed3d
00000360: acfe 0f40 91ff 20be 2bee 9ebf 8df9 0b3d
00000370: b306 3bbd 70c9 073d c26b 6c3e 0659 a2bd
00000380: 470e 743a dada 99bd c73a 08c0 8d56 1e3e
00000390: def1 833f 11e9 fbbd 95c2 b83d 1d9d 1b3c
000003a0: 6d03 5e3d 013a 933b 2edd 19bc 5fdd 933e
000003b0: a6d1 6cbe 3b40 12bf 8f34 443d a6d1 12bd
000003c0: 23c0 53bd ab85 0cc0 821c 803e 1845 833f
000003d0: 9c2c 743d 177d 8fbd 13bd 553d 3ac8 093f
000003e0: 5d0b aabd 0ac3 27bc 1b36 3b3d c448 a7be
000003f0: dc6b ad3d 13f8 7d3d 0792 1cbe c61e d63c

encoder.0.0.bias f4 [32]
0.09988208 0.80418056 2.590615 1.8674409 0.639582 -0.24973206 -0.11443473 -0.49039397
0.048009608 0.09630549 0.98486257 -0.29391855 -3.025392 1.5524845 -0.6530951 -0.31119934
-3.9605877 -0.07701665 0.02059486 0.049248192 -4.1728697 0.4104542 0.79345065 -2.9418068
0.60940444 0.9268264 0.8651095 1.181812 -2.8591213 -2.520397 -0.4520605 1.3766272
00000000: fa8e cc3d c7de 4d3f a3cc 2540 4e08 ef3f
00000010: a5bb 233f c3b9 7fbe c15c eabd eb14 fbbe
00000020: b9a5 443d d03b c53d f41f 7c3f 7e7c 96be
00000030: 06a0 41c0 d0b7 c63f 3e31 27bf 8555 9fbe
00000040: 457a 7dc0 e8ba 9dbd 8db6 a83c 79b8 493d
00000050: 2688 85c0 0e27 d23e 951f 4b3f 9046 3cc0
00000060: ee01 1c3f 7f44 6d3f d177 5d3f 9e45 973f
00000070: d8fb 36c0 2f4e 21c0 7974 e7be 5235 b03f

encoder.0.1.weight f4 [32]
-0.0007348775 -1.1609184 1.4235244 -1.0994055 1.0355195 1.1162609 0.9515878 -1.9021648
0.0015774837 -1.2550185 -1.3347312 -0.8764066 -1.3046927 0.82892674 -0.7877932 -0.9965209
-1.5946038 -0.0023091203 -0.0010019818 -1.4523263 -1.6584958 -1.0109526 -1.0468594 -1.5184628
1.5719498 0.7942328 1.028971 1.8763644 -1.4527992 -1.5762367 -0.43454233 1.2225721
00000000: cba4 40ba f998 94bf 0c36 b63f 52b9 8cbf
00000010: e78b 843f a3e1 8e3f 429b 733f 237a f3bf
00000020: 92c3 ce3a 72a4 a0bf 79d8 aabf 2f5c 60bf
00000030: 2c00 a7bf 8b34 543f d1ac 49bf fe1b 7fbf
00000040: fa1b ccbf 9c54 17bb ee54 83ba d4e5 b9bf
00000050: 9749 d4bf e566 81bf 7dff 85bf fd5c c2bf
00000060: a735 c93f d752 4b3f 52b5 833f b52c f03f
00000070: 53f5 b9bf 20c2 c9bf 557c debe 3e7d 9c3f

encoder.0.1.bias f4 [32]
-0.02009449 0.3040236 -0.39805084 0.307458 0.017627811 0.0049058376 0.2941033 -0.0026047234
-0.0861846 0.3210098 0.3322163 0.0001854546 -0.43187106 -0.008782037 0.012426117 0.009946276
-0.535472 -0.050919335 -0.056197137 -0.0008960369 -0.6187807 0.077234685 0.24376889 -0.43365985
-0.0019978897 0.013507531 0.0029483812 0.0037715784 0.0013514557 -0.49063116 1.6109916 -0.008322066
00000000: 339d a4bc fba8 9b3e 52cd cbbe 236b 9d3e
00000010: 3368 903c 26c1 a03b b594 963e 02b4 2abb
00000020: 8d81 b0bd 665b a43e 4118 aa3e 9776 4239
00000030: 341e ddbe 88e2 0fbc ea96 4b3c b5f5 223c
00000040: b114 09bf cb90 50bd f82e 66bd 05e4 6aba
00000050: 6968 1ebf 382d 9e3d 8d9e 793e aa08 debe
00000060: 07ef 02bb b14e 5d3c a139 413b 962c 773b
00000070: 5423 b13a 0234 fbbe f934 ce3f 4659 08bc

encoder.0.1.running_mean f4 [32]
0.8261371 8.0428705 -9.433833 -48.98469 15.060078 2.4747593 -38.316204 0.11238802
-0.032315463 -7.418338 11.208121 3.8323934 -13.164215 -30.7124 -5.999118 7.6844263
17.208138 -0.7997821 -1.1991937 2.4640644 -0.1793565 3.5674105 3.2598681 -0.092202954
0.7134262 19.518198 0.46432397 0.2815941 -6.0113554 -9.61361 -9.7087145 6.5947766
00000000: b97d 533f 99af 0041 fbf0 16c1 53f0 43c2
00000010: 14f6 7041 7562 1e40 cb43 19c2 b12b e63d
00000020: 385d 04bd 0663 edc0 7754 3341 ef45 7540
00000030: a0a0 52c1 ffb2 f5c1 c6f8 bfc0 d2e6 f540
00000040: 44aa 8941 85be 4cbf 2e7f 99bf 3bb3 1d40
00000050: 3ba9 37be 7450 6440 aea1 5040 e7d4 bcbd
00000060: 19a3 363f 4525 9c41 dfbb ed3e 1a2d 903e
00000070: 065d c0c0 59d1 19c1 e556 1bc1 6908 d340

encoder.0.1.running_var f4 [32]
0.9255961 1235.9152 3709.7134 3470.906 1182.0355 918.6908 1024.273 1032.0541
0.7183007 2823.463 4282.455 838.4219 2170.0852 1999.3503 1413.2418 1023.5631
1422.1105 7.491697 0.7158619 765.63745 768.09534 2912.0068 1201.7953 1272.5798
762.48987 1989.7609 1134.6777 1077.5269 920.5908 2247.98 322.1101 881.22437
00000000: def3 6c3f 497d 9a44 6adb 6745 7fee 5845
00000010: 23c1 9344 36ac 6544 bc08 8044 bb01 8144
00000020: 8ee2 373f 6877 3045 a4d3 8545 009b 5144
00000030: 5da1 0745 36eb f944 bda7 b044 0ae4 7f44
00000040: 89c3 b144 fbbb ef40 ba42 373f cc68 3f44
00000050: 1a06 4044 1c00 3645 7339 9644 8e12 9f44
00000060: 5a9f 3e44 59b8 f844 b0d5 8d44 dcb0 8644
00000070: d025 6644 ae7f 0c45 180e a143 5c4e 5c44

encoder.1.0.weight f4 [56, 32, 5]
-0.05306167 -0.06590321 6.2396924e-05 -0.02848087 0.026096769 0.03707505 0.030898359 0.02754915
-0.02740124 0.048358385 -0.020893749 0.008343518 0.041614197 -0.027730031 0.017699419 0.06267989
0.113869146 -0.067551695 -0.033081308 -0.010948 0.07169828 0.057309452 -0.027889557 -0.022748644
0.08049284 0.026647555 -0.10655707 0.034738682 0.01151212 -0.10897523 -0.09053967 0.027064132
-0.11004605 0.06880803 0.006903943 0.023154438 -0.031139247 0.11042903 0.024494465 -0.11367931
0.04600301 0.05242151 0.07410689 -0.025609251 0.047931567 0.028738339 -0.026274154 -0.090535775
0.056351665 -0.10243761 -0.04253339 0.024221973 -0.04359074 0.06431088 -0.04303793 0.07496497
-0.027072646 0.0024991005 -0.018385222 -0.011397813 0.02565785 -0.01742635 -0.024136001 -0.038589634
0.010480937 0.10062455 -0.022390306 -0.016766924 -0.0011952284 -0.0074288473 0.02261817 -0.08427322
0.08488812 -0.015028631 0.014855142 -0.07120473 0.017840326 -0.007199638 -0.061291877 0.03347955
-0.024806196 -0.04513866 -0.02603433 0.11470808 -0.020029893 0.01300137 -0.072874025 -0.026618926
-0.0857828 0.009305784 -0.034686465 -0.030344455 -0.021525135 -0.009563002 0.0015222741 0.04560783
-0.0058706366 -0.03773346 0.022693593 -0.09085466 -0.10958559 0.042325877 -0.05526763 0.02264959
-0.0123464605 -0.029243015 -0.035357803 -0.013041672 -0.025589291 -0.006808193 0.015053084 0.042578883
0.004958456 0.017724099 0.009301219 0.056506336 0.02592642 -0.0140765915 0.0526419 -0.101334795
0.008256373 0.0906126 -0.010933118 -0.008599603 0.0944745 -0.06196892 0.026084019 0.0006688597
0.07725934 0.028117832 -0.0860257 -0.0065419227 0.004464326 -0.0045737093 0.01650303 0.058190875
-0.0283558 -0.007341199 0.03200091 -0.033292115 0.060476582 -0.066668056 0.073420465 0.02189167
-0.159048 -0.001982135 0.035855543 -0.09750194 -0.07087867 -0.053882748 0.027132748 -0.018876491
0.07187427 -0.030261446 0.030338662 -0.02396673 0.018799448 0.038609155 0.012799059 -0.0028177986
0.01997987 -0.033962414 -0.063521 -0.09325863 -0.051548775 -0.038016416 0.028044004 -0.00013076043
-0.033615906 -0.032292143 0.0024635654 0.0585434 -0.017420992 -0.04708272 -0.03169574 0.06426967
-0.055606853 -0.03149699 -0.046909906 0.015050691 0.03299768 -0.001968477 -0.0132724 0.04916531
0.048196755 0.02212466 -0.040551566 0.030759618 0.03346524 0.026927112 0.10145901 0.08479724
0.029591067 0.007801414 0.122867465 -0.037183627 0.0009089223 0.0088938745 0.03314858 0.0149768
0.09309833 0.10084278 0.040958766 -0.03810445 -0.09731424 -0.036907066 -0.02977363 0.015273519
-0.016865088 -0.044618692 -0.009335027 0.10749405 0.042799156 -0.029516397 0.114794955 0.04806368
-0.0027735287 0.02253465 -0.05206052 -0.036936183 -0.024021829 -0.06646713 0.053123344 -0.113370575
0.026375024 0.039717663 -0.025674557 -0.08982014 -0.017323958 0.085490555 -0.17452133 0.05129201
-0.1065008 -0.0008365918 0.03416046 -0.02707063 -0.074475065 0.051191214 0.061360836 -0.06005659
0.16554369 0.13288547 -0.010073748 -0.0005345561 0.007142122 -0.02706329 0.04346478 -0.016464612
-0.07214108 0.010001062 0.00897517 -0.06711393 -0.01701814 -0.003688935 0.021807505 -0.03334635
00000000: 3257 59bd 43f8 86bd 18db 8238 b750 e9bc
00000010: e4c8 d53c 02dc 173d 8e1e fd3c c1ae e13c
00000020: 9178 e0bc 7113 463d 5e29 abbc 40b3 083c
00000030: a673 2a3d 172a e3bc 5ffe 903c 505e 803d
00000040: 3a34 e93d 8b58 8abd 4480 07bd 3d5f 33bc
00000050: 8cd6 923d 51bd 6a3d a478 e4bc 5d5b babc
00000060: 6ed9 a43d f94b da3c 983a dabd 264a 0e3d
00000070: 559d 3c3c 682e dfbd dd6c b9bd 99b5 dd3c
00000080: d35f e1bd 39eb 8c3d 793a e23b 60ae bd3c
00000090: bc17 ffbc 9e28 e23d 9ea8 c83c b3d0 e8bd
000000a0: a76d 3c3d f0b7 563d 5ac5 973d 7eca d1bc
000000b0: e453 443d aa6c eb3c e53c d7bc d26a b9bd
000000c0: 01d1 663d cfca d1bd 7e37 2ebd 296d c63c
000000d0: 348c 32bd 6cb5 833d 8a48 30bd 3c87 993d
000000e0: 74c7 ddbc f3c7 233b 9b9c 96bc e5bd 3abc
000000f0: 6930 d23c b4c1 8ebc ddb8 c5bc 2a10 1ebd
00000100: 3cb8 2b3c 3e14 ce3d e06b b7bc ca5a 89bc
00000110: 36a9 9cba b06d f3bb be49 b93c 7097 acbd
00000120: d3d9 ad3d a63a 76bc fb62 733c c9d3 91bd
00000130: e025 923c f1ea ebbb 310d 7bbd da21 093d
00000140: 5d36 cbbc 51e3 38bd f245 d5bc 12ec ea3d
00000150: bb15 a4bc b303 553c fa3e 95bd ef0f dabc
00000160: e5ae afbd 4977 183c 6513 0ebd ef94 f8bc
00000170: 7b55 b0bc 23ae 1cbc 0b87 c73a 47cf 3a3d
00000180: 785e c0bb 678e 1abd eae7 b93c 0212 babd
00000190: 696e e0bd e65d 2d3d 4f60 62bd a28b b93c
000001a0: cf48 4abc 0c8f efbc 58d3 10bd bdac 55bc
000001b0: a2a0 d1bc 4317 dfbb 36a1 763c 3267 2e3d
000001c0: 8b7a a23b 2132 913c 2464 183c 3073 673d
000001d0: a563 d43c 81a1 66bc 089f 573d 9e88 cfbd
000001e0: bd45 073c 1993 b93d d220 33bc 59e5 0cbc
000001f0: d97b c13d 1fd3 7dbd 27ae d53c 6a56 2f3a
00000200: 253a 9e3d 5e57 e63c 3e2e b0bd a05d d6bb
00000210: 7b49 923b 0edf 95bb 5d31 873c 8e59 6e3d
00000220: 6c4a e8bc 718e f0bb 6313 033d 505d 08bd
00000230: 4bb6 773d 4389 88bd 785d 963d 2956 b33c
00000240: 7bdd 22be b5e6 01bb 43dd 123d 19af c7bd
00000250: d628 91bd 28b4 5cbd 7f45 de3c dfa2 9abc
00000260: d132 933d dae6 f7bc c988 f83c e055 c4bc
00000270: 4d01 9a3c a224 1e3d 25b3 513c d1aa 38bb
00000280: d3ac a33c 2c1c 0bbd 4c17 82bd 61fe bebd
00000290: cf24 53bd 1ab7 1bbd 8abc e53c bc1c 09b9
000002a0: d5b0 09bd c444 04bd c573 213b 34cb 6f3d
000002b0: 78b6 8ebc cfd9 40bd 64d3 01bd d19f 833d
000002c0: 03c4 63bd fd02 01bd 9a24 40bd 2c97 763c
000002d0: 9328 073d 9001 01bb 7b74 59bc 9061 493d
000002e0: f669 453d c63e b53c 6619 26bd 98fb fb3c
000002f0: d912 093d 3f96 dc3c bec9 cf3d 2daa ad3d
00000300: f768 f23c 01a3 ff3b f0a1 fb3d dc4d 18bd
00000310: be44 6e3a 9db7 113c cec6 073d 4161 753c
00000320: 56aa be3d a986 ce3d 61c4 273d 6913 1cbd
00000330: b04c c7bd dd2b 17bd d4e7 f3bc c83d 7a3c
00000340: a728 8abc 17c2 36bd f1f1 18bc d725 dc3d
00000350: 2b4e 2f3d 5fcc f1bc 9e19 eb3d 6cde 443d
00000360: 17c4 35bb 969a b83c 693d 55bd 654a 17bd
00000370: 6dc9 c4bc eb1f 88bd dd97 593d d52e e8bd
00000380: 6f10 d83c fdae 223d 7353 d2bc 9ff3 b7bd
00000390: f9ea 8dbc ac15 af3d b8b5 32be 9217 523d
000003a0: 171d dabd ba4e 5bba d7eb 0b3d 3ac3 ddbc
000003b0: 6286 98bd e1ad 513d 8055 7b3d e6fd 75bd
000003c0: 4984 293e 2113 083e 5d0c 25bc 7421 0cba
000003d0: 7608 ea3b d5b3 ddbc 2008 323d cbe0 86bc
000003e0: b4be 93bd 7fdb 233c 970c 133c 0773 89bd
000003f0: a069 8bbc 0fc2 71bb a7a5 b23c 2f96 08bd

encoder.1.0.bias f4 [56]
-0.061270475 -0.030766714 -0.013264745 -0.2642406 -1.9193358 0.037123032 -0.5615615 0.960975
-3.1366844 -1.5308764 -0.020350313 0.017664665 0.08049774 0.62131613 1.6704085 0.07028123
-2.42557 0.009769632 -1.2805536 -0.023013024 -0.006867159 4.887022 -0.0062037106 -1.3537749
-3.8491824 -0.8581297 0.035093535 2.6282039 -2.4910488 4.1064134 -0.9204439 -0.030848984
0.1010629 -0.018712964 -0.059420884 0.011515253 0.018338615 0.5559637 0.07106219 -0.03202757
0.06954464 1.8373499 -0.10017814 0.025172656 0.99676013 1.0791208 -0.62991506 -1.0913639
-1.6157889 -2.1254346 -0.053377584 -0.93754035 -0.37821215 -0.034841876 -0.023303838 3.0075302
00000000: c0f6 7abd 7a0a fcbc 5f54 59bc 8b4a 87be
00000010: ccac f5bf 520e 183d 7fc2 0fbf 7502 763f
00000020: 70bf 48c0 c2f3 c3bf b3b5 a6bc 7db5 903c
00000030: 00dc a43d 930e 1f3f f2cf d53f 9bef 8f3d
00000040: 8a3c 1bc0 ce10 203c 2ee9 a3bf cf85 bcbc
00000050: e805 e1bb 7c62 9c40 7f48 cbbb 7f48 adbf
00000060: 0159 76c0 63ae 5bbf 3dbe 0f3d 7e34 2840
00000070: 586d 1fc0 bd67 8340 36a2 6bbf 02b7 fcbc
00000080: 11fa ce3d ee4b 99bc 5063 73bd 79aa 3c3c
00000090: dd3a 963c a353 0e3f 0e89 913d 572f 03bd
000000a0: 6c6d 8e3d 482e eb3f 322a cdbd e336 ce3c
000000b0: ac2b 7f3f a120 8a3f 1d42 21bf d0b1 8bbf
000000c0: 2cd2 cebf 1f07 08c0 74a2 5abd a502 70bf
000000d0: 06a5 c1be 5bb6 0ebd b1e7 bebc 607b 4040

encoder.1.1.weight f4 [56]
0.0017817275 -0.00027174226 0.013088732 -0.82376415 -0.73313266 -0.0003433104 0.27397013 0.6581925
-0.6253938 -0.9632694 0.0009867408 -0.0028114244 0.00060068065 0.6058921 1.3056656 0.0020461339
-0.9865347 0.014810638 -0.78404063 -0.0058545484 -0.0015119949 1.1814531 -0.0089141475 -0.8080769
-0.65381956 -0.6930407 8.871884e-05 0.6118024 -1.0959805 1.0191013 -0.9143138 0.008218428
0.007974188 -0.00015173946 0.0011827006 -0.009716065 0.0033164646 0.46275604 0.026035666 -0.0012732152
0.00025727626 0.37066135 1.601393e-05 0.0008743565 0.41521436 0.881413 -0.71298647 -0.936942
-1.1212587 -0.6400917 -0.0004160884 -0.24377708 -0.68335503 0.010278929 -4.1828887e-05 0.6354869
00000000: db88 e93a a178 8eb9 1f72 563c 35e2 52bf
00000010: 95ae 3bbf 58fe b3b9 d045 8c3e 4e7f 283f
00000020: cf19 20bf d398 76bf 8755 813a e03f 38bb
00000030: ff76 1d3a bf1b 1b3f 0d20 a73f 6e18 063b
00000040: 8a8d 7cbf 51a8 723c e3b6 48bf 83d7 bfbb
00000050: 212e c6ba db39 973f a50c 12bc 21de 4ebf
00000060: b860 27bf 1e6b 31bf 910e ba38 159f 1c3f
00000070: 1749 8cbf e971 823f 7810 6abf 96a6 063c
00000080: 2ba6 023c 401c 1fb9 d904 9b3a 2130 1fbc
00000090: 0b59 593b 5cee ec3e c048 d53c 03e2 a6ba
000000a0: 09e3 8639 53c7 bd3e a755 8637 1235 653a
000000b0: fa96 d43e 48a4 613f 4886 36bf 6edb 6fbf
000000c0: 6885 8fbf 0ddd 23bf 7126 dab9 b3a0 79be
000000d0: 5bf0 2ebf f468 283c 6d71 2fb8 45af 223f

encoder.1.1.bias f4 [56]
-0.121114835 -0.014617034 -0.121728316 -0.5054322 -0.42052534 -0.036758043 0.41978034 -0.4525974
-0.3428847 -0.44754153 -0.03467013 -0.07472373 -0.00879925 -0.3688588 -1.0780319 -0.09147274
-0.5843587 -0.06747585 -0.32536992 -0.070746884 -0.026946858 -0.9591241 -0.11339021 -0.48072338
0.008030354 0.25611705 -0.0037105826 -0.34578007 -0.8645202 -0.8957518 -0.53555685 -0.07075866
-0.09931971 -0.004657646 -0.029952787 -0.09961876 -0.07992637 0.42415544 -0.14075337 -0.027290188
-0.07843623 0.27907184 -0.002771873 -0.015875967 0.30896577 -0.33748665 -0.44806293 -0.3688424
-0.7528608 -0.33889532 -0.048302032 0.3744059 -0.14128335 -0.090110116 -0.0065712444 -0.3356089
00000000: 0e0b f8bd 497c 6fbc b24c f9bd 0164 01bf
00000010: 194f d7be 9a8f 16bd 73ed d63e d9ba e7be
00000020: 958e afbe 2a24 e5be 4402 0ebd c108 99bd
00000030: bb2a 10bc 10db bcbe f3fc 89bf 0f56 bbbd
00000040: 8898 15bf c730 8abd e396 a6be bee3 90bd
00000050: a8bf dcbc 2889 75bf 2039 e8bd 6021 f6be
00000060: bf91 033c c621 833e 3f2d 73bb 160a b1be
00000070: 3251 5dbf fd4f 65bf 411a 09bf ebe9 90bd
00000080: 2268 cbbd 2b9f 98bb 8c5f f5bc ec04 ccbd
00000090: 70b0 a3bd e72a d93e a721 10be ac8f dfbc
000000a0: 2da3 a0bd 81e2 8e3e 50a8 35bb 510e 82bc
000000b0: c330 9e3e 0dcb acbe 8168 e5be e9d8 bcbe
000000c0: 7cbb 40bf b083 adbe 5ad8 45bd 21b2 bf3e
000000d0: 95ac 10be a78b b8bd 9853 d7bb eed4 abbe

encoder.1.1.running_mean f4 [56]
0.01485319 0.3641381 -0.8488062 10.234676 8.136121 0.6524149 3.4285104 -4.513414
0.4477905 3.3733692 0.060694393 0.27774405 -0.9730611 -0.7895541 -1.3091583 -1.1834791
0.76155806 -1.7820897 0.004387993 0.10035944 0.74062866 -3.9810653 1.5435753 1.7763176
-11.642558 14.815227 0.27448466 2.1442475 1.8984364 0.19414303 1.4487973 -0.8501096
-0.7105073 0.5399345 0.14334756 0.71083665 0.29494223 -3.0052109 -1.9266827 0.24546193
-2.2829509 -7.2501616 0.2775269 -0.9653094 -14.537723 -5.5278 6.077139 11.196247
-1.6339656 8.239718 0.19317226 4.6231756 -1.2466764 -2.1030698 1.0244977 0.49434763
00000000: cb5a 733c 4f70 ba3e 5d4b 59bf 3cc1 2341
00000010: 8d2d 0241 aa04 273f b76c 5b40 e36d 90c0
00000020: cc44 e53e 48e5 5740 af9a 783d 7834 8e3e
00000030: 881a 79bf 3820 4abf 8092 a7bf 3e7c 97bf
00000040: 78f5 423f 841b e4bf 27c9 8f3b 4089 cd3d
00000050: d799 3d3f c6c9 7ec0 e093 c53f 605e e33f
00000060: eb47 3ac1 2b0b 6d41 4189 8c3e 5a3b 0940
00000070: f7ff f23f 6ecd 463e 3172 b93f c8a0 59bf
00000080: cee3 35bf 2639 0a3f b4c9 123e 64f9 353f
00000090: ab02 973e 6055 40c0 8a9d f6bf 5f5a 7b3e
000000a0: de1b 12c0 5301 e8c0 0118 8e3e 841e 77bf
000000b0: 839a 68c1 bde3 b0c0 ec77 c240 d423 3341
000000c0: c925 d1bf e3d5 0341 f3ce 453e 0ef1 9340
000000d0: 1893 9fbf b298 06c0 be22 833f 221b fd3e

encoder.1.1.running_var f4 [56]
0.31519875 0.23631205 1.11304 34.867493 35.787136 0.38486892 33.974934 17.958147
30.788559 64.44658 0.29929447 0.963023 0.92266804 17.07338 25.158504 1.4660875
42.951927 3.261926 60.245937 0.31212097 0.99912363 25.555502 2.7049344 28.02874
143.6042 142.66943 0.4968565 22.940369 26.564375 16.269747 32.090702 0.6044599
0.93900514 0.49209532 0.20896208 0.6244561 0.53951675 185.77473 4.00975 0.5444121
4.4623976 29.96427 0.62730247 0.937771 51.89862 37.147404 15.916859 130.3451
44.13035 28.825737 0.3939046 24.816456 83.32643 3.6902692 3.049704 29.552553
00000000: bb61 a13e c9fb 713e 1878 8e3f 5078 0b42
00000010: 0726 0f42 8a0d c53e 55e6 0742 49aa 8f41
00000020: f84e f641 a6e4 8042 203d 993e ad88 763f
00000030: f933 6c3f 4896 8841 9e44 c941 c1a8 bb3f
00000040: c6ce 2b42 65c3 5040 d7fb 7042 52ce 9f3e
00000050: 91c6 7f3f ab71 cc41 a51d 2d40 dc3a e041
00000060: ad9a 0f43 60ab 0e43 fa63 fe3e e085 b741
00000070: d783 d441 7128 8241 e15c 0042 e2bd 1a3f
00000080: a462 703f ebf3 fb3e 28fa 553e 5bdc 1f3f
00000090: c51d 0a3f 55c6 3943 df4f 8040 975e 0b3f
000000a0: f6cb 8e40 d3b6 ef41 e596 203f c311 703f
000000b0: 3098 4f42 f196 1442 74ab 7e41 5858 0243
000000c0: 7a85 3042 1c9b e641 ddad c93e 1a88 c641
000000d0: 22a7 a642 5f2d 6c40 5a2e 4340 a16b ec41

encoder.2.0.weight f4 [98, 56, 5]
-0.0029139267 0.008537659 0.013044014 -0.051794514 0.025962759 0.050403636 0.04484025 0.028866654
-0.053444944 -0.03005037 0.0035824084 -0.1618897 -0.061679415 0.05509537 0.04083501 -0.04403691
-0.21697772 0.099096954 -0.18445489 0.19931702 0.019335229 0.15696914 -0.34771267 0.3672899
0.05651918 0.059924755 0.021992544 0.028053602 -0.005190262 -0.07878255 -1.9766852 -1.4630247
-0.27959973 -1.4087963 -0.29082108 -0.39580405 -0.16430826 -0.6288511 -0.0449485 0.025088895
0.21931727 -0.073210984 0.65144604 0.5762631 1.2122126 0.7398347 -0.21913472 0.14724246
0.5015213 0.78566545 0.041108962 -0.020241532 -0.03676958 -0.061266292 0.05016192 0.026096076
-0.043870848 -0.02138309 -0.034902498 -0.039901957 -0.07951531 0.012617053 -0.0081502795 0.07713423
-0.021459628 -0.11501522 -0.30060136 -0.06953177 -0.42281294 -0.26282454 1.1735107 0.015940754
0.6775607 0.1859458 -0.5481695 -0.02389311 0.13645643 0.04161491 0.049257815 -0.019324128
-0.586101 0.5281859 -0.20441039 -0.015474522 -0.26162192 0.08572914 -0.015923409 -0.03884661
0.09543763 0.02917385 0.073358886 -2.5694914 0.511735 -0.210767 -0.34434456 -0.05870967
0.020111369 0.03341301 -0.04399781 -0.03252729 -0.042427473 -0.055506907 -0.045846578 -0.08996088
-0.020263076 0.82323706 0.33812046 0.17694405 -0.15186039 0.5672576 -0.05669377 0.0138006685
0.005548712 -0.04644067 0.07134539 0.045258492 0.44494408 -1.0181355 0.3062816 -0.0797142
0.34528208 0.81236196 0.3163722 -0.63353693 -1.3290046 0.82946545 -0.32011932 0.053514976
0.18274193 0.18930322 0.0134275295 0.08738756 -0.016815113 0.0049435073 -0.015074112 -1.0872116
-0.75215137 0.20881449 0.85760885 0.11531079 1.0605905 -1.2443682 0.71119535 0.7377773
0.09631223 1.0971078 -0.98659444 0.834114 0.54355085 -0.09210404 0.13226701 -0.10791709
-0.069658175 0.37646213 0.1416217 -0.10571918 0.021730568 0.0033922675 -0.021168098 0.05256187
-0.06975436 -0.055915058 -0.0010101756 -0.06812855 0.06427887 0.10986724 0.011097162 -0.031801008
-0.040298216 0.071943864 -0.0534153 0.06417981 0.002875218 -0.048891705 0.038246874 0.015256804
-0.029550456 0.10240251 0.089571625 0.07258995 -0.04786626 0.019115532 -0.08551388 0.0068304716
0.063470095 0.7745961 -1.4562994 0.3953747 1.988983 0.066623226 0.02649216 0.020017032
-0.016756887 0.002074062 0.09549887 0.027654666 0.026845964 -0.04771556 -0.040903866 -0.0279999
-0.006101143 0.039881486 0.047376532 -0.07593415 0.018312985 -0.18660688 1.970915 -1.1527965
0.7676111 0.704403 0.030005943 -0.03885082 -0.096841246 -0.13444035 -0.0073515447 0.036221024
0.07046801 -0.006341862 -0.016165372 -0.07086933 -1.1772844 -1.4554474 -0.24907862 0.8022093
-1.1780545 1.0167432 0.79039633 0.67481506 0.15097864 0.5659767 -0.91814244 -0.49544352
-0.008786752 0.034618534 0.30001578 0.038810227 -0.37666848 0.19313885 0.59968424 0.14654197
1.2106957 -0.04656806 -0.29435498 0.6619881 -0.14166768 0.295043 -0.22660023 0.49162978
0.10042307 -0.031624492 0.09189665 0.014117627 0.044868577 0.071197115 -0.028777227 -0.26950186
00000000: 94f7 3ebb 8ae1 0b3c 8fb6 553c 7c26 54bd
00000010: daaf d43c 0b74 4e3d 69aa 373d c379 ec3c
00000020: 16e9 5abd 322c f6bc d7c6 6a3b 6ac6 25be
00000030: 8ea3 7cbd afab 613d 9d42 273d 0c60 34bd
00000040: 682f 5ebe 58f3 ca3d bee1 3cbe c319 4c3e
00000050: ea64 9e3c 85bc 203e 6507 b2be 6c0d bc3e
00000060: a880 673d a973 753d b529 b43c abd0 e53c
00000070: 1313 aabb bf58 a1bd 0504 fdbf 6544 bbbf
00000080: b227 8fbe 7053 b4bf 80e6 94be d4a6 cabe
00000090: 6d40 28be 63fc 20bf eb1b 38bd 3a87 cd3c
000000a0: b594 603e a4ef 95bd 2bc5 263f fb85 133f
000000b0: c829 9b3f cf65 3d3f da64 60be bac6 163e
000000c0: b363 003f 5f21 493f df61 283d 92d1 a5bc
000000d0: b39b 16bd 5df2 7abd 9676 4d3d 70c7 d53c
000000e0: ebb1 33bd 972b afbc ecf5 0ebd 3c70 23bd
000000f0: ecd8 a2bd c2b7 4e3c c088 05bc 8df8 9d3d
00000100: 1acc afbc 1a8d ebbd 6ce8 99be ac66 8ebd
00000110: f07a d8be f090 86be 9935 963f 2f96 823c
00000120: 9e74 2d3f 9368 3e3e d654 0cbf 7cbb c3bc
00000130: 3cbb 0b3e 6574 2a3d 90c2 493d a24d 9ebc
00000140: b70a 16bf 3137 073f f550 51be d988 7dbc
00000150: 4ff3 85be c292 af3d cf71 82bc 9f1d 1fbd
00000160: ce74 c33d fffd ee3c 2f3d 963d 8c72 24c0
00000170: 1101 033f 4ed3 57be ee4d b0be 8d79 70bd
00000180: 99c0 a43c 15dc 083d 0c37 34bd 563b 05bd
00000190: 6ec8 2dbd 365b 63bd 9fc9 3bbd 693d b8bd
000001a0: c0fe a5bc aabf 523f 201e ad3e d230 353e
000001b0: 4a81 1bbe cb37 113f ba37 68bd 331c 623c
000001c0: f8d1 b53b 9238 3ebd 881d 923d f860 393d
000001d0: b6cf e33e 4452 82bf f1d0 9c3e 3341 a3bd
000001e0: d0c8 b03e f4f6 4f3f 89fb a13e 7a2f 22bf
000001f0: d31c aabf d957 543f aee6 a3be 8532 5b3d
00000200: b320 3b3e b4d8 413e 24ff 5b3c 40f8 b23d
00000210: d9bf 89bc 25fd a13b 69f9 76bc c029 8bbf
00000220: fe8c 40bf 77d3 553e 418c 5b3f 1028 ec3d
00000230: 6ec1 873f 7547 9fbf e610 363f f9de 3c3f
00000240: 593f c53d 076e 8c3f 7491 7cbf 7f88 553f
00000250: 2626 0b3f 0ba1 bcbd 0171 073e a303 ddbd
00000260: f2a8 8ebd a5bf c03e 4705 113e 4c83 d8bd
00000270: 4e04 b23c ce50 5e3b b868 adbc 1e4b 573d
00000280: 60db 8ebd 3007 65bd de67 84ba fb86 8bbd
00000290: a4a4 833d 1302 e13d dfd0 353c c641 02bd
000002a0: be0f 25bd 4e57 933d 00ca 5abd b470 833d
000002b0: 276e 3c3b ab42 48bd c1a8 1c3d adf7 793c
000002c0: cc13 f2bc 68b8 d13d 5471 b73d 0aaa 943d
000002d0: 690f 44bd 2d98 9c3c e721 afbd 26d2 df3b
000002e0: 9cfc 813d ee4b 463f 0568 babf 8d6e ca3e
000002f0: ff96 fe3f c271 883d 1606 d93c c2fa a33c
00000300: bd45 89bc fcec 073b e994 c33d 0a8c e23c
00000310: 11ec db3c 6471 43bd d08a 27bd 0c60 e5bc
00000320: 19ec c7bb c55a 233d e50d 423d 5d83 9bbd
00000330: 1d05 963c e015 3fbe f146 fc3f d68e 93bf
00000340: 2982 443f c153 343f 06cf f53c 0a22 1fbd
00000350: b454 c6bd bbaa 09be 3ae5 f0bb 7f5c 143d
00000360: 8851 903d 65cf cfbb 3e6d 84bc f023 91bd
00000370: 41b1 96bf 1a4c babf 770e 7fbe 975d 4d3f
00000380: 7dca 96bf a424 823f 6a57 4a3f aec0 2c3f
00000390: 259a 1a3e d9e3 103f 620b 6bbf c6aa fdbe
000003a0: 4ff6 0fbc 2acc 0d3d ab9b 993e 79f7 1e3d
000003b0: b1da c0be 31c6 453e e884 193f 190f 163e
000003c0: 14f8 9a3f 26be 3ebd b2b5 96be 0d78 293f
000003d0: 5511 11be e00f 973e e409 68be e6b6 fb3e
000003e0: 9caa cd3d af88 01bd 5034 bc3d 9f4d 673c
000003f0: 1dc8 373d cbcf 913d 38be ebbc 26fc 89be

encoder.2.0.bias f4 [98]
0.90190464 0.056972552 0.4088083 1.1085615 1.2676578 1.643366 -6.3585367 -0.3978683
1.0858464 -1.1700228 -2.662125 -0.0485365 -3.1962798 0.19693208 0.079348534 0.38061765
1.2290461 -0.02737522 -3.364479 0.03448502 0.008743754 0.83929867 -0.5624999 0.27657783
1.7244941 -1.4286116 -0.2725239 -0.9294909 -4.44968 0.069343746 1.067503 -0.13255765
0.07076903 1.5701041 -3.0749257 -0.008996457 0.95142025 0.46821177 0.27312684 -0.001778548
0.032455053 0.032785196 -0.71838915 0.36486453 0.83232284 -0.36082718 -0.053930946 0.78700167
0.7412545 0.078321315 0.08339078 0.002069472 1.160557 0.9569715 0.13432729 0.81308097
-0.48059115 -8.220395 -0.059967574 -0.16281724 12.547619 -1.132962 -2.0619307 -0.053330395
0.033810586 1.8318218 -0.39943996 -0.31584674 0.12605143 1.3855332 -0.2578435 -0.02674195
0.88072854 -0.26779023 -1.3937056 2.0878394 -1.6990927 0.29816455 0.8422698 0.8633645
0.019341297 0.13035665 1.1764649 -1.3786324 0.48036888 -0.71142745 -0.57316476 -4.693723
-0.48210773 0.042354528 -1.3574427 -4.1605406 -0.36013076 -0.4171276 0.18720445 1.2355328
-0.7439494 -0.048433393
00000000: 39e3 663f 0d5c 693d 524f d13e 58e5 8d3f
00000010: 9c42 a23f d159 d23f 2279 cbc0 65b5 cbbe
00000020: 04fd 8a3f 4fc3 95bf 4260 2ac0 36ce 46bd
00000030: d98f 4cc0 90a8 493e 7c81 a23d 51e0 c23e
00000040: 6251 9d3f ff41 e0bc a053 57c0 2a40 0d3d
00000050: f641 0f3c 47dc 563f feff 0fbf 9c9b 8d3e
00000060: 39bc dc3f bfdc b6bf 4188 8bbe 1ef3 6dbf
00000070: c763 8ec0 1804 8e3d f0a3 883f 31bd 07be
00000080: 5aef 903d 2cf9 c83f 95cb 44c0 e065 13bc
00000090: 4790 733f 74b9 ef3e 48d7 8b3e 2b1e e9ba
000000a0: 97ef 043d c549 063d 5ae8 37bf 86cf ba3e
000000b0: 1c13 553f 57be b8be b2e6 5cbd f178 493f
000000c0: dbc2 3d3f ed66 a03d c9c8 aa3d fb9f 073b
000000d0: 228d 943f 16fc 743f 188d 093e 1326 503f
000000e0: 0b10 f6be bd86 03c1 8fa0 75bd 90b9 26be
000000f0: 0cc3 4841 e604 91bf acf6 03c0 f970 5abd
00000100: f87c 0a3d 2379 ea3f 6583 ccbe aab6 a1be
00000110: a013 013e 2759 b13f 1004 84be ef11 dbbc
00000120: 6d77 613f cd1b 89be f264 b2bf 299f 0540
00000130: df7b d9bf 06a9 983e fe9e 573f 7505 5d3f
00000140: a471 9e3c 377c 053e 6796 963f 0777 b0bf
00000150: e9f2 f53e 1c20 36bf edba 12bf fb32 96c0
00000160: d3d6 f6be f17b 2d3d afc0 adbf 2623 85c0
00000170: 0f63 b8be c091 d5be 86b2 3f3e f025 9e3f
00000180: 7873 3ebf 1862 46bd

encoder.2.1.weight f4 [98]
0.14126858 0.008802083 0.15921786 -0.1231105 -0.14620042 0.23843355 0.20012599 0.16848253
0.29182425 -0.120399624 0.18734309 -0.0077314386 0.16345467 0.15787804 0.099308364 -0.17683387
0.12258501 -0.013781399 0.20609984 -0.008261168 -0.009189005 0.28649908 -0.17831436 0.16606054
0.2169607 -0.26964626 0.12750721 -0.29549518 0.21137497 -0.008517763 0.15185912 -0.13742079
-0.0027872114 0.15928018 0.16171947 -0.019636797 -0.11396071 0.18510218 0.17278092 -0.011417924
-0.0039525335 -0.0006031394 0.16354465 0.15677163 0.22398025 0.27662972 -0.0007087448 0.21237342
0.19589397 0.16749254 0.008318086 0.18660241 -0.23320608 -0.25285202 0.21358897 0.1326272
-0.13311718 0.18193601 0.005052448 -0.11361483 0.13974476 -0.12318552 -0.21849404 -0.0060952273
0.004652464 -0.13919212 -0.19175324 -0.19591893 -0.1689248 0.19815277 -0.15875825 0.00035393744
0.17719321 -0.22493526 -0.20797779 0.1533317 -0.10453706 0.110448554 0.19307674 0.11813965
0.002594523 0.122171596 -0.13341555 0.20980296 0.19265708 -0.25560352 -0.13378708 0.2049629
-0.23629625 -0.015143947 -0.12848218 -0.24430881 -0.27770013 -0.23018143 0.33664113 0.19600488
-0.17759432 0.116886206
00000000: b6a8 103e 9d36 103c 020a 233e 5c21 fcbd
00000010: 90b5 15be ed27 743e d4ed 4c3e af86 2c3e
00000020: fd69 953e 1494 f6bd ded6 3f3e 0258 fdbb
00000030: a960 273e c8aa 213e 2f62 cb3d f013 35be
00000040: da0d fb3d 60cb 61bc d60b 533e da59 07bc
00000050: 7b8d 16bc 02b0 923e 0a98 36be c60b 2a3e
00000060: f22a 5e3e 130f 8abe 4091 023e 254b 97be
00000070: ae72 583e 168e 0bbc f580 1b3e 09b8 0cbe
00000080: a6a9 36bb 581a 233e ca99 253e 59dd a0bc
00000090: 3c64 e9bd 6d8b 3d3e 7bed 303e 3f12 3bbc
000000a0: 4184 81bb 001c 1eba 4078 273e be88 203e
000000b0: 145b 653e 69a2 8d3e 0fcb 39ba 6b78 593e
000000c0: 6e98 483e 2a83 2b3e 9548 083c b414 3f3e
000000d0: 93cd 6ebe d275 81be 11b7 5a3e 6dcf 073e
000000e0: df4f 08be 6f4d 3a3e 018f a53b e4ae e8bd
000000f0: 4019 0f3e b148 fcbd e7bc 5fbe 79ba c7bb
00000100: b273 983b 6188 0ebe f65a 44be f99e 48be
00000110: 9ffa 2cbe 8fe8 4a3e 8691 22be ae90 b939
00000120: 2372 353e 6e55 66be 21f8 54be fc02 1d3e
00000130: 8717 d6bd da32 e23d e9b5 453e 33f3 f13d
00000140: df08 2a3b 1a35 fa3d 169e 08be 96d6 563e
00000150: e647 453e 77de 82be 7bff 08be cbe1 513e
00000160: a5f7 71be 511e 78bc d590 03be 172c 7abe
00000170: b62e 8ebe aeb4 6bbe 3a5c ac3e 81b5 483e
00000180: 49db 35be 0962 ef3d

encoder.2.1.bias f4 [98]
-0.02878205 -0.097615674 -0.094517566 -0.06929807 -0.05023091 -0.16877532 -0.042164467 -0.08514255
-0.16571705 0.0012404994 -0.08709201 -0.065437295 0.006210066 0.014569903 0.014734169 -0.19783683
-0.0077299564 -0.07021065 -0.06566413 -0.10583768 -0.077157445 -0.20307364 -0.040911853 -0.08644154
-0.1374653 -0.13734306 0.005116 -0.12978731 0.01365446 -0.082998656 -0.0055726697 -0.022539927
-0.07219694 -0.00043113818 -0.05653838 -0.08744748 -0.005324878 -0.16535914 -0.03579804 -0.06903766
-0.100872256 -0.0855241 -0.09301351 -0.021254577 -0.17394586 -0.043414824 -0.022431474 -0.05982236
-0.12931675 -0.055086102 -0.11826586 -0.101340674 0.31341088 0.053962287 -0.09701955 0.089243464
0.035192225 0.031889305 -0.09731349 -0.023978846 -0.13515463 -0.05720411 -0.09341958 -0.049864244
-0.037259486 -0.001185905 -0.019126473 -0.08160627 -0.046209592 -0.086643875 -0.065757655 -0.074489124
-0.13118868 -0.007074942 -0.08805281 -0.08212127 0.008557079 0.06203604 -0.121262595 -0.011405006
-0.07758719 -0.11278338 -0.066456854 0.3353835 -0.08467635 -0.12154946 0.0021204615 0.007700143
-0.26812872 -0.09278578 0.028113795 -0.105887234 -0.20366114 -0.17905071 -0.10842926 -0.048686758
0.18757139 -0.028908385
00000000: 55c8 ebbc baea c7bd 6d92 c1bd 26ec 8dbd
00000010: edbe 4dbd 70d3 2cbe a6b4 2cbd 385f aebd
00000020: bbb1 29be 4198 a23a 4c5d b2bd fd03 86bd
00000030: cf7d cb3b 9ab6 6e3c 9567 713c bd95 4abe
00000040: 934b fdbb 9aca 8fbd ea7a 86bd 6dc1 d8bd
00000050: b904 9ebd 89f2 4fbe 3093 27bd 4308 b1bd
00000060: b4c3 0cbe a9a3 0cbe 1ea4 a73b f7e6 04be
00000070: f5b6 5f3c 33fb a9bd f19a b6bb a7a5 b8bc
00000080: fddb 93bd 630a e2b9 ca94 67bd aa17 b3bd
00000090: 507c aebb e853 29be f7a0 12bd 9e63 8dbd
000000a0: 1d96 cebd 4227 afbd de7d bebd 141e aebc
000000b0: dd1e 32be bed3 31bd 36c2 b7bc 4a08 75bd
000000c0: 9c6b 04be f7a1 61bd 5f35 f2bd b38b cfbd
000000d0: 6477 a03e 8f07 5d3d 30b2 c6bd 47c5 b63d
000000e0: b925 103d 5c9e 023d 4c4c c7bd 496f c4bc
000000f0: fa65 0abe db4e 6abd c452 bfbd 733e 4cbd
00000100: 679d 18bd 5e70 9bba 1faf 9cbc 3021 a7bd
00000110: 4546 3dbd 5872 b1bd f3ab 86bd c18d 98bd
00000120: 5356 06be ead4 e7bb 0855 b4bd 322f a8bd
00000130: fe32 0c3c 8119 7e3d 8658 f8bd 10dc 3abc
00000140: 08e6 9ebd f9fa e6bd 881a 88bd 63b7 ab3e
00000150: cb6a adbd ecee f8bd 71f7 0a3b 7b51 fc3b
00000160: 2b48 89be 7906 bebd e74e e63c 68db d8bd
00000170: 8c8c 50be 1259 37be 2910 debd c46b 47bd
00000180: b712 403e 47d1 ecbc

encoder.2.1.running_mean f4 [98]
0.023653455 -0.18731317 -0.400299 0.18758687 2.2612574 0.19780803 -6.3018594 -0.829963
0.7833177 -0.062812135 -1.0979903 -0.20053971 -2.6638336 0.2091906 0.38328135 1.0958778
0.17766269 0.01037918 -2.1184623 -0.17560154 -0.2573579 1.310595 -1.038258 0.5438933
0.09299286 0.23278594 -2.400358 -0.06719932 -3.457992 0.21435066 -0.0065687452 -0.24875003
-0.04956071 -0.3733123 -0.53971016 -0.055601273 -0.019951869 1.6891876 0.7296526 0.07422926
0.2436887 0.11028062 2.4155622 0.39671427 -0.39767033 -4.4479947 0.037573278 -0.06768097
0.81047136 -0.30619904 0.20122197 0.17163552 3.692679 1.9925648 -1.6764095 -2.7646651
0.54548514 -8.387926 0.043779258 -0.8073352 12.428771 -0.42835927 0.3857515 0.12588225
-0.104377694 0.29669705 2.108232 -2.0022573 -0.9716332 0.06976667 -2.2446468 0.008979604
1.8771579 -2.640411 0.20929477 3.5397122 -1.965533 -1.2885648 0.48757043 -0.078727596
0.13701846 0.7680277 1.6212418 -2.4033868 1.9827156 -0.9996288 -0.98357725 -3.3016453
0.47674957 0.79554844 0.6319428 -5.090233 -0.8338967 -4.4590354 -0.13993804 3.0403068
-5.4787664 0.9632415
00000000: e4c4 c13c 06cf 3fbe fef3 ccbe c616 403e
00000010: 71b8 1040 308e 4a3e d5a8 c9c0 7578 54bf
00000020: 8287 483f a6a3 80bd f28a 8cbf 485a 4dbe
00000030: 407c 2ac0 1036 563e 743d c43e b945 8c3f
00000040: 35ed 353e 700d 2a3c e394 07c0 e4d0 33be
00000050: 6ac4 83be 94c1 a73f a3e5 84bf 973c 0b3f
00000060: 0a73 be3d 705f 6e3e 779f 19c0 cc9f 89bd
00000070: be4f 5dc0 bd7e 5b3e a13e d7bb 54b8 7ebe
00000080: 2c00 4bbd ca22 bfbe 722a 0abf 29be 63bd
00000090: 1a72 a3bc 4d37 d83f 83ca 3a3f 8305 983d
000000a0: 8889 793e ceda e13d 9298 1a40 221e cb3e
000000b0: 729b cbbe f955 8ec0 70e6 193d 529c 8abd
000000c0: 0d7b 4f3f 1fc6 9cbe 220d 4e3e 39c1 2f3e
000000d0: da54 6c40 5d0c ff3f 9694 d6bf 46f0 30c0
000000e0: eaa4 0b3f f234 06c1 e151 333d 85ad 4ebf
000000f0: 3fdc 4641 e851 dbbe 3881 c53e 47e7 003e
00000100: f9c3 d5bd ade8 973e 46ed 0640 fc24 00c0
00000110: f4bc 78bf d4e1 8e3d 4ba8 0fc0 301f 133c
00000120: b646 f03f 7efc 28c0 5e51 563e a58a 6240
00000130: 9696 fbbf b1ef a4bf d5a2 f93e ef3b a1bd
00000140: 914e 0c3e 779d 443f da84 cf3f 17d1 19c0
00000150: a0c9 fd3f ace7 7fbf b8cb 7bbf 284e 53c0
00000160: 8518 f43e 10a9 4b3f 01c7 213f 30e3 a2c0
00000170: 417a 55bf 6bb0 8ec0 eb4b 0fbe 6394 4240
00000180: 0e52 afc0 ff96 763f
