models/best-vae_circ-ThreeGPP-noisy-3gpp-32rx-3p.pt (torch, 485135 bytes, 44 tensors)

embed_data.weight f4 [32, 2, 1]
-0.0057148975 0.0016331536 0.99142736 -0.057452604 0.5898555 -0.601456 0.22077052 0.73861194
-0.22525361 -0.5396815 -0.567043 0.1867416 -0.29895473 -0.8224148 -0.2133111 1.4268235
0.0015538643 0.00064733805 -0.96230763 -0.02258841 0.5338237 -0.65717393 0.40801516 -1.2408719
-0.7525325 -0.59603804 0.9068295 0.501052 -0.039599318 1.0839264 7.431752e-05 0.0063925413
-0.00016141869 -0.0023542654 0.04974008 0.05485352 1.2612945 -0.39692557 0.0006987668 0.00819137
-0.3327254 0.32275426 -0.9942837 -0.55513227 0.00065097207 -0.0043386836 -0.19655968 -1.0724069
0.00083414826 0.0065463707 -1.2719854 0.097977564 0.010199231 -0.0031481353 0.66421443 -0.08554764
-0.05253139 -0.42275578 -0.39717764 -0.33531573 0.00043589022 0.00707712 0.5734699 -0.5630539
00000000: 0944 bbbb 8b0f d63a 2fce 7d3f 6c53 6bbd
00000010: c500 173f 05f9 19bf ab11 623e ac15 3d3f
00000020: e2a8 66be 9128 0abf bb29 11bf 3139 3f3e
00000030: 9810 99be c789 52bf 3a6e 5abe 27a2 b63f
00000040: 09ab cb3a 1fb2 293a cb59 76bf 540b b9bc
00000050: aca8 083f 8d3c 28bf 5de7 d03e e4d4 9ebf
00000060: f8a5 40bf f395 18bf fa25 683f f244 003f
00000070: e532 22bd 1abe 8a3f eada 9b38 8678 d13b
00000080: 8042 29b9 054a 1abb 41bc 4b3d 16ae 603d
00000090: 1972 a13f d439 cbbe 722d 373a 1935 063c
000000a0: fc5a aabe 0c40 a53e 6089 7ebf 261d 0ebf
000000b0: ffa5 2a3a 842b 8ebb f146 49be a144 89bf
000000c0: beaa 5a3a f082 d63b 6bd0 a2bf 76a8 c83d
000000d0: ad1a 273c f250 4ebb f509 2a3f 9a33 afbd
000000e0: 282b 57bd 7273 d8be de5a cbbe 81ae abbe
000000f0: 3288 e439 2fe7 e73b ecce 123f 4d24 10bf

embed_data.bias f4 [32]
0.006418592 -1.3066247 -0.87126255 -0.95138913 -0.6742434 -0.98653495 0.57740295 0.9541202
-0.0015367432 -0.75650996 0.83392143 -1.4274828 1.2065886 -1.3332956 1.245306 -3.7296977e-05
0.869756 0.07859598 0.8510117 0.0030022836 -0.66998255 -0.028966717 -1.6128687 1.0146648
1.2366939 0.55790526 -0.0009031688 -0.9964221 -1.0979539 -1.1738354 1.7250495 1.5185246
00000000: 0d53 d23b 7a3f a7bf 100b 5fbf 3d8e 73bf
00000010: 379b 2cbf 8e8d 7cbf aed0 133f 3941 743f
00000020: 8c6c c9ba a3aa 41bf e07b 553f c2b7 b6bf
00000030: 7f71 9a3f 6ea9 aabf 3066 9f3f 536f 1cb8
00000040: 54a8 5e3f eef6 a03d e7db 593f f6c1 443b
00000050: fa83 2bbf 9c4b edbc 7b72 cebf 89e0 813f
00000060: fc4b 9e3f e1d2 0e3f a2c2 6cba 8515 7fbf
00000070: c189 8cbf 3d40 96bf 6cce dc3f 045f c23f

fc_mu_var.weight f4 [64, 294]
0.01355138 0.077234745 -0.022758072 -0.0060013626 -0.006959128 0.028758727 0.018568777 -0.0065837493
0.010574357 0.022575429 0.018710785 0.026360665 0.005722592 0.008342434 0.0019544542 -0.07643091
0.02586767 -0.019941565 0.0064651924 -0.054698005 -0.0033864304 0.0032204194 -0.00772732 -0.010821035
-0.014585482 0.006941379 -0.020083915 -0.028192533 -0.023911355 0.00080138375 -0.07792506 0.063027315
0.0281731 -0.024293488 0.018766291 0.006112923 -0.024061816 -0.0009367433 0.0074757813 0.010697672
-0.026660345 -0.050574385 -0.012988498 0.014986246 -0.0010035601 -0.0005576943 0.0005517468 0.0019011003
0.030973943 -0.008384481 -0.006704995 0.007886866 0.009473267 -0.0013798927 0.0036827992 -0.008732132
0.0236112 0.008096508 -0.007945123 0.006768596 0.003501341 0.0030768402 -0.02798174 0.018564709
-0.013539147 0.007713701 0.013578619 -0.017708797 -0.0055873794 -0.119664125 -0.12486978 0.026560336
0.019861512 -0.0045010443 -0.004476906 0.0057583484 0.008690026 0.003842325 0.0022430338 -0.022877324
0.11834961 0.007770019 0.0133907385 -0.0015480504 0.017141782 0.019007228 -0.020033013 0.028334226
-0.03691838 -0.012137192 0.0097044 0.008775382 -0.01036374 -0.028704414 -0.016301382 -0.012668366
0.025889678 0.0006811421 0.010726096 0.09406384 -0.07582389 0.08585182 0.042846132 -0.03915592
-0.03498361 -0.0005926078 0.030955473 0.0085569145 0.009214979 -0.0063831173 -0.011940186 0.019031279
0.042450007 -0.031012978 0.003969728 -0.016326914 0.0065042106 0.009464035 0.004256041 -0.0012393781
-0.005492089 -0.020571185 -0.026399335 0.014367607 -0.0060426313 0.015870176 -0.007713527 0.026331112
-0.00533768 0.01628381 -0.00093753927 0.025278457 -0.02112647 -0.0017661377 0.013721237 0.0528144
-0.052769817 -0.08415694 -0.00528437 -0.0065856674 0.0059804823 0.030659264 -0.013289347 -0.046131242
0.008444142 -0.021560311 0.0060810526 -0.021540184 0.021525715 -0.0015365876 0.02282236 -0.0062611634
0.013492731 0.010230444 -0.013224171 -0.009959677 0.034431025 -0.018382836 -0.011907109 -0.0038544247
0.0135183185 0.02655584 -0.022513244 -0.036046542 -0.08736815 -0.0172655 -0.0051268344 -0.0024193414
0.014561038 0.040899713 0.013328401 0.0026650266 -0.007542177 0.015306191 0.002726837 0.0038839565
0.010295399 0.030244548 0.011714522 -0.02191546 -0.0025177521 -0.013542741 -0.006581933 0.0246016
0.010225255 0.009481596 -0.05178008 -0.02516982 0.029474633 0.0041907625 -0.009408045 -0.038893614
-0.012295274 -0.005686722 0.013086492 0.01598879 -0.02755809 -0.016620252 -0.020365896 -0.07157665
0.045313757 -0.0049307225 0.023915477 0.0018467972 0.0018610475 -0.041373152 0.002916353 0.02320098
-0.0069919066 0.016161742 -0.004468122 -0.021422252 -0.034974977 0.008804123 0.018651608 -0.0023989815
-0.029645495 -0.008206794 0.009581077 -0.040557962 -0.087934695 -0.060665835 0.01995035 0.0019275226
0.010162098 -0.0029497913 -0.02064143 -0.0068318783 -0.0064027836 0.012800859 0.014861984 0.05359251
0.002262755 -0.0245492 -0.019521818 -0.05953014 0.09004951 -0.0011228343 -0.05168195 0.030628078
0.002787383 0.02971752 -0.015686974 -0.011946185 0.0020470293 0.0070973462 -0.04407282 0.031717505
0.035148565 0.121281564 0.024653133 -0.0023534799 0.059431396 0.02690299 -0.018931676 0.018543284
00000000: 9b06 5e3c 402d 9e3d 236f babc 14a7 c4bb
00000010: 6609 e4bb 6c97 eb3c 8c1d 983c 7ebc d7bb
00000020: 1140 2d3c 1bf0 b83c 5c47 993c 52f2 d73c
00000030: 9584 bb3b b4ae 083c 4d16 003b cf87 9cbd
00000040: 70e8 d33c 7e5c a3bc f7d9 d33b 040b 60bd
00000050: e0ee 5dbb ac0d 533b 7535 fdbb b64a 31bc
00000060: f2f7 6ebc 8274 e33b 0687 a4bc 07f4 e6bc
00000070: bfe1 c3bc f413 523a 2d97 9fbd 7714 813d
00000080: 46cb e63c 2303 c7bc c4bb 993c ea4e c83b
00000090: 491d c5bc c78f 75ba 66f7 f43b 4a45 2f3c
000000a0: cc66 dabc 1627 4fbd b6cd 54bc df88 753c
000000b0: e489 83ba 3b32 12ba 1aa3 103a 572e f93a
000000c0: 11bd fd3c 105f 09bc 93b5 dbbb ea37 013c
000000d0: c335 1b3c 84dd b4ba 1e5b 713b 3711 0fbc
000000e0: 466c c13c 37a7 043c 432c 02bc 19cb dd3b
000000f0: c176 653b d0a4 493b f639 e5bc 0415 983c
00000100: 4cd3 5dbc 37c3 fc3b db78 5e3c 0a12 91bc
00000110: 5616 b7bb 7712 f5bd babb ffbd 1095 d93c
00000120: 9cb4 a23c 7f7d 93bb 02b3 92bb 87b0 bc3b
00000130: 9c60 0e3c 84cf 7b3b ddff 123b 3a69 bbbc
00000140: 4861 f23d a59b fe3b d464 5b3c f4e7 caba
00000150: ec6c 8c3c 0cb5 9b3c 461c a4bc 2e1d e83c
00000160: ba37 17bd 13db 46bc 34ff 1e3c 9fc6 0f3c
00000170: adcc 29bc 8525 ebbc 7a8a 85bc fa8e 4fbc
00000180: 9716 d43c ac8e 323a 82bc 2f3c 8ba4 c03d
00000190: 8e49 9bbd 14d3 af3d 6d7f 2f3d f561 20bd
000001a0: f94a 0fbd 3c59 1bba 5596 fd3c 4d32 0c3c
000001b0: 6cfa 163c 7829 d1bb c5a0 43bc 7ce7 9b3c
000001c0: 0fe0 2d3d ee0e febc 7e14 823b 05c0 85bc
000001d0: 4621 d53b 0a0f 1b3c 4276 8b3b a172 a2ba
000001e0: fbf6 b3bb e784 a8bc 6b43 d8bc 1d66 6b3c
000001f0: 4401 c6bb 2c02 823c c1c1 fcbb 58b4 d73c
00000200: b5e7 aebb a065 853c 32c5 75ba c414 cf3c
00000210: 6b11 adbc bf7d e7ba 0acf 603c ea53 583d
00000220: 2a25 58bd 795a acbd 8228 adbb 95cc d7bb
00000230: ecf7 c33b 2329 fb3c 90bb 59bc 1df4 3cbd
00000240: 4c59 0a3c 409f b0bc 9143 c73b 0a75 b0bc
00000250: b256 b03c 5367 c9ba f5f5 ba3c 722a cdbb
00000260: 9e10 5d3c 989d 273c 31aa 58bc ea2d 23bc
00000270: 8c07 0d3d 9a97 96bc 0916 43bc 849a 7cbb
00000280: f07b 5d3c a28b d93c b26d b8bc 8aa5 13bd
00000290: 13ee b2bd 6170 8dbc 01ff a7bb d08d 1ebb
000002a0: 6c91 6e3c 7586 273d 5e5f 5a3c baa7 2e3b
000002b0: 5e24 f7bb d1c6 7a3c bcb4 323b fa89 7e3b
000002c0: 09ae 283c 6ac3 f73c 44ee 3f3c 0d88 b3bc
000002d0: df00 25bb 5fe2 5dbc 41ad d7bb 4b89 c93c
000002e0: d487 273c b258 1b3c 5917 54bd f030 cebc
000002f0: c974 f13c aa52 893b 3324 1abc e94e 1fbd
00000300: 1e72 49bc af57 babb ba68 563c ecfa 823c
00000310: 81c1 e1bc 3227 88bc 61d6 a6bc c796 92bd
00000320: eb9a 393d e691 a1bb 64ea c33c 3b10 f23a
00000330: 64ee f33a e576 29bd 4920 3f3b fb0f be3c
00000340: 5d1c e5bb a165 843c 5369 92bb b87d afbc
00000350: ec41 0fbd 2b3f 103c 42cb 983c 3b38 1dbb
00000360: 1cdb f2bc ca75 06bc f3f9 1c3c 1b20 26bd
00000370: 1b17 b4bd bd7c 78bd eb6e a33c eda4 fc3a
00000380: ee7e 263c 4951 41bb 3718 a9bc f3dd dfbb
00000390: 71ce d1bb b2ba 513c ae7f 733c d283 5b3d
000003a0: bb4a 143b 671b c9bc 38ec 9fbc e0d5 73bd
000003b0: e16b b83d 112c 93ba 74b0 53bd bce7 fa3c
000003c0: 87ac 363b 2872 f33c f881 80bc eeb9 43bc
000003d0: 7427 063b db90 e83b b485 34bd 37ea 013d
000003e0: f1f7 0f3d 7862 f83d 5ef5 c93c d73c 1abb
000003f0: 566e 733d a963 dc3c 9a16 9bbc 16e8 973c

fc_mu_var.bias f4 [64]
0.0035038488 0.117782585 0.009408219 0.0049585677 0.03198725 0.0015039159 -0.26706618 0.0055249096
-0.002313857 -0.05921737 -0.006611273 -0.0075871013 0.0033959227 -0.0052808276 0.0020681717 -0.0060784495
0.18291132 0.45504618 -0.0015194042 0.07349201 -0.019132374 -0.0071051577 -0.019633647 0.0038734167
-0.0023623072 0.0035744368 -0.163133 -0.20202312 -0.0006985731 0.0034054709 0.112342544 0.004309663
0.0010339546 -1.9435946 -0.0021138876 -0.0012846238 -1.2744322 -0.0016161789 -0.5754402 -0.00072919624
9.205175e-05 -1.3882751 -0.0006632857 0.0014081042 0.002561597 -0.0013783525 -0.0019379031 -0.00062358263
-1.4228554 -0.5418835 3.370704e-05 -0.6933537 -0.94205326 -0.0023783068 -0.94864476 -0.00024995703
-0.002381625 -0.0015477055 -1.013682 -0.9402688 -0.0021532872 -0.002536575 -1.1774579 0.0012769018
00000000: d4a0 653b ff37 f13d ee24 1a3c 7b7b a23b
00000010: 1005 033d 0b1f c53a e6bc 88be 4d0a b53b
00000020: 14a4 17bb ea8d 72bd 61a3 d8bb 389d f8bb
00000030: 218e 5e3b cb0a adbb 2a8a 073b bb2d c7bb
00000040: 1b4d 3b3e d0fb e83e bf26 c7ba fb82 963d
00000050: 7fbb 9cbc 62d2 e8bb bed6 a0bc 26d9 7d3b
00000060: f0d0 1abb 1941 6a3b 560c 27be 26df 4ebe
00000070: 7220 37ba 522e 5f3b d913 e63d 1338 8d3b
00000080: c285 873a b5c7 f8bf 2689 0abb d260 a8ba
00000090: 9820 a3bf f7d5 d3ba 0d50 13bf 8827 3fba
000000a0: e80b c138 00b3 b1bf 5ae0 2dba 2390 b83a
000000b0: 77e0 273b d6a9 b4ba 3d01 feba ec77 23ba
000000c0: 2020 b6bf e1b8 0abf a960 0d38 a17f 31bf
000000d0: 672a 71bf 5edd 1bbb 62da 72bf aa0c 83b9
000000e0: 0915 1cbb 61dc caba 55c0 81bf 75b5 70bf
000000f0: 2a1e 0dbb ab3c 26bb f1b6 96bf b75d a73a

encoder.0.0.weight f4 [32, 32, 5]
-0.108395614 -0.04925896 0.31023848 0.35892498 -0.0685991 -0.046542972 -0.041155297 -0.006002527
-0.045700382 -0.09642162 -0.17600824 -0.0061717355 2.3991337 -0.037739124 -0.15058443 0.19372602
0.17923698 -2.6442814 -0.1532244 0.19059905 -0.1846568 -0.0992901 2.3184333 0.27728933
-0.15586738 -0.13707186 0.04263142 -0.45927274 -0.057094768 0.0010273255 -0.114080004 -0.14010079
2.317684 0.21116342 -0.1993905 0.22381982 -0.025491389 -6.365368 -0.026241777 0.22339262
-0.00051669497 0.19012895 0.18834086 -0.0105475215 0.21635054 -0.19325554 -0.020297227 0.05964411
0.17700167 0.0740091 -0.02729604 -0.13288635 2.3651204 0.033307526 -0.23402017 -0.24985169
-0.18144749 4.898078 0.011904712 -0.09586153 -0.03456628 -0.13585725 1.0137331 0.11532043
-0.051407423 0.095811 0.04249645 -0.7032813 -0.14430991 -0.0009641613 0.37726825 0.13056275
-5.1468606 -0.16710787 0.2625898 0.13430429 -0.16717401 -0.13204916 -0.1995138 -0.0026868114
0.22258514 0.15184146 0.32297936 -0.1320038 0.3449602 0.1321746 0.09122083 -2.0506973
-0.3164997 -0.005916454 0.10836258 -0.053053442 0.57757366 -0.05559468 -0.043095585 0.008201381
-0.020567387 0.30962217 -0.060331408 -0.012901344 0.018012596 -0.00075828953 -1.9297734 0.04462549
0.076587856 -0.12627006 -0.079517126 0.82015145 0.12464197 -0.027181448 -0.7079686 -0.14331622
-0.16383995 -0.04044545 -0.40436757 -0.19722538 -0.13671128 3.1924438 0.12504631 -0.12073081
0.44399658 0.22694366 0.05967308 -0.0025098824 0.5051988 -0.06466514 -0.08254281 -0.0890274
0.06727285 0.034022056 -0.05502292 0.17390397 0.2922368 0.0015618869 0.43010598 -0.04577351
-0.00011580236 0.19115137 0.042493787 -0.04289395 -0.22993723 -0.14175479 3.4062662 0.12366654
-0.23803431 -0.29096162 -0.083278544 1.15215 0.20243093 -0.018071866 0.75442255 0.16076489
0.13174738 -0.04395007 0.42132208 0.11337455 -0.04014156 1.9120185 -0.073974915 -0.1160528
-0.045423098 -0.10066792 -0.038885735 -0.07402043 0.10665227 -0.06458826 0.052012455 -0.04067978
0.011224201 0.056331944 0.010194213 -0.020593472 0.014677752 -0.027542999 0.024946572 0.029705085
0.08462653 -0.12799025 -0.14778808 0.09697407 -0.05202181 0.015524926 0.1271675 0.08512957
-0.08085275 0.041533113 -0.0027453 -0.11530477 -0.07152691 -0.024695987 0.0044659306 -0.016323011
0.10500452 -0.01737651 -0.15731506 -0.038345784 0.0116553 -0.10822258 -0.10669638 0.08141198
0.13292846 -0.037830915 0.07454321 0.020494642 -0.044368483 0.031516366 0.026505984 0.047284074
0.055555817 0.03415314 0.06531528 0.049217813 0.016996624 -0.050320324 -0.049724445 0.120670095
0.03231216 0.12842675 -0.018883148 -0.031464174 0.03003045 -0.059167117 0.01323742 -0.007916236
-0.04801291 -0.06104327 -0.0019232014 -0.074844226 -0.116792046 -0.04195043 0.04606571 0.03163499
-0.10086451 -0.053041857 0.1338473 -0.0685877 -0.06963217 -0.05685826 0.08040151 -0.20689264
0.007627648 -0.026381576 0.052502185 -0.07424469 -0.01275777 -0.020542394 0.1747928 -0.12263475
-0.044738382 0.026701031 -0.04669111 -0.08625778 0.074365616 -0.078283414 -0.013181217 -0.0443519
00000000: 85fe ddbd c3c3 49bd 94d7 9e3e 04c5 b73e
00000010: af7d 8cbd d8a3 3ebd 7592 28bd d9b0 c4bb
00000020: 5330 3bbd b378 c5bd 813b 34be 453c cabb
00000030: 688b 1940 5794 1abd ce32 1abe 1d60 463e
00000040: e689 373e e83b 29c0 dbe6 1cbe 662c 433e
00000050: ac16 3dbe 9c58 cbbd 3661 1440 def8 8d3e
00000060: b39b 1fbe 915c 0cbe 499e 2e3d cc25 ebbe
00000070: 34dc 69bd 53a7 863a c7a2 e9bd 9576 0fbe
00000080: ef54 1440 393b 583e 062d 4cbe 0631 653e
00000090: 51d3 d0bc 18b1 cbc0 fff8 d6bc 09c1 643e
000000a0: d072 07ba 2ab1 423e 6ddc 403e 83cf 2cbc
000000b0: ff8a 5d3e c8e4 45be 5f46 a6bc 624d 743d
000000c0: ed3f 353e 1592 973d f29b dfbc 5c13 08be
000000d0: 225e 1740 796d 083d fca2 6fbe 1fd9 7fbe
000000e0: 5fcd 39be 0ebd 9c40 fb0b 433c 0d53 c4bd
000000f0: 5f95 0dbd 2a1e 0bbe 02c2 813f 1e2d ec3d
00000100: 9790 52bd 8f38 c43d c210 2e3d 3e0a 34bf
00000110: fac5 13be c5bf 7cba 4e29 c13e 3eb2 053e
00000120: 15b3 a4c0 531e 2bbe 2c72 863e 1087 093e
00000130: aa2f 2bbe e537 07be 584d 4cbe 3715 30bb
00000140: 5ced 633e 547c 1b3e 8d5d a53e 012c 07be
00000150: a09e b03e c758 073e fdd1 ba3d a03e 03c0
00000160: 400c a2be d0de c1bb 33ed dd3d 914e 59bd
00000170: dedb 133f 3fb7 63bd ff84 30bd 165f 063c
00000180: f07c a8bc cc86 9e3e 111e 77bd 2960 53bc
00000190: 278f 933c f3c7 46ba d102 f7bf 38c9 363d
000001a0: 18da 9c3d f04c 01be e0d9 a2bd 72f5 513f
000001b0: 4a44 ff3d a1ab debc 6e3d 35bf 7dc1 12be
000001c0: a9c5 27be 21aa 25bd 4409 cfbe 73f5 49be
000001d0: 0bfe 0bbe 0051 4c40 240c 003e b741 f7bd
000001e0: 8553 e33e eb63 683e c26b 743d d77c 24bb
000001f0: b554 013f 286f 84bd 340c a9bd ff53 b6bd
00000200: 59c6 893d b65a 0b3d b75f 61bd e213 323e
00000210: 10a0 953e 3ab8 cc3a da36 dc3e 017d 3bbd
00000220: ebda f2b8 2fbd 433e f70d 2e3d 91b1 2fbd
00000230: aa74 6bbe 2b28 11be 4400 5a40 e244 fd3d
00000240: 44bf 73be ecf8 94be f18d aabd a779 933f
00000250: 0e4a 4f3e 730b 94bc d621 413f 8d9f 243e
00000260: c9e8 063e fd04 34bd 87b7 d73e eb30 e83d
00000270: 7a6b 24bd 06bd f43f 2980 97bd 17ad edbd
00000280: 920d 3abd fc2a cebd a646 1fbd 0698 97bd
00000290: 816c da3d da46 84bd 030b 553d d79f 26bd
000002a0: b6e5 373c 53bc 663d a105 273c a4b3 a8bc
000002b0: f47a 703c dba1 e1bc c15c cc3c 1458 f33c
000002c0: ad50 ad3d e00f 03be c255 17be 579a c63d
000002d0: d214 55bd 425c 7e3c 3238 023e 6958 ae3d
000002e0: 2096 a5bd a01e 2a3d 7eea 33bb e824 ecbd
000002f0: b37c 92bd 3d4f cabc f156 923b d6b7 85bc
00000300: 9c0c d73d 2f59 8ebc 3317 21be 7810 1dbd
00000310: dff5 3e3c cda3 ddbd a283 dabd 53bb a63d
00000320: 661e 083e 97f4 1abd 1caa 983d 61e4 a73c
00000330: babb 35bd 4e17 013d 1423 d93c f2ac 413d
00000340: 7f8e 633d 2ae4 0b3d 04c4 853d 9e98 493d
00000350: 813c 8b3c af1c 4ebd dcab 4bbd e221 f73d
00000360: c159 043d 4d82 033e d5b0 9abc 94e0 00bd
00000370: 6b02 f63c 3859 72bd c3e1 583c 1ab3 01bc
00000380: 2fa9 44bd 8208 7abd ee13 fcba ee47 99bd
00000390: ab30 efbd 37d4 2bbd 66af 3c3d b193 013d
000003a0: 0d92 cebd 6b42 59bd 440f 093e b577 8cbd
000003b0: 509b 8ebd 35e4 68bd 8ca9 a43d aadb 53be
000003c0: 59f1 f93b 2d1e d8bc 880c 573d 9a0d 98bd
000003d0: f705 51bc 8648 a8bc e2fc 323e ee27 fbbd
000003e0: 983f 37bd 1fbc da3c 2d3f 3fbd eba7 b0bd
000003f0: 004d 983d 0e53 a0bd 08f6 57bc 57aa 35bd

encoder.0.0.bias f4 [32]
-1.682165 -0.021072159 2.61216 3.2688484 -1.8354663 -1.7197828 0.34210098 1.9902283
-0.39959398 0.096187934 0.06402358 -0.21148755 -1.5524583 2.527001 2.2173028 1.4918113
0.1952476 0.012813617 2.3184748 -0.38976178 2.1737251 0.0030543124 0.6511182 0.40973863
0.5505371 0.00046054705 -1.4579383 -0.02601521 0.027405033 0.827578 -0.12755337 -1.6292416
00000000: 2f51 d7bf 859f acbc a12d 2740 d034 5140
00000010: 8ff0 eabf d821 dcbf dc27 af3e cdbf fe3f
00000020: 9597 ccbe 2efe c43d cb1e 833d 3190 58be
00000030: f4b6 c6bf 62ba 2140 4ae8 0d40 acf3 be3f
00000040: fdee 473e 34f0 513c e461 1440 db8e c7be
00000050: 501e 0b40 dc2a 483b afaf 263f 43c9 d13e
00000060: 00f0 0c3f 9475 f139 b99d babf da1d d5bc
00000070: 8580 e03c 27dc 533f 5a9d 02be fd8a d0bf

encoder.0.1.weight f4 [32]
-1.1915962 -0.0011452914 1.0963243 0.84848917 0.5745508 -1.3038105 -1.0815965 0.9328335
1.0914956 -0.0025318332 0.0038334094 -1.012396 -1.5243376 1.1126547 0.9183254 0.70594054
-1.2925417 -0.00023461129 1.1195158 -1.4241784 1.1535062 0.00020599832 1.4915298 -0.99265116
1.4802558 -0.0019374699 -0.98064506 0.0006575608 -1.34489055e-05 1.0267665 -1.0808418 -1.0683557
00000000: 3986 98bf 9a1d 96ba 5b54 8c3f 9636 593f
00000010: c315 133f 43e3 a6bf c171 8abf 2dce 6e3f
00000020: 21b6 8b3f 1ded 25bb f039 7b3b 3196 81bf
00000030: 7f1d c3bf 786b 8e3f 6017 6b3f 85b8 343f
00000040: 0272 a5bf fd01 76b9 4b4c 8f3f 7a4b b6bf
00000050: 17a6 933f 4101 5839 73ea be3f 631e 7ebf
00000060: 0679 bd3f b4f2 fdba 8e0b 7bbf 2960 2c3a
00000070: 9ca2 61b7 166d 833f 0659 8abf e1bf 88bf

encoder.0.1.bias f4 [32]
-0.30567208 -0.07174141 -0.2777521 0.05066408 1.7150382 -0.010382786 0.24937454 -0.24062732
0.0041997135 -0.04669288 -0.070884876 0.17409293 0.0031160526 -0.30935544 0.015926734 0.025963748
0.004426124 -0.015703417 -0.26109865 -0.0046554804 0.0010746882 -0.01590489 0.00067691633 0.258886
0.0058079693 -0.0500698 -0.0048772404 -0.06001138 -0.009313451 0.015946852 0.2596591 -0.3031092
00000000: 0d81 9cbe 29ed 92bd 8635 8ebe 2385 4f3d
00000010: 5f86 db3f 901c 2abc 0a5c 7f3e 0267 76be
00000020: c09d 893b 0941 3fbd 172c 91bd 6b45 323e
00000030: b036 4c3b d663 9ebe c878 823c edb1 d43c
00000040: 0509 913b 74a4 80bc b9ae 85be 008d 98bb
00000050: 8ddc 8c3a f94a 82bc 1673 313a b58c 843e
00000060: c750 be3b fe15 4dbd 42d1 9fbb 7ece 75bd
00000070: 7297 18bc f9a2 823c 0af2 843e 2131 9bbe

encoder.0.1.running_mean f4 [32]
-5.379416 -0.68653584 -0.75399095 -8.472568 25.775267 2.6718633 -9.04868 -6.1273155
3.9819062 0.14298697 -0.021766111 -14.480289 -1.1217659 -7.2817984 2.0715446 -9.581955
1.3532141 -0.81113535 4.080571 0.1854802 3.0359979 -0.854701 -0.668319 -0.98086596
1.4734026 -0.4441538 2.8698752 -0.6284001 -0.106892265 2.432923 -15.434725 -6.213895
00000000: 2d24 acc0 d0c0 2fbf 8d05 41bf a38f 07c1
00000010: bf33 ce41 cfff 2a40 65c7 10c1 f812 c4c0
00000020: 8dd7 7e40 2d6b 123e d84e b2bc 44af 67c1
00000030: 0696 8fbf 7e04 e9c0 3094 0440 b04f 19c1
00000040: 1f36 ad3f 91a6 4fbf 0a94 8240 86ee 3d3e
00000050: ca4d 4240 afcd 5abf f416 2bbf 081a 7bbf
00000060: 7598 bc3f 2068 e3be 09ac 3740 d4de 20bf
00000070: 55ea dabd 03b5 1b40 a2f4 76c1 3ad8 c6c0

encoder.0.1.running_var f4 [32]
5138.129 7.488917 3361.958 1491.8002 443.6474 1391.0887 3690.2412 2395.2803
1353.1653 13.5745 2.7328339 5821.5835 1429.1548 2711.304 2193.36 1806.6714
1339.2867 16.618427 4390.8516 1444.9048 1584.0 2.3809063 1314.2943 5213.7324
1665.2958 1.1126693 1532.2406 1.3207093 12.956804 1346.4825 5979.582 3397.2292
00000000: 0891 a045 35a5 ef40 541f 5245 9b79 ba44
00000010: ded2 dd43 d7e2 ad44 dca3 6645 7cb4 1545
00000020: 4a25 a944 2731 5941 c0e6 2e40 abec b545
00000030: f4a4 b244 dd74 2945 c315 0945 7cd5 e144
00000040: 2d69 a744 8af2 8441 d036 8945 f49c b444
00000050: 0000 c644 c560 1840 6b49 a444 dced a245
00000060: 7729 d044 f36b 8e3f b387 bf44 010d a93f
00000070: 124f 4f41 714f a844 a8dc ba45 ab53 5445

encoder.1.0.weight f4 [56, 32, 5]
0.0074955495 0.03557639 0.0644561 -0.09554097 0.010742048 0.025278512 0.047337554 0.04746561
-0.012510096 -0.05050176 -0.05533538 0.013628389 -0.08455953 0.05893553 -0.0051284702 -0.05522952
0.07071343 -0.02365901 -0.10015436 -0.0056225467 -0.049427107 -0.03792591 0.10032707 -0.046857927
-0.13699031 -0.028503487 -0.009579109 -0.046109878 -0.12842217 -0.005252021 -0.10763805 0.051939964
-0.08876829 -0.09754093 0.0024172366 -0.117071785 -0.076861076 0.03299268 -0.1333517 -0.01914842
-0.08499947 -0.004478585 -0.0068825255 -0.044224992 -0.096269384 0.03007851 0.04207538 -0.01823044
-0.0037016023 0.0010709759 0.029485585 0.01946674 -0.00982419 0.028519627 -0.050204165 -0.005951203
-0.003849016 0.03746455 -0.0037766756 0.004219265 0.006724427 0.007914665 0.0018672353 -0.07827483
-0.09812885 -0.04920966 -0.045895252 -0.032072548 -0.07418751 -0.10613841 -0.070732735 0.016355406
-0.022940246 -0.0137683945 -0.11016791 0.07702868 0.0008426231 -0.08600816 -0.08483786 -0.055964157
-0.0061648446 0.052940212 -0.056283236 -0.14309895 -0.11810703 -0.03673374 -0.017820405 0.10138565
-0.0033085172 -0.005373722 -0.02229323 -0.019896079 -0.15407494 -0.03405916 -0.015702613 0.009474212
0.096072525 -0.02426148 -0.13696681 -0.026227174 -0.009035284 0.03501199 -0.030028852 -0.1515587
-3.5341185e-05 -0.06315214 -0.0009486213 -0.06137288 0.011546825 -0.04325378 -0.08544292 -0.05328238
-0.049954522 -0.05159161 0.0046758717 -0.036780324 0.06965068 0.0389163 -0.020985682 0.091791905
-0.0040182285 0.012274858 -0.06335514 -0.16762845 -0.07052293 0.022911688 -0.008377786 0.0191893
0.032612585 -0.08073891 -0.07140434 -0.006980778 -0.003382645 -0.048498064 0.040735815 -0.06437941
0.032652598 -0.04684618 -0.06531776 0.057956666 -0.07944093 -0.019832416 0.008526225 0.038279496
0.04563335 0.039316054 -0.029356817 0.05299016 -0.11627195 -0.03505712 0.011952769 0.0009036331
-0.06772353 -0.05660501 0.014093242 -0.11694162 -0.058320228 0.06734781 0.03588702 0.029748254
0.10204787 -0.009340008 -0.040016986 -0.05532238 0.15757822 -0.028723307 0.0061495462 0.11273974
-0.18595697 -0.010192772 0.06641616 -0.05534096 0.015686562 0.115286656 0.03297158 -0.015842568
0.09464561 -0.043157913 0.051315717 -0.06190271 0.009839496 0.021956226 0.028517867 0.012788316
0.061226133 -0.013709343 0.030511772 -0.005120938 -0.05500713 0.11735293 -0.06804211 -0.048841134
0.09198283 0.10941418 0.019375673 0.01444777 0.045484554 0.09010889 -0.02637734 -0.11521616
0.02940474 0.13928664 0.051321425 0.06662888 -0.09361431 0.05384012 0.0030658685 0.011041435
0.0058085686 0.056629308 -0.024531092 -0.046904996 0.07245353 -0.034606908 0.063772716 -0.048639078
0.014785262 -0.08139565 0.088655 -0.07044665 0.10738603 0.027628234 -0.005296537 0.02782375
0.048571296 0.06678376 -0.02816488 -0.04260098 0.0070195934 0.039442766 0.047387287 0.05448654
0.09132784 -0.074064925 -0.002982003 0.051519614 0.07564081 0.09046463 0.01700925 -0.0032320959
-0.016125666 0.043245338 0.1160243 0.06336162 0.06826329 0.024874033 0.033102505 0.016618868
-0.00809441 -0.0023398497 -0.032825388 0.040246714 -0.034463484 0.009155637 -0.049756724 -0.058607798
00000000: 3a9d f53b 8cb8 113d 8f01 843d fcaa c3bd
00000010: 6aff 2f3c e214 cf3c 06e5 413d 4d6b 423d
00000020: 25f7 4cbc efda 4ebd 5aa7 62bd 9b49 5f3c
00000030: 8c2d adbd 6266 713d ba0c a8bb 5938 62bd
00000040: 34d2 903d 8ad0 c1bc bb1d cdbd 573d b8bb
00000050: 1474 4abd 3358 1bbd 4778 cd3d 19ee 3fbd
00000060: 3047 0cbe 2580 e9bc b2f1 1cbc b6dd 3cbd
00000070: 1a81 03be 2519 acbb 5771 dcbd 00bf 543d
00000080: 26cc b5bd 8ac3 c7bd 806a 1e3b 55c3 efbd
00000090: 5769 9dbd 5523 073d 598d 08be 26dd 9cbc
000000a0: 3414 aebd 18c1 92bb cf86 e1bb 4425 35bd
000000b0: e228 c5bd 3567 f63c 3c57 2c3d 0158 95bc
000000c0: 9596 72bb fd5f 8c3a c18b f13c b678 9f3c
000000d0: a4f5 20bc fea1 e93c e2a2 4dbd 4f02 c3bb
000000e0: c63f 7cbb 6e74 193d 1a82 77bb c341 8a3b
000000f0: 9558 dc3b 83ac 013c 05be f43a 8e4e a0bd
00000100: c7f7 c8bd 1290 49bd a9fc 3bbd 815e 03bd
00000110: 9fef 97bd 185f d9bd 53dc 90bd c6fb 853c
00000120: 2fed bbbc d594 61bc b79f e1bd 36c1 9d3d
00000130: 7be3 5c3a 0c25 b0bd 79bf adbd ac3a 65bd
00000140: 7702 cabb d6d7 583d 4089 66bd 8888 12be
00000150: 19e2 f1bd 1e76 16bd 19fc 91bc 48a3 cf3d
00000160: b5d3 58bb 0c16 b0bb 4ba0 b6bc 1afd a2bc
00000170: d2c5 1dbe 9e81 0bbd c4a2 80bc ba39 1b3c
00000180: acc1 c43d 03c0 c6bc 0741 0cbe 5fda d6bc
00000190: ba08 14bc bc68 0f3d 11ff f5bc 3432 1bbe
000001a0: 4f3b 14b8 e955 81bd e6ac 78ba 2162 7bbd
000001b0: e52e 3d3c e02a 31bd b3fc aebd a03e 5abd
000001c0: 1d9d 4cbd b951 53bd 0e38 993b f7a6 16bd
000001d0: 04a5 8e3d b366 1f3d 2aea abbc 65fd bb3d
000001e0: 58ab 83bb 7c1c 493c 57c0 81bd cba6 2bbe
000001f0: 536e 90bd 4bb1 bb3c fb42 09bc e132 9d3c
00000200: c694 053d 715a a5bd 703c 92bd 03bf e4bb
00000210: 5eaf 5dbb e8a5 46bd 99da 263d 5ad9 83bd
00000220: bbbe 053d c8e1 3fbd 51c5 85bd f863 6d3d
00000230: edb1 a2bd 9777 a2bc 94b1 0b3c f6ca 1c3d
00000240: 09ea 3a3d df09 213d b57d f0bc 360c 593d
00000250: fd1f eebd 0e98 0fbd 8cd5 433c cae1 6c3a
00000260: a2b2 8abd a8da 67bd 57e7 663c 177f efbd
00000270: 31e1 6ebd a6ed 893d 45fe 123d 9cb2 f33c
00000280: 79fe d03d d506 19bc dae8 23bd b899 62bd
00000290: 2f5c 213e 244d ebbc 2282 c93b 18e4 e63d
000002a0: 816b 3ebe 96ff 26bc 3205 883d 34ad 62bd
000002b0: 1b81 803c 691b ec3d 350d 073d 46c8 81bc
000002c0: 8fd5 c13d 5ac6 30bd 6e30 523d b28d 7dbd
000002d0: d635 213c 8bdd b33c 4d9e e93c 1686 513c
000002e0: 41c8 7a3d 279d 60bc d3f3 f93c 8bcd a7bb
000002f0: 284f 61bd bc56 f03d a959 8bbd a40d 48bd
00000300: 7e61 bc3d 8b14 e03d bbb9 9e3c 57b6 6c3c
00000310: 034e 3a3d 028b b83d 4b15 d8bc 73f6 ebbd
00000320: 36e2 f03c 28a1 0e3e 6a36 523d b974 883d
00000330: dcb8 bfbd 7587 5c3d bdec 483b 23e7 343c
00000340: ce55 be3b 22f4 673d 6ef5 c8bc 741f 40bd
00000350: 8462 943d f9bf 0dbd 459b 823d c539 47bd
00000360: e23d 723c c3b2 a6bd c190 b53d 5546 90bd
00000370: 35ed db3d 9b54 e23c 938e adbb a2ee e33c
00000380: b2f2 463d edc5 883d 09ba e6bc 5d7e 2ebd
00000390: 9e04 e63b bd8e 213d 2c19 423d 472d 5f3d
000003a0: 170a bb3d 5aaf 97bd b56d 43bb 3b06 533d
000003b0: 92e9 9a3d 8545 b93d fc56 8b3c 92d1 53bb
000003c0: f919 84bc 0622 313d 269e ed3d bdc3 813d
000003d0: a0cd 8b3d a1c4 cb3c 7e96 073d 4b24 883c
000003e0: 6b9e 04bc 2a58 19bb ea73 06bd bdd9 243d
000003f0: 9529 0dbd 8601 163c b5cd 4bbd bb0e 70bd

encoder.1.0.bias f4 [56]
0.010662033 -0.019899564 -0.005111764 0.019698605 -0.19239607 0.037096947 -0.0047000046 0.015232166
1.4086835 -0.03030064 -0.6547975 -0.024390317 3.7203443 -0.32442066 -0.0047426173 -2.5348809
2.749617 -0.007746819 -0.0021179453 1.0399798 0.056245375 -2.4926875 1.3971868 0.0012934689
-0.001568017 0.013791548 -1.4233731 -0.09453719 -2.2627432 -0.052419018 -0.64014167 -0.0016468231
0.25896317 -2.5348504 0.022254782 0.0027365712 0.051757433 -1.6563479 -0.036716517 0.00200479
0.027233224 -2.0772429 -0.2736894 -0.035966214 -0.04085455 0.020847008 -0.003196311 -0.050938915
0.84966093 0.025660489 0.07567299 -0.18281557 -1.0544928 0.05481045 0.017626423 -0.029391907
00000000: cfaf 2e3c 6904 a3bc 9680 a7bb f85e a13c
00000010: 7a03 45be f8f2 173d 7f02 9abb 5690 793c
00000020: be4f b43f 0c39 f8bc cfa0 27bf 34ce c7bc
00000030: 1f1a 6e40 771a a6be f567 9bbb 7d3b 22c0
00000040: baf9 2f40 07d9 fdbb 3acd 0abb 0f1e 853f
00000050: 8d61 663d 3188 1fc0 04d7 b23f 9d89 a93a
00000060: eb85 cdba f2f5 613c 1731 b6bf b79c c1bd
00000070: c9d0 10c0 53b5 56bd 53e0 23bf 37da d7ba
00000080: d296 843e fd3a 22c0 a94f b63c 0c58 333b
00000090: 9aff 533d 3503 d4bf 0f64 16bd cb62 033b
000000a0: 3618 df3c 8cf1 04c0 0421 8cbe 4f51 13bd
000000b0: 1a57 27bd 58c7 aa3c 3379 51bb 53a5 50bd
000000c0: 6183 593f f235 d23c 71fa 9a3d 0134 3bbe
000000d0: 9ff9 86bf ec80 603d 4a65 903c 4cc7 f0bc

encoder.1.1.weight f4 [56]
0.0054604937 -0.0025628272 -0.0016773598 0.0132920025 -0.62694675 -0.00087470305 -0.004069751 0.019507121
0.89554375 -0.0015293624 -0.7962153 -0.0008155413 1.0269256 -0.63085836 0.0028723248 -0.74601555
0.6127159 0.0025693655 -0.010558056 0.6776346 -0.011812276 -0.54984134 1.0240773 -0.00042890362
0.00094175246 0.004540802 -0.63254154 -0.00078009325 -0.86047566 4.9060207e-05 0.39762852 0.004152544
0.7852125 -0.9037208 0.016007315 0.001468732 0.009469261 -0.52797365 4.0048984e-05 0.0033620272
0.0007423101 -0.561991 0.7782072 -0.006223172 -0.0011632054 0.0013199328 -0.00031459032 -0.0013017636
0.64348704 0.00013557747 0.000109240464 -0.66076416 -0.7849429 -0.0015709297 0.01169145 0.00096462667
00000000: f1ed b23b 1bf5 27bb dbda dbba b3c6 593c
00000010: 957f 20bf 544c 65ba 8c5b 85bb 66cd 9f3c
00000020: 5b42 653f e374 c8ba c4d4 4bbf 0dca 55ba
00000030: 4c72 833f ef7f 21bf 9d3d 3c3b e0fa 3ebf
00000040: f3da 1c3f cd62 283b b2fb 2cbc 7679 2d3f
00000050: 4788 41bc 67c2 0cbf f714 833f 78de e0b9
00000060: f0df 763a 02cb 943b 3eee 21bf 2c7f 4cba
00000070: 2248 5cbf ffc5 4d38 f795 cb3e 1012 883b
00000080: b003 493f 3f5a 67bf c621 833c 7882 c03a
00000090: f624 1b3c 4829 07bf 45fa 2738 7555 5c3b
000000a0: 9697 423a a4de 0fbf 9638 473f c0eb cbbb
000000b0: b276 98ba 9801 ad3a 99ef a4b9 f09f aaba
000000c0: 91bb 243f cd29 0e39 0718 e538 d727 29bf
000000d0: 05f2 48bf a7e7 cdba 7f8d 3f3c 00df 7c3a

encoder.1.1.bias f4 [56]
-0.010770486 -0.032168012 -0.012644269 -0.084769934 0.14283955 -0.031516116 -0.11380069 -0.051202625
-0.44300058 -0.03856768 -0.4063648 -0.024494002 -0.6560217 0.20852506 -0.10092776 -0.23964563
-0.29504868 -0.027820716 -0.046870697 -0.3734714 -0.058968764 -0.22045577 -0.4328441 -0.06918595
-0.020310387 -0.059926067 -0.31212845 -0.01565617 0.80110884 -0.18107654 0.33095038 -0.07945989
-0.4292165 -0.5642115 -0.050412174 -0.029963577 -0.034325287 0.6225779 -0.0044120788 -0.012327829
-0.07053979 -0.21459334 -0.41051465 -0.083884746 -0.014526154 -0.041378338 -0.04205485 -0.02016372
-0.36483878 -0.014235266 -0.008116116 0.23874067 -0.28760755 -0.019398961 -0.155201 -0.021844897
00000000: b176 30bc 9bc2 03bd e829 4fbc dc9b adbd
00000010: 8844 123e 0b17 01bd 5610 e9bd d8b9 51bd
00000020: f9d0 e2be 25f9 1dbd 0c0f d0be a5a7 c8bc
00000030: 0af1 27bf 9887 553e 37b3 cebd aa65 75be
00000040: 9f10 97be 45e8 e3bc 7dfb 3fbd a537 bfbe
00000050: 3b89 71bd 28bf 61be be9d ddbe 5db1 8dbd
00000060: f861 a6bc 0975 75bd 4dcf 9fbe 5e41 80bc
00000070: 7815 4d3f 216c 39be 5472 a93e debb a2bd
00000080: 44c2 dbbe 2a70 10bf ff7c 4ebd 2d76 f5bc
00000090: ac98 0cbd 4461 1f3f 3393 90bb aafa 49bc
000000a0: 2a77 90bd 5bbe 5bbe fa2e d2be c4cb abbd
000000b0: 1bff 6dbc 557c 29bd b541 2cbd 632e a5bc
000000c0: 26cc babe 083b 69bc 75f9 04bc 6f78 743e
000000d0: 4c41 93be 92ea 9ebc 03ed 1ebe 12f4 b2bc

encoder.1.1.running_mean f4 [56]
-1.1619725 0.71478873 0.4612567 -1.5806125 3.280523 0.37682644 0.2437509 -0.94890255
-5.782136 1.2572384 -2.5092113 0.16578496 -3.509645 4.705866 0.63232344 1.7220936
1.7255028 -0.27822185 0.92951113 -5.063179 0.5941784 2.7089565 -1.3446381 -0.27923304
0.17797993 -0.8485701 2.5735035 0.59842837 -19.088667 -0.04880873 0.5246809 0.9596259
-3.4833736 5.314443 -0.9754183 0.2809455 -1.0626701 11.932566 -0.3918243 -0.7829084
0.6801756 -0.4030643 -2.7295878 0.8691188 0.91922235 -0.5959692 0.078759566 -0.84933335
-5.0916066 -0.20117377 0.37780488 11.051387 3.1976578 0.5860605 1.0030434 0.32635057
00000000: 84bb 94bf 65fc 363f d729 ec3e 8351 cabf
00000010: 17f4 5140 65ef c03e d699 793e 47eb 72bf
00000020: 4207 b9c0 30ed a03f eb96 20c0 88c3 293e
00000030: 069e 60c0 7496 9640 f3df 213f 906d dc3f
00000040: 47dd dc3f 1873 8ebe 71f4 6d3f 9005 a2c0
00000050: 131c 183f 8b5f 2d40 1a1d acbf a2f7 8ebe
00000060: 5f40 363e e43b 59bf 48b4 2440 9a32 193f
00000070: 97b5 98c1 aaeb 47bd 7d51 063f 0baa 753f
00000080: 98ef 5ec0 eb0f aa40 04b5 79bf 17d8 8f3e
00000090: 9305 88bf caeb 3e41 329d c8be af6c 48bf
000000a0: fd1f 2e3f 725e cebe 91b1 2ec0 927e 5e3f
000000b0: 2852 6b3f 7091 18bf b24c a13d e96d 59bf
000000c0: 71ee a2c0 7f00 4ebe a46f c13e 7bd2 3041
000000d0: 6da6 4c40 1008 163f ba63 803f 6c17 a73e

encoder.1.1.running_var f4 [56]
1.4336789 0.77028155 0.4557444 2.6737218 43.423866 0.5431692 0.4791076 1.7936293
32.994137 2.3647273 18.028666 0.19102865 34.985153 58.865517 1.1190606 30.205465
24.48018 0.45048535 1.435988 19.138182 1.1455274 15.61478 69.478386 0.41538215
0.39163828 1.4586939 22.871494 0.33734354 435.98413 0.85604405 42.011036 1.9800727
23.34866 25.246782 1.2966006 0.29802516 1.3473917 202.08731 0.45775828 1.0651221
0.6225056 19.283852 17.711956 1.4161563 0.715219 0.5575011 0.1116347 0.8359375
15.569731 0.39215353 0.52027327 51.51188 51.840206 0.3150332 0.75848675 0.12875658
00000000: ca82 b73f 2c31 453f 5457 e93e 421e 2b40
00000010: 0ab2 2d42 230d 0b3f 974d f53e a595 e53f
00000020: fff9 0342 b157 1740 b53a 9041 049d 433e
00000030: ccf0 0b42 4a76 6b42 613d 8f3f cba4 f141
00000040: 69d7 c341 04a6 e63e 74ce b73f ff1a 9941
00000050: a4a0 923f 24d6 7941 eff4 8a42 f8ac d43e
00000060: d084 c83e 7bb6 ba3f d2f8 b641 4bb8 ac3e
00000070: f8fd d943 b425 5b3f 4d0b 2842 0673 fd3f
00000080: 0eca ba41 69f9 c941 02f7 a53f c196 983e
00000090: 5577 ac3f 5a16 4a43 4b5f ea3e ec55 883f
000000a0: 875c 1f3f 5445 9a41 16b2 8d41 9c44 b53f
000000b0: 9818 373f 64b8 0e3f bca0 e43d 0000 563f
000000c0: 9e1d 7941 59c8 c83e a130 053f 2a0c 4e42
000000d0: 5f5c 4f42 084c a13e 302c 423f c4d8 033e

encoder.2.0.weight f4 [98, 56, 5]
-0.033823457 0.12120359 0.053801645 -0.07501152 0.048260458 -0.041493356 0.006991838 0.0019581611
-0.04602753 -0.028090062 -0.089535885 0.04892721 -0.020349966 -0.026643539 -8.8074055e-05 0.00037211896
-0.02306229 -0.026794935 -0.018545998 0.05635601 0.0066825002 -0.028189661 0.051033802 -0.054741666
0.029690653 0.067729205 -0.07725609 0.07436372 0.046286475 -0.010970092 -0.08153732 0.07655924
-0.11824823 0.029402409 -0.044693228 -0.045718092 0.02661748 -0.06559426 0.05636277 -0.0026224349
0.053362124 0.008165999 0.0053018215 -0.008007769 0.052105874 -0.08867172 0.003222306 -0.07870057
0.04533842 -0.108610444 -0.04675549 -0.017986357 -0.047961343 0.05671693 -0.042170312 -0.044948544
-0.050323904 -0.09033939 -0.004494338 -0.033729155 -0.036133066 -0.024101246 -0.03302716 -0.022724211
0.116555534 0.02451761 0.025602788 0.08909407 0.0902803 0.04866242 0.025573324 0.05020478
0.13179718 0.18745044 -0.048792448 -0.011097954 -0.014472516 0.0939368 -0.06053315 0.0011983664
0.034952905 0.029721973 -0.052328262 0.007754258 0.033126 0.04286968 0.009846182 0.031979572
0.014365131 0.029465012 0.009480375 0.049722124 -0.000507333 -0.058692172 0.01817607 0.018998591
-0.012552664 0.08155519 -0.06840373 0.004447579 0.035635702 0.07139787 0.0006864118 -0.022927636
-0.029291023 -0.08264704 -0.0170857 -0.104994155 -0.1060266 -0.020024521 -0.0013851986 0.006956495
0.0028474692 -0.03124223 -0.053740393 -0.04042613 0.09382065 0.018848833 0.0458046 0.14509279
-0.008251819 0.01707056 -0.0550241 0.007258629 -0.09566809 -0.015324919 -0.034014616 -0.0024563416
0.02900467 -0.009141158 -0.03808189 -0.0107488455 0.052393913 0.039525814 0.057650603 0.010623713
0.03282521 0.051319186 -0.02105408 0.017761752 0.001120351 -0.042084787 -0.039843 -0.11364165
-0.15591207 0.0027321156 -0.02081832 0.035674404 -0.025348773 0.008043893 -0.033303693 -0.0070528085
-0.027432943 -0.059904072 -0.07110028 0.03983158 -0.02906956 -0.07867624 0.13532375 0.013533308
0.009088512 -0.021393355 0.044676952 0.0008473141 0.121815026 -0.022059165 0.09733482 0.08638178
0.042900525 0.050565336 0.0120972665 0.03213635 -0.042201005 -0.015008207 0.04840463 0.012418049
-0.037670523 -0.014070764 0.060516413 0.022931308 -0.0062607336 0.19115338 -0.00835503 0.028053982
0.06247376 0.053161006 -0.005717124 0.07798208 0.023815474 0.023268325 0.029239679 -0.03620141
-0.06256756 0.06505049 0.090318084 -0.026157495 0.047415584 -0.038588244 0.076856785 -0.005194968
0.013370335 0.075269 0.021957511 -0.07234155 -0.010958083 0.114831224 -0.011261326 0.07240565
-0.09855471 -0.00063415186 -0.015350387 -0.05007362 0.044856884 0.07351731 0.09289447 -0.002288396
4.6633955e-05 -0.05698489 0.06669835 0.005739548 -0.003088298 -0.050983272 0.03766723 -0.04271466
0.00036308295 0.00728173 0.01555511 -0.016683167 -0.06916451 -0.019937081 0.036188435 -0.069115184
-0.02094638 -0.017773602 -0.0009379098 -0.061286792 -0.016052207 0.013225281 0.024085863 -0.008469339
-0.025520245 0.04434442 0.013266423 -0.004152224 0.062225487 -0.006860249 -0.005879296 0.0012262379
-0.053705916 -0.023867972 -0.017512511 0.002524841 -0.11881968 0.016686434 -0.10498666 -0.0084036
00000000: 778a 0abd 9639 f83d 1d5f 5c3d a49f 99bd
00000010: c2ac 453d f0f4 29bd ca1b e53b 7e54 003b
00000020: 5d87 3cbd 211d e6bc 975e b7bd e667 483d
00000030: f9b4 a6bc 8d43 dabc 66b4 b8b8 f618 c339
00000040: 21ed bcbc 0d81 dbbc c7ed 97bc 8fd5 663d
00000050: e0f8 da3b 01ee e6bc d208 513d cc38 60bd
00000060: d039 f33c 9cb5 8a3d 7138 9ebd 024c 983d
00000070: e396 3d3d e7bb 33bc 0afd a6bd 17cb 9c3d
00000080: 212c f2bd 52dd f03c 3f10 37bd e542 3bbd
00000090: e70c da3c 4956 86bd a6dc 663d 28dd 2bbb
000000a0: 3e92 5a3d afca 053c e7ba ad3b 0433 03bc
000000b0: f86c 553d 8599 b5bd 532d 533b c42d a1bd
000000c0: c7b4 393d 276f debd af82 3fbd 2058 93bc
000000d0: 1d73 44bd 0350 683d c7ba 2cbd f71b 38bd
000000e0: 7020 4ebd dc03 b9bd 3d45 93bb 9527 0abd
000000f0: 4400 14bd fa6f c5bc 7d47 07bd 2028 babc
00000100: abb4 ee3d 28d9 c83c f0bc d13c f476 b63d
00000110: e1e4 b83d 3f52 473d 267f d13c 87a3 4d3d
00000120: d7f5 063e 02f3 3f3e 97da 47bd 31d4 35bc
00000130: 221e 6dbc f061 c03d 9cf1 77bd 8112 9d3a
00000140: c72a 0f3d 7f7b f33c 2956 56bd 6e17 fe3b
00000150: 21af 073d 1e98 2f3d e151 213c 03fd 023d
00000160: ba5b 6b3c 9c60 f13c 9353 1b3c 6da9 4b3d
00000170: 8bfe 04ba 3467 70bd fbe5 943c efa2 9b3c
00000180: b0a9 4dbc 6806 a73d 4117 8cbd ffbc 913b
00000190: bef6 113d 0c39 923d 51f0 333a bdd2 bbbc
000001a0: baf3 efbc da42 a9bd 4ff7 8bbc 2d07 d7bd
000001b0: 7924 d9bd 770a a4bc 8d8f b5ba 4ff3 e33b
000001c0: 9b9c 3a3b b5ef ffbc e31e 5cbd df95 25bd
000001d0: 0a25 c03d de68 9a3c 9b9d 3b3d 3493 143e
000001e0: a332 07bc 8fd7 8b3c f360 61bd cbd9 ed3b
000001f0: a2ed c3bd 5e15 7bbc e952 0bbd 93fa 20bb
00000200: 349b ed3c ccc4 15bc c2fb 1bbd ed1b 30bc
00000210: 009b 563d d2e5 213d 0a23 6c3d 150f 2e3c
00000220: ba73 063d 1134 523d 9b79 acbc 1881 913c
00000230: bed8 923a 1961 2cbd 6a32 23bd f4bc e8bd
00000240: 6aa7 1fbe 4b0d 333b 2e8b aabc 531f 123d
00000250: 3ba8 cfbc 88ca 033c 7469 08bd 3f1b e7bb
00000260: 0dbb e0bc f95d 75bd 069d 91bd 7026 233d
00000270: 4923 eebc 0221 a1bd 4f92 0a3e cfba 5d3c
00000280: fbe7 143c 1e41 afbc 2eff 363d 491e 5e3a
00000290: 287a f93d 6cb5 b4bc 7a57 c73d eee8 b03d
000002a0: 76b8 2f3d 991d 4f3d 9d33 463c 68a1 033d
000002b0: f6da 2cbd fce4 75bc ef43 463d 1375 4b3c
000002c0: 684c 1abd 1089 66bc 0fe0 773d 70da bb3c
000002d0: d726 cdbb b6bd 433e 89e3 08bc 77d1 e53c
000002e0: 7ce4 7f3d 5bbf 593d b656 bbbb 12b5 9f3d
000002f0: ab18 c33c 379d be3c 0d88 ef3c ee47 14bd
00000300: 6c23 80bd 3139 853d b0f8 b83d 3e48 d6bc
00000310: d836 423d b50e 1ebd 1767 9d3d 8d3a aabb
00000320: 400f 5b3c a226 9a3d 3de0 b33c ce27 94bd
00000330: 8889 33bc a22c eb3d 6d81 38bc 6a49 943d
00000340: 0dd7 c9bd 363d 26ba 3180 7bbc ff19 4dbd
00000350: dabb 373d 3e90 963d 753f be3d eaf8 15bb
00000360: d498 4338 fd68 69bd 2599 883d d112 bc3b
00000370: 0b65 4abb d6d3 50bd f448 1a3d 91f5 2ebd
00000380: 2b5c be39 949b ee3b dcda 7e3c 23ab 88bc
00000390: 1fa6 8dbd 1753 a3bc 533a 143d 438c 8dbd
000003a0: be97 abbc f299 91bc 10de 75ba dc07 7bbd
000003b0: eb7f 83bc d9ae 583c b74f c53c fcc2 0abc
000003c0: d50f d1bc 7fa2 353d 695b 593c 610f 88bb
000003d0: 27e0 7e3d f1cb e0bb 1ca7 c0bb b7b9 a03a
000003e0: bcfa 5bbd c486 c3bc 6676 8fbc ce77 253b
000003f0: bb57 f3bd fdb1 883c 3f03 d7bd 41af 09bc

encoder.2.0.bias f4 [98]
-0.109441176 -0.9230369 1.2209005 -1.013085 -3.8780327 0.110661194 -0.23607053 -0.8049316
-0.9041298 -0.010350329 0.06394262 0.5678168 0.2008343 -0.12243364 0.24028406 1.3650103
0.99841183 2.492365 0.746483 1.1296417 0.70229495 0.7125106 -3.0205076 0.040278602
0.6323 1.6009755 -0.017507987 -1.3229096 -2.857295 0.28240988 -0.8159382 3.2976708
-1.519285 -0.053693663 -0.008674099 -1.1080959 1.3278595 0.011090153 0.44719416 0.36349788
-0.88487905 1.4038008 -0.64798284 -0.009679191 1.1969706 -0.0140728075 -1.3324075 -0.040045153
-0.1961999 1.0965685 -1.6453024 -4.1657753 0.13721462 0.36294457 -0.032322146 -0.010926633
0.1630278 0.7010806 -4.1767597 -1.1188587 2.276411 -0.6799014 1.2684942 -2.5560067
-1.0118465 -0.42227477 -0.07995598 1.7271186 -1.6946578 2.664044 0.6612685 4.138077
1.2226387 -0.0338132 0.8223847 -0.80160916 0.19533123 -0.03668566 0.011168247 0.018386532
-1.817448 -0.4318347 0.07671991 -0.034573644 0.04902359 -0.6820713 -1.0459224 2.583955
0.02293961 -1.19272 -1.6319222 -0.6537573 -1.9840131 1.5580161 0.61999303 -0.12935846
-0.0060790973 -0.0067058443
00000000: b222 e0bd 254c 6cbf 7846 9c3f c5ac 81bf
00000010: b031 78c0 56a2 e23d 79bc 71be ff0f 4ebf
00000020: 0d75 67bf 6d94 29bc 59f4 823d 715c 113f
00000030: 82a7 4d3e 7dbe fabd 060d 763e a8b8 ae3f
00000040: eb97 7f3f e882 1f40 8319 3f3f 1998 903f
00000050: 9ac9 333f 1867 363f ff4f 41c0 2dfb 243d
00000060: 6ade 213f c4ec cc3f e96c 8fbc 1a55 a9bf
00000070: ecdd 36c0 0798 903e 53e1 50bf 0a0d 5340
00000080: ee77 c2bf e3ed 5bbd cf1d 0ebc 16d6 8dbf
00000090: 4df7 a93f 79b3 353c a2f6 e43e 651c ba3e
000000a0: 6f87 62bf bfaf b33f 34e2 25bf 7895 1ebc
000000b0: 5536 993f a291 66bc 548c aabf 6306 24bd
000000c0: a0e8 48be 5b5c 8c3f 4599 d2bf 084e 85c0
000000d0: fd81 0c3e dfd3 b93e 3a64 04bd 9f05 33bc
000000e0: c2f0 263e 057a 333f 04a8 85c0 c336 8fbf
000000f0: b8b0 1140 050e 2ebf 055e a23f 9d95 23c0
00000100: 3084 81bf 6634 d8be f6bf a3bd 3912 dd3f
00000110: 8cea d8bf b27f 2a40 e448 293f 206b 8440
00000120: 6d7f 9c3f b67f 0abd ce87 523f 4236 4dbf
00000130: e904 483e b443 16bd 06fb 363c 5a9f 963c
00000140: 23a2 e8bf 7019 ddbe 541f 9d3d 189d 0dbd
00000150: f6cc 483d 3a9c 2ebf c9e0 85bf 855f 2540
00000160: d9eb bb3c 0dab 98bf d4e2 d0bf a35c 27bf
00000170: 24f4 fdbf 126d c73f ddb7 1e3f 8b76 04be
00000180: 2a33 c7bb b3bc dbbb

encoder.2.1.weight f4 [98]
0.0002005649 0.32382837 0.105445266 0.2369983 -0.24154998 0.006379134 0.30687383 -0.10736063
-0.082785435 -0.004691675 -0.017260456 0.4297218 0.16398814 -0.0035142142 0.25566635 -0.37290317
0.2020606 0.26125714 -0.25327572 -0.30689698 0.38509125 0.29782784 -0.21245919 0.015275061
0.15919521 0.22435606 0.00077109353 -0.44973296 -0.34634805 -0.22268239 -0.13013092 0.4088522
-0.44073194 0.0044823387 -0.015586632 -0.26690027 0.26971292 0.010502768 -0.20603518 0.30709654
-0.37391868 0.2677301 0.16932832 0.0020796508 0.21422416 0.0010665512 0.31744105 0.00040905847
-0.40207076 0.41891387 -0.32745612 0.292105 -0.01012504 -0.3354558 0.0055342675 -0.211586
0.47520342 0.288345 0.3587663 -0.25753886 -0.26048115 -0.1959285 0.10958828 -0.19577157
-0.18589906 0.23854995 0.0016472205 0.22471085 -0.3065667 0.10075453 -0.27279815 -0.29902756
0.38641456 0.012286395 0.3919 0.2166654 0.25041747 -0.0043608127 -0.0022240526 0.00041686563
-0.40474847 0.3632008 -0.018148623 0.0014456646 -8.099288e-05 0.26766303 -0.21408701 0.3673962
-2.513547e-05 -0.4154549 -0.25530598 0.1596121 -0.3080529 0.12536792 -0.28912508 0.4562192
-0.00068570074 0.0081599215
00000000: bb4e 5239 d5cc a53e b0f3 d73d afaf 723e
00000010: e158 77be 0e08 d13b 911e 9d3e e4df dbbd
00000020: 698b a9bd 9fbc 99bb cd65 8dbc 7f04 dc3e
00000030: 82ec 273e bb4e 66bb b3e6 823e 2aed bebe
00000040: f9e8 4e3e 7fc3 853e 5bad 81be 9a21 9dbe
00000050: ae2a c53e e47c 983e e78e 59be 4044 7a3c
00000060: 1204 233e 98bd 653e 3623 4a3a 6643 e6be
00000070: 8854 b1be da06 64be 0a41 05be 1355 d13e
00000080: 9ea7 e1be 95e0 923b 135f 7fbc 27a7 88be
00000090: d017 8a3e cd13 2c3c e3fa 52be c23b 9d3e
000000a0: 4572 bfbe eb13 893e 6764 2d3e c04a 083b
000000b0: 945d 5b3e 85cb 8b3a a287 a23e e676 d639
000000c0: 38dc cdbe e17b d63e 54a8 a7be c98e 953e
000000d0: 7fe3 25bc ddc0 abbe cd58 b53b 00aa 58be
000000e0: dd4d f33e f5a1 933e 37b0 b73e 22dc 83be
000000f0: c95d 85be 7ba1 48be d26f e03d 5878 48be
00000100: 535c 3ebe 7046 743e 8ce7 d73a 9a1a 663e
00000110: 4ff6 9cbe 6458 ce3d 33ac 8bbe 241a 99be
00000120: 21d8 c53e e04c 493c 1ea7 c83e 89dd 5d3e
00000130: b836 803e 26e5 8ebb 69c1 11bb c28e da39
00000140: 313b cfbe 75f5 b93e 6cac 94bc 747c bd3a
00000150: b9da a9b8 210b 893e a039 5bbe 5b1b bc3e
00000160: 03da d2b7 81b6 d4be 77b7 82be 5b71 233e
00000170: 1cb9 9dbe 7360 003e 3408 94be 9095 e93e
00000180: 99c0 33ba 31b1 053c

encoder.2.1.bias f4 [98]
-0.12794502 -0.4163473 0.011010293 -0.24252634 -0.071281336 -0.10398181 -0.19565406 0.027197694
0.06498623 -0.046832968 -0.14704478 -0.13847175 0.060774773 -0.12704788 0.23422061 0.2946071
-0.02764015 -0.09707212 -0.08694757 0.30111873 -0.13673674 -0.07526868 -0.049210023 -0.098569684
0.07041752 0.006967531 -0.01215428 -0.18966798 -0.18870479 -0.107289076 0.03408288 -0.1586101
-0.18923013 -0.046493977 -0.07845082 -0.09603608 -0.16574897 -0.13067874 -0.014697063 -0.25254214
-0.21147083 -0.11243276 0.070082955 -0.0102983825 -0.05401454 -0.020700425 -0.15213986 -0.01114393
-0.15539393 -0.36267996 -0.40939477 -0.20805456 -0.062075935 -0.27430382 -0.035376962 0.1507546
-0.3206297 -0.13970636 -0.39098245 -0.13281254 -0.12824288 -0.052214805 -0.0007285703 0.0131204445
0.04318743 0.0009861605 -0.025077015 -0.12152211 -0.0649657 0.033204317 -0.34461835 -0.34088498
-0.3640236 -0.09285647 -0.1560118 -0.19645743 -0.16951692 -0.0513726 -0.07592546 -0.051319636
-0.3035296 0.49998346 -0.087496564 -0.0327845 -0.013298819 -0.27981213 -0.16087508 -0.18198438
-0.08716459 -0.15192875 -0.094335034 0.024594003 -0.11636619 0.0015424223 -0.3096594 -0.19047947
-0.07329928 -0.086151116
00000000: 0504 03be 792b d5be 8464 343c d358 78be
00000010: f3fb 91bd 6af4 d4bd 8a59 48be b3cd de3c
00000020: 8017 853d edd3 3fbd e892 16be 8acb 0dbe
00000030: f8ee 783d d718 02be 87d7 6f3e bed6 963e
00000040: 996d e2bc bfcd c6bd 9111 b2bd 3c2c 9a3e
00000050: b704 0cbe 7726 9abd 7390 49bd e7de c9bd
00000060: 1037 903d e34f e43b bf22 47bc 5338 42be
00000070: d43b 41be 60ba dbbd 7d9a 0b3d b06a 22be
00000080: 8bc5 41be 7870 3ebd d3aa a0bd 90ae c4bd
00000090: 19ba 29be a6d0 05be f3cb 70bc 344d 81be
000000a0: cf8b 58be 2643 e6bd a787 8f3d 8cba 28bc
000000b0: 5a3e 5dbd f093 a9bc 8dca 1bbe 0895 36bc
000000c0: 961f 1fbe 30b1 b9be 319c d1be 410c 55be
000000d0: 5643 7ebd 8d71 8cbe 6fe7 10bd 6a5f 1a3e
000000e0: 9329 a4be 2f0f 0fbe da2e c8be 0300 08be
000000f0: 1a52 03be 31df 55bd 86fd 3eba 22f7 563c
00000100: 4de5 303d 0e42 813a 506e cdbc 96e0 f8bd
00000110: bd0c 85bd 4001 083d d171 b0be 7a88 aebe
00000120: 4d61 babe 882b bebd 8fc1 1fbe 232c 49be
00000130: d895 2dbe 136c 52bd cf7e 9bbd 8a34 52bd
00000140: 3b68 9bbe d5fd ff3e 6631 b3bd 0a49 06bd
00000150: 4ae3 59bc 8943 8fbe 70bc 24be 1d5a 3abe
00000160: 5983 b2bd 3693 1bbe ba32 c1bd 5d79 c93c
00000170: 6651 eebd 1b2b ca3a ad8b 9ebe 0d0d 43be
00000180: ef1d 96bd ff6f b0bd

encoder.2.1.running_mean f4 [98]
-0.1647234 -0.25517017 0.19116448 0.27282158 1.3398077 -0.027938979 2.199643 1.2774174
1.0207559 0.020009328 -0.2801984 -4.484294 -0.62799823 -0.22988196 -2.1004515 4.300746
-2.555047 -0.19707644 4.1540537 1.2762218 -3.3157477 -0.06901804 2.8298383 -0.23908246
-2.169686 -4.7083945 0.060085222 4.784452 0.21354425 -4.7917275 -0.23277788 -1.6591256
4.2341146 0.08147648 -0.29593664 0.46103057 0.49268964 0.028330747 1.341428 -0.5869737
0.52371323 -0.45990896 -3.5338764 0.06850871 4.0573945 0.029569712 -7.859474 0.084580496
5.0024347 -0.7126046 -3.0609238 -3.2799127 0.4760094 2.5180776 0.1473587 3.3454635
-5.3246484 -2.1020854 -3.5845883 1.3232609 0.6985943 1.739108 -1.8102208 0.64420426
3.9249284 -2.1236475 -0.030471494 -1.7837086 3.8202333 -1.0351772 0.16193351 3.5708694
-0.13802007 -0.03974866 -2.7360606 1.1622814 0.29715404 0.053567287 0.070803516 0.14948325
1.7219558 -3.89502 0.11366518 0.1632448 0.06992606 1.1367099 -0.012839915 0.5060543
-0.011922584 4.5693145 0.7162382 -1.8901125 -0.18054712 -2.6672344 -1.6363184 -4.5899515
-0.20464964 0.06322171
00000000: 40ad 28be aaa5 82be 9fc0 433e 45af 8b3e
00000010: d27e ab3f 49e0 e4bc f3c6 0c40 6a82 a33f
00000020: 21a8 823f 9aea a33c 2a76 8fbe 567f 8fc0
00000030: 7ec4 20bf 2d66 6bbe cc6d 06c0 b69f 8940
00000040: e485 23c0 68ce 49be 02ee 8440 3c5b a33f
00000050: 3635 54c0 5559 8dbd 121c 3540 08d2 74be
00000060: 23dc 0ac0 2bab 96c0 ec1b 763d 3b1a 9940
00000070: 58ab 5a3e d555 99c0 535d 6ebe 3a5e d4bf
00000080: de7d 8740 24dd a63d 0285 97be 330c ec3e
00000090: d141 fc3e e215 e83c eab3 ab3f e943 16bf
000000a0: 1212 063f 3079 ebbe 082b 62c0 4b4e 8c3d
000000b0: 2dd6 8140 2e3c f23c d080 fbc0 8a38 ad3d
000000c0: f213 a040 416d 36bf 2de6 43c0 17ea 51c0
000000d0: 81b7 f33e 2f28 2140 33e5 163e 131c 5640
000000e0: 8563 aac0 9188 06c0 e569 65c0 9d60 a93f
000000f0: 13d7 323f 179b de3f 51b5 e7bf 92ea 243f
00000100: 0732 7b40 d7e9 07c0 5b9f f9bc 9050 e4bf
00000110: b47e 7440 b080 84bf e6d1 253e 2089 6440
00000120: 2255 0dbe 7ecf 22bd 9e1b 2fc0 a3c5 943f
00000130: 9324 983e 5f69 5b3d 6f01 913d 2312 193e
00000140: 0c69 dc3f 0248 79c0 4ac9 e83d a529 273e
00000150: 6535 8f3d b67f 913f 825e 52bc c68c 013f
00000160: f156 43bc d337 9240 635b 373f 35ef f1bf
00000170: 58e1 38be f8b3 2ac0 e272 d1bf e2e0 92c0
00000180: ad8f 51be 627a 813d
