models/best-vae_circ-ThreeGPP-noisy-3gpp-32rx-1p.pt (torch, 428559 bytes, 44 tensors)

embed_data.weight f4 [32, 2, 1]
00000000: 5af4 73bd c367 0140 e5fa 723b bc45 1abc
00000010: 15ba 90bf 3ac8 64be 9830 673d c53e a8bd
00000020: b9fc babe e9c4 71be e4f0 85bc 9971 ab3b
00000030: be2c b4be 2d19 b1bf a7d4 b93f 2a19 8b3d
00000040: c75e 53bb 7db6 5d3b 8371 8c3b 5aa1 24bc
00000050: f483 18bc f89e 3a3c 81d3 103c 8784 933b
00000060: c844 c63e 2476 87bf 91d2 5a3c d708 3bbb
00000070: 9ea3 61bf 6150 433e 86ca cd3e 7576 703f
00000080: 3722 a6bf 8307 63be 4f2c 343c 6487 1ebc
00000090: d3a4 aebb 8a29 b43b b265 d73b cde2 5dbc
000000a0: 0710 3ebb 3113 d53b 5302 81bf 3d06 d23e
000000b0: 5b5f b4bb 4f63 473c f342 8a3e a5e2 cbbe
000000c0: c7f6 8639 9415 0fbc 77a6 193b 6c2f 833c
000000d0: 7b0e 87bc 7381 d23c 4b52 dcbb 55fe a2bb
000000e0: ecb9 203c be20 94bb cb20 6a3b 2ffc 5bbc
000000f0: 72d3 5fbb a664 e73b 9f16 2cbc ea67 fc3b
-0.059559204 2.021958 0.0037075814 -0.00941604 -1.1306788 -0.22342005 0.056442827 -0.08215097
-0.36520937 -0.23610272 -0.016350217 0.0052320478 -0.35190386 -1.3835808 1.4518021 0.06791909
-0.0032252537 0.0033830695 0.0042859926 -0.010048235 -0.009308804 0.01139044 0.008839489 0.0045018825
0.3872435 -1.0582929 0.013355867 -0.0028539205 -0.88140285 0.19073631 0.40193576 0.9393075
-1.2979192 -0.22170834 0.010996892 -0.009675834 -0.005329707 0.005498116 0.0065734023 -0.013542843
-0.0029001252 0.006502532 -1.0078834 0.41020384 -0.0055045313 0.012169673 0.27004203 -0.39821354
0.00025742335 -0.008733172 0.0023445168 0.016013823 -0.016486397 0.025696492 -0.0067236773 -0.0049741664
0.009809952 -0.0045205047 0.0035725113 -0.0134268245 -0.003415313 0.007061559 -0.01050344 0.007702817

embed_data.bias f4 [32]
00000000: f3bb e2be 3128 23c0 88f4 36be f748 aa3f
00000010: ec06 f4bf 827c de3f 611e 75bf 590a 323f
00000020: 397f 913f 3249 30c0 484a 2c39 1a73 873b
00000030: a01c 8b3f 7a83 6d3b d628 c03f 2807 95bf
00000040: e020 cbbf 7ad5 41bc afe7 fc3f 1b86 8e3b
00000050: cb8b b63f eabd a53f 82f5 d2bf 0a55 e3bf
00000060: b2e6 c238 d415 33bf 4198 f1bb 0d93 9ebb
00000070: 4090 063c 0c88 e3bb f574 1840 fb73 9c3b
-0.4428402 -2.549328 -0.17866719 1.3303517 -1.9064612 1.7381747 -0.9574948 0.6954704
1.136695 -2.7544675 0.0001643087 0.004133594 1.0868111 0.0036241696 1.5012462 -1.1642809
-1.5869408 -0.011830682 1.9758204 0.0043494827 1.4261411 1.2948582 -1.6481173 -1.7760327
9.293611e-05 -0.6995518 -0.0073728864 -0.004839307 0.008213103 -0.0069437083 2.3821385 0.004774568

fc_mu_var.weight f4 [32, 294]
00000000: d99b 733b bc84 033c 9e0b 413c 4d4a 873a
00000010: aaaf cebc bd44 56bc 8ea7 e2bb 8301 d03b
00000020: 0bf8 e0bc 69c1 ce3b 9ccd bfba 57eb 6aba
00000030: fb7f e4bb a32f c73b 5a89 dc3a d711 f63a
00000040: a72f 003b c727 f13c dc84 62bd 9505 3f3d
00000050: 4246 d63d c3b2 28bc 18f4 6f3b 5819 c73c
00000060: 48da 6e3c 544f 2b3a b572 00bb 347f aa3b
00000070: 9249 d2bc 3328 a5bc bf4f f7bc 7203 8aba
00000080: a85c f3bb 1900 fa39 fb2c c43b 5c1f b2bb
00000090: 1b71 eb3b dd58 56bd 17cc 2f3d cf79 e5bc
000000a0: 9ad2 22bd e7e0 b5bc 941f debc 5fff 85bb
000000b0: 1178 7abc 52a1 723c 8822 13bc 3882 22bc
000000c0: 6d17 983d 88b1 14bd 8f74 013c 68d9 c83a
000000d0: c102 9bbc 23e7 60bc f474 e8bc 8a1d 2c3c
000000e0: f42f 473d b07f ae3b 05c6 94bb 3ec8 71bc
000000f0: 1aa0 21bc ac4f 413c 8c18 393b 620f d23a
00000100: 06ab bdbb 3292 803c 5d20 08bd c19d 99bc
00000110: c3e4 1b3c 5de3 b6bc a4ac c139 c694 0f3c
00000120: 4989 10bd 6791 c03b 9372 693b 1d63 ad3a
00000130: d5f6 0f3b 1bda db3b d1f1 8f3d b4d9 473d
00000140: f3df 3abd a5fd c23b 5bfd 06bc aee0 9fbc
00000150: a938 a43c e01f 6e3b d9c7 963c bde2 463b
00000160: 2e59 e6bb 0c50 773c 8e50 1fbb e71e 453c
00000170: 6fe3 fc39 91d0 a5bb 349c 9bba 54c1 853b
00000180: 7086 b4bd bd4e cd3b f493 53bd 58e0 713c
00000190: dc1c 12bc 970e 413c f2a9 553b 8955 893a
000001a0: 9313 9fba be22 ca3d be50 debc 6ec7 0dbb
000001b0: 7e8d 15bd 0d08 86bd 406b 023d 4c41 c23c
000001c0: 2854 9abc d019 713c 5ea0 84bc 4433 4a3b
000001d0: 22de 3bbc 040f 97bb eae6 b73b 7f26 20bc
000001e0: 3d32 b43b 8df3 093b 31d4 8c3c 3a73 193c
000001f0: b605 2ebb 07f7 0a3c cb95 023c 1a40 e23b
00000200: 3aba 7cbb 4f74 d23b 9d5b 77ba d6d1 bbbb
00000210: a166 673c cb80 9cbc 8862 5cbb e532 2abb
00000220: 5260 743b 5867 5a3b 269f 693c d9ad 3d3c
00000230: 60ac 673c 8651 273b af15 6e3b 58f2 afba
00000240: 084c 50bc 3970 933c ead8 283c d2ff 0939
00000250: 8feb 3abc db22 03bd 7dd8 663c 1071 c9b9
00000260: 723f bf3b ea17 74bb ac24 a73c 1cc8 d0bb
00000270: 165a b73c f026 92bd 6f16 813d 6bef 4d3a
00000280: f2b9 85bb 5704 413b 575a 833b f3af 013c
00000290: ea25 803c 7bb2 523c 5779 bfb9 9e32 ebbb
000002a0: f79c fa39 32ff 943b e716 dcbc b9b5 433b
000002b0: dc8c eeba 0c55 1e3a bc7d c63b b0eb 553a
000002c0: 9727 a43b 279c c63b 5768 aa3b ecfb 8a3c
000002d0: 9c30 d5bb 2111 123d 6675 acb9 938f 523c
000002e0: dd03 bf3b 662d 06bb f5a6 0bbd d96a 2e3d
000002f0: 5ce0 a53c d86c d8ba 34e3 8c3d f02b 33bd
00000300: cec3 02bc 7b5a 8b3c ab75 7eba bb02 fc3c
00000310: bf09 a5bc b234 fb3d 6e64 a437 8da6 593b
00000320: a3fe 3d3c 5e2b d0bb aa6c 01bd eabd 22bc
00000330: c24e 853c 4226 b13b d365 8739 bef0 2a3c
00000340: bb33 91bb ba18 e73b ade8 563a 6a1a 4e3d
00000350: f064 acbc f3e2 e43b a4d1 0bbb d98a 993a
00000360: e615 4a3d 4de3 2fbc f26c d4bd fc8d b03c
00000370: c111 53bb 232f 03bc ade2 f1bb 3216 fb38
00000380: 79c1 f13b 7ec5 c83b a61f d73b b2cb 073c
00000390: ad08 e43b 2562 d839 b39f 33bc 0c03 e93c
000003a0: 74b4 0e3c f0f5 adbb 37c4 6dbc a311 7bbc
000003b0: e591 d93b 2264 a1bb c195 c53b 9eff fa3b
000003c0: 43b2 feba 993c 9f3c cb26 81bb bde0 0a3d
000003d0: c92f 8fbc 83e5 b53a d34e 2bbc 77fe 0d3c
000003e0: 530a 34bc 33fc 063c 86c8 3dbc 2898 c6bb
000003f0: d31c 3abc 0be9 bfb9 41e0 3d3c 7e3a 7a3b
0.003717175 0.008027252 0.011782555 0.0010321826 -0.025230248 -0.013077912 -0.0069169467 0.0063478365
-0.027462026 0.0063096774 -0.001463342 -0.000896146 -0.0069732643 0.006078677 0.0016825602 0.0018773627
0.0019559653 0.029437913 -0.055302486 0.046636183 0.10462619 -0.010296526 0.0036613997 0.024304077
0.0145784095 0.0006534953 -0.001959962 0.005203152 -0.025669847 -0.02016077 -0.030189393 -0.0010529591
-0.007426817 0.0004768379 0.0059868074 -0.0054358672 0.007185114 -0.05233084 0.042919245 -0.028012184
-0.039751627 -0.022201968 -0.027114667 -0.0040892805 -0.015287415 0.01480897 -0.008980401 -0.009918742
0.07426343 -0.03630212 0.007901325 0.0015323581 -0.018922212 -0.013726982 -0.02837608 0.01050509
0.048629716 0.00532528 -0.0045402073 -0.014757214 -0.009864831 0.01179878 0.002824339 0.0016026313
-0.00578821 0.015694711 -0.03323399 -0.01875198 0.00951499 -0.022325212 0.00036940456 0.008763498
-0.035287175 0.0058767083 0.003562127 0.0013228391 0.0021967192 0.00670935 0.07028545 0.048791602
-0.04562373 0.005950647 -0.008239116 -0.019516315 0.020046549 0.0036334917 0.018405842 0.003034755
-0.007029674 0.015094768 -0.002430949 0.0120312935 0.00048234637 -0.0050602634 -0.0011872114 0.0040818844
-0.088147044 0.00626549 -0.05165477 0.01476296 -0.008918013 0.011783264 0.0032602516 0.0010477762
-0.0012136571 0.09869908 -0.02713811 -0.0021633762 -0.03651189 -0.06544504 0.031840563 0.023712777
-0.018838957 0.014715627 -0.01618975 0.003085331 -0.011466535 -0.0046099443 0.005612244 -0.009774803
0.005499153 0.0021049709 0.017191024 0.009365851 -0.0026553697 0.0084817475 0.007970284 0.006904614
-0.0038563148 0.0064225565 -0.00094359537 -0.0057318015 0.01412359 -0.019104382 -0.0033628065 -0.0025970277
0.0037288857 0.0033325758 0.014259135 0.011577093 0.0141402185 0.002553077 0.0036328842 -0.0013423664
-0.01271344 0.017997848 0.010305623 0.00013160639 -0.011408701 -0.032015663 0.014089701 -0.00038421946
0.0058364207 -0.00372457 0.020403229 -0.006371511 0.022381824 -0.07136333 0.06303107 0.00078558055
-0.0040810043 0.002945205 0.004008572 0.007915485 0.015643079 0.012859936 -0.00036520764 -0.007177665
0.00047800664 0.004547023 -0.02686639 0.0029862954 -0.0018199938 0.00060398947 0.006057469 0.00081604254
0.0050096023 0.0060610953 0.0052004266 0.016965829 -0.006506039 0.035660867 -0.00032893865 0.012851614
0.005829318 -0.0020473837 -0.03409477 0.042582367 0.020248584 -0.001651193 0.06879273 -0.043743074
-0.007981254 0.017010918 -0.0009706865 0.03076302 -0.020146249 0.1226591 1.959709e-05 0.0033210844
0.011596355 -0.006352826 -0.03159777 -0.009932974 0.016272906 0.005406172 0.00025825071 0.010433374
-0.0044312156 0.007052508 0.00081981235 0.05031816 -0.021044225 0.0069850623 -0.0021334672 0.0011714353
0.04933729 -0.010735345 -0.10372342 0.021552078 -0.0032206627 -0.008006844 -0.007381758 0.00011972747
0.0073778 0.0061270585 0.006565052 0.008288311 0.006959042 0.00041271854 -0.010963368 0.028443836
0.008710016 -0.005308859 -0.014512113 -0.015324029 0.0066397064 -0.004925267 0.006029815 0.0076598665
-0.0019431788 0.019438075 -0.003941392 0.033905733 -0.01747884 0.0013877604 -0.010455805 0.008666626
-0.01098879 0.00823884 -0.011583453 -0.006060619 -0.011359411 -0.0003660399 0.011589111 0.0038181837

fc_mu_var.bias f4 [32]
00000000: 47b0 90bb e1f2 90bb e3b4 b0bd 2f31 70bb
00000010: 60e8 91be 63de 94bb 7490 3e3e 232a 013f
00000020: 3fd2 1bbb 54ca 96bd cfec f3ba 6b4e 983e
00000030: 20c9 08bb 2c79 1bbb 6a0c 6ebb 5e2f 6f3b
00000040: eb28 e0ba 8372 7fbb c022 d4bf 4dc6 00bb
00000050: 9ce4 0dc0 d7fd 80ba 0118 b5bf 002e 21c0
00000060: 0188 75b5 76cd 0ac0 1c80 53bb daea 11c0
00000070: 98d9 8f3b 7162 ef39 8146 5abb dc74 b1ba
-0.004415545 -0.0044234847 -0.086282514 -0.003665041 -0.284976 -0.004543112 0.18609792 0.5045492
-0.002377644 -0.0736281 -0.0018610003 0.29747328 -0.0020871833 -0.0023723347 -0.0036323317 0.003649674
-0.0017102038 -0.0038978166 -1.6573105 -0.0019649446 -2.2170782 -0.0009841275 -1.414795 -2.5184326
-9.1467524e-07 -2.1687903 -0.0032272404 -2.2799592 0.004389953 0.00045658977 -0.0033306184 -0.0013538855

encoder.0.0.weight f4 [32, 32, 5]
00000000: bc78 afbd 4312 d83c e0ca fcbb 734a 773c
00000010: 7dbe 24ba da92 763c 04c5 96bd 0cb4 3abd
00000020: f995 c7bd 0818 883d ad2f ff3b 21f2 9e3c
00000030: 2277 ca3b 841a b83d f96c 2b3b e587 f23c
00000040: 0376 aa3c 1e14 8abc 4f5b 43bd 2626 6fbd
00000050: 6691 debd 82fc 75bd 6ff1 69bb 27d4 0a3d
00000060: 8cae 84bd 078d 203c 94ab 63bc cf16 563c
00000070: f0b1 353d 6746 5dbc 8ade 08bd d49d fcbd
00000080: 6fe0 bf3d cf15 4e3d 180a 943d f474 0dbc
00000090: 6094 46bb 6dc4 61bd e9ff 28bd 52a6 ac3c
000000a0: f786 b0bd 7ecb 273d 7ab5 d73c 6520 b6bd
000000b0: 18ec 79bc 5b48 ae3c 6068 95bd e521 14bc
000000c0: 17bd 043d 88f2 043d 1014 3abd 1018 9a3d
000000d0: 35a1 07bd 8f04 c8bd 65ef b1bd 6ccd 433d
000000e0: 675e 83bb 8acd bbbc 8c3d b8bd d901 17bd
000000f0: 55d8 8d3c f966 29bc bb30 3d3d 533b 94bd
00000100: f6f2 8d3d f463 b9bc 6109 68bd 4710 7bbc
00000110: 3174 953c 32fa 97bc 8839 5f3c 9bfa 673d
00000120: dd94 223c 41c1 573d d17a b6bd cc8e 0c3d
00000130: 0b5b 57bc ac1f 38bd 1b80 393b d59e 573d
00000140: fa07 863d 48d2 383d 045d bc3d ec75 9f3c
00000150: 9f9a ffbc 15f8 00be 8fa6 4d3d 22e8 37bd
00000160: 2df3 d43c 38fc 2fbd 79bf 203d 96e1 733d
00000170: 554c 0dbd e7a8 bb3c d9bf 60bc 97d9 66bd
00000180: 6341 32be 41a6 303d 7d4e 253d cca6 acbc
00000190: 0c12 40bd 1b4e 2fbb f289 2abc 92fd 423c
000001a0: 0b75 483d 5266 02bb 6de5 883d 499a 79bd
000001b0: 6714 c53d f8e7 073d 629b 52bd 3955 44bd
000001c0: aa23 c0bd 47da 3d3d 11b9 913b 663c fc3c
000001d0: 6fc9 aebc 9917 54bb 68a8 d2bc ad2a a5bd
000001e0: 6034 b03d dd8d 01bb 45eb a43b a676 673d
000001f0: 5b19 00bd 0e5c 803d dd7f f93c 8424 87bd
00000200: 96d3 933c 8eac 18bd f7d5 413c b235 81bd
00000210: ee8e b0bd 028a 073d a011 6fbc 495e 903d
00000220: 8652 3d3d 9742 163e 6180 abb9 9210 e0bd
00000230: 20a4 87bd d207 96bd 9fc9 9e3c eaa3 3e3d
00000240: 8aab 033d 98cd 1bbd b48e c13c defb ed3c
00000250: 2b23 efbc 64ae 80bc eb72 7abd 44df bd3c
00000260: 56af cb3c a2be 42bc 655f 64bd 572d 713d
00000270: 42ca 123d a007 3ebd c8f1 693d ea9a f03c
00000280: 4d5d 2ebf af01 85bf 34e8 72be c61d 7c3d
00000290: 6de0 d440 b3dc 803d e675 a8be 03a4 1bbe
000002a0: d304 37bf e21d f2be 19b0 d23e 8cab b63e
000002b0: f050 c83d 658f e63e 9ea9 84be f140 f53e
000002c0: fe94 6a3f bc47 883e 9ab4 efbd ac8e 3fc0
000002d0: 25f3 cc3e 7553 1b3f 65bc 813e 37a7 cf3e
000002e0: 621e 85bf 7f9d 9ebe 985f 04be 5a62 c2be
000002f0: e983 043e 1d4c 0040 b6bf 483f d6a2 833f
00000300: 95cb a13e b671 ac3d 0093 9cc0 5b2f 86be
00000310: 4b6a 91be e099 b1bd 9a04 e6be da2b 29bd
00000320: e567 1c3c 7183 963e 156e 9b3e 67c8 c73e
00000330: dc7b 623e 3d76 953d 0eec b3be 6e28 d9bd
00000340: 6a5b 43bf d6b3 febe 4aef 5d3d 354e d1bd
00000350: 7970 fd3d 2f74 2a3e 14e4 483e df9a 95bd
00000360: 4b9b db3d f291 8a3e 7f97 bcbe 4b2d 483e
00000370: 5677 283f 988f 813f c847 6a3e 63fd 31be
00000380: 9d65 90c0 758a 18bc 1926 a5bd ee33 bfbd
00000390: 9e97 d53d 356f 8b3d b9ba ddbc 1ae7 08bd
000003a0: 89ff 64bc 033e 7e3e 84d4 073f d78d 27bf
000003b0: bf0d 7cbf 0163 98be 919e e2bd 11a6 6940
000003c0: 477d a33e 1453 893e ab9f 153e 040e b23e
000003d0: 9b6e 71be aae8 d63d 016a 2bbe 0e9c 85bc
000003e0: 2067 4e3d 1de6 f3bc 8d8b 05be 53c0 b33e
000003f0: 2ff0 843d 9bfc 523f e4a2 db3d 92b3 0abe
-0.0856795 0.026375895 -0.0077146143 0.015093434 -0.00062844885 0.015049661 -0.073617965 -0.045581862
-0.09745402 0.066452086 0.007787666 0.019402565 0.0061787525 0.089894325 0.0026157482 0.029605815
0.020808225 -0.016855296 -0.0476945 -0.05838599 -0.10867576 -0.060055263 -0.0035696884 0.03389373
-0.06478605 0.009799249 -0.013895888 0.013066961 0.044359148 -0.013505555 -0.033415355 -0.12334791
0.09368979 0.050313767 0.07228488 -0.008633841 -0.003030084 -0.055118967 -0.04125968 0.021075401
-0.086194925 0.04096555 0.026331652 -0.088928975 -0.015254043 0.021274736 -0.072952986 -0.009041284
0.032406893 0.03245786 -0.04542929 0.07524121 -0.033112723 -0.097664945 -0.08688239 0.047803327
-0.0040090564 -0.022925157 -0.08996114 -0.036866996 0.01731507 -0.010339492 0.04618905 -0.07237878
0.06931107 -0.02263067 -0.05664957 -0.015323705 0.018243881 -0.01855192 0.013624556 0.05663548
0.009923187 0.052674536 -0.08910144 0.03431587 -0.013144265 -0.04495208 0.0028305117 0.05264171
0.0654449 0.045122415 0.09197429 0.01946541 -0.031201659 -0.12594636 0.05020767 -0.044899113
0.025994861 -0.042965144 0.039245103 0.059541307 -0.034496624 0.022907687 -0.013717615 -0.056359854
-0.17407756 0.043127302 0.040358055 -0.021075629 -0.04689221 -0.0026749435 -0.010408865 0.011901276
0.048939746 -0.0019897413 0.066843845 -0.060938153 0.09623032 0.033180207 -0.051417716 -0.047932837
-0.093818024 0.046350744 0.0044471105 0.030790519 -0.021336285 -0.0032362698 -0.025715068 -0.080647804
0.0860374 -0.0019768395 0.005032929 0.056509636 -0.03127418 0.06267558 0.030456478 -0.06598762
0.018045228 -0.037273936 0.011830798 -0.0630907 -0.08621012 0.0330906 -0.0145916045 0.070492335
0.04622128 0.1467384 -0.0003271131 -0.109406605 -0.06623101 -0.0732571 0.01938325 0.04654304
0.032146014 -0.038037866 0.023627616 0.029050764 -0.029191574 -0.015708156 -0.06114475 0.02317775
0.02486388 -0.011886271 -0.055755038 0.05888113 0.03583742 -0.04639399 0.057115346 0.029370744
-0.68111116 -1.0391139 -0.23721391 0.06155183 6.6523957 0.06292095 -0.3290245 -0.15199284
-0.71491736 -0.47288424 0.41149977 0.35677755 0.097810626 0.45031276 -0.25910658 0.4790111
0.91633594 0.2661723 -0.11704369 -2.993083 0.40029255 0.6067422 0.25339046 0.40557262
-1.0399897 -0.30979535 -0.12927091 -0.3796566 0.12940945 2.0046456 0.7841753 1.0284069
0.31600633 0.08420126 -4.8929443 -0.26208004 -0.28401408 -0.086719275 -0.44925386 -0.041301586
0.009546255 0.29397157 0.30357423 0.39020082 0.22117561 0.07297943 -0.35141033 -0.106034145
-0.7631136 -0.4974658 0.054183282 -0.10219995 0.12374968 0.16645883 0.19618255 -0.0730493
0.10722979 0.27064472 -0.36834332 0.19548528 0.6580709 1.0121946 0.22878945 -0.17381816
-4.512404 -0.0093103545 -0.08063907 -0.09336077 0.10429309 0.068083204 -0.027066575 -0.03342352
-0.01397694 0.24828343 0.5305865 -0.65450805 -0.98458475 -0.29763034 -0.110654004 3.650761
0.31931517 0.26821196 0.1461169 0.34776318 -0.23577349 0.10493596 -0.16739656 -0.016309764
0.050391316 -0.029772813 -0.13041516 0.3510767 0.06491124 0.82416695 0.10724428 -0.13545063

encoder.0.0.bias f4 [32]
00000000: 7bd8 e63c a839 26c0 e811 c7ba ee6c 2440
00000010: 633a 0140 9171 0cc0 16d8 153f f29d 2dc0
00000020: bc35 d040 c879 e53f f8c5 9a40 7be1 b9bf
00000030: 680e 39bd e3a3 483d 5a3c 6640 3336 5ac0
00000040: 626c 89c0 ea01 88c0 97fb 4ac0 7022 0ebd
00000050: 7099 e9bf 55e2 a43f 6518 8140 342f db3c
00000060: a936 94c0 57a8 80bd 5642 273d f72b 5940
00000070: d6c4 5e40 63da 2fc0 4e8d b8bd ccf5 5e3f
0.028179398 -2.597269 -0.0015187832 2.5691485 2.0191886 -2.1944315 0.58532846 -2.7127652
6.5065594 1.792779 4.836666 -1.4521936 -0.045179754 0.04898442 3.5974336 -3.409558
-4.2944803 -4.2502337 -3.1716058 -0.03470081 -1.824995 1.2881571 4.034228 0.026755907
-4.6316724 -0.06282108 0.040834747 3.3933084 3.480764 -2.7477043 -0.09011327 0.87093806

encoder.0.1.weight f4 [32]
00000000: a8de 973a 4bfc e6bf 91bd 96b8 0af3 c13f
00000010: 1951 ce3f 34d0 953f e850 ab3f c6db f3bf
00000020: d666 b73f 4fae da3f 4161 c93f 6992 873f
00000030: 3f3c c0b9 b0ef 783b 39b9 aa3f 8fba 99bf
00000040: cee2 90bf b4af 92bf f3d2 b0bf c67a 033a
00000050: a808 96bf 31db b83f 3aef 9d3f 2c2b a6b9
00000060: 47ec 9fbf fe88 c7b9 f1cf cdb9 4e1c af3f
00000070: 515a d03f 39d1 94bf f23e 2539 c2ff 93bf
0.0011586742 -1.8045744 -7.187867e-05 1.5152295 1.6118499 1.1704164 1.3384066 -1.9051445
1.4328258 1.7084445 1.5732805 1.0591556 -0.0003666598 0.0037984662 1.3337775 -1.2010058
-1.1319215 -1.145987 -1.3814377 0.0005015548 -1.1721392 1.4441892 1.2338631 -0.00031694153
-1.2493981 -0.00038058305 -0.00039255575 1.3680513 1.6277562 -1.162635 0.00015759075 -1.1562426

encoder.0.1.bias f4 [32]
00000000: 7a15 b6bc 712c 773c 0777 80bd 00e0 153c
00000010: cb44 533d 2231 023f d98e b83e eda3 d739
00000020: d1f0 f83d 0187 943b 341b 203b 743e 5740
00000030: 8ca9 b7bd 510f a3bd 51a1 2e3f a7a3 b93e
00000040: 5866 353d 0a84 083e 62ea 303e c4f5 41bc
00000050: d92b 09bb 452d d73a 2bc6 8b3c c0b3 1fbc
00000060: 944b 8abe d6a3 8cbc 117f c0bc 1118 193d
00000070: 6033 b83b 8b89 9dbe 29a2 e2bb 2083 9b3e
-0.022227038 0.015086279 -0.06272703 0.009147644 0.051579278 0.5085622 0.36046484 0.0004113013
0.12155307 0.0045326953 0.0024430277 3.3631868 -0.089678854 -0.07961906 0.682149 0.3625767
0.044287056 0.13331619 0.1727691 -0.01183838 -0.0020930676 0.001641669 0.017062267 -0.009747446
-0.27010787 -0.017167967 -0.02349809 0.037376467 0.0056213588 -0.30769 -0.0069163037 0.30373478

encoder.0.1.running_mean f4 [32]
00000000: 111a 4b3f 2b55 5641 254e 8b3f 5526 52c1
00000010: 9272 8541 92f9 9842 81f5 75c1 a116 1c41
00000020: cb2d 3040 7092 e440 23cb 9541 e47f 2a42
00000030: b679 533f 71b3 a13e e748 88c1 3aaa 0d43
00000040: 406a 09c1 a05d 4041 e96c 87c1 7cf4 65be
00000050: b5c9 96bf 71d3 d841 4a7e 0d42 a94a 123f
00000060: 11e8 a23f 0549 603f 2ba2 673e e3af efc1
00000070: fd48 7841 0723 20c2 0491 d53e 48b6 09c2
0.7933665 13.395793 1.0883223 -13.134358 16.680943 76.48744 -15.3724375 9.755525
2.752795 7.1428757 18.724188 42.624893 0.8260759 0.31582215 -17.035597 141.66495
-8.58844 12.022858 -16.928179 -0.22456545 -1.1780306 27.103243 35.37333 0.5714517
1.2727071 0.8761142 0.22620456 -29.960882 15.517819 -40.034206 0.417122 -34.42801

encoder.0.1.running_var f4 [32]
00000000: ce57 b83f 41cb 5745 ea97 5b3e f07a dc44
00000010: 4248 ed44 ae8a 2645 e6c1 2345 c779 d344
00000020: b7b3 0645 d859 d044 2274 f144 7354 1f44
00000030: 0894 813f 8a8b 0440 6cbb 0d44 2ad6 7145
00000040: ab33 ea44 6737 7b44 25c5 0345 e1f9 5c40
00000050: b38e 0645 5790 d644 4394 0a45 933d 9b3e
00000060: c2ee 9945 4f63 863f 965d 3d40 56a7 f444
00000070: 149f e944 8c21 ab45 c956 1140 8a67 4c45
1.4401796 3452.7034 0.2144467 1763.8418 1898.258 2664.6675 2620.1187 1691.8055
2155.2322 1666.8076 1931.6292 637.3195 1.01233 2.0710168 566.92847 3869.3853
1873.6146 1004.86566 2108.3215 3.4527514 2152.9187 1716.5106 2217.2664 0.30320415
4925.8447 1.0499057 2.958837 1957.2292 1868.9712 5476.1934 2.270922 3270.4712

encoder.1.0.weight f4 [56, 32, 5]
00000000: 2b01 c63c 30ea aebc 614f c43c 6183 51bd
00000010: e23c e3bb 74fa b4bf 5f84 46bf 3984 9fbf
00000020: 9277 c0bf 341f 1abf cdc2 71bd 321e cbbc
00000030: 861b ca3d 12a9 843d 628d bdbd eafe c9be
00000040: 2b55 d43e ef2d eabe 5e5a 81be 6306 383f
00000050: dbff 56bd 7311 1240 2d83 cd3e cfc9 9bbe
00000060: 3ea6 353f 88d0 dbbe a122 553f 62f1 293e
00000070: 1d81 49bf 4e02 25bf 3e79 f2be ebd3 ce3f
00000080: e7ea 8240 e007 993c 5eca 49be c46b f13d
00000090: 488c 9fbe 4bca 2dbf 8464 94bf 97d4 4bbe
000000a0: ad74 16be 6a85 693f 77bd ba3f 2282 b53e
000000b0: 6c3a 2d3f 42c3 843f be73 e3be 34cf a3bf
000000c0: 5701 24bf 2664 813d 2306 09bf 1a81 8abe
000000d0: 87be 12bf 278f 53bf ddf2 07bf d8e1 f7be
000000e0: d833 98be 2fff babf eb81 40be 8a74 86bf
000000f0: efbb 853d 6531 3dbd 42a7 cb38 1742 1bbb
00000100: 6ddb 43bd e79c 29bc bdf2 093c e25e 023d
00000110: 32f6 a93c 7262 1b3d 9663 99be 2ffa 9b3e
00000120: c498 143f 071b 8a3f e0c6 643e 48d9 e23e
00000130: eee3 c13e b04c 3a3f 918d 41bf c8aa 3ebf
00000140: b20a 863f 7069 a2be 400d 00c0 66f4 86bf
00000150: 0afb 1abf b167 2d3e 4825 95bf d6d1 81bf
00000160: 43a1 e9bf 2371 a93e 7917 893f 889e e63f
00000170: 13bd 68bf da8c 563e 2537 8a3f 2f53 763d
00000180: d04e ba3c 1d64 f63c e671 303c d1bf 8abb
00000190: dffe 963f 9e59 2fbf a7e5 16bf 5346 2ebf
000001a0: e7ed ad3e 7fc8 15be b908 c33f 3623 59bf
000001b0: 28c6 90bf 008f e43e 82d2 183f d73e 36bf
000001c0: 02b7 1cbf 2c21 f3bf 9a4d 6ebf 7df5 1e3c
000001d0: bebd 343c b335 1ebd af7f 523d 4ff4 f23d
000001e0: 6fa5 edbe 6551 08c0 5fa6 563f 706c 86bf
000001f0: 20a6 cebf 0a53 ecbc df38 7f3c 10bd 573c
00000200: 3eac 553d e0ea 98bc b270 bc3c 0b06 783d
00000210: 907d 9a3b dd50 893d 7535 15bd c277 46be
00000220: 549f 43bf 46c6 9ebf 8510 67bf fa56 16bf
00000230: 68d7 de3e 8572 08bf c45b 91bf fd5e 58bf
00000240: 9c83 79bd 08e7 eabc 45fb 51bf 6429 d93e
00000250: b969 5fbf fd2d 9dbf f17a 1bbb 76fe a5bc
00000260: 9525 97bc e0f8 043d e6ea 0dbd 39fb 1c3f
00000270: ba1b 7dbe 7b98 dabb 4f96 913e 92f9 723f
00000280: 7181 973d ac12 163c 3d82 343d 3003 e93a
00000290: dff3 9abb 0305 543f 59b5 d93f 6f7e 20be
000002a0: 0fb7 e6bf a919 ccbf 07b7 3f3b 63e9 863c
000002b0: 55c2 eebc 1fc8 733c 6ba6 f63c 9fd7 83be
000002c0: d6da 273f c693 723e 5d42 45bf 9dd9 65bf
000002d0: 6cb2 adbe c496 963f b4b5 423f a758 83bf
000002e0: ffe7 d6bf 6ea3 983e 8d1f da3e c227 8fbf
000002f0: cfd3 08be d1d2 48be 2706 073e caa8 643f
00000300: d661 5c3e c426 8cbf 675a cabf e10d 5d3e
00000310: 3b11 863f 10ab 5f3f e0d1 97bf ffbf eebf
00000320: 9581 02bf 3322 533f a478 493f b448 ffbd
00000330: e496 a2bf d30a 693e d8b2 9c3f b915 403d
00000340: ae49 99bf 2c32 71bf b0db 073f 18ef a63f
00000350: 0877 f7bd 2575 1cbf 2dd4 9ebf 0f31 74bf
00000360: c1db 713f f678 3fbf 37b9 e5bf 218d 013e
00000370: 0c7c a93d aeec debb f8ae d4bc 5349 63bc
00000380: 510b d1bd e5c7 a7bd b5ee 023d b946 babc
00000390: 8a68 8ebd a78a 9bbd 220d 03bf d5a2 26bf
000003a0: 3234 9b3f a5a4 c43f 6639 0abf 03cc fa3e
000003b0: 5ee3 49be 7949 ccbf 93a6 913f 885f 5ebe
000003c0: 2658 163f 00a1 bf3f 1cf5 d83e 64f4 b7bf
000003d0: d365 2bc0 fcfc ff3e 8f7d af3f 167b 2ebe
000003e0: 999e 8ebf 1142 4ec0 4a39 fcbe 8a8d c33e
000003f0: 7f07 983e 8f87 28bf ec5d d3be 081b 8b3c
0.024170479 -0.021351904 0.023963632 -0.051150683 -0.006934748 -1.4138932 -0.7754573 -1.2462226
-1.503649 -0.6020386 -0.059023667 -0.024794672 0.09868531 0.0647756 -0.09255482 -0.39452296
0.41471228 -0.4573817 -0.25264257 0.71884745 -0.052490097 2.282315 0.40139142 -0.30427405
0.7095679 -0.42932534 0.83255965 0.16595986 -0.78712636 -0.6445664 -0.47358125 1.6158422
4.0911746 0.018680513 -0.19706103 0.11788133 -0.31161714 -0.678868 -1.1593175 -0.19905315
-0.14692946 0.912192 1.458907 0.35450846 0.6766727 1.0372088 -0.44424242 -1.2797608
-0.64064544 0.0631793 -0.5352499 -0.27051622 -0.5732197 -0.8264031 -0.53104955 -0.48414493
-0.29727054 -1.4609126 -0.1879956 -1.0504315 0.06529986 -0.046189684 9.7109485e-05 -0.0023690516
-0.047816683 -0.01035235 0.00841969 0.03182877 0.020747278 0.03793568 -0.2995879 0.30464312
0.580456 1.0789498 0.2234149 0.44306397 0.3786921 0.72773266 -0.7560664 -0.7447934
1.0472014 -0.31721067 -2.0008087 -1.0543334 -0.60539305 0.16934086 -1.1652002 -1.0142162
-1.8252338 0.3309413 1.0710288 1.801713 -0.90913504 0.20952168 1.0798079 0.060137924
0.022742659 0.030077035 0.010769343 -0.004234292 1.179653 -0.6849612 -0.5894417 -0.68076056
0.33970568 -0.14627264 1.5237037 -0.8481935 -1.1310472 0.4464035 0.5969621 -0.71189636
-0.6121675 -1.8994498 -0.9308716 0.009702084 0.011031566 -0.03862543 0.0513913 0.118630044
-0.46415278 -2.129968 0.8384761 -1.0501842 -1.6144447 -0.02884819 0.015577524 0.013167635
0.052166216 -0.018666685 0.023002956 0.060552638 0.0047146752 0.067048766 -0.036427934 -0.19381621
-0.7641499 -1.2404258 -0.9025958 -0.58726466 0.43523717 -0.5329974 -1.135613 -0.8451994
-0.060916528 -0.028674617 -0.8202403 0.4241439 -0.87270695 -1.227966 -0.0023724402 -0.020262938
-0.018450538 0.03246391 -0.034647845 0.61320835 -0.24717608 -0.006671009 0.2843499 0.94912064
0.07397736 0.009159725 0.044069517 0.0017777439 -0.0047287787 0.8282015 1.7008468 -0.1567323
-1.8024615 -1.5945331 0.002925338 0.01646871 -0.0291454 0.014879256 0.030108651 -0.25750443
0.6556829 0.23689184 -0.7705439 -0.89785177 -0.33925188 1.176476 0.76058507 -1.026143
-1.678955 0.29812187 0.42602196 -1.1184008 -0.13362049 -0.1961167 0.1318594 0.8932005
0.21521696 -1.094933 -1.5808839 0.21587326 1.0474008 0.87370396 -1.1860924 -1.8652343
-0.50978976 0.8247406 0.7869971 -0.12465039 -1.2702298 0.22758035 1.2242079 0.046895716
-1.197561 -0.9421718 0.5306959 1.3041716 -0.1208325 -0.6111625 -1.2408501 -0.9538736
0.9447594 -0.74793947 -1.7947148 0.12651493 0.08275613 -0.0068031168 -0.025962338 -0.013872462
-0.102072366 -0.08192424 0.03196593 -0.022738801 -0.06953533 -0.07594805 -0.51191914 -0.6509221
1.2125304 1.5362746 -0.53993833 0.48983774 -0.1971564 -1.5959922 1.137896 -0.2171613
0.58728254 1.4971008 0.42374504 -1.4371457 -2.6780899 0.499977 1.3710192 -0.17039141
-1.114215 -3.2227824 -0.49262458 0.38193923 0.2969322 -0.65831846 -0.41282594 0.016980663

encoder.1.0.bias f4 [56]
00000000: 9be2 8e40 c5ea 963f c7ea a6bb 2d8a 573b
00000010: 1df4 24bd 3a10 5c3d 0cbf 52c0 7abd 45c0
00000020: cc04 26bc eb15 9ebc ec50 96c0 0957 e03f
00000030: 19d0 843f 42df 0d3d fe26 80bd 4e6d bcbe
00000040: 4da1 4e40 5c34 46bc 4348 82bd af70 abbc
00000050: 1124 af3c bb5e 953f c6c9 12c0 632e abbc
00000060: 8b1d 9540 97bd bac0 13a0 683a 123f aa40
00000070: f2f1 983f 347d 8b40 5b2e 41bd 452c 84bf
00000080: 8954 b03f b244 8040 f2af 67bd 34d8 0dc1
00000090: 371f e9bd bb0c c8c0 dadc a8bd 91df 083d
000000a0: e1ed f0bf c22e 973e aa20 e4be 33d8 0c40
000000b0: 350b ab40 65ad 49c0 6b3f 5540 ffab 533d
000000c0: b899 c53f d8a6 1b40 d176 21c1 2499 b6c0
000000d0: c590 2bbd e4eb bc40 0bf5 3340 2092 f13f
4.465162 1.1790396 -0.0050939056 0.0032888756 -0.040271867 0.053726412 -3.2929106 -3.0896897
-0.01013298 -0.01929756 -4.697378 1.7526561 1.0376006 0.034636743 -0.06257437 -0.36802143
3.228595 -0.012097444 -0.06361439 -0.020927755 0.021379502 1.1669534 -2.2935653 -0.020896142
4.6598563 -5.8356433 0.00088739506 5.320199 1.1948836 4.3590336 -0.04716335 -1.032601
1.3775798 4.0083857 -0.05656428 -8.865284 -0.11382907 -6.251554 -0.08245249 0.033416335
-1.8822595 0.2952786 -0.4455617 2.2006958 5.345118 -3.1512082 3.3319957 0.0516777
1.5437536 2.4320583 -10.091508 -5.706194 -0.04188611 5.9037952 2.8118312 1.8872719

encoder.1.1.weight f4 [56]
00000000: 78dd 623f 3d3f 3abf 501e 843b 2a87 083b
00000010: 7e24 243a ff76 b13a ed3b 85bf 09b5 74bf
00000020: 9be5 7939 6d0f 063a d88f bfbf 5198 8b3f
00000030: 4894 edbe 673e e6b8 1749 093c da02 3ebf
00000040: 600a 123f d90b 833b 9d67 93bc 1389 69bb
00000050: f842 37ba 4f49 a23f 8d62 d1bf fd16 15bc
00000060: 962f 513f 81aa 3bbf c373 95bb 8bda 8c3f
00000070: 5301 a33f fbf1 943f 947b 103a 9ec9 94bf
00000080: 5fd7 9e3f 30d4 0440 4b3c 6e3b 8384 8ebf
00000090: 5f7b 6cba 478f 9abf 079a da3a 7715 4ebb
000000a0: 0cee 0cc0 6400 a83f 18ed 0440 7ffd c13f
000000b0: f54e 473f ef4d f3bf 66fa 833f bbd8 9a3b
000000c0: 9f87 293f b3c0 d93f a170 a9bf 87e3 8abf
000000d0: bbbe 843c b17d a43f 6fdb 203f 42c9 0d40
0.88619184 -0.72752744 0.004031934 0.0020832517 0.0006261541 0.0013539492 -1.0408913 -0.9558874
0.00023832025 0.0005113993 -1.4965773 1.0905858 -0.46402192 -0.00010978878 0.008379242 -0.742231
0.5704708 0.003999215 -0.017993743 -0.003563468 -0.0006990875 1.2678622 -1.63582 -0.009099719
0.81713235 -0.73307043 -0.004560919 1.1004194 1.2734779 1.1636347 0.00055115786 -1.1624029
1.2409476 2.075451 0.0036351855 -1.1134189 -0.0009021069 -1.2074975 0.0016677984 -0.00314459
-2.2020292 1.3125119 2.076971 1.5155486 0.77854854 -1.9008158 1.031079 0.0047255433
0.66222566 1.7011932 -1.3237497 -1.0850686 0.016204229 1.2850858 0.6283483 2.2154088

encoder.1.1.bias f4 [56]
00000000: 805d d5be 6faa ad3e a5e4 f1bd d101 81bd
00000010: b88a b0bd 21b7 f6bc c179 38be 16fd e0be
00000020: 1252 d9bd d935 2abd 3301 17bf 3ed1 723f
00000030: 99bb a43e 156d fbbc bad5 b0bd 23f4 003f
00000040: 00ea bf3e 8f98 94bd 4ba3 00be d8ed c9bd
00000050: 6ef7 5ebd 5af8 10bf 4265 64bf 706a 95bd
00000060: 9aaf ffbe 7a90 bebe 32e7 c5bd 10cc 22bf
00000070: 4444 14bf a010 25bf 343a 5cbc 999f edbe
00000080: be81 14bf aed8 94bf 995e 8abd 2bb6 10bf
00000090: aec9 38bc 4979 2abf 711e b7bc 91d8 b1bd
000000a0: 34ed a4bf 19f9 e7be 1a0f 8cbf d3ec 07bf
000000b0: e527 b6be bdbf 17bf a52e 00bf 59ba 29bd
000000c0: 410b 99be acb7 74bf 7081 38bf de22 ebbe
000000d0: ee62 e7bd 2a1a 3ebf b7c9 683b 78dd 95bf
-0.41672897 0.33919093 -0.118111886 -0.062991746 -0.086202085 -0.03011662 -0.18015195 -0.4394309
-0.10611357 -0.04155526 -0.58986205 0.9485053 0.32174376 -0.030691663 -0.08634515 0.50372523
0.37483215 -0.07255661 -0.12562291 -0.09859818 -0.054435186 -0.56628954 -0.8921701 -0.07295692
-0.4993866 -0.37219602 -0.09663238 -0.63592625 -0.57916665 -0.6447849 -0.013441611 -0.46410826
-0.5801047 -1.1628625 -0.06756324 -0.56527966 -0.011278553 -0.66591316 -0.022353383 -0.08683885
-1.2884889 -0.45307234 -1.0942109 -0.5309574 -0.35577312 -0.59276944 -0.50071174 -0.04143748
-0.298914 -0.9559276 -0.72072506 -0.4592504 -0.11298166 -0.74258673 0.0035520622 -1.1708212

encoder.1.1.running_mean f4 [56]
00000000: 5017 29c1 efee 5cc1 3ac2 a2be 0126 0fbf
00000010: d225 d13f 4ceb c33e 2b07 a541 1c95 e440
00000020: ad5a 6c3e 1f87 cbbd 26a2 ba41 135c 19c2
00000030: e02b 98c1 d426 91bf 98b0 fdbf 5b25 cc3f
00000040: 95ec 43c1 add4 aebe 3cdc 993f 31c3 0bc0
00000050: e37a 9a3e 0704 f53f 493b 8d41 a1d7 273f
00000060: c4e4 b3c0 b3e1 7c40 4224 fb3d e78f 07c0
00000070: 06a6 2641 6cb7 4c42 653c ee3c a14c b6bf
00000080: c6a5 9dc0 e7ee 89bf a026 a03d 4271 b541
00000090: 1c76 603e 5dbf 8a40 ea4f 05bf 8dbb 7abf
000000a0: 3b8f 7b41 8daf 90c1 3828 6941 12d8 09c2
000000b0: 015b 30c0 607f 9f40 f0da 92c0 9332 8ebf
000000c0: e358 d53d 7076 8640 7716 a041 ce70 5f41
000000d0: 18cf 8ebf 7e91 92c0 fe7f 54c1 a4a2 8841
-10.568192 -13.808333 -0.31788808 -0.55917364 1.6339667 0.38265455 20.6285 7.143202
0.23081465 -0.09937882 23.329174 -38.339916 -19.021423 -1.1339974 -1.9819517 1.59489
-12.245259 -0.34146634 1.2020335 -2.1837885 0.3017188 1.9141854 17.653948 0.655634
-5.6216755 3.9512756 0.12262775 -2.118158 10.415533 51.179123 0.029081533 -1.4242135
-4.926486 -1.0776032 0.07819867 22.680302 0.21920055 4.33586 -0.52075064 -0.9794243
15.722468 -18.085718 14.572319 -34.461006 -2.7555544 4.9842987 -4.589226 -1.1109184
0.104173444 4.2019577 20.01097 13.96504 -1.115695 -4.5802603 -13.281248 17.079414

encoder.1.1.running_var f4 [56]
00000000: deed dd42 5780 3643 a1fc f63e cc6f a73e
00000010: bf06 4340 19af eb3e 5a4c 9043 af1a 0343
00000020: 29e1 fc3e 6f0c 993e a55d 8543 2205 5c44
00000030: 4b39 0143 2913 b33f 276b 4540 150c 3743
00000040: fc7b 8443 74a0 d83e b3d1 2f3f 220e 9b40
00000050: c465 213f 4db1 8343 587b 7643 12f5 3f3f
00000060: 4ef9 0343 1fdd a042 f427 823e be6d 3243
00000070: 3fe0 4643 4850 9e44 32e7 c43e 90e0 6b43
00000080: ce97 8e43 7fb4 f942 e1e2 f33e 153d f442
00000090: 437b b53e 9259 0f43 bcef 163f d5fb 8c3f
000000a0: 7bfb 7f43 3238 a743 c4fe 5943 dadc fb43
000000b0: 48fa ba42 f389 b042 590c 0f43 222d 313f
000000c0: 91e2 6b42 badf 5f43 f329 2343 77b2 3243
000000d0: b6e9 cf3f 9b85 4143 9cfc dc42 3c4c 5f43
110.964584 182.50133 0.48239616 0.32702482 3.0472867 0.46032026 288.5965 131.10423
0.49390534 0.298923 266.7316 880.0802 129.2238 1.3990222 3.084665 183.0472
264.96863 0.42309916 0.6867935 4.845475 0.6304591 263.38516 246.48181 0.7498332
131.97385 80.43188 0.25421107 178.42868 198.87596 1266.5088 0.38457638 235.8772
285.18597 124.85253 0.47634032 122.1193 0.35445604 143.34988 0.58959556 1.1014353
255.98235 334.43903 217.99518 503.7254 93.48883 88.26943 143.04823 0.6920949
58.971256 223.87393 163.16386 178.69713 1.6243198 193.5219 110.49338 223.29779

encoder.2.0.weight f4 [98, 56, 5]
00000000: 6e70 08bf 5a88 d83e fafa 873f 2a89 8abf
00000010: 09d5 c23c 3cee fcbf ae18 40bf e8c7 17bf
00000020: 6a3d 6fbf 0ea6 93bd 9b1c 40bd 7c28 6ebb
00000030: 48e0 c73d aa72 53bd 37cc 0d3d b15c 37bd
00000040: 80db 13be 8df9 85bc 242e 7c3c 630f 9a3b
00000050: 4e1d 2c3d dbbf 0ebe 7acc fc3d 4b5f ec3d
00000060: 84d0 94bd 4d66 15bc f441 ff3b 4025 f4bc
00000070: bbd3 c23c d3e0 213d 61df b8be e62e 073e
00000080: 23f8 053f 2666 30bf a6ea 9fbf a5c1 93bc
00000090: 7de5 913e 0330 a4bf 74e3 45c0 e3cc 24bd
000000a0: cc9c 493d f73a 4139 e45e cfbd fb93 8b3d
000000b0: 4e4e 86bc a5e9 383d f422 203d fc18 d53d
000000c0: 7954 d73c 8cf7 033e 0a2d b93d e73f acbe
000000d0: 50be c3be e71c 23c0 61fd b2bf bcd2 c53d
000000e0: 31b8 803f d091 adbe 1c5f ebbf 7b6d 6ebf
000000f0: 82a4 adbe 1ed2 b03e 3dda 3cbf 16fb a73f
00000100: e447 65bf 9d09 22be 9684 9c3c 4f37 ea3d
00000110: f84b 91bc 1d98 04bc afa6 e0bc 7175 233d
00000120: dc0d 4c3b d334 443c 22c8 6c3d 0c5e d73e
00000130: a1cb 9f3b 705f aebe 60d2 21bf 15e3 25bf
00000140: 8b9b 593e bd8d b03f 09d4 1fbf 0d2c 043f
00000150: 5f19 b7be 0600 3c3d f89d 07be dc9b 763d
00000160: 5168 c43d 8579 0e3d 20af 913c e9a2 4abb
00000170: 2088 28bd 693c cc3c 63ab 7a3d 5a02 01bd
00000180: 8bff 92bd 1619 f03c 627b a23d aa6c b23b
00000190: 98b9 48bd f624 5bbd 6507 96bd 91fe 383d
000001a0: 204e 28bc 8bfa d9be 144e 6b3e 22d5 b23f
000001b0: 2a42 f6bf 66d4 a03f 965a 91bf a8f5 e63e
000001c0: 483c 5abf 8f1a 713c 48ee fdbf a9bf cb3c
000001d0: 94bc 64bd 8d5c b63d 1210 9ebd 54b7 f5bd
000001e0: 3f43 e03b 9099 a03f 1568 5cbf 8dad 5dbf
000001f0: 7af6 0fc0 9bdb f0bf ee21 95bf 7f2e 1ec0
00000200: cbea 36bf 6f2e a0bf d995 203d 005f 603d
00000210: 0fac d0bc 08e8 743b 25bf c43d c5f0 95be
00000220: 944b 3a3f 376b 95bf 2a66 463e 13cd e3bf
00000230: 5c1b 3c3f 3ef7 3cbf 867a 9e3f e666 1fbf
00000240: 562b a93e 5304 e6bd 3a9f ecbe cc20 273f
00000250: 56c4 313e 71b5 e73e fa3f b7bd e680 86bc
00000260: bc56 0cbe e114 b03b 6cd7 1cbd 88c2 313f
00000270: 7bb8 933d 8e79 cfbf bdb6 523f c849 f4be
00000280: 12a5 f4be 431c 263e bb68 033f 3550 86be
00000290: c786 0bbf b945 0dc0 ea49 653e fc17 8cbe
000002a0: 0f05 2b40 d444 d8bf 3ab3 e1bc 048d 6f3d
000002b0: a800 89bb 2c76 c63d 4470 08bd c360 b5bf
000002c0: b320 063f f460 683e eb41 983e d117 7cbf
000002d0: bd25 1e3d 436c 3abc a343 f13c 64e8 c33c
000002e0: 1bca 81bd 9364 dabe e430 7a3e 9800 8cbf
000002f0: 4480 0340 8123 05c0 69ca 8bbc f7b9 6b3c
00000300: 9bae e0bd 5072 e03c 663c 5d3d 00f8 9f3b
00000310: 0979 c739 4ad6 33bc ad21 71bb 9548 c8bc
00000320: f3cf 233f 12de e2be c2e4 49be b01e 243d
00000330: 028e 1c3f a4f4 8a3f ddec 97bf 7def 9dbe
00000340: 7893 c4bf 7797 2a40 cb52 1c3f ff78 a13e
00000350: 1d87 d13e 5de8 15bf 6e4d a53f 3d04 07be
00000360: cb9a 99bf cb61 e13f c146 0dc0 f857 163d
00000370: 729e 1b3f 821a 0e3e ff5f e33d df61 9cbe
00000380: 0191 40bf 460b 803f 5d40 0cbf f1b3 8c3f
00000390: ef7b f63e b8fb 363f b2a1 1dbe b060 51bd
000003a0: d1f4 0abf c89e cd3f 8cae 41c0 d7a0 793d
000003b0: 207e 5cbc 5fed 88bc 8a74 293d e8e1 cf3b
000003c0: 9bce 423f 549d 503f 3f87 6fbf 1b82 34c0
000003d0: 7e0d 3cbf a10b 043f 74c8 11bf f38f 733d
000003e0: c62d a3be 005a 743f 18e6 e3bb 34aa 953e
000003f0: a894 92bd 988f 66bf 4620 a4bf 4212 39bd
-0.53296554 0.42291528 1.0623467 -1.0823109 0.023783224 -1.9760203 -0.7503766 -0.5928941
-0.93453085 -0.07209407 -0.04690228 -0.0036340049 0.09759575 -0.051623024 0.034618583 -0.04476613
-0.14439201 -0.016354347 0.01539186 0.0047015413 0.042020135 -0.13940375 0.12343688 0.11541613
-0.07266334 -0.009118629 0.0077898446 -0.029802918 0.023782602 0.03952105 -0.36107925 0.13201484
0.5233175 -0.68905866 -1.2493484 -0.018036673 0.28495398 -1.2827152 -3.0920076 -0.040234458
0.0492218 0.0001842788 -0.10125521 0.068153344 -0.01639476 0.045144696 0.039095834 0.10405156
0.026285397 0.128874 0.09041794 -0.33642504 -0.38231134 -2.548639 -1.3983575 0.09659335
1.0056211 -0.3390031 -1.83884 -0.93135804 -0.33914572 0.34535307 -0.73770505 1.31235
-0.8956282 -0.1582398 0.01910619 0.114363305 -0.01773642 -0.008092907 -0.02742323 0.039906923
0.003113619 0.011975485 0.05780805 0.4206394 0.0048765694 -0.34057188 -0.6321163 -0.64799625
0.21250741 1.3793255 -0.62432915 0.51629716 -0.35761544 0.04589846 -0.13243854 0.060207233
0.09590209 0.03478386 0.017783701 -0.0030919856 -0.041145444 0.02493115 0.061198603 -0.031496383
-0.07177647 0.029308837 0.0793369 0.0054450827 -0.04900512 -0.053502046 -0.07325629 0.04516465
-0.010272533 -0.42573962 0.22979003 1.3971293 -1.9238942 1.2564819 -1.135577 0.45109296
-0.8524823 0.014715805 -1.9838343 0.024871664 -0.055843905 0.089043714 -0.07717909 -0.11997858
0.006843954 1.2546864 -0.86096317 -0.8659294 -2.2494187 -1.8817018 -1.165098 -2.471588
-0.71452016 -1.251417 0.039205406 0.0547781 -0.025472669 0.0037369747 0.096067704 -0.29285255
0.72771573 -1.1673344 0.1937491 -1.7796959 0.7347925 -0.7381476 1.2381141 -0.62266386
0.33040875 -0.112312935 -0.4621523 0.6528442 0.17360052 0.45255616 -0.089477494 -0.016418885
-0.13704962 0.0053735827 -0.03829138 0.69437456 0.07212921 -1.620897 0.82310086 -0.4771254
-0.4778219 0.16221718 0.5133168 -0.26233068 -0.5450253 -2.2073805 0.22391477 -0.2736205
2.6721838 -1.6896005 -0.027551282 0.058484092 -0.0041809864 0.09690508 -0.03331019 -1.4170154
0.52393645 0.22693235 0.2973779 -0.9847384 0.03861021 -0.011378351 0.029451197 0.023914523
-0.06337377 -0.42654857 0.24432713 -1.0937681 2.0547037 -2.080292 -0.01706429 0.014387599
-0.10970803 0.027398258 0.05401268 0.004881859 0.00038046416 -0.010976383 -0.0036793754 -0.024448672
0.6398918 -0.4431005 -0.1971617 0.04006833 0.61154187 1.0855908 -1.186916 -0.30846778
-1.5357504 2.6654947 0.6106383 0.31537625 0.40923396 -0.58557683 1.2914255 -0.1318521
-1.2000364 1.7607969 -2.2074435 0.036704987 0.60788643 0.138773 0.11102294 -0.3054342
-0.7522126 1.000344 -0.5478571 1.0992414 0.4814143 0.7147784 -0.15393713 -0.0511176
-0.5427981 1.6064081 -3.0262785 0.060944404 -0.013457805 -0.01671475 0.041370906 0.006344069
0.76096505 0.81490064 -0.93565744 -2.820441 -0.7345809 0.51580244 -0.5694649 0.059463453
-0.3187086 0.9544983 -0.0069549195 0.29231417 -0.0715726 -0.90062857 -1.2822349 -0.045183428

encoder.2.0.bias f4 [98]
00000000: 9053 4340 34b9 17c0 b6be 17c0 9730 33c1
00000010: aa84 9740 e8a4 4f40 b57d 4c3d b972 653e
00000020: 90e9 38c0 fb75 0dbe b33e aebf 4b34 3ec0
00000030: 63a2 e0bc 0f2f 313c cc9a afc0 cff7 0abf
00000040: 0794 083d 07b4 2340 d1b4 52bd 9909 c33f
00000050: d73e debf 8808 df3f 1cad 8ebf 7851 bcbf
00000060: 67e8 19c0 8a28 c5c0 acb9 a53d 6d5e d03a
00000070: 263e edbf ef42 3ec0 6658 7d3f 05a6 3dc0
00000080: c768 e93c c650 47c0 1dc2 453f 12cb 8a3d
00000090: a2f6 9abd 73e2 b1bf 5e69 3440 c0d2 35c0
000000a0: b355 a4bf 28ab bcc0 f8fc e0c0 b208 3fbe
000000b0: 659f a0c0 36e9 f73f 80a1 813f 1b5f b2be
000000c0: 2608 dcbf 9d50 c83f e009 12bf 2a39 bdbf
000000d0: 523b e53d bb03 3540 77d4 7bbe 611f 8240
000000e0: b8b3 7e40 55b8 ba3f 09f6 3440 46de 5640
000000f0: f9f7 babc 029d 92bc 24b9 5cbd cebe 813d
00000100: 28ca 69c0 c9d8 cdbc 2dd6 99bf d800 1d3f
00000110: 78b2 993f 8e51 d0bf 34d3 90bc 6d2e 6e40
00000120: 1f2b 84bc 04d1 9bc0 d78c 9140 cc2a 7d3f
00000130: f924 90bf 6f04 3c40 45c9 d53f 1b61 1f40
00000140: 8ac4 6b40 c814 7dbf 8bf9 813f f86b 9dbf
00000150: bb47 08bf 9313 f740 f059 19be 680a f9bc
00000160: 507f 3a40 fda8 dc3f 66d1 dfbf 0a58 3740
00000170: 9547 2e3c eae1 7240 5111 c1bc 98eb 3540
00000180: d3b4 813c cad7 423f
3.0519753 -2.370679 -2.371015 -11.199363 4.7349443 3.24444 0.04992457 0.22407044
-2.8892555 -0.13814537 -1.3612884 -2.9719417 -0.027421182 0.010814442 -5.487646 -0.54284376
0.033344295 2.557863 -0.05144197 1.5237304 -1.7362927 1.7424479 -1.1146579 -1.4712362
-2.4048097 -6.1611986 0.08092055 0.0015897282 -1.8534591 -2.9728353 0.9896301 -2.963258
0.028492345 -3.114305 0.7724932 0.06777014 -0.07566573 -1.3897232 2.818931 -2.8409882
-1.2838653 -5.895893 -7.03088 -0.18655661 -5.0194573 1.9368045 1.0127411 -0.34838185
-1.7189987 1.5649601 -0.5704632 -1.478307 0.11192955 2.8283527 -0.24592768 4.0663304
3.9797192 1.4587504 2.8275168 3.3573165 -0.02282332 -0.017897133 -0.0538875 0.06335221
-3.6529636 -0.025127785 -1.2018486 0.6132941 1.2007589 -1.6274889 -0.017678834 3.7215836
-0.016133843 -4.8692646 4.5484424 0.9889343 -1.1261283 2.9377706 1.6702048 2.4903018
3.6838708 -0.98859835 1.015428 -1.2298574 -0.5323445 7.7211394 -0.14975715 -0.03040047
2.9140205 1.7239071 -1.7485778 2.8647485 0.010637184 3.7950387 -0.023567827 2.8425045
0.015833294 0.7611052

encoder.2.1.weight f4 [98]
00000000: 3605 4f3e b389 9fbe 8f88 8dbe 9ed0 363e
00000010: d1f8 573e ef75 49be 9d0e 8e3b faaa 523e
00000020: 73fe 993e ee3d 3cbe ef86 00be a34e 92be
00000030: cf09 283b 4553 7abb 5fe7 5fbe 718a 2b3e
00000040: b97c 4ebb 5bc2 623e ad09 3ebb 4aa8 3e3e
00000050: 5c03 53be c9ef 3f3e d793 85be ebdc 96be
00000060: 22af 69be 664e 6c3e 7a16 d1b8 5b73 e03e
00000070: 1b72 7ebe 49a2 82be 6d53 81be b80a 7cbe
00000080: 5759 dc3b 15b2 6ebe 756e a93e 2c28 0fbc
00000090: 7ba3 b4bb 8ccc 06be ea82 843e 41c2 7fbe
000000a0: 5459 28be 333e 4a3e dd67 303e 12f1 6cbe
000000b0: 5c46 64be 9a16 843e 083f e63e ec3a 423e
000000c0: ac2f 8d3e 0d03 793e b2e2 88be 1fca 9cbe
000000d0: 273a e7b8 4576 4cbe b11f efbd 7ab6 693e
000000e0: badc 8d3e 3410 643e 01e2 773e 7f3e 763e
000000f0: 4231 52ba bf6d 8abe 1e00 263d 620c 4abb
00000100: 8761 69be 5364 0e3b 03df aebe 8dd2 c6be
00000110: 6387 973e bdf4 9fbe 7282 08ba 2495 393e
00000120: 710b 55bb 3d58 99be 2846 633e 9e52 a1be
00000130: dc21 09be d9c2 833e d9b0 5f3e f59a 943e
00000140: 8efe 98be e525 0dbf 32a2 813e e5a8 1dbe
00000150: 399b c83e b079 533e 9776 7abe b54a 69bb
00000160: aade 913e d2b0 a23e fb75 2fbe ab08 7c3e
00000170: 19ab 873a 8c54 b53e e0a5 d5bb 8b52 c03e
00000180: 2858 45bb a5ae 67be
0.20216832 -0.31159744 -0.27643248 0.17853019 0.2109101 -0.19673894 0.004335238 0.20573035
0.30076942 -0.18383 -0.12551473 -0.2857562 0.0025640612 -0.0038196605 -0.21865605 0.1675203
-0.0031507446 0.22144453 -0.0028997466 0.18618885 -0.2060675 0.18743815 -0.26089355 -0.29465422
-0.22820714 0.23076782 -9.970083e-05 0.4383801 -0.24848215 -0.2551444 -0.2525896 -0.24613464
0.0067245173 -0.2331012 0.33092085 -0.008737605 -0.0055126525 -0.13163966 0.2588113 -0.24976446
-0.16440326 0.1975029 0.1722712 -0.23138836 -0.22292465 0.25798494 0.44969964 0.1896779
0.27575433 0.2431757 -0.26735455 -0.30622956 -0.0001102577 -0.19966991 -0.116759665 0.22823516
0.27707464 0.22271806 0.24207307 0.24047278 -0.0008018204 -0.27036855 0.040527456 -0.0030830135
-0.2279111 0.0021727278 -0.3415452 -0.38832512 0.2959548 -0.31241408 -0.0005207426 0.18123299
-0.003250804 -0.29950133 0.22194731 -0.31508344 -0.13391823 0.25734594 0.21844806 0.29024473
-0.2988171 -0.5513595 0.25319058 -0.1539646 0.39180925 0.20651889 -0.24459301 -0.0035597507
0.28490192 0.31775528 -0.1713485 0.24612682 0.0010350674 0.35416067 -0.006520018 0.37562975
-0.003011236 -0.22625215

encoder.2.1.bias f4 [98]
00000000: 2c04 cbbd ef33 f2bd 18c5 3bbe 10f0 1f3e
00000010: e56b 95bd 3c01 883d 99df 08be fc89 75bd
00000020: bd78 bbbe 0402 a23c 70df 1c3d 807b aebd
00000030: 6ac3 aebd dc81 57bd db25 debd 58ec 223d
00000040: e78f a8bd 0233 54bd 5dac 42bd d775 c5bc
00000050: e964 bcbd db39 713b 2221 debd b1b5 e2bd
00000060: 7bb0 dfbd 2eea c2bd b7d4 e2bc c8b3 72be
00000070: afe8 b8bd ee29 09be 1de1 5ebe 3854 d2bd
00000080: eb03 c2bd 634f febc 14d1 f6bd 8f0b 98bd
00000090: 9cb1 85bd 961b f13a 0591 ddbd aebf eabd
000000a0: 4bc4 1c3e 4669 debc 9d86 a03d 746b d2bb
000000b0: fa32 9cbd 469e 90bd c3a2 63be 0235 043e
000000c0: 25a1 80be f434 cebd 1342 29be cf9d 0ebe
000000d0: e155 0bbc 7012 db3e acec f93d f398 5abd
000000e0: f1fc 22be a883 41bd e45e 95bc e6be 233d
000000f0: 0078 bbbd 26f1 4c3e b632 29be 0f71 4dbd
00000100: b322 f1bd 1683 3dbc c88f fdbd ad38 93be
00000110: 05b8 d0bd 7c8e b4bd f75d 40bc 88bf 593c
00000120: 7f89 d5bc 0ed1 eabd 6b20 09bd 5f2a b4be
00000130: 5fe2 b23d 5df4 afbd 8bd2 49bd 0661 03be
00000140: 9f46 abbe 191a 8cbe b0ef 91bd 9c76 59bc
00000150: aafd 85be 4e77 e4bd b8e3 73be 121a adbd
00000160: d982 09be 303d 4dbe 5011 ccbb f4c2 c8bd
00000170: 2b30 2cbd 18e6 2cbe 8882 80bd ffa3 12be
00000180: 620e a6bd c4ec cabd
-0.09912905 -0.11826312 -0.18336904 0.1561892 -0.0729597 0.066408604 -0.13366546 -0.059946045
-0.36615553 0.019776352 0.038299024 -0.085196495 -0.08533366 -0.052614078 -0.10847064 0.039776176
-0.08230572 -0.051806457 -0.04752766 -0.024104042 -0.091989346 0.0036808166 -0.10846163 -0.11069811
-0.10922333 -0.095173225 -0.027689321 -0.23701394 -0.09028756 -0.13394901 -0.21765561 -0.1026997
-0.094734035 -0.031043714 -0.12051597 -0.074240796 -0.06528017 0.0018395062 -0.10818676 -0.11462341
0.15309255 -0.027149808 0.078381754 -0.006421501 -0.076269105 -0.07061438 -0.22230057 0.12910846
-0.25122944 -0.10068694 -0.16529112 -0.13927387 -0.008504362 0.42787504 0.12203345 -0.05336852
-0.15916802 -0.047244698 -0.018233724 0.039976977 -0.091537476 0.20013866 -0.16523251 -0.05015665
-0.117741965 -0.011566898 -0.1238094 -0.28754178 -0.10191349 -0.08816239 -0.011741153 0.0132902935
-0.02606654 -0.11465655 -0.03347818 -0.35188577 0.08734583 -0.085915305 -0.049273055 -0.1282998
-0.33452317 -0.2736366 -0.07125795 -0.013272908 -0.26170093 -0.11155568 -0.23817337 -0.08452238
-0.1342882 -0.20042872 -0.0062276497 -0.09802809 -0.042038124 -0.16884649 -0.06274897 -0.14320372
-0.08108212 -0.09908441

encoder.2.1.running_mean f4 [98]
00000000: 71a4 12c0 4d08 1c40 bb30 ebc0 8b91 e1c0
00000010: 198f c2c0 e4c1 ce3f dbda 05bf 5961 b6c0
00000020: ef3b 1640 64c2 2b41 644b 2cc0 00c9 4541
00000030: 7cfa 46be 6a82 8ebb a4e1 8e40 9d32 a1c0
00000040: 3b58 d13d 8ee6 efc0 1c5f d73e 9ce2 00c0
00000050: 3845 d840 1a44 62c1 f88b 8540 bc31 6240
00000060: fbd5 ba3f 0456 a3c0 4bab 4d3e 7705 edbf
00000070: bf47 0c40 e0b1 843f 26ab 58bf 7d23 7540
00000080: ee4d 893e ece1 1e41 4a60 bdc0 5920 183e
00000090: f9d7 d13d 4545 373f d5da a6c0 0f61 5840
000000a0: e8df 2840 7c0a 82c0 af99 a8c0 be88 8f40
000000b0: b162 be40 2349 e2c0 edab 3fc1 c306 bec0
000000c0: e2de f43f 0d7d 07c1 e91f ecc0 dc6d 2240
000000d0: 9eff ea3e eea9 9740 34ab 0341 9e90 cec0
000000e0: 6658 21c1 e2f4 09c1 9679 2fc1 4e6f 4cc0
000000f0: 22f6 e33d dc50 eabf c0f8 b8be 5f1e 003e
00000100: 8e50 8340 59ca b8be e3f0 8e3f 80fd 953f
00000110: ee5b a2c0 e77e 9a3f 6eea b2bd 8742 3fc1
00000120: bce2 67be a337 b940 0187 c0c0 05df 93bf
00000130: 5d7c 1b3f 44cd b4c0 0d5d c3c0 c01e b6c0
00000140: 71ce 0ec0 4a1f 2641 866b a8bf 7903 473f
00000150: fda2 b53f 8f54 4dc0 6cb4 82c0 0cdc f93e
00000160: 372e e9bf 4301 d1bf 4e53 0441 3fdb bebf
00000170: 5b72 283e c24b 6bc0 5d08 e0be 1198 a6c0
00000180: 43ed cb3d a634 d43f
-2.2912867 2.4380066 -7.3496985 -7.0490165 -6.079968 1.6152921 -0.5228707 -5.6993833
2.347408 10.734959 -2.6921015 12.361572 -0.1943149 -0.0043490427 4.465044 -5.0374284
0.10221907 -7.496894 0.4206475 -2.0138311 6.7584496 -14.141626 4.173336 3.5342855
1.4596552 -5.10425 0.20084874 -1.8517293 2.191879 1.0366783 -0.8463615 3.830291
0.26817268 9.930157 -5.918004 0.1485609 0.10246272 0.7159007 -5.214213 3.380924
2.6386662 -4.06378 -5.26876 4.485442 5.9495473 -7.071428 -11.979474 -5.9383254
1.9130518 -8.46803 -7.3788953 2.5379553 0.45898145 4.7394934 8.229298 -6.4551535
-10.084082 -8.622286 -10.967184 -3.1942935 0.111309305 -1.8305926 -0.3612728 0.12511586
4.1035833 -0.3609188 1.1167263 1.1717987 -5.073722 1.2069978 -0.0873612 -11.953742
-0.22645086 5.7880416 -6.01648 -1.1552435 0.6073664 -5.650057 -6.1051087 -5.6912537
-2.2313502 10.382639 -1.3157814 0.77739674 1.4190365 -3.208286 -4.084524 0.48800695
-1.8217229 -1.632851 8.270338 -1.4910659 0.16449873 -3.676499 -0.4375638 -5.206063
0.099573635 1.6578567

encoder.2.1.running_var f4 [98]
00000000: 2ffb 8441 57cf 1642 45b0 5441 f9b5 5241
00000010: 6665 0342 756f 2a42 a21c e23d 6c80 b941
00000020: 1c1f 7941 d699 3742 fef5 9941 899b 6242
00000030: e898 af3d 5ad2 af3c 4957 c441 8e64 c741
00000040: fcea eb3e 8151 b541 9a45 8e3d 0dd1 fc41
00000050: 7a84 b641 68a5 0742 f916 ea41 eb01 fe41
00000060: 0245 b741 112a 6e41 625a 8e3d bb29 a342
00000070: f11e f741 2f57 a041 099d 7941 5d97 9741
00000080: 0a19 033e 376a 4b42 537f 5042 1af0 893d
00000090: e8f7 af3d 430e 3541 12bb 0342 9c69 d841
000000a0: 4c5f f841 d56b 9041 5fa0 9441 d714 6642
000000b0: d4e2 1542 5122 0b42 fc59 9942 64df f941
000000c0: 6ce4 5841 c61e be41 7875 c341 fcc2 1942
000000d0: f118 083d 22c0 6541 33bd aa41 356f 1542
000000e0: 2e8a b241 ee65 1c42 f60d 2242 8055 6242
000000f0: b10a aa3d 690a 2942 c5fa 353e ea06 993d
00000100: 08ad 2e42 024d 403d e1a9 8e42 f786 d241
00000110: 6632 2742 25f3 5642 21ed b83c e489 7842
00000120: 2a63 263e e9e6 1842 195e 0b42 d8cc 6741
00000130: f4ea 0b42 df2a ea41 4cb9 d741 a795 f941
00000140: 9bae 3241 5125 f042 bd39 0042 1921 bd41
00000150: 75c1 2142 5dac 9341 210d 9e41 5069 d13d
00000160: 6b9a 2742 0989 bb41 d7ec ea41 df59 d441
00000170: 98cf 9a3c d4ca 0c42 9f2b 973d 15aa 8c42
00000180: fcfc 093e 35b5 ed41
16.622648 37.70248 13.293035 13.169427 32.849022 42.608845 0.110406175 23.187706
15.570095 45.90023 19.245113 56.65189 0.085740864 0.021462608 24.54262 24.924099
0.46077716 22.664797 0.06946869 31.602076 22.814686 33.91153 29.261217 31.750937
22.908695 14.88527 0.06950833 81.581505 30.890108 20.04257 15.600839 18.948908
0.1280252 50.853725 52.12434 0.06735249 0.08592206 11.315982 32.932686 27.051567
31.046532 18.052652 18.578306 57.52035 37.47151 34.783512 76.67575 31.234077
13.555767 23.765026 24.432358 38.440414 0.03322691 14.359407 21.342382 37.3586
22.31747 39.09954 40.513634 56.583496 0.083028205 42.260166 0.17771442 0.07472022
43.668976 0.04694844 71.331795 26.3159 41.799217 53.737446 0.02257401 62.13466
0.16248766 38.2255 34.841892 14.487511 34.979446 29.270933 26.965477 31.198072
11.167628 120.07288 32.056385 23.641161 40.438923 18.459162 19.75641 0.10225165
41.9008 23.441912 29.365644 26.543882 0.018897817 35.198074 0.07381367 70.33219
0.13475412 29.71348
