models/best-vae_circ-ThreeGPP-noisy-3gpp-8rx-3p.pt (torch, 140367 bytes, 44 tensors)

embed_data.weight f4 [21, 2, 1]
000000 2f 69 cc bb f8 66 34 3f b2 c8 0a 3f 3b 41 1a be
       -0.006238125 0.7046962 0.54212487 -0.15063946
000010 d7 ec 32 3d 85 44 10 be c1 90 a4 bb a1 76 a7 bb
       0.0436829 -0.14088638 -0.005022139 -0.005110577
000020 5a 5a 02 bf 93 45 23 bd 27 28 6e be 2d 33 41 be
       -0.50919116 -0.039861273 -0.23257504 -0.18867178
000030 42 f5 4a bb 06 96 f6 bb f5 41 8f 3e da 05 62 be
       -0.003096894 -0.0075252084 0.2798001 -0.22072545
000040 fc 73 c6 be e2 be ae be f9 02 f5 be 2d b8 10 bf
       -0.38760364 -0.34130007 -0.4785383 -0.5653103
000050 20 d1 9c 3d 9f 79 ce 3a 14 b5 07 bf 66 30 ba 3e
       0.07657075 0.0015752799 -0.5301068 0.3636505
000060 0d 98 28 bc f5 1a 93 3b 73 b1 a3 3b 60 53 0f 3c
       -0.010290158 0.0044892975 0.004995519 0.0087479055
000070 a8 fa 87 3d 32 9e e8 3e 7f 04 ce be 79 8f 38 3f
       0.06639606 0.45433193 -0.40237805 0.7209392
000080 6c 8c 4b bf 7f 99 c2 3c 5f b5 ba be ae 81 08 bf
       -0.7951114 0.023754833 -0.364665 -0.53322875
000090 2b b7 70 be 9f fd 9c 3e 27 82 4f 3f aa ee 68 3e
       -0.23507373 0.30662248 0.8105797 0.22747293
0000a0 b3 d1 37 3e 72 97 46 bf
       0.17951088 -0.7757484

embed_data.bias f4 [21]
000000 48 d0 11 3d 19 45 61 3e ce e2 ea 3d 63 e0 6e 3c
       0.035599023 0.21999015 0.11469041 0.014579865
000010 d8 bc 2e 3e 57 85 6a 3d d3 ee 2e bc 23 ce 9a 3d
       0.17064226 0.05725607 -0.010677057 0.07558849
000020 7b 77 36 3e a1 77 ac 3e 4e 0b b1 3e 56 2f 94 bc
       0.17819016 0.3368502 0.34578937 -0.018088978
000030 ce 16 7c 3c 3b 18 df 38 b3 b7 7c 3e db 0b 10 3e
       0.015386296 0.00010637982 0.2467945 0.14067023
000040 1f e5 b4 bd 92 e3 1a bd c3 b1 57 3d b7 65 cb 3d
       -0.08832764 -0.037814684 0.05265976 0.0993151
000050 81 85 2b be
       -0.16750146

fc_mu_var.weight f4 [32, 64]
000000 8d 1b ca 3b 5e 16 21 ba cf 4e a0 bb 4e 13 13 3c
       0.006167835 -0.00061449956 -0.004892207 0.008976771
000010 e8 01 f8 ba b0 e3 ac 3b fd 7a a7 bd 8b c0 c7 3b
       -0.0018921467 0.005276166 -0.08177755 0.006095951
000020 f6 92 f1 3b ae 9c 1e bd c8 a4 06 bb 05 6d 1d 3c
       0.0073722554 -0.03872364 -0.0020544995 0.009608512
000030 28 be c6 3b 40 f2 a3 3c fa 28 ba bb 8f ed a9 bc
       0.006065149 0.020012975 -0.0056811543 -0.02074316
000040 b5 ab b2 3b 46 98 7d 3c 7f 01 30 38 13 92 56 bb
       0.005452598 0.015478199 4.1963063e-05 -0.0032740876
000050 64 cc 0b be e5 34 e9 bd a1 52 85 ba 9b bc 11 3c
       -0.13652188 -0.11387042 -0.001017172 0.008895065
000060 10 15 37 bd 3a 1a 33 bd ba 5e 5d 3b f8 f2 e3 bb
       -0.04469782 -0.043726183 0.0033778385 -0.0069564544
000070 0f 5c 74 3a 28 46 2d 3c 9b c4 9b 3c 57 86 0e 3b
       0.0009321579 0.010575809 0.019014647 0.0021747553
000080 98 e6 1e 3c 46 f9 0a 3c 4a 8d 01 bc d7 86 3d b9
       0.0096985325 0.008482283 -0.007907221 -0.00018074676
000090 71 33 10 bd 77 55 bb bb 7b 48 01 3c 77 d5 04 bb
       -0.03520531 -0.0057169753 0.007890816 -0.0020268837
0000a0 0d ea 66 bb 22 ab 7c ba fa 6d 5c 3b 30 10 de ba
       -0.003523472 -0.0009638538 0.0033634887 -0.001694208
0000b0 95 df 8b b7 52 29 89 3b 1a fd 8b 3b df 9e 8e ba
       -1.6674205e-05 0.004185834 0.0042721154 -0.0010881088
0000c0 a6 d6 63 bb b1 6d 9b b9 9e 5d 56 3c 34 66 83 bb
       -0.0034765392 -0.0002964563 0.0130838435 -0.0040099863
0000d0 57 e3 40 3b af de 94 bb b2 ce 44 3b 03 db 07 3c
       0.002943238 -0.0045431475 0.0030030427 0.008291963
0000e0 5a b4 3e bb 3b d4 6a 3b 50 51 1e bb 50 6f a3 3c
       -0.0029099197 0.0035832066 -0.0024157353 0.019950539
0000f0 dc f3 88 bc 82 2e d8 3c 86 ad 1f bc 99 ee 09 3d
       -0.016717844 0.026389364 -0.009745961 0.03367481
000100 e8 04 1c bc f4 4d b4 39 df 26 f4 3b 62 9a f1 bb
       -0.009522654 0.00034390355 0.007450923 -0.00737314
000110 e0 4a 59 3b 6f fa 0c bb a9 65 4a bc 91 b6 fe bb
       0.0033156201 -0.0021511575 -0.012353339 -0.0077732285
000120 4e 75 a8 bb 0d 06 6d bd 93 6c a2 bb 38 2c e3 ba
       -0.005140937 -0.0578671 -0.0049567907 -0.0017331904
000130 5c 07 c5 bb fb 33 9e 3b f2 b7 af 3a 00 52 16 3c
       -0.00601284 0.004827974 0.001340626 0.009174824
000140 03 a5 ba bb 16 f8 c7 3b a3 e3 a3 3b 59 3e 83 b8
       -0.0056959405 0.006102572 0.0050015016 -6.25818e-05
000150 12 78 9d bd 5b d6 0a 3b 7a 6f 01 ba ef 3a cb ba
       -0.07688917 0.0021184895 -0.0004937571 -0.0015505234
000160 2e ff f4 bc 28 ea 43 3c af b8 fc 3b 1b cd 80 3a
       -0.029906835 0.011957683 0.0077124457 0.0009826751
000170 65 cb 70 3a 37 39 98 bb a2 31 87 bb 38 c1 c0 bb
       0.00091855816 -0.0046454924 -0.0041257897 -0.0058824085
000180 be 4c da bb 5b 0c 5e bb 61 29 10 39 2f 36 5d bb
       -0.0066619804 -0.0033881876 0.00013748325 -0.003375422
000190 56 46 20 3d b7 75 86 3a f2 bb f0 bb ea 05 2d bb
       0.039129578 0.001025847 -0.0073466236 -0.002640123
0001a0 1c c9 1e 3d 2b 44 44 bb 42 62 09 3b 30 01 2f bb
       0.03876601 -0.0029947858 0.0020963107 -0.0026703589
0001b0 a7 54 e7 3a 47 4c 8d bb 7f d1 fa 3a 73 af 64 ba
       0.001764913 -0.0043120715 0.0019135921 -0.0008723654
0001c0 46 5f d0 3c a8 d5 34 3a c5 d6 03 bc 2b 12 7c 3b
       0.025436055 0.00068982923 -0.0080468105 0.0038462977
0001d0 48 7e 0b bb 43 50 d3 3a 46 a0 02 3b 51 cb 4e 3a
       -0.0021284986 0.0016121942 0.0019931956 0.0007888573
0001e0 3f 3e 40 bb 46 b8 cb ba ac f4 6b 3b 17 f9 d9 bb
       -0.0029333977 -0.0015542589 0.003600399 -0.0066520083
0001f0 40 ea 93 bd 95 b5 86 bc 55 43 02 3c 1e 1b 7c 3d
       -0.07222414 -0.016444007 0.0079506235 0.0615493
000200 56 9c 8b 3b 5b 7d 8b b9 19 0b 94 3a c2 45 7f ba
       0.00426058 -0.00026605543 0.0011294811 -0.0009737873
000210 8d ac bc ba 2b 79 78 bb 2c 2b b2 bc c7 da d1 3b
       -0.0014394686 -0.0037914019 -0.021749102 0.006404254
000220 a4 2a 9d bb 22 14 ad 3c 51 ca 66 ba 0f 58 8d 3a
       -0.004796343 0.021127764 -0.0008803951 0.001078369
000230 44 83 2f bb 05 2b d8 bc f8 38 d5 3b 47 bb 9d 3b
       -0.0026781121 -0.0263877 0.0065070353 0.004813585
000240 df 45 2d ba 37 4a 14 3d 00 3c 73 bc 8e 2d 03 3b
       -0.0006609838 0.03620359 -0.014845848 0.0020016166
000250 2b f8 ae 3d 8d b0 8a 3b 4c 18 25 bb 83 aa 3a 3a
       0.08543428 0.0042324723 -0.0025191484 0.0007120745
000260 f9 16 97 bc ff 95 66 bd 2c 56 09 bd ba dd ca 3a
       -0.018443571 -0.05629539 -0.033529446 0.0015477457
000270 59 56 34 bb d9 b7 a9 39 09 4d 4f 3a 0f da 00 bb
       -0.0027517288 0.0003237117 0.00079079025 -0.0019661223
000280 cb 4a 0a ba 44 ff 60 3a 36 9e 88 39 fd 72 e6 3a
       -0.0005275427 0.00085829594 0.00026057818 0.0017581877
000290 bd a0 3f bd 8f ba 04 bc 78 43 eb b9 71 36 b7 ba
       -0.04678415 -0.00810112 -0.0004487296 -0.0013978017
0002a0 e4 f0 12 bc 16 57 1d 3a 6c f6 93 ba bc 2e a8 38
       -0.008968566 0.00060020515 -0.0011288649 8.019569e-05
0002b0 d9 62 3a bb 77 c2 9c bb b9 fd bf 3a d3 56 82 bb
       -0.0028440265 -0.004783924 0.0014647759 -0.0039776354
0002c0 a2 6e ce bd 2a e8 2e 3b a3 4c 09 3b d6 9b 17 3b
       -0.10079695 0.0026688674 0.002095022 0.0023133657
0002d0 35 91 57 bb 3e ed 4f 38 4a 53 d3 39 0c 6d f9 3a
       -0.0032892947 4.9573595e-05 0.0004030711 0.0019029691
0002e0 a8 07 ca 3a 93 3c f2 39 9d 6d c6 ba 7e a3 ca bb
       0.0015413659 0.00046202968 -0.0015138868 -0.0061840406
0002f0 57 33 90 bc 03 0e b0 bc e7 32 6c ba be 2d b2 3c
       -0.017602606 -0.021491056 -0.00090102706 0.021750327
000300 14 36 4a 3f b6 5f 7e be 22 98 5f 3e ec 9b cd be
       0.78988767 -0.24841198 0.21835378 -0.4015802
000310 d9 e7 7b 3e 90 1a 5e be a6 30 05 3c 34 c6 64 3f
       0.24600162 -0.2168982 0.0081292745 0.89364934
000320 33 74 77 bb 7c 03 c5 3b 4b 97 e2 3e 7c a6 4b bf
       -0.003775847 0.0060123783 0.44256052 -0.7955091
000330 33 37 12 3f 2f 3e 82 bd 08 23 95 3f 06 52 70 3f
       0.5711548 -0.06359517 1.1651316 0.9387516
000340 f4 c7 46 bd 3e 8b 17 bc 8e 08 15 bc c4 02 47 be
       -0.048530534 -0.0092495065 -0.009096278 -0.19434649
000350 14 8e 8c bc ad c2 c0 3b 65 66 a3 bd ea 9b ed bd
       -0.017157592 0.005882582 -0.079785146 -0.11602004
000360 bc be 84 3d ef df 31 3d 48 3d 6e bd 6e 2f 30 3f
       0.06481692 0.04342645 -0.05816391 0.6882237
000370 92 c0 87 bf 48 c9 7e bf 6a b7 29 bf eb 0d e3 3e
       -1.0605643 -0.9952588 -0.6629549 0.44346556
000380 29 68 0e bf 64 0e 06 bf 27 75 cc 3e 91 4a 02 3f
       -0.55627686 -0.5236571 0.3993313 0.5089503
000390 f5 d2 f4 3c fc 55 d5 3e 77 75 49 bf b0 e8 be be
       0.029885748 0.41667163 -0.7869486 -0.372869
0003a0 b7 06 2d bc cb 46 ab 3e aa 78 4b 3e 62 8e 91 3e
       -0.010560683 0.33452448 0.19870248 0.28428942
0003b0 4b ec b2 be 87 9f 8c be 44 d9 94 be 5e 2e 97 bf
       -0.34945902 -0.2746546 -0.2907201 -1.1811025
0003c0 a8 2d 80 bd d0 f2 13 3f 2f ac d4 3e 2e 2b a0 bd
       -0.06258708 0.5779238 0.41537616 -0.07820736
0003d0 26 98 ef 3e b9 dc 07 3f 4d 0d 22 3f f2 d7 a6 be
       0.46795768 0.5307117 0.63301545 -0.32586628
0003e0 ef da 91 bc e7 d9 8e be 7c 34 15 bf 82 3c 51 3b
       -0.017804591 -0.2790062 -0.5828321 0.0031926935
0003f0 c7 8d 12 3d d9 0a 3b bb 44 0c a0 3e 46 5d fe bc
       0.03577974 -0.0028540401 0.31259358 -0.031050336

fc_mu_var.bias f4 [32]
000000 ed e4 d4 bb 27 f1 80 3b d7 3d 28 3b d8 43 82 3e
       -0.0064970166 0.0039349976 0.0025671625 0.25442386
000010 03 05 6f bb 22 c7 b6 3a 02 97 14 bc eb be e5 3a
       -0.0036471493 0.0013944844 -0.009069206 0.0017528211
000020 92 56 b3 3b b8 fc 1b bc aa 1a 39 bc fd 2e 9a bb
       0.0054729665 -0.009520702 -0.011297861 -0.0047053085
000030 35 09 b1 3b 15 17 dc 3b 80 e6 d6 3b 09 34 1c bb
       0.005402709 0.006716619 0.0065582395 -0.0023834726
000040 70 cd f6 ba d2 60 34 bb ea 2b 9a ba 89 dd 9d be
       -0.0018829536 -0.002752353 -0.0011762355 -0.3083308
000050 27 44 8d 3b 76 d7 46 3a 7f 5d 76 bb d9 95 68 3a
       0.004311103 0.0007585207 -0.003759235 0.00088724267
000060 4d 72 10 bb 8d 57 71 ba 70 0d e8 bb c8 d0 0f ba
       -0.0022040785 -0.00092064665 -0.00708168 -0.0005486128
000070 f1 84 a7 ba c7 88 14 bf db c6 a4 39 52 96 8d bb
       -0.0012780708 -0.58021206 0.00031428676 -0.004320898

encoder.0.0.weight f4 [21, 21, 4]
000000 f0 07 c1 bb 15 9b 43 be de fc 13 3d 3c d8 1e 3c
       -0.005890839 -0.19102128 0.036129825 0.009695109
000010 d0 37 03 bd 5f 7b 9a 3c 47 d5 d5 3d ba ea c8 be
       -0.03203565 0.018857656 0.1044107 -0.39241582
000020 41 4d 6e bd e4 90 14 3d 71 a8 c4 3d e5 74 64 3c
       -0.058179144 0.03627099 0.0960244 0.013943885
000030 f2 85 ed bd 31 36 a8 3d a1 d2 ab 3d 9e b9 82 3d
       -0.11597814 0.08213461 0.08389784 0.0638306
000040 54 39 3f bd 40 0e 96 3c f8 76 4a 3b df 2b 5e 3e
       -0.04668553 0.018317342 0.0030893665 0.21696423
000050 68 7a 8e bd 29 f9 9d 3d 7e c6 bb bd b4 41 18 3e
       -0.06956941 0.07713539 -0.09168719 0.14868814
000060 ef b6 aa bc 34 33 bf 3d 74 23 03 3c 42 2c 9f 3e
       -0.020839183 0.09335938 0.008004058 0.31088454
000070 05 e9 b5 3a db e1 dc bc 9c 28 87 3d 9f 01 3e be
       0.0013878649 -0.026963165 0.065995425 -0.18555306
000080 6f c4 a0 bd d7 49 14 bd 27 76 38 bd b7 d7 8d 3d
       -0.07849967 -0.03620323 -0.045034554 0.0692591
000090 7a 71 ee bc e1 db 18 bd 6f 7f 7c bd 72 94 05 3e
       -0.029106844 -0.037319068 -0.061644968 0.13044909
0000a0 21 53 78 3d 8e 04 06 be 67 e0 a5 3d 72 10 c1 be
       0.060626153 -0.13087675 0.08099442 -0.3770786
0000b0 e7 18 8f 3d 8c 75 ef bb 1d 32 13 bd 6b 50 bb 3e
       0.069871716 -0.007307714 -0.035936464 0.36584792
0000c0 c2 4b 43 bd 44 b5 ec bd 67 4a 7f 3d 87 25 40 3d
       -0.04767967 -0.11558011 0.062326815 0.04691079
0000d0 31 16 19 bd a8 fe 21 3e 0a c1 90 bd 59 c0 2a 3d
       -0.03737468 0.158198 -0.07068069 0.041687343
0000e0 ad 6c 3f 3d 52 bf 66 bd 9e c0 4d bd ca 93 7f bd
       0.0467345 -0.0563348 -0.050232522 -0.062396802
0000f0 84 95 e6 ba 2e 13 a6 bd ee 6b ff bd 9f a2 3e 3e
       -0.0017592167 -0.08109127 -0.12471758 0.18616723
000100 27 51 95 bd 91 ba af 3d ba c7 94 3c 9e 07 b4 3e
       -0.07290869 0.085805066 0.018161643 0.3516206
000110 95 bd 83 3c 56 65 0e 3d 08 74 9e 3d 8d 51 5f 3d
       0.01608161 0.03476461 0.07736975 0.054521132
000120 ac 87 5b 3d f8 de 89 bd 6f 83 5b 3b 81 e6 40 3e
       0.053596184 -0.06731981 0.0033495089 0.1883793
000130 e9 b0 dc 3c d6 8a 26 3d e4 70 3d 3d 7f ff a9 be
       0.026939826 0.040659748 0.04625024 -0.3320274
000140 8d db d9 3d 50 12 e4 bc 17 a7 cb 3c 2b 0e d2 bc
       0.10637579 -0.027840763 0.024859948 -0.025641521
000150 f2 40 95 bc ac ce c2 be 48 9b 0e 3f a8 22 a4 bd
       -0.018219445 -0.38048303 0.5570569 -0.08014423
000160 eb 51 d5 bc aa 3b df 3e 38 f6 85 3d c6 2b 1a bf
       -0.026040038 0.43600208 0.06541103 -0.6022304
000170 25 84 93 3d be b1 bb 3e 9d 11 e7 be dd e9 e9 3a
       0.07202939 0.36659044 -0.45130625 0.0017846186
000180 98 03 76 3c 29 8b c2 3d cf 93 c6 bb 11 fe c1 3c
       0.015015505 0.09499199 -0.0060601006 0.023680719
000190 a1 3a d3 3d 63 46 87 be 22 95 97 be ce 1a 54 3f
       0.10313917 -0.26420888 -0.29605967 0.828534
0001a0 5e a4 9d 3d ea fe a7 bc 31 86 c8 be ab 75 08 3f
       0.07697366 -0.020507295 -0.3916488 0.5330455
0001b0 3d 8b 0f bd a7 b2 9a 3d c8 a7 0f bd 29 85 85 bc
       -0.035044897 0.075536065 -0.035072118 -0.016298847
0001c0 2d 3d 3c 3d 8d 82 0d 3f 9d 26 51 be 01 dc dc be
       0.04595678 0.5527733 -0.20424886 -0.431366
0001d0 26 72 96 3d 0c af 81 3c 01 63 0b bf 36 22 18 3f
       0.07345991 0.01583054 -0.5444794 0.594272
0001e0 dd 2e a8 3d b5 9f 71 3d dc 98 1d bf bc 07 25 3f
       0.082120635 0.0589902 -0.6156137 0.64464927
0001f0 53 d2 b4 3d 2e fe 7f 3e 73 26 53 bd fb 81 55 be
       0.08829179 0.24999306 -0.05155034 -0.20850365
000200 9b 30 e9 3c c4 05 0b bf 5b b3 f3 3c 03 21 14 3f
       0.02846556 -0.5430567 0.02974861 0.5786287
000210 eb 14 8f 3d fa 16 6c 3d 45 dc 94 bd 1d a0 90 3d
       0.06986412 0.0576391 -0.072685756 0.07061789
000220 59 d2 08 bc 55 0a 59 3c 6d 96 97 bc 3f 75 fa 3c
       -0.008350932 0.013247092 -0.018504346 0.030573485
000230 02 4c ae 3c 9f 95 a0 be d1 b2 03 3f d2 0e 05 be
       0.021276478 -0.31364152 0.5144473 -0.12993935
000240 ef 74 97 3d 2c be 14 bf 37 a7 a5 3e ae c0 b4 3e
       0.0739535 -0.5810268 0.32354137 0.35303253
000250 b5 a9 51 3d 44 b9 c4 be 04 ed 61 be 86 cc 5e 3f
       0.051187236 -0.38422596 -0.2206307 0.8703083
000260 52 31 0d bd 80 08 59 3e 77 72 35 bf 0c 57 ea 3e
       -0.034470864 0.21194649 -0.70877784 0.45769536
000270 d5 48 b4 bc 91 65 00 bf d3 1c 44 3e 55 5d 8a 3e
       -0.022007385 -0.5015498 0.1915162 0.27024332
000280 8f 74 a5 3b 03 21 53 3e 34 14 aa 3e 54 4b 4d bf
       0.0050492953 0.20618062 0.3321854 -0.80193067
000290 1d ba 0e 3d f0 13 13 3f 20 5d e6 be bf 99 f4 bc
       0.03484546 0.574523 -0.44992924 -0.029858468
0002a0 51 d4 e8 bd 0b e5 3a bd 69 0d f8 3e 5b 04 cf bb
       -0.11368621 -0.04562859 0.4844773 -0.006317658
0002b0 47 2e b2 bd 9c 8f 58 3f 67 3f 04 bf f0 c7 75 3d
       -0.08700233 0.8459413 -0.51659244 0.06000513
0002c0 0f b8 fb 3c d4 16 45 3e be 22 be be a1 11 5d 3b
       0.030727414 0.1924699 -0.3713588 0.0033732431
0002d0 8a 5f e0 bc fb 11 60 3c c5 fa 06 bd d4 8e f6 39
       -0.027389307 0.013676162 -0.032953996 0.00047027192
0002e0 d4 0e be bd b5 8a 54 bf bd 2f d2 3e e2 40 be bc
       -0.09280172 -0.8302415 0.41052046 -0.023224298
0002f0 2e 57 d0 3d 78 33 db be c7 4a 6f 3d d4 f8 19 bd
       0.10172878 -0.42812705 0.058420923 -0.037590817
000300 71 5b 38 3d 6b 49 3b bd f0 ed 30 3d 8d a0 20 3d
       0.04500908 -0.045724314 0.043195665 0.039215613
000310 b4 0a 49 3d b8 f1 25 3f ed 63 3e bf 37 d7 e4 bc
       0.049082473 0.6482196 -0.74371225 -0.027934654
000320 14 bc 71 3c f9 b4 ec be e5 3d 50 3d ac 3d b6 bc
       0.014754314 -0.4623182 0.050840277 -0.022246204
000330 ce 35 e1 bc f4 34 e5 be b2 87 2a bd cb 6c e3 bd
       -0.027491476 -0.44766963 -0.041633315 -0.11104735
000340 a1 53 92 be b5 13 0d 3f 76 9e b0 be b9 f9 58 3d
       -0.2857943 0.55108196 -0.34495896 0.05297253
000350 00 ea 8c bd 35 70 37 bf 69 fd 3b 3f a1 9a 5b bd
       -0.068805695 -0.7165559 0.7343355 -0.053614262
000360 5c 45 1a bc 1e ae 5e bc 1d d3 44 bc f3 d2 84 3c
       -0.009415951 -0.013591317 -0.012013224 0.01621387
000370 5a d0 6e bd 0d dc f5 3b d5 7b 22 bd 20 42 d3 3c
       -0.05830417 0.0075030387 -0.039668877 0.025788367
000380 23 e4 8b be 0c 5b 78 3b ea da 9d 3e 33 c6 44 3d
       -0.27322492 0.0037896065 0.3083108 0.04804058
000390 07 71 24 be 6d 16 b9 be 49 ed 53 3f 13 f3 97 3d
       -0.16058742 -0.36149922 0.82783943 0.074194096
0003a0 82 b9 4c 3d 02 22 5d bf 7f 26 06 3f 59 ec 5d bd
       0.0499816 -0.86380017 0.5240249 -0.054180477
0003b0 93 d4 45 3e ac 31 b2 be a7 c0 df bd ff e1 64 bc
       0.19319372 -0.34803522 -0.109254174 -0.013969897
0003c0 01 a1 fd bd 41 43 fe be c4 fc 2c 3f 8a 90 82 bc
       -0.12384225 -0.49660686 0.6757319 -0.015938062
0003d0 19 83 c8 bd 35 0f 4e 3f df 93 a2 be d3 33 f1 3d
       -0.0979063 0.80491954 -0.31753442 0.11777463
0003e0 f3 29 76 3e 94 30 5c 3e fd 30 1f bf 5c 2c 1a 3d
       0.2403944 0.21502906 -0.62184125 0.03763996
0003f0 ab d8 8e 3e be c9 0a bd 71 54 00 bf a0 43 5c 3c
       0.2789968 -0.033883803 -0.5012885 0.013443857

encoder.0.0.bias f4 [21]
000000 5d 9c b5 bc 9a cf 1f be 83 e7 82 3d 09 f5 44 3c
       -0.022169286 -0.15606537 0.063918136 0.012021312
000010 6f bf fa 3c 31 76 81 bc 59 04 29 3e e6 07 cf bb
       0.03060886 -0.015803428 0.16505565 -0.0063180802
000020 4c da 03 be 95 f6 74 3e 01 fe ae 3c 4a 7e 16 bd
       -0.12876242 0.23922189 0.021361353 -0.036741532
000030 29 28 26 3e a0 69 4b 3e 38 85 df bd 5c 28 36 3e
       0.16226257 0.19864511 -0.10914081 0.17788833
000040 e2 4d 92 be 47 a6 71 3d 4a ad 17 3e 24 e6 fe 39
       -0.28575045 0.058996465 0.14812198 0.00048618123
000050 e0 e9 39 3d
       0.045389056

encoder.0.1.weight f4 [21]
000000 b3 d4 14 38 2c 11 3d bf 85 79 46 3f 79 2f 79 be
       3.548404e-05 -0.7385433 0.77529174 -0.24334516
000010 e8 8e 20 bf 52 5c 84 ba 2e 60 4e bf ae ed 3b 3f
       -0.6271806 -0.0010098314 -0.8061551 0.73409545
000020 e6 8b 4b 3f 04 62 2a 3f 3d bb a8 ba 6d 4a 99 be
       0.79510343 0.6655581 -0.0012873184 -0.29939595
000030 91 ba 50 3f f1 ab 35 3f bf 63 52 be 4c 3e 77 3a
       0.8153468 0.70965487 -0.20545863 0.0009431585
000040 ac 7f 64 3f f9 49 6b 3b 46 4d 47 3f d5 e4 ea 39
       0.8925731 0.0035902245 0.77852285 0.0004480245
000050 2d bb 53 3f
       0.8270748

encoder.0.1.bias f4 [21]
000000 35 6d 08 bc e1 bc 57 bc bd b6 3f 3b d2 7b 0c 3f
       -0.008326818 -0.013167591 0.0029253208 0.54876435
000010 12 81 28 bb 2e 97 db bc af f2 2c 3b 80 db 75 bb
       -0.0025711698 -0.026805487 0.0026389768 -0.0037514865
000020 44 21 83 3b f7 4e 5c 3c a5 da cc bc 10 79 06 3f
       0.0040017683 0.013446561 -0.025006602 0.52528477
000030 03 81 28 3a 8f 9b 37 bc a0 9c d6 3e ca 07 a3 bc
       0.00064279157 -0.011206522 0.4191637 -0.019901175
000040 4f 40 0f 3c 0b ef 54 bd dc 37 d5 bb 82 3a d3 bc
       0.00874336 -0.05198578 -0.006506903 -0.025784735
000050 00 dd b9 38
       8.862652e-05

encoder.0.1.running_mean f4 [21]
000000 75 ed 91 be 99 d0 82 3b 04 1c 38 3e 97 2d 3f 3e
       -0.28501478 0.003992152 0.17979437 0.18669735
000010 b5 66 81 3d be 5c 07 bd 70 97 0b 3f 2d 65 94 be
       0.06318418 -0.03304743 0.5452795 -0.2898344
000020 6d 4b 1a be a7 17 5e bf 9e c7 37 3d 1f 3a 2a 3e
       -0.15067835 -0.8675484 0.044868104 0.16623734
000030 1e 29 3f 3e a9 43 87 3e 17 70 19 3f b7 5f b8 3d
       0.18668029 0.26418808 0.5993666 0.09002631
000040 6d 27 81 3d ad 94 4c 3c 8f e0 40 bc 2d af 72 bc
       0.06306348 0.012486619 -0.011772289 -0.014812273
000050 81 be 9f be
       -0.3120003

encoder.0.1.running_var f4 [21]
000000 d2 00 d3 40 63 9d ae 42 01 4e e8 42 69 ad e6 42
       6.59385 87.307396 116.15235 115.33869
000010 34 c3 fc 42 96 82 0a 40 fb 01 bc 42 b2 e5 b2 42
       126.381256 2.1642203 94.00387 89.44862
000020 9a 5a c7 42 eb 61 fd 42 ac 40 60 3f 60 eb bb 42
       99.676956 126.691246 0.8759868 93.95972
000030 f9 5f e1 42 af cf c6 42 fa c4 c8 42 1d fc 7a 3e
       112.68745 99.40563 100.38472 0.24510236
000040 2f af cd 42 cf 6f 08 3f c1 2f c4 42 39 e8 01 3e
       102.842155 0.53295606 98.09327 0.12686242
000050 e2 9a c0 42
       96.302505

encoder.1.0.weight f4 [36, 21, 4]
000000 7f 52 0f 3d 0f fa 9d bb 9c 5d 32 3b 72 61 d5 b7
       0.034990784 -0.004821069 0.002721644 -2.5436955e-05
000010 33 23 ff bc 44 09 af 3d 0b fb e2 bc 27 65 fc 3c
       -0.031144714 0.08546689 -0.027707597 0.030809952
000020 33 17 a2 bd 4f 1d b1 3c 3f f3 bd 3c 87 ee 09 3b
       -0.07914581 0.02162042 0.023187278 0.0021046714
000030 4e 6e ba 3c bd 91 4f bd 10 76 8b bc b2 7d 54 bd
       0.022757675 -0.050676096 -0.01702407 -0.051877685
000040 5f 22 34 3d 1f 9c 54 bb c2 ab 16 3c 1c 21 cc bd
       0.04397809 -0.0032441688 0.009196224 -0.099672526
000050 62 3e f8 bc 96 9a 9b bd 33 24 a6 3c 2a ef 49 3c
       -0.030303184 -0.07597844 0.020280933 0.012325088
000060 15 31 dc 3c 14 c2 05 3c 3b 89 ee bd 30 4f 70 3d
       0.026878873 0.008163948 -0.116472684 0.05866927
000070 ec f4 16 bc bc 89 9e 3d 33 37 17 3d b5 10 04 3d
       -0.009213667 0.077411145 0.036917876 0.032242496
000080 f4 6e 33 3d 27 6a 41 bd 07 c9 e9 bc 8d 8c 93 3d
       0.043806985 -0.047220375 -0.02853824 0.07204542
000090 fd a7 f7 bb da 35 5c 3d f8 0d d2 3d 28 e6 48 3d
       -0.0075578676 0.053762294 0.102565706 0.04904762
0000a0 08 72 60 bc 22 8f a1 3c f7 57 89 3d ba dc da 3c
       -0.013699062 0.019721571 0.06706231 0.026716579
0000b0 c6 9a 9c 3b bb ac 3b 3d 9e 57 a1 bd b0 4e 35 bd
       0.0047791926 0.045819025 -0.0787804 -0.044264495
0000c0 e5 98 c2 3d 1b 43 ee 3d 1d 61 35 bc db 3b 94 bd
       0.095018186 0.11633893 -0.011070517 -0.07237979
0000d0 3a e0 e6 3a b7 e5 78 bc 71 66 9e 3d f3 3f 65 bd
       0.0017614432 -0.015191487 0.07734383 -0.05596919
0000e0 f0 93 ef 3a 90 11 a4 3d 9d 82 6d bd 7e 5a ca bb
       0.0018278342 0.08011162 -0.05798589 -0.0061753383
0000f0 ac e1 10 3d 52 47 51 bd f7 39 5a bd 81 b2 0e bd
       0.035371467 -0.051093407 -0.053277936 -0.034838203
000100 18 18 b6 bc 5d a4 1c 3d 28 36 31 bd a5 fa 60 3c
       -0.022228286 0.038242687 -0.043264538 0.013731633
000110 f8 79 38 bd df dc 10 3c f2 91 0a 3d 0f 89 4a bd
       -0.045038193 0.008841722 0.03383059 -0.049447116
000120 4e f5 ac bc cf 90 ba bd ea c2 e6 b9 ea 77 8b 3d
       -0.021113064 -0.09109651 -0.0004401424 0.06809981
000130 56 fb 13 ba e1 a5 86 bd 97 c8 1a bc 42 4e 79 3d
       -0.0005645057 -0.06574608 -0.009447238 0.060865648
000140 80 bc 37 bd ba 73 11 bd 8f 7e 87 bd d3 4b 2e 3d
       -0.044857502 -0.035510756 -0.06615936 0.04255278
000150 3f 74 62 3d 3d 0a 69 3d 50 14 62 bc 57 79 e3 3c
       0.055286642 0.05689453 -0.013798788 0.02776782
000160 3b 49 ea 3c 4b 41 8e bd 51 8b 78 3c c8 01 49 3c
       0.028599372 -0.069460474 0.015169934 0.012268491
000170 83 49 5d 3d 54 2f 06 bd 40 64 dd bc 91 7a c0 bd
       0.054025184 -0.03275998 -0.027025342 -0.09398378
000180 d6 81 b0 3c b1 85 3c 3d 8b 5c 83 3d af 18 84 bd
       0.021546286 0.046025936 0.064141355 -0.064500205
000190 6a e9 68 3d ab 01 9d 3c eb 37 9e bc 72 10 3c 3b
       0.056863226 0.019165834 -0.019313773 0.0028696326
0001a0 59 58 b3 3b 20 76 10 bd 21 3a f1 bb 35 29 64 3c
       0.0054731783 -0.035268903 -0.007361666 0.01392584
0001b0 8a 42 97 bb fb af 24 3d 27 53 02 bd 17 88 19 3d
       -0.0046160864 0.04020689 -0.03181758 0.0374833
0001c0 d3 e6 33 3c f8 8f e6 bc db c8 2c 3d 5b 29 02 bd
       0.010980326 -0.028144822 0.04218374 -0.03177772
0001d0 39 ad 48 bc 75 3f fd bb 55 73 bc bd f0 15 53 bc
       -0.012248331 -0.007728512 -0.09201685 -0.012883648
0001e0 e5 b7 a2 ba b1 ca 6c 3d a1 7f c4 3d 1b 9e ec 39
       -0.0012414424 0.05781049 0.09594656 0.00045131225
0001f0 64 13 02 3d 33 73 a3 3c 3a 13 a3 bd b8 06 4b bd
       0.031756774 0.019952392 -0.079626516 -0.049566954
000200 89 ed 29 3d 96 9a 70 bc 6e 09 3e bc 41 62 83 bd
       0.041486297 -0.014685294 -0.011598928 -0.06415225
000210 f0 f9 ac 3c f7 35 13 3d 87 44 d3 bd d1 73 1b 3d
       0.021115273 0.035940137 -0.10315805 0.037952248
000220 cd 46 43 bd 67 a2 1e bd d7 bc 4d 3d 61 40 63 3c
       -0.047674943 -0.038729098 0.05022892 0.01387033
000230 2c c4 e9 bc cf 7f c2 bd 56 5d d6 3c f6 3e 3f 3c
       -0.028535925 -0.09497034 0.026167553 0.011672726
000240 d1 19 63 bd 03 77 36 bd 78 94 8e ba 2d 13 e1 bc
       -0.055444542 -0.044547092 -0.0010877987 -0.027474964
000250 5a 2d e1 bc b9 dc 41 3d a8 05 79 bc 63 67 95 3c
       -0.027487446 0.04732964 -0.015199102 0.018237775
000260 cd cc 48 bd e9 3a aa 3c 4d da e7 3c 9a 7c 23 bc
       -0.04902344 0.020780044 0.028302336 -0.009978438
000270 b5 5f 8b bc 91 1f 03 bc 96 31 17 3d fd 93 d2 3c
       -0.01701341 -0.0080031315 0.036912523 0.025705332
000280 cd 9d 06 3d 1c 4a ab bc 32 74 52 3d c2 b5 c6 bb
       0.032865334 -0.020909362 0.051380344 -0.0060641477
000290 a5 ff 68 bd d3 ca a4 bb 25 81 03 3d 5d 1b e9 3c
       -0.056884427 -0.0050290613 0.032105584 0.02845543
0002a0 5e 85 35 3d 6e 90 5b 3c ae 8f 1a 3e 2c 62 7c bd
       0.044316642 0.013401134 0.15093872 -0.06161706
0002b0 ea af 0e bd d4 01 b4 3d ef c8 27 3f 56 88 ca be
       -0.034835733 0.08789411 0.65540975 -0.3955714
0002c0 82 8e 49 3d 62 0c 0c bd 0f 8b 38 3f cc 23 ae be
       0.04920817 -0.034191497 0.72087187 -0.34011686
0002d0 36 58 2c be 14 99 24 bf a1 16 15 bf f9 84 31 bd
       -0.16830525 -0.6429608 -0.58237654 -0.043339703
0002e0 ba fb 15 3d b3 15 c3 3e 57 8d 04 3e f6 13 59 bd
       0.03661702 0.38102493 0.12944542 -0.05299755
0002f0 46 39 a9 3d 3c 92 a8 3c cc 0f 20 be 32 74 e8 3c
       0.08262877 0.020577542 -0.15631026 0.028375719
000300 dc 76 88 3e 5b 21 07 be 48 9e 7c 3f 45 0f 9b 3e
       0.26653183 -0.13196318 0.9867902 0.30285087
000310 71 ed 45 bd 09 06 71 bc 88 3b 1e 3f d2 35 d3 be
       -0.048322145 -0.014710912 0.6180959 -0.41252
000320 86 88 97 3e a7 85 20 be 16 af 64 3f 86 37 bc 3e
       0.29596347 -0.15675984 0.8932966 0.3676111
000330 47 4f b5 3e b8 ea ad 3d b9 74 5f 3f 1f 54 e5 3e
       0.35412046 0.08492035 0.8728748 0.44790742
000340 ea b0 22 bd b1 a2 04 3d af 01 cf 3c ea 49 00 bc
       -0.0397195 0.032381717 0.025269357 -0.0078301225
000350 be 26 49 3e 3a 75 9a 3e 2b 65 19 3e 0c e8 8f be
       0.19643685 0.30167562 0.14979999 -0.28106725
000360 5b 03 a0 3d 49 f4 b3 bd d3 b5 4f 3f 6c 83 17 be
       0.0781314 -0.08786828 0.81136817 -0.14796227
000370 7d 19 e1 bc e9 23 62 3f 01 6a 08 3f e6 e0 91 be
       -0.027477974 0.88336045 0.5328675 -0.28491896
000380 39 37 8d 3e 62 03 90 3e cf ca 40 3d 4a c5 b2 3d
       0.27581194 0.2812758 0.047068413 0.08729036
000390 72 86 31 3d 3f 5a 43 3d 29 e1 10 3d ec f9 46 3c
       0.043341108 0.047693487 0.03537098 0.012144547
0003a0 2b d0 16 3d 5f 64 18 3f db 19 27 3f 92 cf 7d be
       0.03681962 0.59528154 0.6527383 -0.24786213
0003b0 cb 1c 1c bd ec 85 c2 bc ac 96 88 bc ea 92 27 bc
       -0.038113397 -0.0237455 -0.016673408 -0.010227898
0003c0 93 5e 59 3e eb f0 7c bd ec c3 f0 3e 4a 0c 63 be
       0.21227483 -0.061753195 0.47024477 -0.22172657
0003d0 bc 11 2e bd da 18 5e bd db 5e 1b 3e a3 ab 85 3d
       -0.04249738 -0.05422292 0.15172903 0.06526878
0003e0 2e 8b 17 3e 5a 77 e5 3c 0c a7 53 3f 9f 97 3a be
       0.14799187 0.028011013 0.8267677 -0.18221901
0003f0 21 04 c6 3a 98 6c 86 bc 1a 68 01 3d cc 46 4c bd
       0.0015107432 -0.016409203 0.03159342 -0.049872205

encoder.1.0.bias f4 [36]
000000 20 8e f1 bd 45 c6 a8 3d d7 4b 80 3e 30 5a 04 3c
       -0.11794686 0.08240942 0.2505786 0.008078143
000010 6e c9 b1 bb 01 e4 07 3d a6 ca ca bc 08 62 cf 3e
       -0.0054256236 0.033176426 -0.024754833 0.4050448
000020 45 7f c0 bd c6 76 8d be 55 e1 d3 bc b0 28 af 3e
       -0.09399275 -0.2762968 -0.025864283 0.3421073
000030 f7 a0 cf bd 5c 77 59 3e 3f 29 83 3b 97 60 d8 3d
       -0.101381235 0.21236938 0.0040027197 0.10565298
000040 fa 87 ba 3b 85 93 c4 bd cd 88 1b 3f ba cf 6d bd
       0.005692479 -0.095984496 0.60755616 -0.05805943
000050 99 45 58 bd 32 84 70 3c 85 6f 12 3d 0f 79 4f be
       -0.05280075 0.014679955 0.035750885 -0.20261024
000060 55 74 10 bd d6 ab ef 3e 30 62 0c bc d4 d3 e8 bd
       -0.035267193 0.46810788 -0.008568332 -0.11368528
000070 32 3d 64 bc 6d b7 5b 3e d3 ce 60 be a2 f8 0b 3f
       -0.013930606 0.2145669 -0.21953897 0.5467626
000080 8a c8 e1 3c b0 4e a7 bd c3 78 09 bb ee 86 c9 be
       0.027561445 -0.08169305 -0.002097652 -0.39360756

encoder.1.1.weight f4 [36]
000000 c6 7b a2 3a 96 26 2d bb f9 d5 45 bf 93 ed 9b 3c
       0.0012396506 -0.0026420704 -0.7727962 0.019034183
000010 c6 63 a3 3b 9c fc dd 39 8b b4 96 3b 54 7f b5 be
       0.004986259 0.00042340613 0.004599159 -0.35448706
000020 cd 93 60 3e ff e7 42 bf 83 1b c6 b9 6f 46 b9 be
       0.21931382 -0.7613525 -0.00037786 -0.3618655
000030 f5 29 07 bb a4 2e 4f bf 76 9a 9f bb 4b d5 68 3b
       -0.0020624374 -0.8093054 -0.004870708 0.0035527523
000040 73 bb bc 3b 66 87 84 bb d2 44 75 3f af 4e b0 bb
       0.0057596504 -0.004044461 0.95808136 -0.0053804736
000050 68 ad 1b bc a6 8e c1 3a d2 cf a5 3a c2 60 99 b9
       -0.0095017925 0.0014767244 0.0012650436 -0.00029254524
000060 7b 03 3d ba 60 90 c1 be 55 9b df ba 01 f7 31 bb
       -0.00072102965 -0.37805462 -0.0017059842 -0.0027155282
000070 80 e9 82 3a 3d 41 fc be ee c8 2e 3f 2e 1b df 3e
       0.0009987801 -0.49268523 0.68275344 0.43575424
000080 84 39 e1 b9 03 cd c3 3e d2 77 e1 bb c8 02 1d bf
       -0.00042958197 0.3824235 -0.006880739 -0.6133237

encoder.1.1.bias f4 [36]
000000 38 b1 6c bd b9 41 85 bd 10 68 a8 be 1c e2 1a be
       -0.057786196 -0.06506676 -0.32891893 -0.15125316
000010 02 1e cc bd 90 42 06 bd f3 20 2d bd 02 00 a3 3e
       -0.09966661 -0.032778323 -0.04226775 0.31835943
000020 4c 9b c1 ba 87 34 20 be 77 f5 28 bc c9 0e ab bd
       -0.0014771014 -0.15645038 -0.01031243 -0.083524294
000030 7d 57 68 bd 4c dc fe 3b e5 8e 31 bd ed 76 cb bd
       -0.05672406 0.0077777263 -0.043349165 -0.09934793
000040 55 16 61 bd 67 3c ad bd de 07 9d be 8c 55 bf bd
       -0.054952938 -0.084587865 -0.30670065 -0.09342489
000050 41 57 1a be 6d c9 a9 bc fd 96 52 bd 8c 81 5a bd
       -0.15072347 -0.02072593 -0.051413525 -0.0533462
000060 41 33 22 bd 65 55 a2 bd 9c 4d 1a bd 82 fc 8a bc
       -0.03959966 -0.07926444 -0.03767167 -0.016966108
000070 84 0e 97 bc 69 c7 6a be eb 62 bf be 86 b4 61 bb
       -0.018439539 -0.22927631 -0.37380156 -0.0034439876
000080 ae d9 53 bd 95 3b dc bc 40 67 38 bd 43 38 a2 bd
       -0.051721267 -0.02688388 -0.045020342 -0.07920887

encoder.1.1.running_mean f4 [36]
000000 3b c3 14 be 21 a8 96 3d e3 5a 03 40 38 a2 90 be
       -0.145276 0.07356287 2.0524223 -0.28248763
000010 f1 88 53 be c7 d4 2c 3c 47 29 22 be 71 4c 23 40
       -0.20657708 0.010548777 -0.15836059 2.5515406
000020 31 d8 fe 3f ee 45 0a 40 b1 33 72 3e 76 4f c2 3f
       1.9909726 2.1605182 0.23652531 1.51805
000030 17 34 3d 3c 62 e1 f5 3f b1 55 01 3d 21 d0 aa 3d
       0.011548064 1.9209406 0.031575862 0.08340479
000040 c1 08 3e 3e 49 dc 9d 3d 7b 1c 01 c0 ee 05 d9 bb
       0.18558027 0.07708032 -2.0173633 -0.0066230213
000050 0c ea 16 be db ec 04 3e db 1a 6b 3e 26 2f ad be
       -0.1473772 0.12980978 0.22959463 -0.33825034
000060 ed a4 06 be 7c 63 06 40 b9 76 d2 3c c0 fb b9 3c
       -0.13148852 2.099822 0.025691377 0.022703052
000070 df eb a5 3d 42 b4 7b 3f 1f fa d4 bf 14 6e a9 bf
       0.081016295 0.98321927 -1.6638831 -1.3236718
000080 8e 9f 32 bd c6 6f cb bf 66 97 24 3e 73 95 09 40
       -0.043609194 -1.5893486 0.16073379 2.1497467

encoder.1.1.running_var f4 [36]
000000 a3 2a 14 3d ce 3e 60 3c 88 75 bf 40 fe 7a b5 3d
       0.036173474 0.013686849 5.983097 0.088613495
000010 32 61 1c 3f 2e 1d 27 3d e5 5a a9 3e 0b 57 92 40
       0.6108581 0.040799312 0.3307716 4.5731254
000020 03 e8 8a 40 39 32 0e 41 4d 3a b3 3d 83 b6 d4 3f
       4.3408217 8.887261 0.08751354 1.6618198
000030 86 dd 5b 3d 8b b7 9d 40 c6 1a aa 3f e4 6d 38 3d
       0.053678058 4.928655 1.3289421 0.045026675
000040 f5 e6 9d 3e 58 38 ca 3d 99 77 e6 40 fc f2 de 3d
       0.3084027 0.09874028 7.2020993 0.10886189
000050 b5 0f 53 3d 22 47 95 3d 46 c1 97 3e 68 92 52 3e
       0.05152865 0.07288958 0.29639643 0.20563662
000060 17 27 94 3d 4a ab e3 3f 30 3a 04 3d 6b f5 c8 3e
       0.07234018 1.7786648 0.032282054 0.3924974
000070 61 07 13 3e bd 84 10 40 22 a4 60 40 7f e3 f1 3f
       0.14358284 2.2581017 3.5100179 1.8897551
000080 19 b0 5a 3d 09 71 e0 3f 13 1c da 3d 20 2d fa 40
       0.053390596 1.7534496 0.10649886 7.8180084

encoder.2.0.weight f4 [64, 36, 4]
000000 b3 06 a4 bc 3d 45 90 3c f7 ad 36 3d b0 27 63 bc
       -0.020022726 0.01761114 0.0445995 -0.013864443
000010 b0 f8 c2 bd 68 e6 b2 3d 4d 93 df 3c 50 cd 76 3d
       -0.095200896 0.08735353 0.027291918 0.060254395
000020 3a 3f 4a bc 4f e2 a8 be 7c 00 47 bf 06 83 be bd
       -0.012344176 -0.3298516 -0.77735114 -0.093023345
000030 40 9b e1 bb 75 42 ed 3b ff d6 65 3c 7a a5 e1 bc
       -0.0068849623 0.0072405883 0.01402831 -0.027544726
000040 99 d3 97 3c af 3b a3 bc da 08 81 3d 5e 9a 9d bc
       0.018533515 -0.01992592 0.063005164 -0.019238647
000050 d7 1f cc 3c 44 8e d4 3c 97 e1 df bb 80 30 a2 3c
       0.024917526 0.025946744 -0.0068323123 0.019798517
000060 5b 20 ae 3c 91 0b 8c bb 8a b6 27 bd 36 5f b0 3d
       0.021255663 -0.0042738398 -0.040945567 0.0861191
000070 1f a0 64 bd 90 71 a8 bd 94 8b 9b 3e 28 08 81 bc
       -0.055816766 -0.08224785 0.30379927 -0.01575096
000080 3b e8 4d bb 18 94 38 3d c5 f3 20 3e 5a f8 28 bd
       -0.0031418938 0.04506311 0.1571799 -0.04125247
000090 c2 70 a4 3d 9c 38 53 3d f8 f7 d2 bd dc 73 bf 3c
       0.08029319 0.05156766 -0.103012025 0.023370676
0000a0 6f 57 e0 bc 33 8c e2 3d 59 fd 01 3d b6 48 1b 3a
       -0.027385442 0.11061897 0.03173575 0.00059236155
0000b0 9b ba ac bc 4c b6 2e 3e ea 88 a7 3e 0a bb bc 3d
       -0.021085074 0.17061728 0.32721645 0.09215362
0000c0 78 48 95 bb b8 ac c3 3d a7 b6 8f bc 86 b4 af bd
       -0.004555758 0.09554428 -0.01754315 -0.08579354
0000d0 b3 e7 5f 3d d6 5c 1c 3e 9a 13 b1 3f 52 0f ce ba
       0.054664325 0.15269789 1.3834107 -0.0015721119
0000e0 99 c9 91 bd 2e e1 8b 3d e0 f6 cc bc b3 81 b3 bd
       -0.0711853 0.06830059 -0.025020063 -0.087649725
0000f0 1d e6 ef bc 59 7a ce bc 8e 8c 12 3d b2 45 a7 3b
       -0.029284531 -0.025204824 0.035778575 0.005104744
000100 0c 52 24 bd 93 29 4d 3d b6 a8 73 3d dd 42 de bc
       -0.04011731 0.050088476 0.059487067 -0.027131492
000110 d0 f1 42 bc b4 45 87 3d 38 e5 da 3c 93 e1 0b 3c
       -0.011898473 0.06605092 0.026720628 0.008537668
000120 d6 b7 92 bd ee 2a ca 3e 4e c9 ac 3e 03 30 65 3c
       -0.0716397 0.39485878 0.33747333 0.013988498
000130 1b 53 97 bc b5 d7 a3 3d ec c0 d0 3c f6 db 9b 3d
       -0.018472245 0.08000127 0.025482617 0.076103136
000140 57 23 ad 3d d3 34 bb 3b dd 98 c5 bb 06 15 3e bc
       0.08454006 0.0057130842 -0.0060301856 -0.011601692
000150 18 96 47 3d b5 8f cb bc 92 ee 1a bd b3 28 39 3c
       0.048727125 -0.024848798 -0.037825175 0.011301207
000160 a3 a7 0e 3d 37 9f a2 bd 2d ba d0 bc 75 08 67 bd
       0.03482784 -0.07940524 -0.0254794 -0.05640455
000170 a3 74 6f bc 6a 32 3a bd 69 e7 1e bc 0a 2b 2e bd
       -0.014615211 -0.045458235 -0.009698727 -0.042521514
000180 fb 2f 0a 3d 3f f2 50 3c 14 e2 a9 3b 8a dc 63 3a
       0.033737164 0.0127530685 0.0051844213 0.00086922257
000190 c6 a9 25 bd 03 47 21 3e 9a 03 0c bd ab b2 43 bd
       -0.04044511 0.15749745 -0.034183122 -0.047777813
0001a0 56 d7 81 bc 98 de 85 bd 4e 55 b8 3d 2a c7 49 bd
       -0.01584975 -0.06536597 0.090006456 -0.049262203
0001b0 9d dc 9a bc e0 20 4b 3d ba 62 c7 3a dd 8c 23 bd
       -0.018904025 0.0495919 0.0015211918 -0.03992926
0001c0 71 47 9e bd 16 cf 25 bd b8 a7 ae bc 65 28 5d bd
       -0.0772847 -0.040480696 -0.021320209 -0.0539936
0001d0 b2 b6 94 3c a4 9d 70 be 36 25 e6 3e 13 07 89 bc
       0.018153522 -0.23497635 0.44950265 -0.016727006
0001e0 ba ca 94 3c 42 e6 13 3f e4 e6 f6 be 45 49 9e 3c
       0.018163074 0.5777322 -0.4822303 0.019322047
0001f0 a6 bf 21 3d 73 b5 07 be 07 fd 0f bd 35 be 82 bd
       0.03948941 -0.13252811 -0.035153415 -0.06383935
000200 1c 97 10 bd c7 ec 0f 3d e9 22 78 bd 1d 5b 0b bd
       -0.03530036 0.035137918 -0.060580168 -0.03402244
000210 bd c4 c7 bc 91 4a 0f 3f d2 95 36 bd 47 10 87 3c
       -0.024385804 0.55973154 -0.044576474 0.016487254
000220 a3 86 2b 3c a6 f5 e9 bc 2e 69 82 bd 9d b9 e4 bd
       0.010469112 -0.028559517 -0.06367718 -0.111682154
000230 5b 00 29 3d af c1 64 bf 4f fa 06 be 68 62 7b 3c
       0.041260105 -0.8935804 -0.13181423 0.015343286
000240 1e 6d 1d 3b 80 01 d0 3d 2d c2 05 3c 1a 77 c1 3b
       0.0024021338 0.10156536 0.008163971 0.0059040906
000250 ef 8b 11 3d fb b6 90 bc 2b d9 38 3d 2b c6 d2 bd
       0.03553384 -0.017665377 0.045128983 -0.10291704
000260 5d 41 fb bc 63 37 b6 3d f4 db c0 bd c6 92 2d bc
       -0.030670816 0.08897283 -0.09416953 -0.010594076
000270 2c 63 c0 3d ff a9 a3 3b 8d f1 a2 bd db 41 7f 3c
       0.093939155 0.0049946303 -0.079562284 0.015579666
000280 15 dd 28 3d cc 5f e9 bc b5 d2 a1 3a 58 23 6a 3c
       0.041226465 -0.028488062 0.0012346121 0.014290653
000290 4f 90 a6 bd 58 35 06 3d 76 e6 4c 3d 45 d8 25 3d
       -0.081329934 0.032765716 0.050024472 0.040489454
0002a0 a2 c9 d7 bb 56 e0 c2 bd 3b 3a 77 bd ab f4 ab bc
       -0.006585316 -0.09515445 -0.060358267 -0.02099069
0002b0 78 15 f5 bd 4d 2e 21 3d 15 75 00 bf be 41 1c 3c
       -0.119669855 0.039350796 -0.50178653 0.0095371585
0002c0 c7 33 c0 3c d4 5a bc 3e 7c f7 03 3f 5b b0 ad 3d
       0.02346219 0.36788046 0.51549506 0.08480903
0002d0 68 9d a7 3b 50 f6 b1 3d 37 d4 42 3e 47 8d cb 3c
       0.0051152 0.086895585 0.19026266 0.02484764
0002e0 d8 e3 da bd dd a1 2f 3d a2 35 7f bc 70 63 d8 3c
       -0.10687989 0.042878974 -0.015576752 0.026414603
0002f0 5c 4c 16 bc a1 a3 77 be 4d 3a 63 bf 5b 9d f4 bd
       -0.009173479 -0.24183513 -0.88760835 -0.11944076
000300 a8 73 b4 3c ad 7e 41 bc 6d db 31 3d d5 15 59 3d
       0.022027805 -0.011809987 0.04342215 0.052999336
000310 03 94 2e bd 44 5c a5 bd 66 b9 07 3f 7b 15 bf 3c
       -0.042621624 -0.08074239 0.5301727 0.023325672
000320 1b 7b 06 3d 29 e7 0d bd 5e cd 4a 3d 95 5f 6e bc
       0.032832246 -0.03464428 0.04951226 -0.014549156
000330 77 ac 8f ba 07 51 9b 3c 9d 78 13 be 7e 26 b8 bd
       -0.0010961433 0.018959535 -0.14401479 -0.08991717
000340 52 40 e1 bd 71 34 da 3d e1 c2 45 bd 4d 4c 82 3c
       -0.10998596 0.10654534 -0.048281554 0.015905524
000350 2b d2 a1 bd d2 3a 60 bd a8 db c8 3d 90 d8 95 3d
       -0.079014145 -0.054743595 0.09807521 0.07316697
000360 07 db 14 3b 77 b4 1a 3d 8b f4 80 3f e2 6e 6c 3c
       0.0022713558 0.03776976 1.0074629 0.014430733
000370 b0 ec 65 3d 8b 94 49 ba b0 d7 44 bc 9b 3e e7 bc
       0.056133926 -0.0007689676 -0.0120143145 -0.028228095
000380 b4 b7 82 bd aa 58 ca 3b 40 b6 15 bc 46 99 27 bd
       -0.06382695 0.0061751204 -0.00913769 -0.040917657
000390 44 57 ab bd 92 09 a4 3d 1f e0 84 bd e1 f7 06 3d
       -0.08366254 0.08009638 -0.0648806 0.03295124
0003a0 a5 3f db ba 79 a4 a6 bc 28 12 04 3e a5 7e fe 3b
       -0.0016727342 -0.020342099 0.12897551 0.007766562
0003b0 e5 6d 98 bc 68 1c da bb 76 02 6b 3d 61 ee 03 3c
       -0.01860709 -0.0066562183 0.057375394 0.008052439
0003c0 aa 85 50 3c 15 dc b0 bb 0b 26 58 bd d0 f5 6a 3d
       0.0127271805 -0.0053973296 -0.052770656 0.05736333
0003d0 88 21 2b bc d5 6f 10 bf 20 b8 79 bd 60 41 13 be
       -0.010445006 -0.5642064 -0.06096661 -0.14380407
0003e0 af b3 08 3c d4 fc 24 3b da b7 82 bc a8 91 cf bd
       0.008343621 0.0025175111 -0.015956808 -0.101352036
0003f0 98 1e d5 3d 41 a7 74 bc f4 75 c3 bb 52 5d 6d bc
       0.10406226 -0.014932455 -0.005964989 -0.014487581

encoder.2.0.bias f4 [64]
000000 bb f7 2d 3e 71 36 8b 3e cf 4d 59 bc 5c 9e 70 3e
       0.16989033 0.27189973 -0.01326318 0.2349791
000010 81 84 cc 3d 33 f6 70 3c 8f 80 85 3d d8 8a b7 be
       0.099862106 0.014707136 0.06518661 -0.35848117
000020 0e 5d df be 50 e7 80 3d bf ad bf be 57 35 8f 3b
       -0.43625683 0.06294119 -0.37437245 0.0043703723
000030 3f 88 d2 3e 6e a1 43 3c 7c 0b 1a 3e 48 4b ca 3e
       0.41119573 0.011940343 0.15043443 0.3951056
000040 06 99 96 be 7b 28 5f 3c d6 e4 d0 ba 1f fd a4 bd
       -0.29413623 0.013620491 -0.0015937339 -0.080560915
000050 d0 ec 11 3d 7b 09 14 3d 9a 38 58 3e 21 8d bf be
       0.035626233 0.036141854 0.21115342 -0.3741236
000060 39 5c d8 3b 2b 85 a4 bd dd 48 33 3d 4e d9 cf be
       0.0066027907 -0.08033212 0.04377066 -0.40595478
000070 8a 1d 79 3e dd 4e 57 bd 3c 69 e8 3c 2c b9 bf bd
       0.24327675 -0.052565444 0.028370492 -0.093614906
000080 fb 34 ae 3e cd b5 9d 3e 94 7e 98 3d ac a8 9b 3e
       0.34024796 0.30802765 0.07446018 0.30402124
000090 48 e0 3c 3d 67 97 5e bd 26 a8 e7 3e 2e 4c 9d be
       0.04611233 -0.054343607 0.45245475 -0.30722183
0000a0 27 c3 86 bc 5c 0b 73 3c 35 1f c5 3d ac d3 f4 3d
       -0.016450478 0.014834251 0.09625093 0.11954436
0000b0 69 0e 6d bd 30 d5 95 3d 41 65 4f 3e e9 10 1f bd
       -0.05787507 0.07316053 0.20253469 -0.038834486
0000c0 42 36 a5 3c ca e6 8b bd b4 ac a4 be c8 e2 72 be
       0.020167474 -0.06831129 -0.32163012 -0.23719323
0000d0 16 a9 91 3e 22 3a f5 bd 8b 46 73 be de c0 e9 bd
       0.28449315 -0.119739786 -0.23757379 -0.114137396
0000e0 26 cc bf 3d 38 df 13 3e 10 c0 c1 be 8d 98 a0 3d
       0.0936511 0.1444062 -0.37841845 0.07841597
0000f0 12 83 ab bd 99 ad 67 bd 94 09 53 bf 8a 47 df bd
       -0.08374609 -0.05656204 -0.8243649 -0.10902317

encoder.2.1.weight f4 [64]
000000 b4 ec b1 be 71 02 7b be 9f 38 0b bf db fc 10 3f
       -0.34750903 -0.2451265 -0.5438327 0.56635827
000010 ba 33 9d 3d aa de 2d be dc 5b 55 3b 89 be cd be
       0.07675882 -0.16979471 0.0032555973 -0.4018443
000020 ff 08 ff 3e c0 3d 25 bc 12 a2 83 3e 01 05 e2 be
       0.4981155 -0.010085523 0.25709587 -0.44144443
000030 d7 fb 9a 3e e1 e1 19 3c 24 f2 e5 be 45 87 b7 be
       0.30270264 0.009392233 -0.449113 -0.3584539
000040 de 40 0d 3f 24 60 ef ba dc c4 bd bb d4 8e 9f be
       0.55177104 -0.0018262905 -0.0057912897 -0.31163657
000050 24 82 ef 3a cd 58 2f bb 86 ea 17 3f f7 5f 86 be
       0.0018273038 -0.002675581 0.5934223 -0.2624509
000060 0b 69 58 bb d1 2e e7 bb 72 4c 6f bb 23 55 df be
       -0.0033021595 -0.0070551415 -0.003651407 -0.43619642
000070 f7 9d c0 3e 28 0b 98 be cd f0 c6 3e 90 c2 e4 3e
       0.37620518 -0.29696012 0.3885559 0.4467969
000080 17 15 ba 3e e0 d6 2e 3f e8 e2 19 bf 01 01 0c 3e
       0.36344215 0.68296623 -0.60111856 0.13672258
000090 07 a4 57 3a e2 18 93 3b b2 14 e1 be be 77 03 3e
       0.0008226041 0.0044890502 -0.43961102 0.12838647
0000a0 8b 9d b2 3b 99 f2 f2 be b4 e8 35 3f d0 9e e3 be
       0.0054509095 -0.47450712 0.710582 -0.44457102
0000b0 e1 2e fa 3e 64 b3 ab be 3a 4d 9a be a5 c8 bf be
       0.4886389 -0.33535302 -0.30137044 -0.37457767
0000c0 3b 6f 7c b9 97 e3 14 3f e4 06 f6 3e 77 9b 20 bf
       -0.0002407403 0.58159775 0.48052132 -0.6273722
0000d0 e4 30 b9 be 02 f9 4f 3e 0f 66 64 3e 90 ab 98 be
       -0.36170113 0.20309833 0.22304557 -0.29818392
0000e0 10 04 9b 3e ea 90 9e 3e be d4 da 3e 1e 0e 12 ba
       0.30276537 0.30969936 0.42740434 -0.00055715616
0000f0 ff d7 a8 bc 6d c8 e1 3a 40 d2 ce 3e fa 6b 81 3c
       -0.020610807 0.0017225869 0.40394783 0.015798558

encoder.2.1.bias f4 [64]
000000 fb f0 31 bf 9b ba 02 3e b5 30 14 bf 06 11 b4 bd
       -0.6950833 0.12766497 -0.5788682 -0.087923095
000010 c5 00 76 3e 6a 0d 82 3d 27 3d d4 bd 2d b8 ee be
       0.24023731 0.06350215 -0.103632264 -0.4662489
000020 69 15 61 be 54 81 ad bd cd 5c d9 3d 2b e3 80 be
       -0.21980824 -0.08471933 0.106134035 -0.25173315
000030 87 a9 b0 3d 70 d3 a0 bd 34 37 01 bf ea 86 0d bf
       0.08626085 -0.078528285 -0.5047486 -0.5528399
000040 a1 58 c0 bd b8 ae 17 bc 76 76 ce bc f9 b5 57 3d
       -0.093919046 -0.009257965 -0.025202971 0.052663777
000050 42 49 97 bc 3d 32 b0 bd 33 8c db bd f0 92 3d bd
       -0.01846755 -0.08603332 -0.107201 -0.04628271
000060 df bb c3 bc d1 09 9e bd 7e 59 f0 bc e9 1d ad be
       -0.023893295 -0.07716716 -0.029339548 -0.33811882
000070 61 30 f6 be f3 cb 8c 3e c7 de f4 be 95 bb d8 be
       -0.48083785 0.2749935 -0.47826216 -0.42330614
000080 a2 06 84 3e e5 56 ae be 06 02 5c be 93 2f c1 3e
       0.2578631 -0.3405067 -0.21485147 0.3773161
000090 20 28 15 bd 84 b2 b3 3e 24 af 52 bd 6d 20 8d 3e
       -0.03641522 0.35097134 -0.05143656 0.275638
0000a0 3a e3 98 bd 5c 79 76 be 43 7f ce be 0b ed 84 be
       -0.07465215 -0.24069732 -0.40331468 -0.259621
0000b0 77 7d 80 be 77 54 40 bf e5 c0 29 3e 1f 8f 19 bf
       -0.25095722 -0.75128883 0.1657749 -0.5998401
0000c0 34 c7 6d bb 02 1c b9 be d5 83 2f bf a4 78 53 3b
       -0.0036282064 -0.3615418 -0.68560535 0.0032267952
0000d0 a1 b7 70 be 09 10 a4 3d 99 54 08 3e 83 a9 56 3c
       -0.23507549 0.08010871 0.13313521 0.013101938
0000e0 ac 83 12 3e 1e 46 13 3e 0e 95 2c be ae b3 24 bc
       0.14308041 0.14382216 -0.16853735 -0.010052605
0000f0 e3 fa ca bd 84 4c 1f bd 15 b3 17 bd cf 0f b1 bd
       -0.09911134 -0.03889133 -0.03703602 -0.086455934

encoder.2.1.running_mean f4 [64]
000000 58 ea ae 3e 9c ed 0a 3e 3f e4 3c be da c7 a7 3e
       0.34163165 0.13567203 -0.18446444 0.32769662
000010 b4 cd 8f be 73 28 cd 3e 95 3c 73 3e 49 7c d5 be
       -0.28086627 0.40069923 0.23753579 -0.41696385
000020 94 ad 6f be e8 03 46 3d 05 ae ab be 38 39 8a be
       -0.23406059 0.04834357 -0.33531204 -0.2699678
000030 95 19 fb 3e 56 18 aa bc f0 94 3c 3e ab 81 db 3e
       0.49042955 -0.020763557 0.1841619 0.42872366
000040 b2 81 3a be 22 61 4e be 70 dd 99 bd a3 a9 79 be
       -0.18213537 -0.2015424 -0.07512939 -0.24381118
000050 c3 e1 d4 3c 8b 87 63 bd dc 3e b5 3e 11 1c 15 bf
       0.025986558 -0.055549186 0.3539952 -0.5824595
000060 db d1 88 bc 6f 32 2e be a3 07 01 3e 76 8f 1d bf
       -0.01670163 -0.17011426 0.1260057 -0.6154703
000070 58 62 d0 3d af 8d f9 bd 32 5c 65 3d c5 68 60 3e
       0.101750076 -0.12185227 0.055996127 0.21914966
000080 22 a6 27 be 25 c6 31 3f 62 99 8d bd 87 aa 9b 3e
       -0.16371968 0.6944297 -0.06914021 0.3040354
000090 0a d7 dc 3d b7 53 f4 bb c1 bd 91 3e c1 ad 25 be
       0.10783203 -0.0074562686 0.28465083 -0.16179563
0000a0 b1 ef a3 bc 6f be a2 bd 7a 9f 5d b8 ca 04 01 3e
       -0.020011755 -0.079464786 -5.283903e-05 0.12599483
0000b0 27 43 35 3f be e2 db 3d af d1 8b 3e 74 3e c9 bd
       0.7080559 0.10736607 0.27308413 -0.09826365
0000c0 f9 5b b2 3d 49 8b 1d bd db 41 c5 bd 98 3e af bf
       0.08708949 -0.03846291 -0.096317016 -1.3690977
0000d0 56 98 95 3e 9b e9 a9 be f0 d2 bb 3d 05 d3 d8 be
       0.29217786 -0.3318604 0.091710925 -0.42348495
0000e0 00 ad 44 3e bf 8e ad 3d 5a ac b3 be ea 89 cf bd
       0.1920662 0.08474492 -0.3509243 -0.10133727
0000f0 94 11 38 be 92 40 8e 3c ea 55 40 bf a3 3d fd bc
       -0.17975456 0.017364774 -0.75131094 -0.03091318

encoder.2.1.running_var f4 [64]
000000 79 47 7f 3c e4 dd 91 3d 54 ac 14 3e 48 8d c3 3d
       0.015581005 0.071224004 0.14518863 0.09548432
000010 6e b5 d0 3d e9 0d a1 3d a2 92 97 3b 78 8c 84 3d
       0.10190855 0.07863981 0.0046256343 0.06472105
000020 fb 99 ed 3d a2 92 60 3a bf 02 44 3d c5 73 a9 3d
       0.11601635 0.0008566772 0.04785418 0.082740344
000030 60 ed 64 3d 8c b6 91 3a a4 e0 de 3d 1c ce ae 3c
       0.05589044 0.0011117025 0.108826905 0.021338515
000040 84 52 a7 3d 67 9c 9b 3d 1c 2f 44 3b 90 77 77 3d
       0.081700355 0.07598191 0.0029935306 0.060416758
000050 d5 b0 96 39 9a 50 4e 3b fe 42 f7 3d c7 21 03 3d
       0.0002874198 0.0031481148 0.120733246 0.032014634
000060 80 ce a2 39 14 59 15 3a 00 9d 06 3b 75 ce 94 3d
       0.00031052902 0.00056971726 0.0020540357 0.07265941
000070 6c 1b d1 3c e1 96 60 3d b3 39 e3 3c 40 76 44 3d
       0.025525771 0.05483139 0.027737474 0.047964334
000080 f1 0e f4 3d d5 68 31 3e 8b 5d 3f 3e 19 81 41 3d
       0.11916912 0.17325146 0.18688028 0.047242258
000090 cf b4 7e 3a f1 8d 84 3d 68 57 ea 3d 4e 03 79 3d
       0.00097162736 0.06472386 0.11442453 0.060794167
0000a0 8b 2a 43 3a 42 d6 86 3d cb c1 1d 3e 5d cf 77 3d
       0.0007444999 0.06583835 0.15405957 0.06050049
0000b0 ac 03 19 3e df 66 f7 3c 2e 19 8b 3d d5 a1 bb 3c
       0.14942807 0.03020042 0.06791912 0.022904316
0000c0 5d 8b df 3a 8b ae e0 3d fc 8a 26 3e 69 52 c1 3e
       0.0017055083 0.109707914 0.16263956 0.37758186
0000d0 01 06 b2 3d 83 f8 ef 3c 25 43 a1 3d c3 00 80 3d
       0.086925514 0.029293304 0.07874135 0.06250145
0000e0 02 23 ac 3d 9c 41 03 3e 24 85 81 3d df 49 03 3d
       0.08405115 0.12817997 0.06324223 0.03205287
0000f0 d0 dd 46 3b 82 cf f9 3a 6a aa 1e 3d 8a 31 6a 3b
       0.0030344613 0.0019059035 0.03873674 0.0035735094
