models/best-vae_circ-ThreeGPP-genie-3gpp-8rx-3p.pt (torch, 140367 bytes, 44 tensors)

embed_data.weight f4 [21, 2, 1]
0	0x3f13b728	0.5770135
1	0x3fccfb9b	1.6014284
2	0x4042a441	3.0412753
3	0xbfccf5f7	-1.6012563
4	0xbf9c0bfa	-1.2191155
5	0xbfe16b74	-1.7610917
6	0xbe4cbac0	-0.19993114
7	0xbe052675	-0.13002951
8	0xbfdc663d	-1.7218701
9	0xbaa6bfee	-0.0012721994
10	0xbf83b45c	-1.0289416
11	0xbee5e09a	-0.4489792
12	0xbd9639c2	-0.07335235
13	0xbd0baa3d	-0.0340979
14	0xbcea265e	-0.028582748
15	0x3c681699	0.014165544
16	0xbc6ab21d	-0.014324692
17	0x3b1f5776	0.0024313605
18	0xbfa7afc0	-1.310051
19	0x3e642019	0.2227787
20	0x3eddc65e	0.43315405
21	0xbdfd6882	-0.12373449
22	0xbf81628f	-1.0108203
23	0x3ffd594a	1.9792874
24	0xbe7033b8	-0.23457229
25	0x3e55e901	0.20889665
26	0xbebc8c73	-0.36825904
27	0x3eebd3ec	0.4606012
28	0x3fd6c786	1.677964
29	0x3fee057b	1.8595423
30	0xbd80ead6	-0.062947914
31	0x40114386	2.2697463
32	0xbda95d83	-0.08269789
33	0xbd56e07d	-0.052460182
34	0xbfd9b7c3	-1.7009205
35	0xbf58230d	-0.84428483
36	0xbef499b3	-0.47773513
37	0x3ff3b55b	1.903972
38	0x3f1e2b38	0.61784697
39	0x3e01a727	0.1266142
40	0xbe9af70b	-0.30266604
41	0xbefcb25a	-0.4935482

embed_data.bias f4 [21]
0	0xbd1e45c0	-0.038640738
1	0x3d96c474	0.07361689
2	0x3eb876bb	0.36028084
3	0x400a4631	2.1605341
4	0xbde78ce4	-0.1130617
5	0x3f0a9daf	0.54146856
6	0xbc2df393	-0.010617155
7	0xbae319b4	-0.0017326386
8	0x3d70db5a	0.05880294
9	0xbead247d	-0.338169
10	0x3d74f686	0.059805416
11	0xbe454eb5	-0.19268306
12	0xbdc445f3	-0.09583654
13	0x3d478311	0.04870898
14	0xbd68e23f	-0.05685639
15	0x3e3338ee	0.17502186
16	0xbc2c5e9a	-0.010520602
17	0x3e4c4c7e	0.19951054
18	0x3d853540	0.06504297
19	0xc00fcd34	-2.2468996
20	0x3ee2258a	0.44169265

fc_mu_var.weight f4 [32, 64]
0	0x3c553835	0.013013889
1	0xbbf6c73c	-0.007531075
2	0x3d139766	0.036033057
3	0x3bea6bca	0.0071539627
4	0x3ca15d2e	0.019697752
5	0xbbdd59e4	-0.0067551006
6	0xbdba0255	-0.09082476
7	0xbc58e75a	-0.013238752
8	0x3aa8df6e	0.001288397
9	0xb8c16c32	-9.22311e-05
10	0x3b7c00bd	0.0038452588
11	0xba1eedac	-0.00060626375
12	0xbbcecb07	-0.006310824
13	0x3ca3f240	0.020012975
14	0x3b803d16	0.003913532
15	0x3983597f	0.00025052947
16	0xbb009694	-0.0019621002
17	0x3bc4cca0	0.0060058385
18	0x3ac67370	0.0015140604
19	0xbcb11637	-0.021617038
20	0xbe0d40e3	-0.13794284
21	0xbe0c399f	-0.13693856
22	0xbc9e1245	-0.019295821
23	0x3b845475	0.0040383884
24	0xba01db6c	-0.0004953656
25	0x3c5a4716	0.013322612
26	0xbb2d4022	-0.0026435931
27	0x3bfa66a1	0.007641629
28	0x3b344f89	0.0027513227
29	0xba4ccddb	-0.0007812657
30	0xbafdef42	-0.0019373673
31	0x3c523eef	0.012832387
32	0xbbda3058	-0.006658595
33	0xbb28c900	-0.002575457
34	0x3bd10d27	0.0063797417
35	0xbb8a07f4	-0.004212374
36	0xbcfcfb72	-0.030881617
37	0xbc68a5b2	-0.014199661
38	0x3bdad2ac	0.006677946
39	0xbb85f0a6	-0.0040875254
40	0xbb66ea0d	-0.003523472
41	0x3c4d0c68	0.012515165
42	0x3b33d149	0.0027437976
43	0xbbeb5a60	-0.0071824044
44	0xbaeec141	-0.0018215553
45	0xbc7a7b2c	-0.0152881555
46	0xbba62e1e	-0.0050714156
47	0xbbe3c56d	-0.006951025
48	0xbb66a6c3	-0.0035194613
49	0xbb08d26a	-0.002087737
50	0xbaa80c48	-0.0012821043
51	0x3b1e1f46	0.0024127527
52	0x3c1ab1a9	0.009441772
53	0x3a817004	0.0009875302
54	0xb9a62582	-0.00031689933
55	0x3b74359d	0.0037263401
56	0x3b97ed25	0.004636424
57	0xb92e6984	-0.00016633241
58	0x3b70a7f0	0.0036721192
59	0xbada3731	-0.0016648528
60	0x3b9daa45	0.0048115575
61	0x3cb4d725	0.022075245
62	0xbbabeaad	-0.0052464814
63	0xba02f24a	-0.00049952103
64	0xbc348703	-0.011018517
65	0x3b646d4a	0.003485518
66	0xbd221595	-0.039571363
67	0x3af519a9	0.0018699664
68	0x3ad24785	0.0016043043
69	0x3bc3d005	0.0059757256
70	0x3b235778	0.0024923962
71	0xbbb2efe1	-0.0054607247
72	0x3b206292	0.0024472815
73	0xbba8e370	-0.005154066
74	0x3ad38bdf	0.0016139707
75	0xbb880c85	-0.004151883
76	0xbb93d287	-0.004511181
77	0x3b9e33fb	0.004827974
78	0xbb52eff1	-0.0032186473
79	0xbbdce0dc	-0.0067406725
80	0x3b644ddd	0.003483645
81	0x3b99eddb	0.004697544
82	0xb90b2002	-0.00013267997
83	0x3b6899ef	0.0035492142
84	0xbd97e854	-0.0741736
85	0xbc3bf888	-0.011472829
86	0xbb0678d2	-0.0020518792
87	0xbb1fa103	-0.0024357445
88	0xbbd49ac4	-0.006488176
89	0xbb9c4623	-0.004769103
90	0x38dd63e1	0.00010556705
91	0xb98305d8	-0.0002499062
92	0x3b923520	0.0044618994
93	0xbbcc9cb9	-0.0062442687
94	0xba7d74e1	-0.00096686004
95	0xbc1c104d	-0.009525371
96	0xbb1a6647	-0.0023559497
97	0xbb457b7c	-0.0030133417
98	0xbb7fa1c8	-0.0039006341
99	0x3a805211	0.0009790083
100	0x3d1544b4	0.036442474
101	0x3ad966b7	0.0016586398
102	0xbc2dc7e2	-0.010606738
103	0xbc3b2081	-0.011421324
104	0x3d1ec91c	0.03876601
105	0xbbc8a112	-0.0061227167
106	0xbb509716	-0.0031828335
107	0x3b5cb79e	0.003367878
108	0xb9d02355	-0.00039699176
109	0x3c260457	0.010132871
110	0xbb01fe12	-0.0019835276
111	0x3c02f36d	0.007992608
112	0x3cd07bd4	0.02544967
113	0xba5aa1e0	-0.00083401613
114	0x3b6047e6	0.0034222542
115	0x3b4f0549	0.0031588844
116	0xb9caf0f2	-0.0003870796
117	0xbb1c5c62	-0.0023858775
118	0xb831d1e3	-4.239556e-05
119	0x3b053224	0.0020324076
120	0x3b81c665	0.003960418
121	0xbac53769	-0.0015046421
122	0xbb542e76	-0.0032376326
123	0x39fbc99f	0.0004802467
124	0xba8699de	-0.0010269245
125	0xbc14991b	-0.009069706
126	0x3afef6d8	0.0019452227
127	0x3c1da170	0.009621009
128	0x3bc84afe	0.0061124554
129	0x3bd3788f	0.0064535807
130	0xbcf0d865	-0.02940006
131	0xbb87a3f2	-0.004139417
132	0xbb1bc517	-0.0023768598
133	0xbb91e0d0	-0.0044518486
134	0xbc58d1d8	-0.013233624
135	0xbdd68ee0	-0.1047647
136	0x3a8188a1	0.0009882638
137	0xb84ec255	-4.9295213e-05
138	0x3899758e	7.317505e-05
139	0x3bd7a7b6	0.006581272
140	0xba670fd4	-0.0008814309
141	0xbcd82b05	-0.0263877
142	0x3648b759	2.9909045e-06
143	0xba55aaa8	-0.0008150735
144	0x3bec355f	0.007208511
145	0x3b148aef	0.0022665819
146	0x3ab201d9	0.0013580873
147	0x3b2a0cbc	0.0025947532
148	0x3daff051	0.085907586
149	0xbc85f21a	-0.016350795
150	0xb90219e4	-0.00012407411
151	0xb9c46324	-0.000374579
152	0x39d556e3	0.00040691262
153	0x3ce996f8	0.02851437
154	0x3b0750db	0.002064756
155	0x3a48c947	0.0007659387
156	0x3a691231	0.00088909554
157	0xb9adfdf5	-0.00033186344
158	0x3b065248	0.002049582
159	0xba2fd875	-0.0006707975
160	0x3a1144d1	0.00055415655
161	0x3adec391	0.0016995539
162	0xba9b4fd6	-0.0011849354
163	0x3aa6cb80	0.0012725443
164	0xbd2b68d7	-0.04184803
165	0x3b34705e	0.0027532796
166	0x3c076f30	0.008266255
167	0xbbd64865	-0.006539392
168	0xbc12f0e4	-0.008968566
169	0xbb258083	-0.00252536
170	0x3a5cce51	0.00084230775
171	0x3b341bab	0.0027482312
172	0xbb0773f3	-0.0020668476
173	0x3bc5a8f6	0.0060321046
174	0xbb806a9d	-0.0039189593
175	0x3af3551c	0.0018564793
176	0xbdcd4869	-0.10023577
177	0xba3582cb	-0.0006924092
178	0x3b2d1141	0.002640799
179	0xbb0c6cdb	-0.0021427188
180	0xbb0fd27b	-0.0021945524
181	0xbbe6d512	-0.007044443
182	0xbb204a9b	-0.002445853
183	0x3ab46a69	0.0013764623
184	0x3b7a480d	0.0038189918
185	0x3b227cc1	0.0024793597
186	0xbba7f154	-0.005125204
187	0x3afcdc94	0.0019291812
188	0xbac94172	-0.0015354587
189	0xbca67f35	-0.020324329
190	0x3bb77122	0.0055982033
191	0x3b0c4e1b	0.002140886
192	0x3c8c3a5d	0.017117674
193	0x3a028689	0.0004979154
194	0xbda4f978	-0.08055395
195	0x3adea780	0.0016987175
196	0x3b5601af	0.0032654812
197	0xbb007877	-0.0019603053
198	0x3cbca573	0.023028111
199	0x3d814ab3	0.06313076
200	0x3be155ff	0.0068767066
201	0x387c1041	6.009662e-05
202	0x3a9b083e	0.0011828018
203	0xbb369969	-0.0027862436
204	0xbab2b0c2	-0.0013633
205	0xbd823e2f	-0.06359517
206	0xbb60f274	-0.00343242
207	0xbb9e7a2f	-0.0048363428
208	0xbb39e2af	-0.0028363874
209	0x3b10d69a	0.0022100569
210	0xbbb01e95	-0.0053747394
211	0xbc109ba9	-0.008826175
212	0xbc84d90b	-0.016216775
213	0xbcaeedcc	-0.021353625
214	0xbb8b6f79	-0.004255232
215	0x3b461eb7	0.003023071
216	0x3ab005c7	0.0013429456
217	0x3db35f5b	0.08758422
218	0x38ba4b99	8.883252e-05
219	0x3b77518e	0.003773782
220	0x3af20856	0.0018465619
221	0xbb8a26cd	-0.004216051
222	0x3a723920	0.00092400797
223	0x3b560f51	0.0032662938
224	0x3ba9979f	0.0051755453
225	0x3bd640e8	0.006538499
226	0x3ad678a5	0.0016362859
227	0x3b07bf45	0.002071337
228	0x3ccb786f	0.0248377
229	0xbbb809c5	-0.005616399
230	0x3bb10abc	0.005402891
231	0xbbe75f5f	-0.0070609297
232	0xbc2d06b7	-0.010560683
233	0x3b505954	0.0031791525
234	0x3b93c0ba	0.004509059
235	0x3c1bc3eb	0.00950716
236	0xbba8dd6e	-0.0051533496
237	0x3b625ca8	0.003454009
238	0x393d6b0f	0.00018064327
239	0x3c5bd066	0.013416385
240	0xbd7e124f	-0.06202918
241	0x3a22a2de	0.00062040787
242	0x3a41847d	0.0007382108
243	0xbc083437	-0.00831323
244	0xbbb157c2	-0.005412073
245	0xbc2b9da0	-0.010474592
246	0x3a991701	0.0011679829
247	0x3bf3303a	0.0074215205
248	0x3b38fbeb	0.0028226327
249	0xbbf9628a	-0.0076106237
250	0xbb957649	-0.00456122
251	0xbbe36f5b	-0.006940765
252	0xbaf2d900	-0.0018527806
253	0xbaf1aad2	-0.0018437749
254	0xbba795d4	-0.0051142965
255	0xba7f2789	-0.0009733369

fc_mu_var.bias f4 [32]
0	0x3bf97c4a	0.0076136934
1	0x3ad403a7	0.0016175405
2	0x3a45517e	0.0007527097
3	0x3b0fb14c	0.0021925746
4	0xbe4624bd	-0.19349952
5	0xbbfd3b5a	-0.0077280225
6	0xbe8418bd	-0.25800124
7	0xbc3b1cf2	-0.011420475
8	0x3c094029	0.008377113
9	0x3c00c0a4	0.007858429
10	0xbc45e225	-0.012077843
11	0xbb9d2aae	-0.0047963476
12	0xbbf4499c	-0.007455064
13	0x3f0d8c42	0.5529214
14	0x3bf449b9	0.0074550775
15	0x3a0d6232	0.00053933554
16	0xb9a7499e	-0.0003190757
17	0xb887c0da	-6.473223e-05
18	0x3a1be2e5	0.00059465907
19	0xb9da83ef	-0.00041678498
20	0xbfcc1be8	-1.5946016
21	0xb993b8f8	-0.00028175837
22	0xc01fee2f	-2.4989126
23	0xb798adb3	-1.8200697e-05
24	0x39ac025f	0.00032808163
25	0x3a7f8049	0.0009746594
26	0xba1a5fdb	-0.00058889174
27	0xbaa24bbc	-0.001238219
28	0x399704f5	0.00028804658
29	0xbfa3298a	-1.2747052
30	0x3a608b4f	0.00085656805
31	0x38c1bc1b	9.2379945e-05

encoder.0.0.weight f4 [21, 21, 4]
0	0x3d9616df	0.07328581
1	0xbe94893e	-0.29010957
2	0x3dd0be82	0.101925865
3	0x40f03591	7.506539
4	0xbd0245a8	-0.03180471
5	0xbb886458	-0.0041623525
6	0xbb40f5ce	-0.0029443386
7	0xbfb53632	-1.4157164
8	0xbd59c7f4	-0.053169206
9	0x3e6cbbbc	0.2311849
10	0x3d8da374	0.06915942
11	0xc058398c	-3.3785124
12	0x3d80a8b5	0.06282178
13	0xbef50e1f	-0.47862336
14	0x3e3940e2	0.18091157
15	0x3f5d51cc	0.8645294
16	0x3e005c3b	0.12535183
17	0x3e02bb8a	0.12766853
18	0x3e148efb	0.14507668
19	0xbf4fef1b	-0.8122422
20	0x3e4ccd05	0.20000084
21	0x3e092515	0.13393052
22	0x3defc679	0.117077775
23	0x3d3cdb01	0.046107296
24	0x3e10d1cf	0.14142536
25	0x3e8bdf14	0.27318633
26	0x3dd1ac91	0.102379926
27	0x3e72ef0d	0.23724003
28	0xbce4ed2f	-0.02794513
29	0xbe1de891	-0.15420748
30	0x3e2234fc	0.15840524
31	0xbc9404c7	-0.018068684
32	0xbe888a2c	-0.26667917
33	0x3e5b11cd	0.21393509
34	0x3e4a56e6	0.19759712
35	0x3db80de7	0.08987027
36	0x3d8602b5	0.06543485
37	0x3d36adba	0.044599272
38	0x3c92760e	0.017878558
39	0xbecf0af9	-0.4043806
40	0x3dfdba19	0.12389011
41	0xbe264e4a	-0.16240802
42	0x3d35e5b6	0.044408523
43	0xbee4c713	-0.44683132
44	0xbd95a438	-0.07306713
45	0xbccbef42	-0.02489436
46	0xbc205870	-0.00978671
47	0x40834aae	4.102866
48	0xbcd35747	-0.025798453
49	0x3cf8c826	0.030368876
50	0xbda51187	-0.08059984
51	0x3f2a3985	0.6649402
52	0xbd229dac	-0.03970115
53	0x3c1a774a	0.009427855
54	0xbde2073b	-0.11036535
55	0x40095aa0	2.1461563
56	0xbbba5425	-0.0056863003
57	0xbe6e513b	-0.23273174
58	0xbd5d9c6d	-0.054104257
59	0x408afc0f	4.343269
60	0xbc2236fe	-0.0099008065
61	0xbe107bb1	-0.14109685
62	0x3c12a389	0.008950123
63	0x4120713a	10.027643
64	0x3ccd2f87	0.025047077
65	0x3dd94e17	0.106105976
66	0x3ccfbf2f	0.025359718
67	0x3ecb7d08	0.3974383
68	0x3e427ad2	0.18992165
69	0x3e3667fd	0.17813106
70	0x3e31d95e	0.17368075
71	0xbfe783da	-1.8087113
72	0xbcc4be56	-0.02401654
73	0xbdcefbef	-0.10106646
74	0x3d5c1ed9	0.053740356
75	0x4108f2de	8.559294
76	0xbeac9a44	-0.33711445
77	0x3e5f4318	0.21802938
78	0xbede5236	-0.43422097
79	0xbf435918	-0.7630782
80	0x3e0bd42c	0.13655156
81	0x3deafaf6	0.11473648
82	0x3dee5488	0.11637217
83	0xbe4bc553	-0.19899492
84	0x3ec27218	0.37977672
85	0x3e1df06d	0.15423746
86	0x3f8a3133	1.0796264
87	0xbf043855	-0.51648456
88	0x3e855b5e	0.2604627
89	0xbe03ccdf	-0.12871121
90	0x3ff2b185	1.8960425
91	0xbf36a2d8	-0.7134223
92	0xbe5294cc	-0.20564574
93	0xbb6214ce	-0.0034497264
94	0xc0007344	-2.0070353
95	0xbc9643f9	-0.018342959
96	0x40762d15	3.8465016
97	0xbf7a1876	-0.97693574
98	0xbf5a61b0	-0.8530531
99	0xc0178f5a	-2.3681245
100	0xbe8daa01	-0.27668765
101	0x3e124cc9	0.14287104
102	0xc0371e57	-2.8612268
103	0x3f8f0b81	1.1175386
104	0x3ee77747	0.4520819
105	0x3d37a164	0.04483165
106	0xc0289e38	-2.634657
107	0xbf5f7922	-0.8729421
108	0xbe316767	-0.17324601
109	0x3e1e959f	0.15486763
110	0xbfaa16df	-1.328823
111	0x3f7afd77	0.98043007
112	0xbd0997bc	-0.03359197
113	0xbcee88e9	-0.029118018
114	0xbde055d0	-0.109538674
115	0xbdd06c4e	-0.101769075
116	0x3e4e6ebb	0.20159428
117	0x3d6fa30c	0.058505103
118	0xbec9c15d	-0.39405337
119	0xbee922b1	-0.4553428
120	0xbf121250	-0.5705919
121	0x3d911d64	0.07085684
122	0xc02b44f4	-2.6760836
123	0x3fd96aa2	1.6985667
124	0x3ee02c61	0.43783858
125	0xbd941ea5	-0.072324075
126	0x3ff0f1a5	1.8823744
127	0xbf934076	-1.1504047
128	0xbe92d358	-0.28676867
129	0x3e1d2983	0.15347867
130	0xbf3bb595	-0.7332395
131	0x3eed13b0	0.46304083
132	0xbecf6cf4	-0.40512812
133	0x3e9aec63	0.30258474
134	0xbf4f137f	-0.80889124
135	0x3f95b90b	1.1697096
136	0x3c84cc7d	0.016210789
137	0x3e4d3a8d	0.20041867
138	0xbf56a691	-0.8384791
139	0xbf2423ae	-0.6411694
140	0x3e9a232f	0.30104968
141	0x3cc0d6e4	0.023539968
142	0x4020f34c	2.5148497
143	0xbf3f370f	-0.7469339
144	0x3ebd21f7	0.36939976
145	0x3e27c5ca	0.16384044
146	0x3e36b8ea	0.17843977
147	0xbf21325e	-0.6296748
148	0xbe16c8bc	-0.14725012
149	0x3c5ece3d	0.013598976
150	0xbfd71c77	-1.6805562
151	0x3f356d3b	0.708698
152	0xbe3e0d6c	-0.18559808
153	0x3e014ce1	0.12626983
154	0xc05b74b5	-3.4289982
155	0x3f2182c3	0.6309015
156	0x3d73d656	0.05953058
157	0x3e27fc31	0.16404797
158	0xbeb240d0	-0.34815073
159	0xbf02aff3	-0.5104973
160	0xc0712b7d	-3.7682793
161	0x3eb1487f	0.34625623
162	0x3fc2da8c	1.5222945
163	0x40192135	2.3926518
164	0x3f0416d3	0.51597327
165	0x3cbed5f6	0.023295384
166	0xbfc7d9e4	-1.561337
167	0xbfd3e17a	-1.6553185
168	0x3f0d52f3	0.55204695
169	0xbecfdd72	-0.40598637
170	0x3deabfa0	0.11462331
171	0x3bc431f3	0.0059873997
172	0x3f0a71ff	0.54080194
173	0x40923367	4.5687747
174	0x3d680bfc	0.056652054
175	0x3d8d0ec2	0.068875805
176	0xbebd86bc	-0.37016857
177	0xbe1baebe	-0.15203378
178	0x3cd0f9ba	0.025509704
179	0x3d7ee95c	0.062234268
180	0x4063cdd6	3.5594382
181	0xbe1d63b8	-0.15370071
182	0xbf13bbdf	-0.57708544
183	0x3f81c0e7	1.0136994
184	0xbf301aaa	-0.68790686
185	0xc08fdc48	-4.49564
186	0x3cca1a12	0.024670634
187	0xbde4775e	-0.1115558
188	0x3e93ef44	0.28893483
189	0xc0087bf8	-2.1325665
190	0xbb9f4065	-0.0048599713
191	0x3ee37554	0.44425452
192	0xbf03c474	-0.5147164
193	0xbf87dcb3	-1.0614227
194	0xbc5345b7	-0.012895039
195	0x3f017c82	0.5058061
196	0xbf016a5e	-0.5055293
197	0xbf5cdaa0	-0.86271095
198	0xbe894f19	-0.2681816
199	0xbe6ad01c	-0.2293095
200	0xbe6f739d	-0.23383947
201	0xbeb3d821	-0.3512583
202	0x3e2c235a	0.1681036
203	0x3f1dfcfb	0.6171414
204	0xbf7f6523	-0.997637
205	0xc0a9485b	-5.2900825
206	0x3d03a159	0.032136295
207	0xbeaa3610	-0.3324437
208	0x3f1a8a03	0.6036684
209	0x408a810b	4.3282523
210	0x3c0cfb14	0.008604784
211	0x3dea83fd	0.11450956
212	0xbe9be9e3	-0.3045188
213	0xbff95326	-1.94785
214	0x3e1b2b71	0.1515329
215	0xbd9f233a	-0.07770391
216	0xbea6ffae	-0.32616943
217	0xc0090a11	-2.1412394
218	0xbd8abc27	-0.067741685
219	0xbe983512	-0.2972799
220	0x3e0ec9d9	0.13944186
221	0xc00a9743	-2.1654823
222	0x3d8a20e7	0.06744557
223	0xbb30ebcc	-0.0026996015
224	0x3f2f7351	0.68535334
225	0x3eea0b51	0.4571176
226	0xbcc60ed7	-0.024176998
227	0x3e27f27a	0.16401091
228	0x3ec6954d	0.38785782
229	0xbf892e1b	-1.0717195
230	0x3e70f37a	0.23530379
231	0x3eb13672	0.3461185
232	0xbe858d1c	-0.2608422
233	0xc0881363	-4.2523665
234	0x3e376a16	0.17911562
235	0x3e68100d	0.22662373
236	0xbf02818a	-0.5097891
237	0xbfdb1a55	-1.7117411
238	0x3d690fae	0.05689972
239	0x3dc5bf38	0.09655613
240	0x3e2209d2	0.15824059
241	0xbfc9691b	-1.5735201
242	0x3e20fe8b	0.157221
243	0x3dc484eb	0.095956646
244	0xc0645f06	-3.5682998
245	0x3fa6c5b4	1.3029084
246	0x3eccd347	0.40004942
247	0xbf79f099	-0.9763275
248	0x3f08532a	0.532519
249	0xbd82ceb4	-0.06387082
250	0xbce36c48	-0.027761593
251	0x3f54a418	0.8306289
252	0x3e4827ad	0.19546385
253	0xbd54ed33	-0.051984023
254	0x3cd98ffd	0.026557917
255	0xbf254b6c	-0.6456821

encoder.0.0.bias f4 [21]
0	0xbeb40bd3	-0.3516527
1	0xbc5408c7	-0.012941546
2	0x3ecd717e	0.4012565
3	0xbf945327	-1.1587876
4	0xbf4864b9	-0.7827869
5	0x3f658e80	0.8967056
6	0xbce0959a	-0.027415086
7	0x3e1c1529	0.15242447
8	0x3f7467bd	0.9547079
9	0x3f9d1f28	1.2275133
10	0xbfceffd8	-1.6171827
11	0xbe870c24	-0.2637645
12	0x3d0a2b14	0.03373249
13	0x3f03d2e5	0.51493675
14	0x3d050cc6	0.032482885
15	0x3fc0c1c0	1.5059128
16	0x3f3ff6ee	0.7498616
17	0x3d71b398	0.059009165
18	0xbeb0058d	-0.34379235
19	0xbef83a0f	-0.48481795
20	0xbfc307c9	-1.5236751

encoder.0.1.weight f4 [21]
0	0xbfaba20f	-1.3408831
1	0xbf857d4c	-1.0428863
2	0x3f4cd25a	0.8000847
3	0x3fa41643	1.2819294
4	0xbfb2ffc5	-1.3984305
5	0x3fe40a42	1.781563
6	0xbbf4ea68	-0.0074742325
7	0x40198ec3	2.3993385
8	0x402648d7	2.5981958
9	0x3fd59ea1	1.6689035
10	0x40361de3	2.8455741
11	0x3f80e532	1.0069945
12	0x3bb0d397	0.005396317
13	0x3f816b41	1.0110856
14	0xbf6b9fc9	-0.9204069
15	0x3f1bd6e5	0.6087478
16	0x3f46cae7	0.77653354
17	0xbb4f5145	-0.0031634134
18	0x4026e3d5	2.6076558
19	0xbfe16400	-1.7608643
20	0x401f0cd8	2.485159

encoder.0.1.bias f4 [21]
0	0x3f0056a0	0.5013218
1	0x3f1dfaba	0.61710703
2	0x3e8538d5	0.26019922
3	0x3f016cb2	0.5055648
4	0xba98026f	-0.0011597405
5	0x3a3bea64	0.0007168411
6	0xbd9ecca2	-0.07753874
7	0xbcd30e1a	-0.02576356
8	0xbe79dee1	-0.24401428
9	0x3e7b7c20	0.24559069
10	0x3d8e93fb	0.06961819
11	0x3f34f1db	0.7068154
12	0xbdd14b88	-0.102194846
13	0x3d66ea07	0.05637553
14	0x3e04d54c	0.12971991
15	0x3de22adb	0.1104333
16	0x3e1e5746	0.1546298
17	0xbd1f86f3	-0.038947057
18	0xbe9ccf62	-0.3062697
19	0x3e6b6273	0.22986774
20	0x3d305c40	0.043056726

encoder.0.1.running_mean f4 [21]
0	0x405f7c5f	3.491966
1	0xc0c739d2	-6.225808
2	0x41589e4d	13.538648
3	0x41166b0e	9.401136
4	0xc124cbcd	-10.299756
5	0xc0d01c99	-6.503491
6	0xbdc644c0	-0.09681082
7	0xc08fe6b3	-4.4969115
8	0xbf4dd576	-0.8040384
9	0xc083e590	-4.121773
10	0x3f2c2a95	0.67252475
11	0x40404595	3.004247
12	0xbdce3a06	-0.10069661
13	0xc1a5bdf0	-20.717743
14	0x4068b7f5	3.6362278
15	0xc06c0409	-3.6877463
16	0x4120d964	10.053074
17	0x3db29061	0.08718944
18	0xc08598dc	-4.1749096
19	0x3f414fc7	0.75512356
20	0x3dabe5a7	0.08393412

encoder.0.1.running_var f4 [21]
0	0x44dcd4df	1766.6522
1	0x441ea034	634.5032
2	0x449afa05	1239.8131
3	0x453495e8	2889.3691
4	0x44b1cd24	1422.4106
5	0x4403dac6	527.41833
6	0x3f62edfd	0.8864439
7	0x4434a91f	722.6425
8	0x43df817a	447.01154
9	0x446e6a23	953.6584
10	0x4436d892	731.3839
11	0x4407113c	540.2693
12	0x3e5f5081	0.21808054
13	0x452fcd9f	2812.8513
14	0x440d9b9a	566.4313
15	0x440a06e8	552.1079
16	0x44a551bd	1322.5543
17	0x3df1d89c	0.11808893
18	0x43fe96dc	509.1786
19	0x43a270eb	324.88217
20	0x44616beb	901.6862

encoder.1.0.weight f4 [36, 21, 4]
0	0x3d0f527f	0.034990784
1	0xbb9dfa0f	-0.004821069
2	0x3b325d9c	0.002721644
3	0xb7d56172	-2.5436955e-05
4	0xbcff2333	-0.031144714
5	0x3daf0944	0.08546689
6	0xbce2fb0b	-0.027707597
7	0x3cfc6527	0.030809952
8	0xbda21733	-0.07914581
9	0x3cb11d4f	0.02162042
10	0x3cbdf33f	0.023187278
11	0x3b09ee87	0.0021046714
12	0x3cba6e4e	0.022757675
13	0xbd4f91bd	-0.050676096
14	0xbc8b7610	-0.01702407
15	0xbd547db2	-0.051877685
16	0x3d34225f	0.04397809
17	0xbb549c1f	-0.0032441688
18	0x3c16abc2	0.009196224
19	0xbdcc211c	-0.099672526
20	0xbcf83e62	-0.030303184
21	0xbd9b9a96	-0.07597844
22	0x3ca62433	0.020280933
23	0x3c49ef2a	0.012325088
24	0x3cdc3115	0.026878873
25	0x3c05c214	0.008163948
26	0xbdee893b	-0.116472684
27	0x3d704f30	0.05866927
28	0xbc16f4ec	-0.009213667
29	0x3d9e89bc	0.077411145
30	0x3d173733	0.036917876
31	0x3d0410b5	0.032242496
32	0x3d336ef4	0.043806985
33	0xbd416a27	-0.047220375
34	0xbce9c907	-0.02853824
35	0x3d938c8d	0.07204542
36	0xbbf7a7fd	-0.0075578676
37	0x3d5c35da	0.053762294
38	0x3dd20df8	0.102565706
39	0x3d48e628	0.04904762
40	0xbc607208	-0.013699062
41	0x3ca18f22	0.019721571
42	0x3d8957f7	0.06706231
43	0x3cdadcba	0.026716579
44	0x3b9c9ac6	0.0047791926
45	0x3d3bacbb	0.045819025
46	0xbda1579e	-0.0787804
47	0xbd354eb0	-0.044264495
48	0x3dc298e5	0.095018186
49	0x3dee431b	0.11633893
50	0xbc35611d	-0.011070517
51	0xbd943bdb	-0.07237979
52	0x3ae6e03a	0.0017614432
53	0xbc78e5b7	-0.015191487
54	0x3d9e6671	0.07734383
55	0xbd653ff3	-0.05596919
56	0x3aef93f0	0.0018278342
57	0x3da41190	0.08011162
58	0xbd6d829d	-0.05798589
59	0xbbca5a7e	-0.0061753383
60	0x3d10e1ac	0.035371467
61	0xbd514752	-0.051093407
62	0xbd5a39f7	-0.053277936
63	0xbd0eb281	-0.034838203
64	0xbcb61818	-0.022228286
65	0x3d1ca45d	0.038242687
66	0xbd313628	-0.043264538
67	0x3c60faa5	0.013731633
68	0xbd3879f8	-0.045038193
69	0x3c10dcdf	0.008841722
70	0x3d0a91f2	0.03383059
71	0xbd4a890f	-0.049447116
72	0xbcacf54e	-0.021113064
73	0xbdba90cf	-0.09109651
74	0xb9e6c2ea	-0.0004401424
75	0x3d8b77ea	0.06809981
76	0xba13fb56	-0.0005645057
77	0xbd86a5e1	-0.06574608
78	0xbc1ac897	-0.009447238
79	0x3d794e42	0.060865648
80	0xbd37bc80	-0.044857502
81	0xbd1173ba	-0.035510756
82	0xbd877e8f	-0.06615936
83	0x3d2e4bd3	0.04255278
84	0xbcb7e4d7	-0.022447987
85	0x3d3fbbee	0.046810083
86	0x3b9890e0	0.0046559423
87	0x3dbffa41	0.09373904
88	0xbb3b9a99	-0.0028626083
89	0xbd952965	-0.07283286
90	0x3d5d05b9	0.053960536
91	0x3d71d42c	0.059040233
92	0xbc10c39a	-0.008835698
93	0xbde8c64f	-0.11365949
94	0xbc5309ce	-0.012880756
95	0xbb687851	-0.0035472105
96	0xbd3520c0	-0.044220686
97	0x3d42e518	0.047581762
98	0x3db067c7	0.08613544
99	0xba5a2c49	-0.0008322639
100	0xba6599f4	-0.00087585975
101	0x3cc14a88	0.02359511
102	0xbda748a9	-0.08168156
103	0x3c965d92	0.018355165
104	0xbc145f10	-0.009055868
105	0xbd9d1e24	-0.076717645
106	0xbd54edbc	-0.051984534
107	0x3d7b3b93	0.06133611
108	0xbc184e84	-0.009296063
109	0x3c85d266	0.016335677
110	0xbc7339c0	-0.014845312
111	0x3cb0fbe4	0.021604486
112	0x3cb2bab3	0.02181754
113	0xbcb97bac	-0.02264198
114	0x3d3b2e72	0.04569859
115	0x3d24aef7	0.040205922
116	0xbcb63502	-0.022242073
117	0xbd81a2b9	-0.06329865
118	0xbd52099a	-0.051278688
119	0x3c0af144	0.008480374
120	0xbb4b5815	-0.0031027843
121	0x3dc7023b	0.09717222
122	0x3dd0de62	0.10198666
123	0x3d834a1f	0.06410622
124	0xbd18d8fe	-0.037316315
125	0xbd11a8c7	-0.03556135
126	0xbd311ed1	-0.04324228
127	0x3d1439d9	0.03618798
128	0xbd027815	-0.0318528
129	0xbcab5d9f	-0.020918665
130	0xbc813ed6	-0.015777033
131	0x3d18f3cd	0.03734188
132	0x3d4cef55	0.050032932
133	0x3cdd3cde	0.027006563
134	0xbe0303cb	-0.12794416
135	0x3cc66732	0.02421913
136	0xbda6b0eb	-0.08139213
137	0xbd960616	-0.073253796
138	0x3d9e982c	0.07743868
139	0x3cc676db	0.024226597
140	0xbd574d0d	-0.052563716
141	0xbdf2d644	-0.11857274
142	0x3d5ce130	0.053925693
143	0x3daf4c66	0.08559494
144	0xbded786e	-0.11595236
145	0xbe0f921e	-0.14020583
146	0x3b458db9	0.0030144288
147	0x3d4bc03c	0.049743876
148	0x3c47f1b0	0.012203619
149	0x3c44d4f2	0.012013661
150	0x3b8c4f8b	0.004281943
151	0x3d624ede	0.055250995
152	0xbd48cccd	-0.04902344
153	0x3caa3ae9	0.020780044
154	0x3ce7da4d	0.028302336
155	0xbc237c9a	-0.009978438
156	0xbdbf6b26	-0.09346609
157	0x3c7f2391	0.015572445
158	0x3d7acb02	0.06122876
159	0x3dfdc8f3	0.12391844
160	0x3c0ba51f	0.008523255
161	0xbcd4b08e	-0.025963094
162	0x3d556f36	0.052108012
163	0x3d25186a	0.040306486
164	0xbd99f522	-0.075174585
165	0xbcf60128	-0.030029848
166	0x3d48c5d7	0.0490168
167	0x3da19d16	0.0789129
168	0x3f132ec5	0.5749324
169	0x3edcfdc8	0.4316237
170	0xbd26fa10	-0.040765822
171	0xbe329d5d	-0.17442842
172	0x3f7a2fbe	0.977291
173	0xbdb9b77f	-0.09068202
174	0xc0092829	-2.1430762
175	0x3e8fa8b4	0.28058398
176	0xbf2216ff	-0.6331634
177	0xbf0242b5	-0.50883037
178	0xbf34559c	-0.7044313
179	0x3f57e0af	0.84327215
180	0xbedb5e80	-0.42845535
181	0xbe2d331d	-0.1691403
182	0x3f4bb71d	0.79576284
183	0x3e2d653a	0.16933146
184	0x3da36fa7	0.0798028
185	0x3b21dea5	0.0024699357
186	0xbe703723	-0.23458533
187	0xbfce00aa	-1.6093953
188	0xbb9ad15c	-0.0047246646
189	0xbd5853e5	-0.052814383
190	0x3f40bf07	0.75291485
191	0x406fe7c7	3.7485216
192	0x3d698daf	0.057019886
193	0x3caad480	0.020853281
194	0x3d995abd	0.0748801
195	0xbd6bad3b	-0.057538252
196	0x3e6458a8	0.22299445
197	0x3d680c81	0.05665255
198	0x404b2a0b	3.174441
199	0x3d39f482	0.045399196
200	0x3f230301	0.6367646
201	0x3f746637	0.9546847
202	0x401fa920	2.4946976
203	0xbc6ed096	-0.014576098
204	0xbe69b52f	-0.22823022
205	0x3ff4c99a	1.9124024
206	0xbea160c3	-0.31519136
207	0xbe83e64a	-0.25761634
208	0x3ef9b5fb	0.48771653
209	0x3e008e7e	0.12554356
210	0x40581bef	3.376705
211	0x3d47f850	0.048820794
212	0x3c847280	0.01616788
213	0x3e3c113b	0.18365948
214	0x3f8a9563	1.0826839
215	0x3f98d39d	1.1939579
216	0x3d4b2334	0.04959412
217	0xbd37858c	-0.044805095
218	0xbd026393	-0.031833243
219	0xbca78285	-0.020447979
220	0xbf484719	-0.78233486
221	0xbf4bf871	-0.79675967
222	0xc017741e	-2.3664622
223	0xbf98bd54	-1.1932778
224	0xbebe9320	-0.37221622
225	0xbf198d6c	-0.5998142
226	0xbf98211c	-1.1885104
227	0xbeda9d08	-0.4269793
228	0xbf022715	-0.50840884
229	0xbe46e6f6	-0.19424042
230	0xbf8992b0	-1.074789
231	0x3efec144	0.49756825
232	0xbea5d0e7	-0.32385942
233	0xbeb9ea0b	-0.36311373
234	0xbf9f764e	-1.2457979
235	0x3abd08c9	0.0014422174
236	0xbd45a7d7	-0.048255768
237	0xb7c27832	-2.3182572e-05
238	0xbc88d870	-0.016704768
239	0x3c70a85f	0.01468858
240	0x3f1dac50	0.61591053
241	0x3f4d7d5e	0.8026942
242	0x401b8e53	2.4305618
243	0x3de312f0	0.110875964
244	0x3c793df2	0.015212523
245	0xbea2d1b0	-0.31800604
246	0x3f926417	1.1436795
247	0x3ee6bbb5	0.45065084
248	0x3ea678a5	0.3251392
249	0x3ce72336	0.028215032
250	0x4061ad94	3.5262194
251	0x3ed91653	0.42399845
252	0xbfa83e66	-1.3144042
253	0x3f07a8ed	0.52992135
254	0xbfbf43c9	-1.4942561
255	0xbe8a78e9	-0.27045372

encoder.1.0.bias f4 [36]
0	0xbdf18e20	-0.11794686
1	0x3df2038a	0.11817081
2	0x3f007d5b	0.5019128
3	0x3ee7e292	0.45290047
4	0xbcc01bb3	-0.023450708
5	0xbf39fe5c	-0.72653747
6	0xbf15187c	-0.58240485
7	0x3f3887e6	0.72082365
8	0xbe87740b	-0.2645572
9	0xbeef86c2	-0.467825
10	0x3e0885af	0.13332246
11	0x3e8759c4	0.26435673
12	0x3e193582	0.14961818
13	0xbdf9e209	-0.12201316
14	0xbf2ca8ea	-0.6744524
15	0x3eca533a	0.39516622
16	0xbeb8533c	-0.36001003
17	0xbda1969e	-0.07890056
18	0x3f7b408a	0.98145354
19	0xbd2814d7	-0.0410355
20	0xbd839b86	-0.06426148
21	0x3c9a1e92	0.018813405
22	0x3e0a6665	0.13515623
23	0xbfcef1c6	-1.6167533
24	0xbe37dd55	-0.17955525
25	0x3f037e6f	0.513648
26	0xbb444352	-0.0029947353
27	0x3f91050f	1.1329669
28	0xbec95a72	-0.39326817
29	0x3d5a9ff2	0.053375192
30	0x3d679cca	0.05654601
31	0xbf84f8e3	-1.0388454
32	0x3c5878cf	0.013212397
33	0x3f873bae	1.0565088
34	0x3fd18565	1.6368834
35	0xbf2cbb50	-0.67473316

encoder.1.1.weight f4 [36]
0	0x3aa27bc6	0.0012396506
1	0xbc148dd2	-0.009067016
2	0xbfb80be5	-1.437863
3	0x3f4aa645	0.7915996
4	0x3f53dc2c	0.8275783
5	0xbfcdcea2	-1.6078684
6	0x3fcbd3ed	1.592405
7	0xbf888c84	-1.0667882
8	0x3fda30d7	1.7046155
9	0xbf8d5596	-1.1041744
10	0xbea3d07c	-0.31994998
11	0x3e619638	0.2202996
12	0x3f2a8752	0.6661273
13	0xbeee9634	-0.4659897
14	0x3eeafa3d	0.45894042
15	0xbfa0efa7	-1.2573136
16	0x3f1171e8	0.5681443
17	0xbbe07148	-0.0068494417
18	0x3f9116b9	1.133506
19	0xbcb695b9	-0.02228819
20	0xbccc7115	-0.024956265
21	0x3a49101e	0.0007669943
22	0xc01d2a10	-2.4556923
23	0xbf22d526	-0.6360649
24	0xbf94be2f	-1.162054
25	0xbfa4de34	-1.2880311
26	0xbbf4c5ca	-0.0074698674
27	0xbf4e83d5	-0.8066991
28	0x3e20c2b7	0.15699278
29	0xbee9e2f2	-0.45680958
30	0xbb700c0b	-0.0036628272
31	0x3f45a8c8	0.77210665
32	0xbbe4e406	-0.0069851903
33	0x3ff9e60e	1.9523332
34	0xbf1a726e	-0.60330856
35	0xbe9126e0	-0.28349972

encoder.1.1.bias f4 [36]
0	0xbd6cb138	-0.057786196
1	0xbd977a1b	-0.07396337
2	0xbf8d9130	-1.1059933
3	0xbed9715d	-0.42469302
4	0xbf18d4b3	-0.59699553
5	0xbf483977	-0.78212684
6	0xbeb05029	-0.34436157
7	0xbdebb9a3	-0.11510017
8	0xbeb48d1e	-0.35263914
9	0xbf7a53c9	-0.97784096
10	0x3edeb9c2	0.43501097
11	0x3eb9e8d6	0.36310452
12	0xbe0bdac7	-0.13657676
13	0x3ca3ca87	0.019994034
14	0xbe6202cb	-0.22071378
15	0xbf8799bd	-1.0593792
16	0x3e2d9c88	0.16954243
17	0xbdaf05c2	-0.0854602
18	0xbdac9809	-0.08427436
19	0xbda88671	-0.08228768
20	0xbe25ce0e	-0.16191885
21	0xbc141b64	-0.009039734
22	0xbf044830	-0.5167265
23	0xbd18aa60	-0.037271857
24	0xbf6ef3f8	-0.93341017
25	0xbf8721c4	-1.055718
26	0xbd598cd7	-0.05311283
27	0xbe6bdb40	-0.23032856
28	0x3f185652	0.59506714
29	0x3eb1013d	0.34571257
30	0xbd038b27	-0.032115128
31	0xbc6ebe94	-0.014571805
32	0xbd948bec	-0.072532505
33	0xbf5ca21c	-0.8618486
34	0xbe824e59	-0.254504
35	0x3da4cf76	0.080473825

encoder.1.1.running_mean f4 [36]
0	0xbddd9577	-0.10819524
1	0x3e15e59f	0.14638375
2	0x414e75aa	12.903727
3	0xc1616f30	-14.089645
4	0xc0e40754	-7.1258945
5	0x410c77a7	8.779212
6	0xc15f0e70	-13.941025
7	0x418c4e0e	17.538113
8	0xc17550eb	-15.332255
9	0x417f68ec	15.963116
10	0x40d25780	6.573181
11	0x41082ece	8.511427
12	0xc147fcdb	-12.499232
13	0x40d16c87	6.544498
14	0xc1886e5f	-17.053892
15	0x41a56c08	20.67775
16	0xc198dc63	-19.10761
17	0x3eac4172	0.3364368
18	0xc14df07a	-12.87121
19	0x3f9eb58d	1.2399155
20	0x3dba9d43	0.091120265
21	0x3ecefb52	0.40426117
22	0x413006c1	11.001649
23	0x414db2fe	12.856199
24	0x41804b00	16.036621
25	0x41abd7f1	21.48044
26	0x3f212ff4	0.62963796
27	0x4170a8d8	15.041222
28	0x417193ec	15.098614
29	0x40da5bc6	6.823703
30	0x3e22dbc6	0.1590415
31	0xc1677460	-14.465912
32	0xbe34458c	-0.17604655
33	0xc0e624c9	-7.1919904
34	0x410cee05	8.80811
35	0x415efd6a	13.936869

encoder.1.1.running_var f4 [36]
0	0x3e5aeba8	0.21378958
1	0x3ec58936	0.38581246
2	0x4307a226	135.63339
3	0x43330778	179.02917
4	0x42217e77	40.3735
5	0x4381f38c	259.9027
6	0x43d6c72f	429.55612
7	0x440baa72	558.6632
8	0x43f8686e	496.81586
9	0x432fe53e	175.89548
10	0x433d6f59	189.43495
11	0x429dda8a	78.926834
12	0x42bba08b	93.81356
13	0x435503cb	213.01482
14	0x42c3f4b5	97.97794
15	0x438608d6	268.06903
16	0x43353e4d	181.24336
17	0x3e5c4984	0.21512419
18	0x43227f27	162.49669
19	0x3f983251	1.1890355
20	0x3e47648e	0.19471952
21	0x3fa33519	1.2750579
22	0x4383fc7d	263.97256
23	0x42cd09dc	102.51926
24	0x43192582	153.14651
25	0x439be68d	311.80118
26	0x3f008cba	0.5021473
27	0x430fcc57	143.7982
28	0x42a709a8	83.51886
29	0x4370549c	240.3305
30	0x3f25e923	0.64808863
31	0x42c18edb	96.779015
32	0x3f13a74f	0.5767717
33	0x432c04f6	172.01938
34	0x42e2340d	113.10166
35	0x42a7c27b	83.879845

encoder.2.0.weight f4 [64, 36, 4]
0	0xbca406b3	-0.020022726
1	0x3c90453d	0.01761114
2	0x3d36adf7	0.0445995
3	0xbc6327b0	-0.013864443
4	0xbdc2f8b0	-0.095200896
5	0x3cec3ed6	0.028838556
6	0xbc862ae3	-0.016377872
7	0x3d76cd50	0.060254395
8	0xbc4a3f3a	-0.012344176
9	0xbfd3abd3	-1.6536812
10	0x3e2670a3	0.16253905
11	0xbdbe8306	-0.093023345
12	0xbbe19b40	-0.0068849623
13	0xbf929d1d	-1.1454197
14	0xbe13da24	-0.14438683
15	0xbce1a57a	-0.027544726
16	0x3c97d399	0.018533515
17	0x3e87ab7f	0.2649803
18	0xbf3dfa34	-0.74209905
19	0xbc9d9a5e	-0.019238647
20	0x3ccc1fd7	0.024917526
21	0xbf8a2fca	-1.0795834
22	0x3e9cfb7d	0.3066062
23	0x3ca23080	0.019798517
24	0x3cae205b	0.021255663
25	0xc0362281	-2.845856
26	0xbe04855c	-0.12941498
27	0x3db05f36	0.0861191
28	0xbd64a01f	-0.055816766
29	0x3fdff9d9	1.7498122
30	0x3ecaa3d3	0.39578113
31	0xbc810828	-0.01575096
32	0xbb4de83b	-0.0031418938
33	0x3e750c28	0.23930418
34	0xbf39d4e5	-0.72590476
35	0xbd28f85a	-0.04125247
36	0x3da470c2	0.08029319
37	0x40124bed	2.2858841
38	0x4042751b	3.0383976
39	0x3cbf73dc	0.023370676
40	0xbce0576f	-0.027385442
41	0x3f173012	0.59057724
42	0x3c78b4ac	0.015179794
43	0x3a1b48b6	0.00059236155
44	0xbcacba9b	-0.021085074
45	0x3f559b2e	0.8343991
46	0x3eed372e	0.4633116
47	0x3dbcbb0a	0.09215362
48	0xbb954878	-0.004555758
49	0x3c4362f6	0.01192545
50	0xbff7d76a	-1.9362614
51	0xbdafb486	-0.08579354
52	0x3d5fe7b3	0.054664325
53	0xbf16a338	-0.588428
54	0x3f197c2a	0.59955084
55	0xbace0f52	-0.0015721119
56	0xbd91c999	-0.0711853
57	0x3ea2893c	0.31745327
58	0x3f531e43	0.8246805
59	0xbdb381b3	-0.087649725
60	0xbcefe61d	-0.029284531
61	0xc04c656d	-3.1936905
62	0xbf365f3b	-0.7123906
63	0x3ba745b2	0.005104744
64	0xbd24520c	-0.04011731
65	0x3dbdddce	0.092708215
66	0xbf16dadb	-0.58927697
67	0xbcde42dd	-0.027131492
68	0xbc42f1d0	-0.011898473
69	0xbc33754f	-0.0109532615
70	0x3c412b49	0.011790105
71	0x3c0be193	0.008537668
72	0xbd92b7d6	-0.0716397
73	0x3edba211	0.42897084
74	0x401cd915	2.4507496
75	0x3c653003	0.013988498
76	0xbc97531b	-0.018472245
77	0x3ce6a1d4	0.028153338
78	0xbc850e4c	-0.016242169
79	0x3d9bdbf6	0.076103136
80	0x3dad2357	0.08454006
81	0x3d28437f	0.041079994
82	0xbd0eb129	-0.03483692
83	0xbc3e1506	-0.011601692
84	0x3d479618	0.048727125
85	0xbd6d801c	-0.057983503
86	0xbddbeb2b	-0.10738214
87	0x3c3928b3	0.011301207
88	0x3d0ea7a3	0.03482784
89	0xbf19ed7e	-0.6012801
90	0xbec80476	-0.39065903
91	0xbd670875	-0.05640455
92	0xbc6f74a3	-0.014615211
93	0xbf9a3f9c	-1.2050662
94	0x3f3f7c0e	0.7479867
95	0xbd2e2b0a	-0.042521514
96	0x3d0a2ffb	0.033737164
97	0x4000deb6	2.0135932
98	0xbf97676a	-1.1828434
99	0x3a63dc8a	0.00086922257
100	0xbd25a9c6	-0.04044511
101	0x3f761394	0.96123624
102	0xbd771c7b	-0.060329895
103	0xbd43b2ab	-0.047777813
104	0xbc81d756	-0.01584975
105	0xbcb6367f	-0.022242783
106	0x3e0ad6da	0.13558522
107	0xbd49c72a	-0.049262203
108	0xbc9adc9d	-0.018904025
109	0xbf01d4f9	-0.50715595
110	0x3f95358c	1.1656966
111	0xbd238cdd	-0.03992926
112	0xbd9e4771	-0.0772847
113	0xbfc7abc4	-1.5599294
114	0xbf71c2ac	-0.9443767
115	0xbd5d2865	-0.0539936
116	0x3c94b6b2	0.018153522
117	0x3fda09cd	1.7034241
118	0x3f7f2c4d	0.9967697
119	0xbc890713	-0.016727006
120	0x3c94caba	0.018163074
121	0xbcf28f23	-0.029609269
122	0xbd0de786	-0.034644626
123	0x3c9e4945	0.019322047
124	0x3d21bfa6	0.03948941
125	0x388a054d	6.58134e-05
126	0x3f372d5e	0.715536
127	0xbd82be35	-0.06383935
128	0xbd10971c	-0.03530036
129	0x3b1ba230	0.0023747794
130	0xbd98c126	-0.07458715
131	0xbd0b5b1d	-0.03402244
132	0xbcc7c4bd	-0.024385804
133	0xbc8433d9	-0.016138004
134	0xbe6c6335	-0.2308472
135	0x3c871047	0.016487254
136	0x3c2b86a3	0.010469112
137	0xbf80f407	-1.0074471
138	0x3ec4f58b	0.38468584
139	0xbde4b99d	-0.111682154
140	0x3d29005b	0.041260105
141	0x3e221da5	0.15831621
142	0x403a69fa	2.9127183
143	0x3c7b6268	0.015343286
144	0x3b1d6d1e	0.0024021338
145	0x3dd00180	0.10156536
146	0x3c05c22d	0.008163971
147	0x3bc1771a	0.0059040906
148	0x3d118bef	0.03553384
149	0x3ac9788b	0.0015371008
150	0x3dabe337	0.08392947
151	0xbdd2c62b	-0.10291704
152	0xbcfb415d	-0.030670816
153	0x3f7a010b	0.9765784
154	0xbd84c527	-0.06482916
155	0xbc2d92c6	-0.010594076
156	0x3dc0632c	0.093939155
157	0xbed7c619	-0.42143324
158	0x3b80b8cb	0.003928279
159	0x3c7f41db	0.015579666
160	0x3d28dd15	0.041226465
161	0x3eb4256a	0.35184795
162	0xbd9fab01	-0.07796288
163	0x3c6a2358	0.014290653
164	0xbda6904f	-0.081329934
165	0xbecb09f9	-0.39656046
166	0xc038d254	-2.8878374
167	0x3d25d845	0.040489454
168	0xbbd7c9a2	-0.006585316
169	0xbc5ccce6	-0.013476586
170	0x3ecb1747	0.39666197
171	0xbcabf4ab	-0.02099069
172	0xbdf51578	-0.119669855
173	0xbecd0de8	-0.40049672
174	0xbeb903bb	-0.3613566
175	0x3c1c41be	0.0095371585
176	0x3cc033c7	0.02346219
177	0xbefa300b	-0.4886478
178	0x3f0af881	0.54285437
179	0x3dadb05b	0.08480903
180	0x3ba79d68	0.0051152
181	0x3f8ae66f	1.0851573
182	0xbf8bb7d4	-1.0915475
183	0x3ccb8d47	0.02484764
184	0xbddae3d8	-0.10687989
185	0x400db26c	2.214015
186	0x3e8e1a90	0.2775464
187	0x3cd86370	0.026414603
188	0xbc164c5c	-0.009173479
189	0xbde90a43	-0.113789104
190	0x4034063b	2.8128803
191	0xbdf49d5b	-0.11944076
192	0x3cb473a8	0.022027805
193	0x3e8e76b1	0.2782493
194	0xbf9ccab4	-1.224936
195	0x3d5915d5	0.052999336
196	0xbd2e9403	-0.042621624
197	0xbff87cda	-1.9413102
198	0x3d5bd2b0	0.053667724
199	0x3cbf157b	0.023325672
200	0x3d067b1b	0.032832246
201	0xbccaf029	-0.02477272
202	0xbf218c60	-0.6310482
203	0xbc6e5f95	-0.014549156
204	0xba8fac77	-0.0010961433
205	0x3fa341d0	1.2754459
206	0x3feb23b0	1.8370266
207	0xbdb8267e	-0.08991717
208	0xbde14052	-0.10998596
209	0xbfbb84ad	-1.4649864
210	0xbcf4fb63	-0.029905027
211	0x3c824c4d	0.015905524
212	0xbda1d22b	-0.079014145
213	0xbd0a4c3d	-0.033764113
214	0x3dcb1b28	0.09917289
215	0x3d95d890	0.07316697
216	0x3b14db07	0.0022713558
217	0xba4aef0f	-0.0007741311
218	0x4008f99c	2.140235
219	0x3c6c6ee2	0.014430733
220	0x3d65ecb0	0.056133926
221	0xbd41593e	-0.04720425
222	0xbd296f3c	-0.041365847
223	0xbce73e9b	-0.028228095
224	0xbd82b7b4	-0.06382695
225	0xbc72d636	-0.01482158
226	0x3d17f910	0.03710276
227	0xbd279946	-0.040917657
228	0xbdab5744	-0.08366254
229	0x3d5403a4	0.051761284
230	0xbd5238db	-0.051323753
231	0x3d06f7e1	0.03295124
232	0xbadb3fa5	-0.0016727342
233	0xbed09940	-0.4074192
234	0x3f404e4c	0.7511947
235	0x3bfe7ea5	0.007766562
236	0xbc986de5	-0.01860709
237	0xbe4f50e1	-0.20245697
238	0x3eee462c	0.46537912
239	0x3c03ee61	0.008052439
240	0x3c5085aa	0.0127271805
241	0xbe981ae9	-0.2970803
242	0x3f933848	1.1501551
243	0x3d6af5d0	0.05736333
244	0xbc2b2188	-0.010445006
245	0x3ec27107	0.37976858
246	0xbdde5c70	-0.10857475
247	0xbe134160	-0.14380407
248	0x3c08b3af	0.008343621
249	0x3d41a818	0.047279447
250	0xbd02cca0	-0.031933427
251	0xbdcf91a8	-0.101352036
252	0x3dd51e98	0.10406226
253	0x3ed7bc99	0.42136076
254	0xbf1ec51e	-0.62019527
255	0xbc6d5d52	-0.014487581

encoder.2.0.bias f4 [64]
0	0xbf5a2a17	-0.85220474
1	0xbf3ceb57	-0.737966
2	0xbc05365a	-0.008130634
3	0x3f8e253d	1.1105114
4	0xbd818104	-0.06323436
5	0xbf6eb5ab	-0.93245953
6	0x3d8586ae	0.06519829
7	0xbc573a41	-0.013136447
8	0x3f385373	0.72002333
9	0x3e7c9c96	0.24669108
10	0x3f26ca85	0.6515277
11	0x3e2c62a1	0.16834499
12	0x3e1234f8	0.14278018
13	0x3c43a16e	0.011940343
14	0x3ce6a786	0.028156053
15	0x3fd6d2cf	1.6783084
16	0xbf9973bb	-1.1988443
17	0xbf1041e5	-0.5635055
18	0xbd1007a9	-0.035163555
19	0x3fac12a8	1.3443193
20	0x3d11eb1a	0.0356246
21	0x3d0e5cce	0.034756474
22	0xbe1789af	-0.14798616
23	0xbf8b1d7f	-1.0868376
24	0xbf0729cc	-0.5279815
25	0xbda40a99	-0.08009834
26	0x3f965ddb	1.1747392
27	0x3f58fd73	0.8476173
28	0xbd283180	-0.041062832
29	0x3f7c28cf	0.9849977
30	0x3f1f9a60	0.6234493
31	0xbdf2ac31	-0.11849249
32	0xbdc4b342	-0.09604503
33	0xbe09b9e5	-0.1344982
34	0xbf0f36e3	-0.55943125
35	0xbf0d95e0	-0.55306816
36	0x3d3cddb8	0.046109885
37	0xbee60aff	-0.44930264
38	0xbfbb6df6	-1.4642932
39	0x3fde6dac	1.7377219
40	0xbc86c327	-0.016450478
41	0x3fbbc7aa	1.4670308
42	0xbf293d1c	-0.6610887
43	0x3f138305	0.57621795
44	0xbf5ea2a2	-0.8696691
45	0xc01c6f53	-2.4442947
46	0xbe8c7250	-0.27430964
47	0xbedfb7f0	-0.4369502
48	0x3ca51baa	0.020154793
49	0xbf1e32b4	-0.61796117
50	0xbef5eebe	-0.48033708
51	0x3fb41969	1.4070255
52	0xbf2d4b26	-0.6769279
53	0x3d82b310	0.0638181
54	0x3f8a615e	1.0810964
55	0x3f5eeff0	0.87084866
56	0xbe6e09a8	-0.23245871
57	0x3f6ed679	0.9329601
58	0xbe94c474	-0.29056132
59	0x3e428418	0.18995702
60	0xbfa3d3f1	-1.2799054
61	0xbd67d9d0	-0.056604207
62	0xbf33a8de	-0.70179546
63	0xbfa41c6b	-1.2821172

encoder.2.1.weight f4 [64]
0	0xbe75b251	-0.23993804
1	0x3e9f0021	0.31054786
2	0xbb8bf333	-0.004270935
3	0x3fc45839	1.5339423
4	0x3e6280ea	0.2211949
5	0xbe58f155	-0.21185811
6	0xbc7f44ed	-0.015580398
7	0xbbe2bdc5	-0.006919595
8	0x3e80bec1	0.25145534
9	0x3f5b1a52	0.85587037
10	0x3ec430e3	0.38318548
11	0xbedbfa3a	-0.42964345
12	0x3e2fe37b	0.1717662
13	0x3c19e1e1	0.009392233
14	0xbf018f08	-0.50608873
15	0xbe531cec	-0.20616502
16	0x3e7c22eb	0.24622695
17	0x3e6db0ef	0.23212026
18	0xbf4a7921	-0.7909108
19	0xbe72493f	-0.23660754
20	0x3a6ced6a	0.0009038063
21	0xbc271e8a	-0.010200152
22	0x4015d523	2.3411338
23	0xbe96a86b	-0.29425368
24	0xbf505b7c	-0.81389594
25	0x3c27688d	0.010217798
26	0xbecde75f	-0.40215585
27	0x3e908c37	0.28231975
28	0x3f4edfd6	0.80810297
29	0xc0448794	-3.070775
30	0x3e4476fe	0.19186017
31	0xbea0f48e	-0.3143658
32	0x3e98c163	0.29835042
33	0x402af1ec	2.6710157
34	0xbe873a75	-0.26411787
35	0x3e9580cf	0.29199836
36	0x3b88ddae	0.004176817
37	0x3ec948b3	0.39313278
38	0xbf0304eb	-0.5117938
39	0xbe308caf	-0.17241167
40	0x3bb29d8b	0.0054509095
41	0xbebbc806	-0.36676043
42	0x3e914f8a	0.28380996
43	0xbe9bc08b	-0.30420336
44	0x3f135662	0.57553685
45	0xbe9f8045	-0.3115255
46	0xbf23a2b5	-0.63920146
47	0xbe824e34	-0.2545029
48	0xb7b732ea	-2.1839009e-05
49	0x3edb1b2e	0.42794174
50	0x3f0441dc	0.51662993
51	0x3ea158d0	0.3151307
52	0xc06673f5	-3.6008275
53	0x3ecd8f91	0.40148595
54	0x3eccfc4c	0.40036237
55	0xc04cb0c5	-3.1982892
56	0x3f0e7498	0.5564666
57	0x3ed4d364	0.41567528
58	0x3ea50d75	0.3223683
59	0x3f096bf7	0.53680366
60	0xbf2548dc	-0.645643
61	0x3b5b2177	0.0033436695
62	0x3e36ffe8	0.17871058
63	0x403d128e	2.9542575

encoder.2.1.bias f4 [64]
0	0xbdeba038	-0.11505169
1	0x3e44538b	0.19172494
2	0xbd4d9fe7	-0.050201323
3	0xbf0945bd	-0.5362204
4	0x3e42c29b	0.19019549
5	0x3e350e62	0.17681268
6	0xbdab6dff	-0.083705895
7	0xbd8440cc	-0.064576715
8	0x3e1b9cf4	0.15196592
9	0xbf399b09	-0.7250219
10	0x3f33dfbb	0.7026326
11	0xbdad1218	-0.08450717
12	0x3e76c091	0.24096896
13	0xbda0d370	-0.078528285
14	0xbf547345	-0.8298839
15	0x3e9e08d9	0.30866125
16	0x3e2bfcc3	0.1679564
17	0x3dc12d45	0.094324626
18	0xbfb16907	-1.3860177
19	0x3df06054	0.11737123
20	0xbc9dbdc1	-0.01925552
21	0xbd93dab0	-0.07219446
22	0x3d367456	0.04454454
23	0x3e5b2d5b	0.2140402
24	0xbf372371	-0.71538454
25	0xbdcaa224	-0.09894207
26	0xbeae3979	-0.34028223
27	0x3f14f0db	0.58180016
28	0xbf4f9d5b	-0.8109948
29	0xbf8bd6d5	-1.0924937
30	0x3e9d941e	0.30777067
31	0x3df91e77	0.12164014
32	0x3e28fae5	0.16501959
33	0xbf62aa3e	-0.8854102
34	0x3e4e2f34	0.20135194
35	0x3dbf9bb7	0.09355872
36	0xbd07684d	-0.033058453
37	0x3def02d4	0.11670461
38	0xbefe1f61	-0.49633315
39	0x3e65323d	0.22382446
40	0xbd98e33a	-0.07465215
41	0xbcaafb04	-0.020871647
42	0xbe0ec83c	-0.13943571
43	0x3eb6132c	0.35561502
44	0x3e142b7a	0.1446971
45	0x3dfbf259	0.123020835
46	0x3e8f3fe2	0.27978426
47	0xbbf1db22	-0.007380859
48	0xbb8b4909	-0.00425065
49	0x3f4d1554	0.8011067
50	0xbeee3e03	-0.46531686
51	0x3e68130f	0.2266352
52	0xbe89a797	-0.26885673
53	0x3bd874d7	0.0066057253
54	0x3f5ad3c3	0.8547937
55	0xbd3e2fe4	-0.04643239
56	0xbe7252a4	-0.23664337
57	0x3edce9cb	0.4314712
58	0xbea805b3	-0.32816848
59	0xbe8372dd	-0.2567357
60	0xbf7f469a	-0.99717104
61	0xbd1a9fc3	-0.037750017
62	0x3ea692b5	0.32533804
63	0xbf3072c0	-0.68925095

encoder.2.1.running_mean f4 [64]
0	0xbf3eb910	-0.7450113
1	0xbf823209	-1.017152
2	0xbd6c8a31	-0.057748977
3	0x3fadfe68	1.3593264
4	0x3f5037ee	0.8133534
5	0xc02d7d77	-2.7107828
6	0x3e910246	0.28322047
7	0x3ea227b4	0.31670916
8	0x3f8a7363	1.0816463
9	0xbfe50ead	-1.7895104
10	0xbfbb5afe	-1.4637144
11	0x40c4b00c	6.14649
12	0x40013708	2.0189838
13	0xbd2e771d	-0.042594064
14	0x3e8ce77c	0.2752036
15	0xbe850485	-0.2598001
16	0x3fd7c0e2	1.6855738
17	0xc014b3f2	-2.323483
18	0x405bb728	3.433054
19	0x3e128a66	0.14310607
20	0xbe140628	-0.14455473
21	0x3e47e853	0.19522218
22	0xc02a23d3	-2.6584365
23	0xbfbd6dd1	-1.4799138
24	0x405b7f0b	3.429629
25	0xbe63675d	-0.22207399
26	0x400d5f99	2.2089598
27	0x3f05efa6	0.523188
28	0xc0893e98	-4.288891
29	0x3fa1b95e	1.2634695
30	0xc0233166	-2.54989
31	0xbf8b9a1d	-1.0906407
32	0xc085d00f	-4.181648
33	0xbf0800ff	-0.5312652
34	0xbfda6ebc	-1.7065043
35	0xc00942a6	-2.144693
36	0x3d9cf629	0.07664139
37	0xbfd15c62	-1.6356318
38	0x40055d64	2.083825
39	0xbd9d980e	-0.07695018
40	0xbe104221	-0.14087726
41	0x40161fe4	2.3456964
42	0xbfb25698	-1.3932676
43	0x406b718d	3.6788056
44	0xbfcc8be8	-1.5980196
45	0xbf9becce	-1.2181642
46	0x3ee1d2aa	0.44106036
47	0x3f1a1caa	0.6019999
48	0x3d290bc0	0.04127097
49	0xbf527c4b	-0.82220906
50	0xc0213e73	-2.5194366
51	0x402a211c	2.6582708
52	0x4006a6e0	2.1039352
53	0xbe92212d	-0.28540936
54	0xbf0a8829	-0.54114014
55	0x404bfae3	3.187188
56	0xc077d116	-3.8721366
57	0xc000747c	-2.0071096
58	0xbf72ad5f	-0.94795793
59	0xc014b001	-2.3232424
60	0xbfce75f0	-1.6129742
61	0x3e187dc6	0.14891729
62	0x3df54374	0.11975756
63	0xbfa58b35	-1.2933108

encoder.2.1.running_var f4 [64]
0	0x3fa33153	1.2749428
1	0x3ffe1dcf	1.9852847
2	0x3d4aea68	0.049539953
3	0x40c30c92	6.0952845
4	0x3fa2d6c4	1.2721791
5	0x3f785af6	0.97013795
6	0x3c5f3e7e	0.013625739
7	0x3c2fa842	0.010721268
8	0x3f367d21	0.7128468
9	0x402bb186	2.6827102
10	0x400c3532	2.1907468
11	0x3fb9a333	1.450293
12	0x3f8d85e7	1.1056489
13	0x3b3273af	0.0027229597
14	0x3f929e4d	1.145456
15	0x3fce0c53	1.6097511
16	0x3f8cf2d6	1.1011608
17	0x3f7c5826	0.98572004
18	0x3f93f8e6	1.1560333
19	0x3f95b8f4	1.1697068
20	0x3ae49fb7	0.0017442618
21	0x3b8c2914	0.004277358
22	0x41375d23	11.460238
23	0x3f5fbb8a	0.87395537
24	0x404b04a7	3.172159
25	0x3b9b97ef	0.0047483365
26	0x3fbacb63	1.4593319
27	0x3ff678fb	1.925567
28	0x3fedc16d	1.8574654
29	0x4121768f	10.091445
30	0x3fae5c81	1.362198
31	0x3fc70ad2	1.5550177
32	0x4020a334	2.5099611
33	0x4104479d	8.267484
34	0x3ff6d2ac	1.9283042
35	0x3fc84f38	1.5649176
36	0x3c32fd96	0.010924717
37	0x40207219	2.506964
38	0x3fb8d145	1.4438864
39	0x3f4e3326	0.80546796
40	0x3bae1f67	0.005313802
41	0x3f7cef28	0.98802423
42	0x3f09af03	0.5378267
43	0x40428893	3.0395858
44	0x403fa257	2.9942834
45	0x4022c627	2.5433443
46	0x40ba4ab1	5.8216176
47	0x3fc40a63	1.531567
48	0x3c0b620e	0.008507265
49	0x3fa5b15c	1.2944751
50	0x3f0095dd	0.50228673
51	0x400804e2	2.125298
52	0x415d3c72	13.827257
53	0x401f4bbd	2.4889977
54	0x3fd29212	1.6450827
55	0x41236031	10.210984
56	0x403e3dbb	2.9725177
57	0x4033272d	2.799266
58	0x3f4d9cf5	0.8031762
59	0x3fdbd0a6	1.717305
60	0x3f8531be	1.0405805
61	0x3b6f96d8	0.0036558416
62	0x3f140842	0.578251
63	0x40d9ba1e	6.8039694
