models/best-vae_circ-ThreeGPP-genie-3gpp-32rx-1p.pt (torch, 428559 bytes, 44 tensors)

embed_data.weight f4 [32, 2, 1]
000000 97 9b e9 3d 1c e1 43 3f 8a d1 8c bb 07 97 0b 3b
       0.114066295 0.76515365 -0.00429744 0.0021299736
000010 b0 da 51 bf d5 a2 33 3e 07 50 42 bb 37 93 75 bc
       -0.81974316 0.17542584 -0.002964975 -0.014988712
000020 a7 c0 55 bf 15 41 0a bf 8a b2 4a ba e9 3c 64 3a
       -0.8349709 -0.5400556 -0.0007732293 0.0008706586
000030 9d 35 29 be a8 83 71 bf 4f ee 2e 3f 74 f9 96 be
       -0.16524358 -0.94341516 0.6833238 -0.29487193
000040 43 35 2d 3f 50 0b 33 bf 80 10 e9 ba 73 36 ee b9
       0.67659396 -0.69939137 -0.0017781407 -0.00045435465
000050 5c f6 4a bd e1 ae 43 bf 75 22 96 3e fb 9e 7c bf
       -0.049551353 -0.7643872 0.29323164 -0.98680085
000060 50 08 83 3a e7 c9 b8 39 f8 d9 81 3b eb 01 93 bb
       0.0009996984 0.00035245644 0.0039627515 -0.0044863126
000070 06 60 07 3b 85 ad 20 bb eb 40 43 3f 2f af 48 3f
       0.00206566 -0.0024517488 0.7627093 0.7839231
000080 91 b3 3c bf 32 91 93 bd d7 a1 42 bf 9c 9f 1e 3f
       -0.73711497 -0.07205428 -0.760282 0.61962295
000090 f6 89 ea be 82 9b f7 3e 99 90 89 3a bf 91 d0 ba
       -0.4580838 0.4836083 0.0010495364 -0.0015912576
0000a0 a2 e7 df b8 ad 73 b7 ba 11 8b 90 be 32 a8 af 3d
       -0.000106766136 -0.0013996266 -0.282311 0.085770026
0000b0 fe ed e7 3a ab 3b a8 ba 24 f2 38 3f dd 18 73 be
       0.0017694829 -0.0012835165 0.7224448 -0.23739953
0000c0 b0 0c 92 3b 20 91 f8 ba 8d 8b 1d 3f d6 06 45 3f
       0.004457079 -0.0018964149 0.6154106 0.76963556
0000d0 0a 50 d6 3b 22 51 c5 3b 9d 4e 26 bb 12 58 9b 3a
       0.006540303 0.0060216347 -0.0025376447 0.0011851809
0000e0 1e e5 d6 bb 6e 18 43 3b db 3f 98 3b a4 7c 34 bb
       -0.0065580746 0.00297692 0.004646284 -0.0027540112
0000f0 0b 89 a0 ba 05 91 8f 3a 3d 87 1a 3b 30 1a d8 3a
       -0.0012247873 0.0010953253 0.0023579143 0.0016487297

embed_data.bias f4 [32]
000000 bd 3f 0d bf cc 2f 1c 3f e5 7c 14 3f b0 ff c4 bb
       -0.5517538 0.6101043 0.58003074 -0.0060119256
000010 70 0f 85 bd 9a 76 04 ba d2 e5 1a bf a4 e1 2e bd
       -0.06497085 -0.00050530734 -0.6050693 -0.042695656
000020 ee b0 27 3f f4 a3 21 be 99 f6 10 3f e8 d3 b4 bd
       0.6550435 -0.157852 0.5662628 -0.088294804
000030 ae 1a 3f ba b7 61 4e 3a 30 2f 03 b9 61 d3 4a 3f
       -0.00072900474 0.0007872837 -0.00012510712 0.7922879
000040 03 e0 2f bf da b6 17 3f cd fe 44 be db 2e ce b9
       -0.6870119 0.59263384 -0.19237824 -0.00039326292
000050 c4 57 90 ba 18 57 1c 3c 2a 5d f2 ba 59 88 fa be
       -0.0011012484 0.009542249 -0.00184909 -0.4893215
000060 d6 de 0c bf ee 8d 69 be 57 b7 94 bb 47 fa 20 3a
       -0.5502752 -0.22808048 -0.0045384574 0.000614081
000070 19 97 0c 3f 47 bc 2d bf 08 d6 78 ba 54 98 8a 39
       0.54918057 -0.67865413 -0.00094923424 0.00026434904

fc_mu_var.weight f4 [32, 294]
000000 8a ec 47 3c 84 e4 7b bc d1 e6 8f 3d 32 92 31 bc
       0.012202391 -0.015374307 0.070264466 -0.010838078
000010 ea d7 3d 3b 47 a3 02 bc f3 31 bc 3a ad 6e 0a 3d
       0.0028967806 -0.007973499 0.0014358148 0.033796955
000020 da 4e e3 3c 64 4a 0d bd fc 44 e4 bb 64 8b 81 3c
       0.02774756 -0.034494773 -0.0069662314 0.015813537
000030 a0 49 c5 3c 72 fd 5c ba 40 9e 95 bc 08 f1 00 bc
       0.024082959 -0.00084301 -0.018263936 -0.007869966
000040 00 ff 87 3c 98 ba 82 3c fe a8 2b bb e6 97 d1 3c
       0.016601086 0.015958115 -0.0026193256 0.025585126
000050 ae 19 b7 3d c7 1b e4 3b 9f 61 3f 3b 34 6c 1a bc
       0.08940445 0.006961319 0.0029202474 -0.009425212
000060 ac 5a ee 3b 15 0c d1 3c b8 e0 a7 bc f2 6a dc bc
       0.0072739925 0.025518456 -0.020492896 -0.026906464
000070 f9 41 85 3c 81 00 30 3c ad 71 d7 3c 04 ef d2 bb
       0.01626681 0.010742308 0.026299322 -0.0064371843
000080 a4 48 8e bb bb cf 07 3d 6a 00 ac 3c 19 72 cf bb
       -0.0043421555 0.03315709 0.020996291 -0.00633074
000090 1b 71 eb 3b dd 58 56 bd 17 cc 2f 3d cf 79 e5 bc
       0.007185114 -0.05233084 0.042919245 -0.028012184
0000a0 dd 87 24 bd e7 e0 b5 bc 4f 6c 0a 3d cf b8 a9 ba
       -0.04016863 -0.022201968 0.033794697 -0.0012948754
0000b0 58 ed d8 3d 30 52 a2 bb 47 e2 0a 3c bd c1 95 bc
       0.10592145 -0.004953645 0.0084768 -0.018280858
0000c0 a5 d4 2e bb f8 b8 2e bc 3a 03 f9 39 1b 57 93 bc
       -0.002667704 -0.010664217 0.00047495385 -0.017985871
0000d0 3c 73 cd 3b 24 e9 80 3c 7f ea 32 bc 1d 66 f5 3a
       0.0062698405 0.01573617 -0.010920166 0.0018722449
0000e0 8a f4 f2 bb e0 72 33 3c bf 76 9d bb 0b e1 87 3c
       -0.0074144052 0.010952681 -0.0048054154 0.016586801
0000f0 46 9c 42 bc de f4 bf 3c c4 66 bb 3c 70 82 14 bc
       -0.011878079 0.023432191 0.02287615 -0.009064302
000100 28 97 4c bc e7 2c a9 3b 8c 6b 97 3c 9c d8 2b 3c
       -0.01248721 0.0051628235 0.0184839 0.010488655
000110 c1 1b 2c bc cf a0 34 3a db a0 61 3c a9 8e 1e bd
       -0.010504664 0.00068904174 0.013771261 -0.03871027
000120 0f 76 40 bd 16 92 df bd c3 37 04 bd 3d 69 d4 bc
       -0.04698759 -0.109165356 -0.03227974 -0.025929088
000130 15 b8 82 ba e9 47 4b 3c f4 0d 88 3d b4 d9 47 3d
       -0.0009973074 0.012407281 0.06643286 0.048791602
000140 e4 10 4c bd 7d b1 00 bc e4 3b a9 ba 0f 5f 80 3c
       -0.049820796 -0.0078548165 -0.0012911526 0.015670327
000150 51 ff ed bb c5 aa 08 bc 2c 94 87 39 0b 51 75 3c
       -0.007263102 -0.008341496 0.00025859603 0.014972935
000160 fc 32 e2 bc a1 d5 4f 3b bc 36 a8 3c 68 f7 5b 3c
       -0.027612202 0.0031713026 0.020533912 0.013425685
000170 9c 3c fb 3a c3 27 ea ba 9e 00 4e 3c 53 66 06 3d
       0.0019167843 -0.0017864633 0.012573389 0.032812428
000180 23 1b 64 bd f7 41 20 bb 9b 82 4f bd e8 52 10 3c
       -0.055689942 -0.002445338 -0.050661664 0.008808829
000190 38 13 a7 bb ba 83 1a bc e4 e6 87 bc 94 29 f0 3c
       -0.0050987266 -0.00943082 -0.01658959 0.029316701
0001a0 eb 1c 89 bc d9 ac 82 bb a9 97 06 bc 0a 89 4e bc
       -0.016737422 -0.00398789 -0.00821487 -0.012605915
0001b0 7e 8d 15 bd 13 7f 62 bd 40 6b 02 3d 63 9c fd bc
       -0.03651189 -0.05529697 0.031840563 -0.03095836
0001c0 d0 e4 82 3c e4 0c 1b bc 58 d1 91 3c 83 dc 4c 3c
       0.015978247 -0.009463523 0.017800018 0.012503746
0001d0 2f 29 b2 bc f2 74 09 bb b3 88 dd 3a 9e 2d 77 3c
       -0.021748153 -0.0020974246 0.0016901701 0.01508656
0001e0 2d b3 7b 3c 82 8a 50 3d 1f ac 31 bc 86 94 75 ba
       0.015362543 0.05091334 -0.0108442595 -0.000936814
0001f0 bf 14 8e 3b c8 79 6c 3c fc 2b b6 3b d9 37 97 3c
       0.004335969 0.014433332 0.0055594426 0.018459247
000200 4b 69 28 bc d0 83 bd bb f0 33 81 3a da 55 5a bc
       -0.01027901 -0.0057835355 0.0009857398 -0.013326133
000210 5f 56 e0 3b a0 32 9b bc d6 de 5f 3b 5d 12 94 3a
       0.0068462337 -0.018945038 0.003415992 0.0011296977
000220 17 68 ca 3c 68 4c 0f 3c 62 2f a6 bb 50 55 55 3b
       0.024707837 0.008746244 -0.0050715664 0.003255207
000230 0f 59 e6 bb c9 98 6b 3c 53 89 8c bd a7 66 eb 3b
       -0.0070296596 0.014379689 -0.0686213 0.007183868
000240 b6 d4 c1 ba b0 7a 5e 3a 4d 83 28 3c ec 56 0a bb
       -0.0014788124 0.000848691 0.010285211 -0.0021108938
000250 e3 38 4e bd f2 54 16 3c 82 f5 cc 3b 03 bb df 3c
       -0.05034722 0.009175526 0.0062548527 0.027310854
000260 1d f0 db bb a5 3f 79 3b dc dd 4c bc c4 cf 85 bc
       -0.0067119733 0.003803232 -0.012504067 -0.016334422
000270 16 5a b7 3c f0 26 92 bd 6f 16 81 3d 00 b2 15 ba
       0.022381824 -0.07136333 0.06303107 -0.0005710423
000280 cb 07 d0 3b fc f6 8d 3c 70 dd 71 bc f9 90 3a bd
       0.0063485852 0.017329685 -0.0147622675 -0.045548413
000290 fd 82 cd bb 3d 38 1d 3c 24 59 c6 3b af 57 09 3d
       -0.0062717185 0.009595928 0.006053107 0.033530887
0002a0 9f d7 04 3d 34 52 06 3c c3 bb 0a ba 89 4a 31 bc
       0.032432195 0.00819831 -0.0005292261 -0.010820993
0002b0 3d 84 62 bb 6f 18 4b 3b 19 84 40 bc d9 a3 6e bc
       -0.0034563683 0.0030989905 -0.011750245 -0.0145654315
0002c0 b9 06 3f bc 8c 33 04 3d 47 16 e5 3c 4a 46 8d bd
       -0.011659318 0.03227572 0.027964724 -0.06898172
0002d0 e8 3b a1 3a 06 5f 44 ba 68 09 9a bc 04 2d 2d 3c
       0.0012301179 -0.0007490966 -0.018803313 0.010569815
0002e0 00 4b 3a 3c 29 98 a7 bc b9 7c b6 3c e9 57 8f 3b
       0.01137042 -0.020458298 0.02227627 0.0043744934
0002f0 75 ef 8a 3b 8d 25 bf bb ae cd a3 3c bd d1 ee 3a
       0.0042399713 -0.005833334 0.019995537 0.0018220466
000300 2d 1f a9 3b 41 56 57 3c b7 1f 83 3b de ed ec 3c
       0.005161187 0.013143123 0.0040015834 0.028922018
000310 bc b7 eb bc ba c1 f7 3d ed 06 a4 3b b2 8e da 3c
       -0.028774135 0.12097497 0.0050057084 0.02667937
000320 37 96 1b bd 8c b8 bd 3c ac 03 22 3c 52 a2 fd 3a
       -0.037985053 0.023159288 0.009888571 0.0019350743
000330 50 f0 a7 bc 64 0b 05 3c de 3a 3e 3c 94 3b 87 3c
       -0.020500332 0.0081203915 0.011610715 0.016507901
000340 e3 47 71 3b ad c6 56 3c bf ba 0f bb ed 06 3f 3d
       0.003681653 0.013108891 -0.0021931378 0.046637464
000350 19 b1 bd bc 67 b3 dc 3c 7a 77 b2 bc 23 c0 6e bc
       -0.023155736 0.026941014 -0.021785486 -0.014572176
000360 d2 34 69 3d 52 8c fa 3b cf bd 91 bd a0 2f 8e bc
       0.05693514 0.007646122 -0.07116281 -0.017356694
000370 3d d5 31 b9 df d1 82 bb 57 15 e6 bb f9 60 59 3c
       -0.00016959473 -0.0039923037 -0.007021587 0.013267749
000380 fb 8e bd bb 74 da bb bc 3e f8 14 3d 60 22 ef 3c
       -0.005784867 -0.022931315 0.036369555 0.029191196
000390 dc 0e 2d bd 90 cc 10 bc 5b a6 7b 3c 1a a8 6f 3b
       -0.0422505 -0.008837834 0.015359486 0.0036568702
0003a0 fe 1d e0 3a bf 24 e8 3a 65 73 8e ba e3 55 fa 3b
       0.0017098782 0.0017711147 -0.001086813 0.007639633
0003b0 32 89 a6 3c 12 5b 2a bb 7f f0 af 3c 6b c0 13 bc
       0.020329092 -0.0025994224 0.021476982 -0.009018044
0003c0 0f 47 3d 3c 59 3b a7 bb 17 0c 5d bc d0 ba 14 bc
       0.011552586 -0.0051035103 -0.013491652 -0.009077743
0003d0 8a c8 95 3a d2 af 36 bc d3 c7 15 bc 7a 1e 2b bb
       0.0011427563 -0.011150317 -0.00914188 -0.0026110695
0003e0 b4 49 08 3c 51 ce 3f bb eb eb 8c 3c d4 53 93 bc
       0.008318353 -0.0029267261 0.017202338 -0.017984308
0003f0 39 da 02 bc 4c 0f 3f bb ec 1e f9 3b 8d c3 a4 bc
       -0.007986599 -0.0029153405 0.007602563 -0.020112777

fc_mu_var.bias f4 [32]
000000 9c 42 22 bb f9 d9 42 be fe d8 02 ba 21 e0 06 ba
       -0.002475894 -0.19028462 -0.0004991441 -0.0005145092
000010 22 9e c7 3b 1f 4b d8 bc 72 88 0f bd 17 9b 5b bc
       0.006091849 -0.026403008 -0.035042234 -0.0134036755
000020 1c 26 2e 3f 1b 16 e3 bc 46 12 47 3e 86 86 90 3c
       0.680269 -0.027720502 0.19440565 0.01764227
000030 4a cb 49 bc 88 9f 1d bc 20 c9 7f 3c b9 c3 4c ba
       -0.012316534 -0.009620555 0.015611917 -0.00078111474
000040 c1 ce 85 bd 5e 03 77 c0 24 08 83 bd 53 0d 74 bd
       -0.06533576 -3.8595805 -0.06398037 -0.05958302
000050 d7 b4 81 bd c4 89 b8 c0 6f 18 4e bd 4c 36 7f bd
       -0.063333206 -5.766817 -0.05031627 -0.06230764
000060 02 30 67 bf e3 e7 5c c0 43 8f 1a c0 e6 eb 8b bd
       -0.9030763 -3.4516532 -2.414994 -0.068321034
000070 88 8c 6d bd aa a0 b7 c0 0a d6 60 bd 7a 62 69 bd
       -0.05799535 -5.7383623 -0.054891624 -0.05697868

encoder.0.0.weight f4 [32, 32, 5]
000000 aa ea 1c 3f 53 a0 3e bd df 6f 0f 3e 05 a4 30 3f
       0.6129557 -0.046539616 0.14007519 0.69000274
000010 6a 2e 6a 3e de f1 2d bf 50 66 b3 bd 4c c0 b1 3e
       0.22869268 -0.67947185 -0.08759749 0.34717023
000020 48 25 cc bd 8a 3c 32 be 19 fe 0e bf c4 e4 56 3d
       -0.09968048 -0.17405906 -0.5585647 0.05246426
000030 59 a8 5a 3f 9f 63 68 3f 1e 94 77 3e c1 8f 4a 3e
       0.8541313 0.9077701 0.24177596 0.197814
000040 da 92 2b bd 67 15 3a 3e 57 84 70 be 58 86 68 bd
       -0.041888095 0.18172227 -0.23487984 -0.056768745
000050 12 fb 19 3e 09 96 25 3e fc 2b 7f 3f bb 16 5d 3f
       0.15037182 0.16170515 0.9967649 0.8636281
000060 f8 85 76 3e e2 97 7e bc a4 d5 84 3d 74 5b 95 bd
       0.24074543 -0.015539141 0.06486061 -0.07292834
000070 bf e6 0f 3d ac b4 d1 bb 5d 58 f4 3e c5 ec 92 be
       0.035132166 -0.0063997116 0.47723666 -0.28696266
000080 77 1e de be 2e d6 7d bf 20 16 03 bf 75 25 82 3e
       -0.43382618 -0.9915494 -0.51205635 0.25419202
000090 9f 5d 00 3d 7c e4 56 bf f4 e1 55 bf 74 1b 2d be
       0.031339284 -0.8394239 -0.835479 -0.16905004
0000a0 9e b2 6f bf fa 32 9e 3d b2 0e 41 bf 2e 29 73 bf
       -0.93631923 0.07724567 -0.7541305 -0.9498471
0000b0 c2 e2 6e be 9d 8d 85 3e dd ae 38 bc d5 6a 75 bd
       -0.23328689 0.26084605 -0.011272159 -0.059916336
0000c0 6c 66 c9 bd 28 dc cb 3d d0 0d 3a bf 7c d6 57 3e
       -0.098339885 0.09954101 -0.72677326 0.21077913
0000d0 38 c2 85 be 12 32 38 bf 63 3a 85 be 00 d5 3c 3e
       -0.2612474 -0.719514 -0.26021108 0.18440628
0000e0 ac 95 21 bc 70 d2 3e bf f7 7f 86 bf 83 fe ac be
       -0.009862345 -0.7453985 -1.0507802 -0.33787927
0000f0 0c 36 4f 3c 4a 25 1f bd b9 26 9a 3c f2 3c f7 bc
       0.012647163 -0.03885392 0.018817293 -0.030180428
000100 14 f2 51 3d 40 de 3b 3b 5d 65 a8 3c 3b 96 99 3d
       0.051256254 0.0028666407 0.020556146 0.07499357
000110 16 f3 e5 bd b4 14 8d 3d 26 d0 58 bc 26 74 5f 3d
       -0.112280056 0.068887144 -0.01323322 0.054554127
000120 aa 06 85 bc 59 7a 41 bd 03 52 08 bc 5a bb 34 bf
       -0.01623853 -0.04723582 -0.008320334 -0.70598376
000130 68 68 65 be d1 6e 81 bf a4 6c 34 bf 33 61 35 be
       -0.22403109 -1.0111943 -0.7047827 -0.1771286
000140 42 95 46 3f 9d 2b d9 3d 82 42 77 3f da 56 53 3f
       0.775715 0.10604022 0.9658586 0.825544
000150 a0 72 52 3e 9a 47 25 bf 74 3e 2b 3d 14 e3 44 3f
       0.20551538 -0.6456238 0.041807607 0.76908994
000160 39 09 6b 3f fa f9 42 3e 9e 0c 28 bd ab 4c 1a be
       0.9181095 0.19040671 -0.041027658 -0.15068309
000170 e8 85 17 3f 24 2a 40 3f 0f 4d 65 3d a2 32 ab 3c
       0.591887 0.750643 0.055981692 0.020898167
000180 06 1a 8e 3c 3e fc 13 bc a5 3e 78 3c c8 66 63 bd
       0.017346393 -0.009032307 0.015151654 -0.05551794
000190 fa 51 c0 bb 25 17 3f 3d b9 15 9a bd f3 2c 82 3d
       -0.0058691474 0.04665293 -0.075236745 0.0635623
0001a0 90 51 b7 bc 26 90 d2 be b3 74 d9 bd 22 ea 15 3f
       -0.02237776 -0.41125602 -0.10617962 0.58560383
0001b0 3e fc 3a 3f d6 4c 84 3d f9 6b a4 bc 2d d8 53 3d
       0.7304114 0.06459968 -0.020071017 0.051719833
0001c0 23 7b ce bc e1 7c 23 bb b9 19 82 3c 3e b4 12 3f
       -0.0252052 -0.002494626 0.015881406 0.5730628
0001d0 db 46 5f 3d 3c 59 46 bf b8 a3 57 bf 88 df 6a be
       0.054510932 -0.7747991 -0.8423419 -0.22936833
0001e0 44 62 3e 3f 29 52 04 3c 06 43 a8 be 24 55 70 3b
       0.7436869 0.008076229 -0.32863635 0.0036671842
0001f0 9d 51 3f 3e 02 8a aa 3e d1 a9 0b be bf 31 74 bf
       0.18683477 0.33308417 -0.13638999 -0.95388407
000200 cd 17 12 bf 21 13 09 be c3 5e e9 bd 87 65 ff 3c
       -0.5706757 -0.13386203 -0.113950275 0.031176342
000210 6b 4d 93 bd a8 dd 97 3d a1 ef 5d 3d b1 dc 0d bc
       -0.07192501 0.074153244 0.054183606 -0.008658574
000220 7d bd e3 3b c5 d3 55 3d 2b 5a 5b bd 5f c4 91 bb
       0.006950079 0.052203912 -0.053552788 -0.004448458
000230 7b 33 2b bf 6d 3d db bd 7c 4d af 3e ca 2f f5 3d
       -0.6687543 -0.107050754 0.34238803 0.11972006
000240 b1 18 7a be 7d 01 4a 3f bf 45 3d 3d f3 81 c0 be
       -0.24423482 0.7890852 0.046209093 -0.37599143
000250 59 a4 98 3d da 7c 74 3e 81 98 4c 3b 38 2f 63 bd
       0.07453222 0.23875752 0.003121883 -0.055464953
000260 ea 52 b2 3c b3 1e 43 3d 3c f9 2a bd e5 6b 6d 3c
       0.021768052 0.0476367 -0.041741595 0.014491056
000270 cf a4 77 bc 7d 06 c5 3c 3a ac 45 bd 1b 56 3d bc
       -0.015114977 0.024050945 -0.04825995 -0.011556174
000280 40 06 a2 3e 0b 15 7f bf 8f c5 a2 bf 12 5c ac 3e
       0.31645393 -0.99641484 -1.271654 0.33663994
000290 b8 76 cd 3f 25 14 40 3f f7 8d 5c bf 04 30 89 3d
       1.6051855 0.7503074 -0.8615412 0.066986114
0002a0 27 f1 cc 3d 64 bb 24 3e f2 95 31 be 21 9d 68 3f
       0.10006934 0.16087109 -0.17342356 0.9086476
0002b0 79 ba 9b 3e d9 9f f2 be ea c8 78 be 74 77 08 be
       0.30415705 -0.4738758 -0.24295393 -0.13326818
0002c0 aa 6d 3c 3e 61 05 84 3f 28 1d 83 be 2d e0 1a bf
       0.18401209 1.0314142 -0.25608182 -0.60498315
0002d0 a6 71 8d 3d 5e c6 8f 3f c6 fc 9a 3f a1 46 ea be
       0.06906442 1.1232412 1.210839 -0.4575701
0002e0 a7 d7 c5 bf 18 21 4d 3c c2 0d 44 3d a4 6e fa bd
       -1.5456437 0.012520097 0.047864683 -0.12228134
0002f0 99 3f a4 3d d6 56 f3 bb 52 e9 a4 3e f4 11 60 3f
       0.08019943 -0.007426123 0.3220926 0.87527394
000300 a2 bf 99 3f f6 e3 e1 be 96 49 ec bf 96 e4 85 3e
       1.2011607 -0.44119233 -1.8459957 0.2615096
000310 84 a0 3a bf e9 41 ed 3d f8 df b3 3e 88 e0 97 be
       -0.7290118 0.11584837 0.35131812 -0.2966349
000320 33 f1 e4 bd 6e f2 06 be 6d eb 12 3f c0 f3 dd bc
       -0.111788176 -0.13178417 0.5739048 -0.027093768
000330 88 ee 77 bf 34 bc 10 be be 84 ef 3e 53 b1 6e 3e
       -0.96848345 -0.14134294 0.46780962 0.23309831
000340 67 4e d2 be a6 e3 16 be 61 24 8f be b4 51 6e 3f
       -0.4107544 -0.14735278 -0.27957442 0.9309342
000350 2a 43 a1 3f e4 7c a8 be 72 13 d1 bf bb 80 57 3e
       1.2598622 -0.32907784 -1.6334059 0.210452
000360 26 5b 15 3f bb fe 89 3f 76 9f eb be 4b 93 d5 bf
       0.58342206 1.0780863 -0.46020097 -1.6685575
000370 e6 a7 72 bd f4 c1 c8 bb 0e f8 fa bb f7 ce fc 3c
       -0.05924215 -0.0061266366 -0.007658965 0.030860407
000380 59 7d 28 bc 44 d4 51 bd 17 cd 12 3d 7b 59 40 bd
       -0.010283791 -0.051227823 0.03584012 -0.046960335
000390 be 59 b6 3d 73 e7 3d 3d 85 61 23 3d 84 8a c0 bc
       0.08903836 0.046363305 0.039887924 -0.02350355
0003a0 24 cc 97 bd 4d 67 e2 3d 07 ce 59 bd 81 b4 22 be
       -0.074119836 0.11054859 -0.053175 -0.1588917
0003b0 d4 eb 87 bf 2e a1 9b bf d6 42 05 3f 1e 76 d3 3f
       -1.0618844 -1.2158563 0.5205511 1.6520422
0003c0 30 0c fb 3d 37 12 86 3f 9e a5 6f 3f 43 07 13 bf
       0.12258184 1.0474309 0.93612087 -0.57432956
0003d0 b6 8b 96 bf 7c 10 63 be 70 0f 87 3e e0 9b 0f bf
       -1.1761386 -0.22174257 0.26378965 -0.5609722
0003e0 91 34 ff bc 19 19 69 3f bd 5f ee 3d fa ed c9 bc
       -0.031152995 0.9105392 0.116393544 -0.024649609
0003f0 d3 6a 32 bf db 5a 3f bd c7 ea 81 3f 69 a6 d0 3b
       -0.6969425 -0.046717506 1.0149773 0.006367494

encoder.0.0.bias f4 [32]
000000 02 b1 81 40 18 76 0f c1 e8 11 c7 ba fd 50 71 c0
       4.0528574 -8.9663315 -0.0015187832 -3.7705681
000010 29 cf d3 40 24 4a b2 3e 33 3e 11 c1 80 02 16 bf
       6.619038 0.3482219 -9.077685 -0.58597565
000020 5c 9f 59 3f d9 5a 53 3f 99 a5 74 40 26 85 83 3f
       0.8500879 0.825605 3.8226073 1.0275009
000030 82 13 39 bd a2 7a 48 3d 20 94 29 3d b6 fc 1b 3f
       -0.04518462 0.048945077 0.04140103 0.6093248
000040 57 11 48 c0 89 0d a4 40 5f 71 e6 c0 2e c6 e1 3e
       -3.1260583 5.1266522 -7.2013392 0.44096512
000050 01 ac 2c 3d e4 6c e5 40 97 f9 d4 3f 9e 6c 87 3f
       0.042156223 7.1695423 1.6638669 1.0580022
000060 f0 a7 b6 3d 51 05 88 bd a7 a8 ec 3d bf 14 46 bd
       0.0891875 -0.06641639 0.115556054 -0.04835963
000070 5d b0 30 bf 93 5d 82 3f eb 5e 42 40 da b6 16 be
       -0.6901911 1.0184807 3.0370433 -0.1471819

encoder.0.1.weight f4 [32]
000000 9f c6 85 3f a3 6a e3 bf 91 bd 96 b8 0f 20 2c 3f
       1.0451239 -1.7766918 -7.187867e-05 0.6723642
000010 a8 07 e2 3f cc 1d 84 3f 33 cf b5 bf c9 a5 a8 bf
       1.7658587 1.0321593 -1.4203857 -1.3175594
000020 a8 cb 81 3f 11 d7 02 3f 30 e6 80 3f 31 c1 17 bf
       1.0140276 0.51109415 1.0070248 -0.5927916
000030 3b 37 34 bb 12 76 54 bb 17 a7 aa 3a 10 e4 1c bf
       -0.002749874 -0.0032419008 0.0013019767 -0.61285496
000040 f0 a1 62 bf 4a 85 c5 3f e1 3f 06 c0 35 be b3 bf
       -0.88528347 1.5431302 -2.0976489 -1.4042422
000050 1f 4f 8f bf 88 a6 d3 3f 06 68 27 3f 55 ba 7e 3f
       -1.1196021 1.6535196 0.653931 0.9950307
000060 80 a6 de 39 e9 30 a7 39 81 05 d0 bf ac 67 fa 3e
       0.00042467192 0.00031889163 -1.625168 0.4890722
000070 53 39 2d 3f e4 2b 8a bf 86 db ce 3f 7d 86 3d bf
       0.67665595 -1.0794644 1.6160743 -0.7403334

encoder.0.1.bias f4 [32]
000000 04 9e 2d be 41 80 07 be 07 77 80 bd 4e c0 4b 3f
       -0.1695481 -0.13232519 -0.06272703 0.7959031
000010 b6 ed 1b be b6 21 0a 3e 38 be 9e bd 8b 92 85 bf
       -0.15227398 0.13489422 -0.07751125 -1.0435346
000020 f8 81 28 3f ca 4a b9 3d 66 ca 25 bd 05 36 3d 3f
       0.65823317 0.09047468 -0.040476225 0.7391055
000030 81 d4 8b bd 82 80 66 bd 8c a6 ab bc 4c 69 19 3f
       -0.06827641 -0.0562749 -0.02095344 0.59926295
000040 13 03 01 bd b1 2a 9d bf c5 54 e2 bd 35 f8 9d 3e
       -0.031497072 -1.2278653 -0.11051325 0.3085343
000050 68 8e a3 3e 25 dd 05 be 39 2a dc 3e 3e 29 e8 3d
       0.31944585 -0.13072641 0.43000963 0.11335991
000060 2b a4 5f bd 5a 6c bd bd 37 95 80 3d 9b 2a 1a 3e
       -0.054599922 -0.09249182 0.062784605 0.15055315
000070 dd 11 47 3e 55 4e ad 3e 6e fc 1e be 6f 5a 17 3f
       0.19440408 0.33848825 -0.15525982 0.59122366

encoder.0.1.running_mean f4 [32]
000000 d3 c1 ce bf 4a 40 10 c1 ef fe 84 be 65 26 bf 3f
       -1.61529 -9.015696 -0.2597575 1.4933592
000010 35 38 a1 40 ae 91 c7 3f 6f 84 14 c1 51 bb 21 3e
       5.038111 1.5591333 -9.282332 0.15794112
000020 dd e3 19 c1 20 ea 4f bf 84 ee 80 bf 50 2a b8 c0
       -9.618131 -0.8121662 -1.0072789 -5.755165
000030 33 02 00 3e ba 39 86 be 51 39 f1 bd 05 ff 70 c0
       0.12500839 -0.26215917 -0.1177851 -3.7655652
000040 b9 92 04 c0 06 aa 51 3f 2a 43 1c c1 97 dd 35 3f
       -2.0714552 0.8190006 -9.766397 0.71041244
000050 3f 56 e9 bf 2d fb 1b 41 bc 7f 5a c0 8a d7 68 c0
       -1.8229445 9.748822 -3.4140463 -3.6381555
000060 e6 4d a3 bd d7 3f f7 3e 2c 68 e0 3e 34 76 a4 c0
       -0.07973842 0.48290893 0.43829477 -5.139429
000070 98 9d dd 40 0f 10 09 3e 6a 7e 19 40 60 99 8f c0
       6.9254875 0.13385032 2.3983407 -4.4874725

encoder.0.1.running_var f4 [32]
000000 8a d6 29 42 80 e1 d8 42 c6 ae a1 3d 2a 27 6e 42
       42.45951 108.44043 0.078946635 59.538246
000010 2c 19 06 43 7b da d0 42 8a 2c 03 43 61 e5 58 43
       134.09833 104.42672 131.17398 216.89601
000020 ee b6 94 42 2a 00 5e 42 3b 78 37 42 92 d0 6b 42
       74.357285 55.50016 45.867413 58.953682
000030 30 74 63 3d 2c 95 4e 3d 1a 8a 3c 3d 10 19 a9 42
       0.055530727 0.05043523 0.04603014 84.54895
000040 31 29 80 42 ba ab 39 43 54 7b 3b 43 46 ce b3 42
       64.08045 185.6708 187.48175 89.90288
000050 8a 6e 93 42 04 51 19 43 49 92 4c 42 34 3f 4c 42
       73.7159 153.31647 51.142857 51.06172
000060 c3 a6 22 3d bf b7 e3 3e 19 3a 07 43 16 66 a6 42
       0.039709818 0.44476125 135.22694 83.19939
000070 27 c9 ee 42 79 b1 a8 42 35 e1 d0 42 a6 09 98 42
       119.392876 84.34663 104.43986 76.018845

encoder.1.0.weight f4 [56, 32, 5]
000000 b7 ad 1c bf 84 cc 6a bf f6 2b e4 3f 64 47 ae 3e
       -0.6120257 -0.91718316 1.7825916 0.34038842
000010 e2 c1 6e 3f 47 c3 9b bc 28 df 7a 3e f5 22 32 be
       0.9326459 -0.019014014 0.2449919 -0.17396148
000020 a4 ea ce 3e 88 84 01 3e cd c2 71 bd 32 1e cb bc
       0.40413392 0.12648213 -0.059023667 -0.024794672
000030 86 1b ca 3d 12 a9 84 3d 62 8d bd bd e3 bb 75 be
       0.09868531 0.0647756 -0.09255482 -0.23997454
000040 0f 71 46 3f 7f b7 40 bf c9 19 67 3f 05 cb 05 3f
       0.77516264 -0.7527999 0.9027372 0.5226291
000050 16 52 2d be c9 38 3e bd 67 62 1c be aa 5d 13 bf
       -0.16925845 -0.046440873 -0.15271913 -0.57564795
000060 1d 51 40 be f1 30 37 be 7b cd 39 bf 71 f1 a0 bf
       -0.18780942 -0.17889763 -0.72579163 -1.2573682
000070 6a 74 39 3e c3 73 95 3e e7 8f 43 be 20 6d 14 3f
       0.18110815 0.29189882 -0.19097863 0.5797901
000080 19 fd 18 bf 1d 3c 6f 3d 88 3f 05 bf 91 74 87 3e
       -0.59761196 0.058406938 -0.52050066 0.2645612
000090 08 6f 90 bd fe 99 c2 3d 44 8d ea 3e 88 35 fd 3d
       -0.070524275 0.09502028 0.45810902 0.12363726
0000a0 38 ca ed 3f 83 22 f9 bd ec ff 02 40 48 4c c9 3f
       1.8577337 -0.12164786 2.0468702 1.5726404
0000b0 04 d1 35 3f 63 a3 0a 3f 58 ad 87 bf d7 b6 0c 3f
       0.7102206 0.5415556 -1.0599775 0.5496649
0000c0 a9 4f 95 3f d1 a6 2f be bd 58 9b 3e e2 05 0b 3f
       1.1664935 -0.17153479 0.3034114 0.5430585
0000d0 25 2d 6f 3f 49 94 87 3f 19 e6 3e 3f 17 59 b0 3f
       0.9342826 1.0592128 0.7456985 1.3777188
0000e0 d6 f3 f6 3f b7 e5 dd 3e 05 21 8a 3e 54 ae 56 be
       1.9293163 0.4333932 0.26978317 -0.20964938
0000f0 dd c2 52 3d 48 6e 05 bd 65 c7 5e bc 63 a3 6b bc
       0.051455367 -0.032575876 -0.013597344 -0.014382216
000100 14 c0 55 bd 4f bf ce bb 63 79 a7 3c 87 b5 fc 3c
       -0.052185133 -0.006309427 0.020443624 0.030848278
000110 a7 ea 1a 3d b7 dd 51 3d 99 69 e8 3d f9 a6 00 3c
       0.03782144 0.051236834 0.11348266 0.007852309
000120 ae f5 5e 3c fc 4b 94 bd fe b3 62 bc 11 43 48 3f
       0.013608379 -0.07241055 -0.013836859 0.78227335
000130 a1 04 fa 3e b5 09 55 bf b8 cc 08 bf 7d e0 03 bf
       0.48831657 -0.83217937 -0.53437376 -0.51514417
000140 47 26 6c bf 1c 3a c2 3f ce 36 83 3f e2 98 42 3f
       -0.92245907 1.5173984 1.02511 0.7601453
000150 6d 07 32 3f 87 8c 36 bf 53 b0 2b bf 85 5f 11 c0
       0.6954258 -0.7130818 -0.67065924 -2.271455
000160 c0 52 f9 be 31 78 9d bf ca 5f ea 3d 4d 01 11 3f
       -0.48695946 -1.2302305 0.114440516 0.5664261
000170 a5 a4 84 bd 2b d2 8f 3d cb e5 c6 bd 0e 08 05 3f
       -0.06476716 0.07022508 -0.09711798 0.51965415
000180 d8 9e b1 3f 4c 4a 4a 3f 9c 6a 08 3f 09 f3 11 3f
       1.38766 0.7901962 0.53287673 0.5701147
000190 eb 6b 41 bf 80 95 4e bf 06 fe fd bf 30 44 00 bf
       -0.75555295 -0.8069687 -1.9843147 -0.50104046
0001a0 e5 bb 35 bf 1b 34 ea bd f0 20 21 3f 7f cb 2f 3d
       -0.7098983 -0.114357196 0.62940884 0.04291868
0001b0 6d 17 27 be 96 59 cc 3d ae 2e e5 3f 29 ae 81 3f
       -0.1631753 0.09978025 1.790487 1.0131274
0001c0 85 a1 bf 3f 61 16 ff 3f b0 be 47 3f c7 e0 40 bf
       1.4971167 1.9928705 0.7802534 -0.75342983
0001d0 7d 35 8b 3d b3 e8 b0 3e 4f 06 14 3f ef 5b 43 bd
       0.067973115 0.34552535 0.57822126 -0.047695097
0001e0 27 d6 75 bc a7 4b d8 3c a7 98 0c 3d d3 1d 6a bd
       -0.015004671 0.026403261 0.034325268 -0.05715735
0001f0 5b 61 a0 bc ef 5d a9 bc bf 29 73 3c 17 cb 91 bb
       -0.019577673 -0.020674674 0.014841496 -0.004449259
000200 fe 7a af 3c 2a 64 97 bd 7d e0 73 bd 60 05 0d 3f
       0.021420952 -0.07392152 -0.05954026 0.55086327
000210 73 aa 0b 3c 74 bd 79 be c7 db 5b be 0d e6 62 3e
       0.008524525 -0.24388677 -0.21470557 0.2215807
000220 5c d9 5d bf b3 92 be 3f 5f 45 c3 be e1 ad d0 3e
       -0.8665979 1.4888519 -0.38138863 0.4075766
000230 0b 90 9a be 40 39 a1 3f 8d e5 cc 3e fb b8 55 bf
       -0.3018802 1.2595596 0.40018883 -0.8348538
000240 e2 57 67 bf 11 90 ca be ef c1 e0 3e ec 26 84 bf
       -0.90368474 -0.3956304 0.4389796 -1.0324378
000250 85 42 fe be 7c 53 cc be 33 07 a8 be 9a 67 39 3f
       -0.49660125 -0.39907444 -0.32817993 0.7242371
000260 25 93 5c 3e 01 b0 b1 bd e4 b2 27 be 91 c8 2d 3f
       0.21540506 -0.08676148 -0.16376835 0.67884165
000270 7c 23 10 40 7d d1 be bf 2e de 3d bc c5 95 06 bf
       2.2521658 -1.4907681 -0.011588616 -0.5257228
000280 5f 15 ba bf 8c d4 32 bf 38 e1 8e bf 12 64 ab be
       -1.4537772 -0.6985557 -1.1162481 -0.33474785
000290 39 c4 5a be f1 ce f6 3e ae d5 19 40 ea 3e f7 3f
       -0.21363916 0.4820476 2.403667 1.9316075
0002a0 d5 96 e4 3d bf b6 6b bc 07 b7 3f 3b 63 e9 86 3c
       0.111615814 -0.014386832 0.002925338 0.01646871
0002b0 55 c2 ee bc 1f c8 73 3c 6b a6 f6 3c 45 ed 4a be
       -0.0291454 0.014879256 0.030108651 -0.19817074
0002c0 ba f6 3a 3e 90 c1 85 bf 76 25 53 be 60 f4 a6 3d
       0.18258181 -1.0449696 -0.20619759 0.081520796
0002d0 85 76 43 bb 8c 8d 84 3f 98 6f 54 40 11 51 ec 3e
       -0.0029825282 1.0355697 3.3193111 0.461556
0002e0 b9 d9 4e 3d c0 41 32 3d 66 75 cc 3f c5 c0 ca 3f
       0.050500605 0.043519735 1.5973327 1.5840079
0002f0 28 bc f2 3c 62 c0 19 bb c1 0e 03 3e af f5 a6 3f
       0.029630736 -0.0023460616 0.12798597 1.3043727
000300 09 3b 03 40 cc fe 08 3f ba 45 c6 3d 53 cd 1c 3e
       2.0504782 0.5351379 0.09681268 0.153127
000310 ea 2a 7b 3d 9f fa 1c 40 22 36 7b 3e 79 46 f4 3d
       0.061320223 2.4527967 0.24532369 0.11927504
000320 7d 99 35 be de 26 3c 3e e1 9b c0 3f 13 ef e7 3e
       -0.17734332 0.18374202 1.504757 0.45299587
000330 59 0c 89 bc da 0e 6b bf 9d e2 23 be 8f 22 31 bf
       -0.01672952 -0.91819537 -0.16004415 -0.6919336
000340 d6 23 9c bf ee 6f 87 be 3e c9 40 bf a2 4b 82 bd
       -1.2198436 -0.26452583 -0.7530707 -0.06362082
000350 2c 23 43 bf 67 c4 cb be 94 12 a4 bd d7 4b ce 3e
       -0.76225543 -0.3979828 -0.08011356 0.40292236
000360 cd 81 69 3f 45 4c 33 3f 8b 82 5c be cc 6c 84 3d
       0.91213685 0.70038253 -0.21534173 0.06466064
000370 1b 15 77 3d 01 26 90 3a 0a cd 6a bd ca 85 36 3b
       0.060322862 0.0010997654 -0.057324447 0.002785074
000380 61 6e 09 be 70 64 d0 bd 5b 58 3e 3d 57 35 02 bd
       -0.13421012 -0.10175407 0.04647098 -0.03178915
000390 f9 9b 4a bd 3b 59 54 bd bb 75 9f 3c 5f 03 c8 3b
       -0.049465153 -0.05184291 0.019465318 0.0061039175
0003a0 20 27 c1 3d a5 be 16 bd ce 18 2e bd de b9 7c bd
       0.094312906 -0.036802907 -0.042504124 -0.061700694
0003b0 47 dd 86 3f d9 c4 85 3f 4e ee 30 bd 2e e1 a0 3d
       1.0536278 1.0450698 -0.043196015 0.078554496
0003c0 ba 81 14 bf 26 0f ce be e0 4b 97 bf a6 10 11 bf
       -0.5801045 -0.40245932 -1.182003 -0.5666603
0003d0 27 56 ba bd 60 86 58 3d d8 0d 03 c0 9a 92 24 c0
       -0.090984635 0.052862525 -2.04772 -2.5714478
0003e0 f7 fa bf 3d 78 5b e5 3a 4a 44 40 3e 6e ef c7 3f
       0.093740396 0.0017498573 0.1877605 1.5619943
0003f0 90 3e 0a 40 5e a6 b4 3e 92 b9 73 3b b3 bf 2a bd
       2.1600685 0.35283178 0.0037189466 -0.041686725

encoder.1.0.bias f4 [56]
000000 af af 30 c0 b4 c8 01 40 75 51 e8 bf 33 f5 50 3f
       -2.7607229 2.027875 -1.8149859 0.81624144
000010 23 60 2b 3f 3f 28 93 be d8 d9 34 c0 b0 0e 99 3e
       0.6694357 -0.28741643 -2.8257961 0.29894018
000020 e3 08 93 bf 53 30 e9 bc e5 77 c8 3f 4f ad ea 3e
       -1.1487087 -0.028465426 1.5661589 0.4583535
000030 78 48 29 3f 98 af a5 bf d9 e9 84 3f fb d2 41 3f
       0.66126204 -1.2944212 1.0383865 0.75712556
000040 ab 3d a3 3f 2e 42 ff bd 07 f7 06 c0 86 67 f1 be
       1.2753195 -0.12463795 -2.1088274 -0.47149295
000050 4b 18 8c 3d a4 9f 34 40 09 ff b8 3c 45 34 5e 3f
       0.06840571 2.8222437 0.022582548 0.86798507
000060 6a 07 77 bd 2e 09 6b 3f 13 a0 68 3a d2 1d b3 3e
       -0.060309805 0.9181088 0.00088739506 0.3498369
000070 71 6e 9b 3e 7e 23 07 3e ee 1e bf be 30 42 34 bf
       0.30357698 0.13197133 -0.37328285 -0.70413494
000080 31 9c e7 bf 50 13 21 3f 64 f8 58 40 7e d9 35 40
       -1.8094541 0.62920094 3.3901606 2.8413997
000090 e9 3f ca be ee 80 5e 3f 75 58 ec bf 66 b3 49 3c
       -0.39501885 0.8691548 -1.8464495 0.012310838
0000a0 98 5b 59 3f 70 93 ad 3f 13 8d 83 3f 97 2d 81 be
       0.84905386 1.3560619 1.0277427 -0.25230095
0000b0 81 e2 1d c0 d3 1f 22 bf c5 7e b2 3f 37 92 53 3d
       -2.4669497 -0.6332981 1.3944937 0.051653113
0000c0 85 de 57 bf 84 9b b4 3f b0 f6 04 bf 2c b5 67 be
       -0.8432391 1.410996 -0.51938915 -0.22627705
0000d0 0f 1e 0f c0 4f 8e e1 3f ee 18 0d 3f 25 0a 66 c0
       -2.2362096 1.7621554 0.55116165 -3.5943692

encoder.1.1.weight f4 [56]
000000 eb 68 79 3d 7e 8c d6 bf c3 80 ca 3f c3 9a 8d 3f
       0.060891073 -1.6761625 1.5820545 1.1062855
000010 b3 8f 23 3f 5c fb 38 bf a1 73 f3 be 1a 57 8a bf
       0.6389114 -0.72258544 -0.47549155 -1.0807831
000020 a1 2b af bf b4 f6 9c ba 1d ee a8 bf 2c 5c cb 3f
       -1.368519 -0.0011975379 -1.3197666 1.5887504
000030 1e 8e 59 bf bb 75 a3 bf e7 e1 b8 3f d8 a2 a1 bf
       -0.8498248 -1.2770303 1.444394 -1.2627821
000040 07 c5 9b 3f 21 64 f1 bf 57 54 e8 be 96 5f 83 bf
       1.2169503 -1.8858682 -0.45376846 -1.0263546
000050 0b 2f 3d ba 94 39 14 3f 05 bc 95 bf c5 30 b8 bf
       -0.0007216788 0.5790036 -1.1698004 -1.4389883
000060 37 ec 80 3f 4f 03 3d bf c3 73 95 bb 11 9e 5a 3f
       1.0072087 -0.73833174 -0.004560919 0.8539744
000070 e0 54 d5 3f 0a b6 b7 3f d9 5f 9f 3f 00 12 00 bd
       1.6666527 1.4352429 1.2451125 -0.031267166
000080 48 60 05 bf a6 e7 a3 3f 2f 3e cf 3e 69 4a a0 be
       -0.5210004 1.2805068 0.4047713 -0.3130677
000090 fc 87 8f bf eb 9a f0 bf 73 14 e6 bf 5a 57 b3 bb
       -1.1213374 -1.8797277 -1.7974991 -0.0054730596
0000a0 be 44 0f c0 8b d5 96 3d f9 d1 77 3f 45 75 00 40
       -2.2385707 0.07364949 0.9680477 2.0071576
0000b0 e3 de 2d 3f 6e 74 a4 bf f9 d1 5a 3f c8 64 39 3b
       0.67918223 -1.2848032 0.8547664 0.002828883
0000c0 56 12 62 3f 89 d3 9d bf 73 9d 1d bf 5b 38 01 be
       0.8830923 -1.233018 -0.61568373 -0.12619154
0000d0 85 57 1a 3e ae c5 21 3f 99 d4 52 3f 6e 76 be 3f
       0.15072449 0.6319226 0.8235565 1.4879892

encoder.1.1.bias f4 [56]
000000 16 fd 1a 3e 83 d5 df be 38 21 15 bf 82 27 0d bf
       0.15135607 -0.43717584 -0.5825381 -0.5513841
000010 09 23 ef 3d 47 db 08 be 00 59 9b be bb d8 1b bf
       0.11676604 -0.13364898 -0.3034134 -0.6087758
000020 4c bf ec be 08 92 34 bd ad 11 12 bf a7 98 11 bf
       -0.46239698 -0.04408458 -0.5705822 -0.56873554
000030 c3 5c 22 be 0a 80 f0 be cf b4 e9 be 88 46 73 be
       -0.15855698 -0.46972686 -0.45645759 -0.23757374
000040 84 31 0a bf b4 15 4f bf df b1 82 be 16 cc 4a be
       -0.53981805 -0.8089249 -0.2552633 -0.19804415
000050 a7 9f 17 bc 4a 94 a2 be dc 70 04 be c5 a5 e4 be
       -0.009254373 -0.3175376 -0.12933677 -0.44657722
000060 03 bc 31 3c 14 b7 67 3b 32 e7 c5 bd 73 59 81 be
       0.010848048 0.0035356926 -0.09663238 -0.25263557
000070 41 e2 33 bf 1b 55 3b be 95 97 15 bf 4a e5 0e 3f
       -0.7026711 -0.18294184 -0.5843442 0.5581862
000080 cc b9 3d be 2f 8f a1 be ea 66 be be 5b d7 70 be
       -0.18527907 -0.31554553 -0.37187892 -0.23519652
000090 7a 1f fb be 24 c0 5d bf 60 a8 34 bf 70 f4 a9 bd
       -0.49047452 -0.8662131 -0.7056942 -0.08298576
0000a0 df 78 5f bf ab 81 5c 3e 9d 85 57 be 67 07 47 bf
       -0.8729381 0.2153384 -0.21047063 -0.7774567
0000b0 1c 21 80 be 35 94 ed be 0b 07 a9 be 5d bf 3f bd
       -0.2502526 -0.46402135 -0.33013186 -0.046813358
0000c0 e2 91 cb 3b 14 e5 83 be 43 32 25 be 4d 77 54 bc
       0.006212459 -0.2576071 -0.16132455 -0.012967897
0000d0 06 b0 58 3d d9 14 36 be f6 ba ab be b3 67 98 be
       0.052902244 -0.1778139 -0.33541077 -0.29766616

encoder.1.1.running_mean f4 [56]
000000 dd 87 f7 40 e8 63 5b 41 39 45 9c c0 51 2e 91 c0
       7.735335 13.711891 -4.88345 -4.536904
000010 43 2d 15 c1 20 34 91 41 be a4 57 bf f7 2b b1 40
       -9.32355 18.150452 -0.8423575 5.536617
000020 4f 9a cd 3e 50 b3 53 3c c5 86 9e 3f 1d 16 1e c1
       0.4015679 0.012921169 1.2384878 -9.880399
000030 cf 55 dd be 56 54 e6 3e f0 a6 14 c1 f4 71 98 41
       -0.4322953 0.44986218 -9.290756 19.055641
000040 29 f1 80 c0 39 73 03 40 b4 cd 80 40 0a d2 1d 41
       -4.0294385 2.0539076 4.0251102 9.863779
000050 b4 f0 ba 3e 1a f1 66 c0 ba e3 76 41 95 60 4d 41
       0.36511767 -3.6084657 15.430597 12.83608
000060 e8 09 32 c1 23 2a c6 40 95 ec 56 3c 86 29 4a c1
       -11.1274185 6.1926436 0.013117929 -12.635138
000070 b2 6c 92 c0 34 49 f1 c0 70 44 c2 c0 a5 a9 35 40
       -4.5757685 -7.540186 -6.070854 2.8384793
000080 2f 60 b6 40 d7 ff 76 c1 88 f9 ec c0 22 cb 13 40
       5.699241 -15.437461 -7.4054604 2.3092732
000090 ec 58 c7 40 c6 b7 a1 40 e5 de 03 40 23 c1 c1 be
       6.2296047 5.0536833 2.0604794 -0.37842664
0000a0 30 6e 05 41 37 aa 02 c1 ff 80 9a c0 ec 73 24 c1
       8.339401 -8.166556 -4.8282466 -10.278301
0000b0 3e 14 45 c1 13 81 74 40 2c c8 e5 3f 27 5c d3 be
       -12.317442 3.820378 1.7951713 -0.41281244
0000c0 57 27 97 c1 bc e0 95 40 a3 c5 e3 40 8c 2c 36 3f
       -18.894209 4.6836834 7.1178756 0.71161723
0000d0 81 57 0f 3e 0c 99 7d bf db 4e 41 c1 6f 6b 15 c1
       0.13998224 -0.99061656 -12.081752 -9.338729

encoder.1.1.running_var f4 [56]
000000 c1 cc b2 41 4e f7 64 43 a3 b3 f9 42 bc ed 9e 42
       22.349977 228.96603 124.85085 79.464325
000010 23 d4 b1 43 c1 61 b2 43 aa 23 c6 42 f4 1f 89 42
       355.65732 356.7637 99.06966 68.56241
000020 54 5a 49 43 80 29 51 3e cf 9f 57 42 c4 ce 4e 43
       201.35284 0.20425987 53.906063 206.80768
000030 c5 91 32 43 09 3e ad 42 ca 39 72 43 5e 85 cc 43
       178.56941 86.62116 242.22574 409.04193
000040 c6 a6 b2 42 6c 10 c9 42 b4 be 53 43 24 44 6d 43
       89.32573 100.532074 211.74493 237.26617
000050 b7 ad 6c 3f e4 2a 31 43 22 6f b5 43 ac e3 8f 43
       0.9245257 177.16754 362.86823 287.7787
000060 e8 7c 03 44 f1 17 6c 43 da 15 42 3e ad 40 97 43
       525.95166 236.09352 0.18953648 302.50528
000070 b0 40 be 42 2e 19 0d 44 c3 e1 91 42 ba be d2 41
       95.12634 564.39343 72.94094 26.343128
000080 9b c6 bb 42 67 1e fc 43 e6 6a d4 42 5a 1a 8d 41
       93.8879 504.23752 106.208786 17.637867
000090 57 8e f6 41 02 a7 97 42 70 2f 1c 43 2c de 9c 3e
       30.819502 75.82619 156.1853 0.30638254
0000a0 d8 e9 70 43 98 2a 9b 41 07 b3 5a 43 67 93 39 43
       240.91345 19.395798 218.69933 185.57579
0000b0 f5 1f 40 43 4a 4b c9 42 1a e7 dc 42 a8 75 93 3e
       192.12483 100.64705 110.45137 0.28800702
0000c0 d9 c0 ed 43 0f a6 52 43 bf ca e1 42 10 bf bb 42
       475.50662 210.64867 112.89599 93.87317
0000d0 ef d2 ee 42 fa 3e 00 43 31 e1 12 43 12 82 85 43
       119.41198 128.246 146.87965 267.01617

encoder.2.0.weight f4 [98, 56, 5]
000000 b8 05 ff 3c 82 e6 85 3b 1d c1 56 3d 55 d6 a6 ba
       0.031130657 0.0040863166 0.05243026 -0.0012728671
000010 2f 12 69 bd 4d d0 6c bd d2 47 96 bd f9 67 45 bd
       -0.056902107 -0.05781584 -0.073379174 -0.04819486
000020 a0 18 97 39 98 6b 7e 3d 5b ad ac 3d f8 fe ae 3c
       0.0002881931 0.06211433 0.084315024 0.021361813
000030 ec 8a e5 3d 1c 6d d9 bd 1f 7b 9c 3d 3a ab aa bd
       0.11208138 -0.10616514 0.07640671 -0.0833344
000040 bc 78 09 be 47 9e 22 bd c9 79 9a bd be 42 45 3d
       -0.13424963 -0.039701726 -0.0754276 0.048159353
000050 29 10 e9 bc 41 d6 06 be 14 9f 76 bd 2d 8b 9d bd
       -0.028450089 -0.13167669 -0.060210302 -0.07692561
000060 32 d5 e8 bd 2b 03 eb 3c d8 0f 4b 3c 95 4d 21 bd
       -0.11368789 0.028688034 0.012393914 -0.03938063
000070 88 9b a4 3d e9 09 ee 3d 6f e0 79 bd 28 e4 9a 3d
       0.08037478 0.11622984 -0.061005052 0.075630486
000080 5b 96 84 3d 75 2a 91 3d 4f d2 3e bd 86 43 b8 bd
       0.064739905 0.07088176 -0.046587285 -0.08997254
000090 9a 60 96 bd 58 b7 87 3c 96 5e 45 3d c5 5b 22 3c
       -0.07342644 0.016566917 0.048185907 0.009909575
0000a0 de ec 97 3d c0 2a e2 3d f0 e1 7b bd 48 a2 9d 3c
       0.07418226 0.1104331 -0.061494768 0.01924242
0000b0 4c 49 6e bc 4f f7 d7 3c 1d df 06 3d 2f e9 8c 3d
       -0.0145438425 0.026363043 0.03292762 0.06880414
0000c0 fc 8c 0f bc 6d a3 ff 3d e2 f0 04 3e 35 20 7f bd
       -0.008761641 0.12482343 0.12982515 -0.062286574
0000d0 87 fb a0 bb ca 36 26 bd 00 df 0f 3e 43 7d fd bc
       -0.004912797 -0.040579595 0.14049911 -0.030943519
0000e0 da 96 6c bc d3 73 eb bd 73 2b 32 bd 0d 8a d1 3d
       -0.014440263 -0.11496701 -0.043498468 0.10231409
0000f0 75 48 c3 3c 72 4d 28 3c da ef 22 bd c3 b3 7c bb
       0.023838261 0.010272371 -0.03977952 -0.0038559295
000100 61 ae ca 3c 6a cd 2f bd 2e 42 7d 3d 49 4c 32 3d
       0.024741353 -0.042920507 0.061830692 0.043529782
000110 23 20 02 be 6b a1 2a bd 0f 56 86 3c 16 f4 2d 3e
       -0.12707572 -0.041657846 0.016398458 0.16987643
000120 b1 43 74 bd 1f 87 12 bd 73 07 e9 3c 48 52 63 3d
       -0.059634868 -0.035773393 0.028445935 0.05549839
000130 e4 80 6a bd f0 57 16 3b 10 49 ac 3d 61 dd df 3d
       -0.057251826 0.0022940598 0.08412373 0.109308966
000140 c1 e1 04 be 8a 1c 84 bd 96 08 88 bd 68 89 24 bd
       -0.12976743 -0.06450756 -0.06642263 -0.040170103
000150 42 e4 0d 3d df 91 95 39 aa 25 f6 bd 6a 9e 58 3b
       0.03464151 0.00028528177 -0.120189026 0.0033053407
000160 85 1c 10 3e 8c 6d b9 3d a1 8c e6 3b c3 a7 86 3d
       0.1407338 0.090540975 0.0070358072 0.06574967
000170 18 f3 e2 bc 8b 2b 38 bd f2 da 8d bc 1a 55 19 3d
       -0.027703807 -0.0449634 -0.017316315 0.037434675
000180 1b 2b af 3d 8b 25 32 3d da 2e a3 3c 66 f4 5d 3b
       0.085531436 0.043492835 0.019919802 0.0033867597
000190 04 3f 62 bd 8e 59 dc bc 8a 40 18 bd 69 ae 5b 3c
       -0.055235878 -0.026898172 -0.037170924 0.013408282
0001a0 5c 04 80 bd fb 1e 5a 3d 58 42 e4 3c d6 13 ee 3d
       -0.062508315 0.0532522 0.027863666 0.11624877
0001b0 39 59 02 3e cd 91 c4 bd 21 7d 0d 3d b0 39 03 bd
       0.12729348 -0.09598122 0.03454316 -0.032037437
0001c0 23 37 45 3d 71 0b 21 bd e5 d8 d5 3d 86 f3 c6 3c
       0.048148286 -0.039317552 0.1044176 0.024286043
0001d0 4f b3 a5 bd 11 ef e1 3c ba 83 5c be e9 b4 ea bd
       -0.08090841 0.027579816 -0.21534625 -0.11460287
0001e0 76 3d 26 bd e0 b2 84 bd 66 8b f7 bb 1a 56 18 bd
       -0.040585957 -0.0647943 -0.0075544594 -0.037191488
0001f0 14 03 01 3d 45 d4 2d 3d 0d 81 5e 3d e5 8d 38 bd
       0.031497076 0.042438764 0.05432229 -0.045057196
000200 62 c4 e4 bd 31 2a 91 bc d9 95 20 3d 00 5f 60 3d
       -0.111702695 -0.017720314 0.039205406 0.0547781
000210 0f ac d0 bc 08 e8 74 3b 25 bf c4 3d 1d 74 6f bc
       -0.025472669 0.0037369747 0.096067704 -0.014615086
000220 ff 77 3b 3c e0 41 3b bd 56 6a 88 3c 64 b6 8b 3b
       0.0114421835 -0.04571712 0.016652267 0.004263686
000230 a0 56 a9 bb 95 dd ed bc 42 b4 bb bd 21 f5 70 3c
       -0.005167797 -0.029036323 -0.09165241 0.014706881
000240 81 c8 a1 3d 1f cd c7 3d 8e 2d ba bd 1f b6 39 bd
       0.07899571 0.097559206 -0.0909072 -0.0453397
000250 b4 c1 c1 3c 46 a9 05 3d 54 f7 f1 bd f2 44 f9 3c
       0.023651935 0.032632135 -0.11814752 0.030428383
000260 78 39 84 bd 2e 06 0c bc 02 d1 b2 bd 55 08 d0 3c
       -0.06456274 -0.008546395 -0.08731271 0.025394598
000270 2c 71 4f 3c 6d d0 1b 3d 71 20 05 3d ca 8e 07 3e
       0.01266126 0.038040567 0.03250164 0.13238063
000280 1b 61 45 3a ef 18 7a 3d 6f f7 b3 3c 34 ec 31 bd
       0.00075294235 0.061058935 0.021968571 -0.04343815
000290 84 cb 26 bb db ef 87 bc 1a c4 91 bd 78 c2 de bd
       -0.0025450895 -0.016593864 -0.071174815 -0.10876936
0002a0 27 c2 b8 bd fd 19 b2 bd 76 68 b7 3c 85 4c 71 3d
       -0.090214066 -0.08696363 0.022388678 0.058910865
0002b0 70 6f 88 3c 8b 6c 2e 3d 03 85 c3 bd 82 83 57 bd
       0.0166547 0.042583983 -0.09546854 -0.05261565
0002c0 39 04 1d 3c e7 d2 bc 3d e3 d8 16 3d 60 d2 5c bc
       0.009583526 0.09219914 0.036827933 -0.013477892
0002d0 6b 3a bd 3d 89 ec 5c bd a0 c2 c5 ba 24 af b2 3d
       0.09239658 -0.053936515 -0.001508791 0.08724812
0002e0 e5 81 28 3c 83 9c 91 3c 42 5c 22 3d f2 ec 35 3d
       0.0102848755 0.017774826 0.039638765 0.04441542
0002f0 30 1a fc 3c ef ef 75 3d e9 22 60 3d f3 1d d2 bc
       0.030774206 0.06004327 0.054720793 -0.025649047
000300 50 28 93 bd da 7e 02 3e a0 1a 1c 3d f1 7b fb 3c
       -0.071854234 0.12743703 0.03811133 0.030698748
000310 b4 ef 29 3b 6a 9b bd bc a7 6d d2 ba af 41 15 bd
       0.0025930228 -0.023145396 -0.0016054407 -0.036439594
000320 56 38 04 be d4 09 1b bd de 68 6a bd e5 14 0a bd
       -0.12912115 -0.03785117 -0.057228915 -0.033711333
000330 82 3c 83 3d be 6f 3b 3d 84 ac 96 3d bb 6a 07 3d
       0.06408025 0.045760863 0.073571235 0.03306077
000340 33 be 87 bd f1 94 d6 3c e5 0e bb 3d ff 97 ce bb
       -0.066280745 0.026194068 0.091337 -0.0063047404
000350 b4 c9 9a 3c ab 8e a7 3d c7 41 05 3e 9b cb b0 bc
       0.018895008 0.08181509 0.13013373 -0.021581462
000360 00 c9 af bc eb 9f ce bd 82 e1 d6 bc c8 90 65 bc
       -0.021458149 -0.10089096 -0.026230577 -0.014011569
000370 79 5f 34 3e 43 f2 b9 3c e6 9a 21 3d 95 8f 7e 3d
       0.17614545 0.022698527 0.039454363 0.06214865
000380 4e a6 a9 3d 44 a3 fb bd 9b 35 80 bd 6a 73 75 bd
       0.08283673 -0.12287 -0.062602244 -0.05992452
000390 ba e7 1b be 44 69 7c ba 50 11 9f 3d 11 19 88 bc
       -0.15225115 -0.0009628723 0.07766974 -0.016613515
0003a0 4d df 72 3d bf f0 9e 3c b8 9c 52 3d d7 a0 79 3d
       0.059294987 0.019401906 0.05141899 0.060944404
0003b0 78 c2 5a bc 5f ed 88 bc 8a 74 29 3d e8 e1 cf 3b
       -0.013352029 -0.01671475 0.041370906 0.006344069
0003c0 66 6c 9f 3d 79 e9 97 bd e7 d5 22 3d 8a b9 b7 3d
       0.07784347 -0.07417578 0.039754774 0.08970936
0003d0 3f d8 6b 3d 63 71 f1 3d 55 2b c1 bc 31 eb 70 bd
       0.057579275 0.11789205 -0.023580233 -0.058818046
0003e0 0e 67 66 3c 34 a1 ff bb ea 11 15 bd a6 6c 07 bd
       0.014062656 -0.0078011993 -0.036394037 -0.0330626
0003f0 46 16 70 3c d1 06 05 be fe 3b a7 bb f7 06 48 3d
       0.014653748 -0.12990882 -0.005103587 0.048834767

encoder.2.0.bias f4 [98]
000000 6d ec 4a bc e3 33 a6 3f 4c 9e 50 40 a8 56 dd bf
       -0.01238547 1.2984585 3.2596617 -1.729207
000010 4a 44 67 3f 78 a9 19 3f 70 35 77 3d 43 d0 71 c0
       0.90338576 0.60024214 0.060353696 -3.7783363
000020 c5 27 bb bf 91 af 97 3f 31 32 d8 3f cf 24 16 3f
       -1.4621512 1.1850454 1.6890317 0.58649915
000030 63 a2 e0 bc 2a 2e 31 3c 04 17 df bc ee 26 c4 bf
       -0.027421182 0.010814229 -0.027232654 -1.532438
000040 e9 83 e7 bf 5c 81 60 40 f4 2f aa bf d5 a0 0e 40
       -1.8087131 3.5078955 -1.3295884 2.2285664
000050 88 4d fd be 78 6e 3a 3f 18 b8 59 bf b2 d4 1d 40
       -0.49473214 0.7282481 -0.8504653 2.466107
000060 99 61 6d 3d 22 fe 5c bf 1b ae a5 3d 51 8c 0d c0
       0.057954405 -0.86325276 0.080898486 -2.2116892
000070 aa 41 54 3f 6a 9c 45 be e3 0f 1e 3f 81 4d 25 bf
       0.82912695 -0.19297948 0.6174299 -0.64571387
000080 68 61 e8 3c 02 92 ff 3f d8 51 44 be 67 0c 44 40
       0.02836676 1.9966433 -0.19171846 3.063257
000090 6a 03 9b bd 60 a7 62 3e 48 97 5c bd f2 32 99 be
       -0.075690106 0.22134161 -0.05385521 -0.2992168
0000a0 45 7f 03 be 1e 04 ff be 5b 0d 3f c0 8b 49 25 40
       -0.12841518 -0.4980783 -2.9851902 2.5826137
0000b0 bc aa ab 3f b3 af 39 bf 31 74 08 3f c2 82 95 3f
       1.3411479 -0.7253372 0.53302294 1.1680529
0000c0 c2 ad 7f c0 b3 48 a4 3f b3 8d 21 3f c8 1a da bf
       -3.9949803 1.2834686 0.6310684 -1.7039423
0000d0 52 3b e5 3d 91 88 fa 3f ca f4 df bf 5c cf 09 40
       0.11192955 1.9572927 -1.7496579 2.1532812
0000e0 38 67 7a 3f 5d cb 7d 3f d1 cd ec 3f 6b 01 b8 bd
       0.9781375 0.9913843 1.850031 -0.089846455
0000f0 ba 5f ee bd c9 3d f8 be b9 85 d1 bf e7 1d 6f bf
       -0.11639352 -0.48484638 -1.6368934 -0.93405
000100 9f c4 72 40 f1 92 ce bc 6a 0a 49 c0 31 56 ec 3f
       3.7932508 -0.025216551 -3.1412606 1.8463804
000110 22 5b a2 3e 66 9d b0 3e 50 cd 90 bc 10 64 12 3f
       0.31710154 0.34495085 -0.017676026 0.57183933
000120 17 eb 87 bc e3 49 70 bf 40 b3 8e c0 ca a6 d0 3c
       -0.016591592 -0.9386274 -4.459381 0.025470156
000130 e8 dd 3b 40 c2 9e 46 c0 12 2d 9d c0 65 aa 3e 40
       2.935419 -3.1034398 -4.9117517 2.97915
000140 d9 80 cc 3e 97 63 37 40 24 12 25 40 97 dd c4 bd
       0.39942053 2.8654535 2.5792322 -0.096125774
000150 74 97 81 bd ec 75 b9 be 68 4f 32 bf 00 eb ae bf
       -0.063277155 -0.3622278 -0.69652414 -1.3665466
000160 cf 71 4a 3f aa f8 7d bc 9e 0b b1 be ee 7f cb bf
       0.7907991 -0.015501181 -0.34579176 -1.5898416
000170 95 47 2e 3c 15 f2 08 40 59 c7 c5 bc d4 11 6d 3f
       0.010637184 2.1397755 -0.024142908 0.9260533
000180 08 db 11 c0 9d 0d 8e 3e
       -2.2789936 0.2774476

encoder.2.1.weight f4 [98]
000000 7b ac 4e bc af 1c 74 be 27 f9 c0 3d 04 7d 72 3e
       -0.012614365 -0.23839067 0.09422522 0.23680502
000010 44 03 e8 3d cc be 29 be 6e 82 07 3d 2f b7 91 3e
       0.11328748 -0.1657669 0.03308337 0.2846007
000020 1f d7 e6 3d e4 da 7f be db c2 79 be ff 40 9e be
       0.112715 -0.24985844 -0.24390738 -0.30908963
000030 cf 09 28 3b f0 bb 84 bb 0d 95 af 3b 4f 7e 22 3e
       0.0025640612 -0.004050724 0.0053583444 0.15868495
000040 b7 8d 41 3e 4a c2 e7 3d 84 cb 5c be 66 71 18 3e
       0.18901716 0.113163546 -0.2156201 0.14887008
000050 e5 86 32 3e 87 60 01 3e a8 1a 10 be 48 5f 1d be
       0.1743427 0.12634479 -0.14072669 -0.15368378
000060 14 96 3c 39 23 74 b4 bd 10 2b d8 b9 3d 22 8c 3e
       0.00017984986 -0.08811214 -0.00041230815 0.27369872
000070 5e 7a 21 be 86 50 f2 bd ea 2e a7 be 34 ac 02 be
       -0.15769336 -0.11831765 -0.3265298 -0.12761003
000080 9b a7 69 bc d6 f4 91 be c5 af 16 3e 27 ca 06 be
       -0.014261152 -0.28507107 0.14715488 -0.13163052
000090 f0 34 27 bb 85 1c b3 bd 16 96 50 3e 6a 0a b9 bd
       -0.002551373 -0.08745674 0.20369753 -0.090351894
0000a0 73 31 06 be 65 33 03 3e 9e de 43 3e 35 85 6e be
       -0.13104801 0.12812574 0.1912789 -0.23293002
0000b0 d3 b2 5c be 1f 54 09 3e cf d7 0a 3e d6 53 0e 3e
       -0.21552591 0.13410996 0.13558887 0.13899168
0000c0 6d c8 5e 3e f3 57 b0 3d ad 0b a1 bd 5f 9e a7 bd
       0.21756144 0.08610525 -0.07863555 -0.08184504
0000d0 27 3a e7 b8 10 08 4c be 6f c3 fc bd b5 ae b9 3e
       -0.0001102577 -0.1992495 -0.123419635 0.36266103
0000e0 ea e9 52 3e 9d fe 91 3e 08 9b 04 3e 49 40 50 bc
       0.20597044 0.28514567 0.12949765 -0.012710639
0000f0 f1 bf 16 be 4f 66 23 be eb 4d b8 3e f6 59 23 be
       -0.14721657 -0.15956996 0.35996947 -0.15952286
000100 67 b0 82 be ce e1 7c 3a 4b 12 94 be ff 5d fe be
       -0.2552521 0.00096466846 -0.28920206 -0.49681088
000110 1f e0 5c 3e 33 e2 bb bd da 7e 60 3a d0 c2 b1 3e
       0.2156987 -0.091740035 0.0008563824 0.34718943
000120 d1 45 0d 3b 91 ff b8 be ed ff 6e 3e 25 85 a4 bd
       0.0021556506 -0.36132482 0.23339815 -0.08033208
000130 68 e3 52 be 08 2b 85 3e 41 7c 56 3e e1 f5 81 3e
       -0.20594561 0.26009393 0.20945837 0.25382903
000140 14 87 84 be 3a 22 84 be 08 63 20 3e 31 2b 9b bd
       -0.25884306 -0.25807363 0.15662777 -0.075765975
000150 e8 b7 58 3e b4 e7 b6 bd 8f 1c b2 3d 2b b0 8f 3e
       0.21163905 -0.089309126 0.08696853 0.28064093
000160 0b ad 02 3e 7b df b5 3b 50 f3 cf bd 75 9d 1b 3e
       0.12761323 0.0055503226 -0.1015383 0.15196784
000170 19 ab 87 3a cb 74 35 3e 42 50 e1 3b d5 01 2b be
       0.0010350674 0.17720334 0.0068760226 -0.16699918
000180 53 0d 47 3e ef 6d 08 be
       0.19438677 -0.13323186
