models/best-vae_circ-ThreeGPP-genie-3gpp-16rx-3p.pt (torch, 247695 bytes, 44 tensors)

embed_data.weight f4 [26, 2, 1]
0.9732554 0.12012754 0.6278814 -1.0354956 -0.0013614078 0.004783332 -0.0043266313 0.0035390954
-0.35476446 0.25124106 0.0009176062 0.01458909 -0.010838775 -0.005767343 0.9569139 0.5354771
-0.00873921 -0.0071787015 0.012418065 -0.004249005 0.009866453 0.001115917 0.072763845 2.0639105
-0.005358591 -0.0035504668 -0.07954975 -0.6480179 0.005025434 -0.00765831 -0.6595235 0.8377299
0.4342934 -1.366087 0.2750242 0.42124406 0.00083078834 -0.009604736 0.6810905 0.5924213
0.7916489 0.72552174 1.4201983 -0.094032615 0.9009501 -1.179806 1.9073592 0.16711913
-0.0019407789 -0.0004053153 0.12515773 0.21456781
00000000: 4427 793f 6d05 f63d d6bc 203f 1f8b 84bf
00000010: 4471 b2ba 7fbd 9c3b 6ac6 8dbb 2bf0 673b
00000020: b0a3 b5be aba2 803e 828b 703a 1407 6f3c
00000030: 1e95 31bc fbfb bcbb 4ff8 743f 0715 093f
00000040: e72e 0fbc 503b ebbb 2475 4b3c 3d3b 8bbb
00000050: e7a6 213c f643 923a 3605 953d 1c17 0440
00000060: 1f97 afbb f3ae 68bb fbea a2bd 80e4 25bf
00000070: 65ac a43b 8ff2 fabb 88d6 28bf 7775 563f
00000080: b45b de3e f0db aebf f9cf 8c3e 4dad d73e
00000090: 43c9 593a 2f5d 1dbc f25b 2e3f eca8 173f
000000a0: 81a9 4a3f cbbb 393f 0fc9 b53f 2c94 c0bd
000000b0: aaa4 663f e203 97bf 5924 f43f 4721 2b3e
000000c0: bc61 feba 8080 d4b9 5929 003e aab7 5b3e

embed_data.bias f4 [26]
-1.518654 0.737462 -1.0579089 -0.9283244 -1.3091836 -0.0014305111 0.0030101454 0.59374076
-0.00075597956 -0.00050991075 -0.004105289 -0.5552632 0.0014566599 1.6467036 0.8689232 1.0392767
-1.6152393 0.60047674 0.0022674939 0.40002406 -1.8339993 1.2462343 1.0715975 1.859309
0.0064965757 0.7612793
00000000: 4163 c2bf 4fca 3c3f 8f69 87bf aba6 6dbf
00000010: 5493 a7bf fd7f bbba dc45 453b 65ff 173f
00000020: ee2c 46ba 88ab 05ba a985 86bb bb25 0ebf
00000030: 65ed be3a 2fc7 d23f c071 5e3f 0507 853f
00000040: 29c0 cebf d8b8 193f 3c9a 143b f4cf cc3e
00000050: 7dc0 eabf 9b84 9f3f 1b2a 893f d6fd ed3f
00000060: 3ae1 d43b 33e3 423f

fc_mu_var.weight f4 [32, 79]
0.11503645 0.096371874 0.05213088 -0.027394624 -0.010770257 -0.9522578 0.015498652 0.056087203
-0.04054752 0.20912722 0.27773786 -0.15020989 0.017305562 0.063171506 0.28979826 -0.16643102
0.74720174 0.32398155 0.07270246 0.044726145 -0.012631117 -0.54118985 -0.0276462 -0.027127208
-0.22146887 -0.014760107 0.08640251 0.19269909 -0.047444597 0.6233462 0.07112717 0.005810829
-0.74014556 -1.0299098 -0.051837157 -0.49063832 3.7154486 0.058857687 0.95521384 0.64415634
-0.3767107 0.6458543 0.6546643 -0.13428178 -0.46199617 -0.5382124 -0.21913193 0.72781426
-0.17252375 0.3661428 -0.059762906 0.06641274 0.2858727 -0.033794522 -5.4170375 -0.03790346
-0.016559133 2.0179813 0.0799215 0.024916857 -0.45621523 -0.062149946 -0.1458275 -0.008681105
0.543181 -0.31138805 -0.8959807 -0.020291828 -0.6096643 -0.43043837 -1.6841804 0.3003021
-0.0072103594 0.977605 -0.7459234 0.077515155 -0.062287454 0.86736584 -0.51246643 0.009283875
0.0017092257 -0.051349055 0.0006805455 0.0066412874 -0.004910558 -0.0040780306 -0.024708439 0.0021754662
0.007934206 -0.0019409241 0.008233758 -0.00058509747 -0.0014960163 0.0021532676 -0.0008268599 0.0031751103
0.005308211 0.022667104 -0.032875426 -0.038584244 -0.0019455752 0.07893298 -0.009424724 -0.0019328895
-0.00019238047 -0.019854657 -0.0038558347 0.012004381 0.0009644881 0.06665654 0.0036694326 -0.004326646
-0.0008808965 -0.016329208 0.0025654684 0.0030042247 -0.0021607915 0.00022713975 -0.006843075 -0.0013705496
0.0038766942 0.00326185 -0.0022840146 0.00075227686 -0.00046971915 -0.0016243348 -1.33029625e-05 -0.0036416946
-0.005554632 -0.004389269 -0.00022993596 -0.001346917 0.024154596 0.0114282165 -0.0013066184 -0.003020799
0.02383192 0.0054352223 0.010066712 -0.0010075069 0.0047162846 -0.0075092944 -0.005704705 -0.002206359
0.0063016093 0.007812728 -0.010188371 0.0015116074 -0.0012296638 -0.009717232 -0.0018388218 -0.029029038
0.0023508167 -0.0032774208 0.0036729595 -0.005002672 -0.0008325199 0.001427265 -0.0055865194 0.0024576327
-0.04966722 0.004999894 -0.0017539696 -0.00023160398 -0.01948828 0.07592821 -0.03577367 -0.005597828
-0.0013318778 0.0012990445 0.005266082 0.005526785 0.0005882006 0.0041948543 -0.0031991762 0.004657687
0.009928483 0.015005976 0.017925363 0.0023005288 -0.00229927 0.003876028 -0.0027485583 -9.374842e-05
-0.039014604 0.0058784047 -0.008304306 0.0050620846 0.14498347 0.00632487 -0.0040016137 0.0026172432
-0.0070191245 -0.00072221324 -0.010768598 0.0054920088 0.00030668758 -0.005220323 0.0016562274 0.0038523977
-0.0014581202 0.0069385176 -0.00225409 -0.0040125344 -0.00038767385 -0.0018497016 0.0032307769 0.011242504
0.001618865 0.0067056753 -0.002684527 -0.03293327 -0.0007594117 0.0027242117 -0.009925038 0.007526706
0.0053152028 0.0030274135 0.0011018 -0.004300948 0.0025729714 -0.0048036575 0.0007165553 -0.005014384
-0.004057533 -0.0001950113 0.0012054911 -0.0034823418 -0.0039302856 0.0018845004 -5.4569387e-05 0.0015338651
0.0023122153 0.003728765 0.0044025667 0.0013688402 0.0040743747 0.23613785 -0.21988499 0.046686694
-0.1010249 -0.14624673 -0.5420948 0.030824935 0.061139327 0.021163765 -0.33643767 -0.4801754
0.32398176 0.035641227 0.88567764 -0.69230926 -0.13638322 -0.40413028 0.8821775 -0.008790661
00000000: 3b98 eb3d 9e5e c53d 3187 553d b16a e0bc
00000010: bb75 30bc 2bc7 73bf 0fee 7d3c b2bb 653d
00000020: 2815 26bd 7225 563e a833 8e3e 9fd0 19be
00000030: 65c4 8d3c 1060 813d 7060 943e e56c 2abe
00000040: 9d48 3f3f e9e0 a53e 07e5 943d c332 373d
00000050: bff2 4ebc 6b8b 0abf 497a e2bc e139 debc
00000060: bcc8 62be 60d4 71bc cdf3 b03d e952 453e
00000070: 4455 42bd 9e93 1f3f 1fab 913d c468 be3b
00000080: 2e7a 3dbf 16d4 83bf 3353 54bd f234 fbbe
00000090: e9c9 6d40 c214 713d e588 743f 6ee7 243f
000000a0: 3ae0 c0be b556 253f 1498 273f 2a81 09be
000000b0: c38a ecbe 4ac8 09bf 1f64 60be 0952 3a3f
000000c0: 11aa 30be 1277 bb3e f3c9 74bd 6703 883d
000000d0: e85d 923e 206c 0abd 5f58 adc0 a940 1bbd
000000e0: 05a7 87bc 9b26 0140 e2ad a33d 701e cc3c
000000f0: 0b95 e9be f190 7ebd ce53 15be 323b 0ebc
00000100: e90d 0b3f 416e 9fbe fe5e 65bf 0c3b a6bc
00000110: f612 1cbf 6b62 dcbe 3993 d7bf 32c1 993e
00000120: e144 ecbb 5244 7a3f d6f4 3ebf 44c0 9e3d
00000130: 2121 7fbd b00b 5e3f 0031 03bf 651b 183c
00000140: 1908 e03a 6353 52bd a366 323a 289f d93b
00000150: bfe8 a0bb 00a1 85bb 5a69 cabc 4492 0e3b
00000160: 79fe 013c 9b66 feba e2e6 063c 3a61 19ba
00000170: fa15 c4ba d61d 0d3b a1c1 58ba 8315 503b
00000180: 80f0 ad3b 5db0 b93c 62a8 06bd 830a 1ebd
00000190: ac02 ffba 9da7 a13d 286a 1abc 0259 fdba
000001a0: bdb9 49b9 3ca6 a2bc 2cb2 7cbb 06ae 443c
000001b0: b3d5 7c3a 3983 883d dd7a 703b 8ac6 8dbb
000001c0: f7eb 66ba d5c4 85bc 6b21 283b 87e2 443b
000001d0: 119c 0dbb 5d2c 6e39 e03b e0bb 03a4 b3ba
000001e0: 2310 7e3b c3c4 553b 68af 15bb 7234 453a
000001f0: a344 f6b9 a2e7 d4ba ca2f 5fb7 7fa9 6ebb
00000200: a103 b6bb dbd3 8fbb f71a 71b9 098b b0ba
00000210: dcdf c53c 6a3d 3b3c d742 abba 99f8 45bb
00000220: 293b c33c f319 b23b daee 243c 520e 84ba
00000230: 108b 9a3b 8710 f6bb 89ee babb 9098 10bb
00000240: bb7d ce3b f500 003c 20ed 26bc 2121 c63a
00000250: ac2c a1ba 0635 1fbc 9f04 f1ba 4ece edbc
00000260: 2910 1a3b ffc9 56bb 09b6 703b 74ed a3bb
00000270: 773d 5aba 1113 bb3a 1f0f b7bb 3c10 213b
00000280: db6f 4bbd 27d6 a33b 74e5 e5ba b8da 72b9
00000290: e3a5 9fbc 4080 9b3d 6987 12bd fc6d b7bb
000002a0: 6792 aeba b344 aa3a 198f ac3b 081a b53b
000002b0: 7931 1a3a fd74 893b 45a9 51bb 839f 983b
000002c0: 13ab 223c a0db 753c 36d8 923c 78c4 163b
000002d0: 59af 16bb f504 7e3b 2821 34bb cd9a c4b8
000002e0: c7cd 1fbd a29f c03b c90e 08bc d8df a53b
000002f0: 8c76 143e db40 cf3b f81f 83bb 0e86 2b3b
00000300: af00 e6bb e952 3dba c66e 30bc 4ff6 b33b
00000310: e9ca a039 3e0f abbb c515 d93a 8278 7c3b
00000320: 651e bfba 815c e33b 5bb9 13bb 947b 83bb
00000330: b440 cbb9 b071 f2ba 71bb 533b 7b32 383c
00000340: 1830 d43a 48bb db3b e4ee 2fbb 09e5 06bd
00000350: 4213 47ba b088 323b a09c 22bc 96a2 f63b
00000360: 272b ae3b 9267 463b 466a 903a f8ee 8cbb
00000370: 4c9f 283b 0068 9dbb 36d7 3b3a b44f a4bb
00000380: 0ef5 84bb f27b 4cb9 9201 9e3a 0038 64bb
00000390: a0c9 80bb 5701 f73a 6fe1 64b8 f90b c93a
000003a0: 8988 173b 4c5e 743b 6843 903b a86a b33a
000003b0: 5582 853b 1fce 713e 8829 61be 8c3a 3f3d
000003c0: 25e6 cebd b4c1 15be bac6 0abf 9384 fc3c
000003d0: 3b6d 7a3d a25f ad3c 8f41 acbe 8dd9 f5be
000003e0: f0e0 a53e 89fc 113d c5bb 623f 2e3b 31bf
000003f0: 0ba8 0bbe 2aea cebe 62d6 613f b406 10bc

fc_mu_var.bias f4 [32]
0.18004137 0.003133641 0.00019477161 -0.19566618 -0.0009808694 -0.021997498 0.24115594 0.006102736
0.0017778082 0.051086012 0.15872838 0.0074037863 -0.5432019 -0.0009826183 -0.0009122569 -0.14153107
-1.4469502 -0.0021368873 0.0013060337 -1.4462668 0.00014416047 -1.1786796 -0.8352251 0.0006418132
-0.00061183574 -2.207877 -1.6537995 8.704195e-05 -0.6958338 0.00044843866 -0.00073973543 -1.0826886
00000000: c45c 383e c65d 4d3b 9b3b 4c39 b75c 48be
00000010: 8490 80ba 1934 b4bc 95f1 763e 76f9 c73b
00000020: 5805 e93a 913f 513d b189 223e 769b f23b
00000030: 480f 0bbf 33cb 80ba 8624 6fba 85ed 10be
00000040: aa35 b9bf 050b 0cbb 382f ab3a 451f b9bf
00000050: c829 1739 f9de 96bf 50d1 55bf 5b3f 283a
00000060: 9a63 20ba db4d 0dc0 b4af d3bf 4b8a b638
00000070: 2a22 32bf 6b1c eb39 ceea 41ba 8a95 8abf

encoder.0.0.weight f4 [26, 26, 5]
-0.08800553 -2.1343994 0.80327404 1.3566421 -0.11669987 -0.01507369 0.08376956 -0.53399223
-0.74597126 0.25360116 0.048415862 0.21446297 -0.48440647 0.10752474 -0.0038349717 0.040151037
0.20640959 -0.6517104 0.31959602 -0.013077063 0.023878371 0.7441894 -0.14724173 -0.01061907
-0.24810943 0.021093242 -0.25626245 0.21301067 0.17892005 -0.025100913 -0.059380382 0.0023577474
0.08998224 -0.024361596 -0.115753904 -0.026086148 -2.4714904 0.99819463 1.8190407 -0.25227615
-0.02631712 -0.013957617 -0.1408414 0.011244325 0.047677185 0.015939897 -0.10666237 -0.003167231
0.05239257 -0.006631906 0.036875993 -0.032837328 0.0075843157 -0.07737351 0.033126656 -0.09672142
-1.4700868 1.008905 1.518031 -0.3234834 -0.042094413 0.052553985 -0.021522636 0.023034705
-0.015071183 -0.08070652 1.5064099 -0.9129966 -1.4933605 0.442526 -0.016517833 -0.2894647
0.5056623 -0.33994254 0.099279664 0.13384426 0.1652137 0.3570644 0.45306337 -0.25465393
-0.1255747 0.59304833 -0.689696 -0.9586537 0.30314106 0.09170632 -2.156779 1.0550582
1.8220454 -0.46898773 -0.020104552 0.19285648 0.06934184 -0.24750304 0.033153273 -0.015180523
-2.4277256 1.1033446 1.8526981 -0.38851464 -0.011245067 -2.427764 1.0581455 1.8276863
-0.36158258 -0.0073044696 -1.9736184 0.6165808 1.1181568 -0.03841065 0.045684364 -0.07146428
-0.4293913 -0.5798352 0.29317844 0.04041953 -2.3355372 0.7702015 1.3409466 -0.058545344
-0.080320984 0.035588045 -0.05597248 0.023220897 -0.029498411 0.106249414 -2.1241615 1.1424477
1.6322787 -0.4062244 0.04988989 0.07091946 -0.23180555 -0.6374052 0.22972353 -0.010281883
0.06834309 2.3364058 -2.2018447 -0.3543772 -0.041910242 -0.14146696 0.4712974 -0.17839664
-0.025823176 -0.033574034 -0.042427648 -0.15596905 0.3735231 -0.08119304 -0.029890463 0.007323643
-1.576934 1.9024158 0.17444801 0.0058131022 0.008990003 -0.35005102 0.40332392 -0.05396361
-0.03039755 -0.074301556 -0.05265732 -0.002293526 0.006163764 0.10460359 -0.026754605 -1.3652225
0.21945703 0.45219815 -0.030060133 -0.06076833 -0.064270176 -0.13417456 0.059718743 0.034414485
0.12019725 0.00836576 0.02746943 0.010802185 0.026360596 0.086610846 -0.035636578 0.016582007
-0.034076493 0.11012 0.0068483814 -2.631458 1.7997167 0.5037441 0.0064728674 -0.024249325
-0.00011141036 -0.060174968 -0.0484761 0.039320383 -0.13327001 2.4906633 -1.6584373 -0.5859644
0.007834405 0.037326567 0.74856675 -0.8977539 0.14910898 0.023865238 -0.024446191 -2.0682485
2.022552 0.37092605 -0.16564961 0.021283774 2.5449815 -2.1372898 -0.43682462 0.113955714
0.009938819 -2.1448832 1.1228321 0.5263301 -0.047117863 0.0014278991 0.20361891 -0.08596678
-0.05466789 0.08665353 0.0011137491 -1.7746626 0.6007199 0.55758995 -0.034869254 0.13914417
-1.814261 0.6773715 0.46347845 0.08283239 0.010946923 0.17656001 -1.0209349 0.23329303
-0.026424533 0.039459914 2.1885202 -2.182719 -0.3224897 0.10086291 0.050103705 -0.1990861
-0.7619861 0.1645588 -0.0108471 -0.0053964327 -0.088465214 -0.03070243 0.031652644 0.10065152
00000000: 3e3c b4bd 009a 08c0 5ea3 4d3f 73a6 ad3f
00000010: 5700 efbd a3f7 76bc 608f ab3d b7b3 08bf
00000020: f9f7 3ebf 03d8 813e b64f 463d 2e9c 5b3e
00000030: 2004 f8be ee35 dc3d 2654 7bbb 6a75 243d
00000040: 095d 533e 7ed6 26bf 17a2 a33e 2d41 56bc
00000050: 939c c33c 3283 3e3f 89c6 16be 9cfb 2dbc
00000060: 6610 7ebe bccb ac3c d534 83be 781f 5a3e
00000070: d136 373e 6ea0 cdbc d838 73bd 7084 1a3b
00000080: 9c48 b83d f891 c7bc 6210 edbd 9eb2 d5bc
00000090: e62c 1ec0 af89 7f3f 53d6 e83f 572a 81be
000000a0: 0097 d7bc 7dae 64bc ba38 10be 1e3a 383c
000000b0: 2749 433d 6394 823c cd71 dabd 5291 4fbb
000000c0: 9799 563d 7650 d9bb 480b 173d 6f80 06bd
000000d0: da85 f83b 0176 9ebd d1af 073d e115 c6bd
000000e0: ce2b bcbf cd23 813f d74e c23f 9e9f a5be
000000f0: 316b 2cbd d942 573d 3d50 b0bc 47b3 bc3c
00000100: 20ed 76bc 7649 a5bd 0ad2 c03f 25ba 69bf
00000110: 7026 bfbf c592 e23e 6850 87bc b834 94be
00000120: 1673 013f f30c aebe 2353 cb3d 780e 093e
00000130: c82d 293e 25d1 b63e ecf7 e73e 0062 82be
00000140: a796 00be 04d2 173f eb8f 30bf 546a 75bf
00000150: 4e35 9b3e 86d0 bb3d ab08 0ac0 260c 873f
00000160: c938 e93f 291f f0be 4db2 a4bc 2b7c 453e
00000170: 1803 8e3d 7071 7dbe bacb 073d bab7 78bc
00000180: db5f 1bc0 653a 8d3f 3625 ed3f 64eb c6be
00000190: 3b3d 38bc 7c60 1bc0 5071 873f a0f1 e93f
000001a0: 5a21 b9be 555a efbb 879f fcbf 3dd8 1d3f
000001b0: c31f 8f3f 7c54 1dbd 871f 3b3d dd5b 92bd
000001c0: 2dd9 dbbe 1470 14bf 7c1b 963e f38e 253d
000001d0: 7179 15c0 ed2b 453f 23a4 ab3f 3ecd 6fbd
000001e0: 547f a4bd c5c4 113d 6643 65bd c039 be3c
000001f0: a7a6 f1bc 4b99 d93d 43f2 07c0 ba3b 923f
00000200: 82ee d03f a5fc cfbe 5759 4c3d 393e 913d
00000210: 6f5e 6dbe fd2c 23bf a53c 6b3e 5875 28bc
00000220: 76f7 8b3d ac87 1540 06eb 0cc0 ee70 b5be
00000230: 13aa 2bbd b7dc 10be e54d f13e 9cad 36be
00000240: 208b d3bc ed84 09bd 9dc8 2dbd 5ab6 1fbe
00000250: 6b3e bf3e 8948 a6bd d8dc f4bc 2cfb ef3b
00000260: f9d8 c9bf 5c82 f33f 80a2 323e d67b be3b
00000270: ce4a 133c e339 b3be 7980 ce3e f208 5dbd
00000280: 4804 f9bc 6a2b 98bd 34af 57bd fb4e 16bb
00000290: 66f9 c93b 683a d63d 792c dbbc 9cbf aebf
000002a0: 58b9 603e 8486 e73e ab40 f6bc 36e8 78bd
000002b0: 15a0 83bd 0e65 09be a49b 743d 34f6 0c3d
000002c0: fa29 f63d 8a10 093c 9207 e13c a6fb 303c
000002d0: 2df2 d73c 0761 b13d a9f7 11bd fdd6 873c
000002e0: cb93 0bbd 9886 e13d 6368 e03b cf69 28c0
000002f0: 1e5d e63f 60f5 003f 591a d43b 85a6 c6bc
00000300: fba4 e9b8 077a 76bd e08e 46bd 690e 213d
00000310: ef77 08be 0767 1f40 ac47 d4bf c301 16bf
00000320: e05b 003c bee3 183d 12a2 3f3f 33d3 65bf
00000330: 06b0 183e 0881 c33c 6143 c8bc 2f5e 04c0
00000340: 7e71 0140 05ea bd3e 0da0 29be 4f5b ae3c
00000350: fae0 2240 5bc9 08c0 7aa7 dfbe 9d61 e93d
00000360: 6ed6 223c c445 09c0 f6b8 8f3f 92bd 063f
00000370: a9fe 40bd 5828 bb3a 7a81 503e 5a0f b0bd
00000380: 70eb 5fbd 6877 b13d 38fb 913a 2528 e3bf
00000390: c8c8 193f 37be 0e3f 10d3 0ebd cf7b 0e3e
000003a0: b439 e8bf 3868 2d3f 0c4d ed3e 07a4 a93d
000003b0: b95a 333c 26cc 343e ffad 82bf 5ee4 6e3e
000003c0: 4378 d8bc b8a0 213d b710 0c40 abb1 0bc0
000003d0: 5f1d a5be 3791 ce3d 8b39 4d3d 3add 4bbe
000003e0: 8511 43bf 1a82 283e 09b8 31bc 8fd4 b0bb
000003f0: 402d b5bd aa83 fbbc 34a6 013d 6222 ce3d

encoder.0.0.bias f4 [26]
-3.4678845 -2.8239024 1.377561 -0.071756706 -4.874066 3.1143568 0.51603484 -0.5004408
-0.047443435 0.013955443 -0.22458532 0.0018517387 0.7593567 -1.814901 -1.5690428 0.016854934
0.3965109 -0.6829557 0.29771215 2.6014767 1.6534476 0.09276169 -3.4480195 2.8960166
-4.849268 0.0063490714
00000000: d2f1 5dc0 d1ba 34c0 eb53 b03f 2ef5 92bd
00000010: 59f8 9bc0 9f51 4740 dc1a 043f e31c 00bf
00000020: 0c54 42bd 5fa5 643c b2f9 65be 0ab6 f23a
00000030: 3365 423f ad4e e8bf 65d6 c8bf 5c13 8a3c
00000040: 7a03 cb3e 2fd6 2ebf ba6d 983e 987e 2640
00000050: 2ca4 d33f d7f9 bd3d 5aac 5cc0 5658 3940
00000060: 342d 9bc0 df0b d03b

encoder.0.1.weight f4 [26]
-1.55179 -1.9720837 1.0117687 0.0007371185 -1.5303015 1.8581771 -1.3167397 -1.2416327
0.0007485997 -0.00018603858 -0.89422476 1.2296007 1.154913 -0.8349585 -1.8664412 -0.0050884583
-0.5212429 1.1214918 -1.5518266 -1.932364 0.8773816 0.0069671064 -0.9634463 1.527484
-1.7651427 -0.0012124532
00000000: 0ea1 c6bf 3d6d fcbf a381 813f 2f3b 413a
00000010: ebe0 c3bf bfd8 ed3f ed8a a8bf d2ed 9ebf
00000020: ad3d 443a 5a13 43b9 eaeb 64bf 8e63 9d3f
00000030: 30d4 933f d7bf 55bf 8ce7 eebf 15bd a6bb
00000040: 2d70 05bf 0b8d 8f3f 41a2 c6bf b457 f7bf
00000050: 159c 603f 534c e43b 6ba4 76bf 9984 c33f
00000060: 32f0 e1bf 2eeb 9eba

encoder.0.1.bias f4 [26]
-0.05331637 -0.047817748 0.19878735 -0.1080621 -0.009583785 -0.05978118 0.0066516907 0.61196923
-0.048796922 -0.036875673 0.18142177 0.7215854 0.7320338 -0.12836553 -0.053000674 -0.09920844
3.041629 0.5915359 0.57598245 0.5620232 0.20538579 -0.083106846 2.512025 -0.0319119
-0.6278484 -0.08148465
00000000: 4462 5abd 8bdc 43bd e98e 4b3e aa4f ddbd
00000010: 4f05 1dbc 1cdd 74bd 6df6 d93b 04aa 1c3f
00000020: 48df 47bd f20a 17bd a1c6 393e d2b9 383f
00000030: 9166 3b3f 4172 03be 3c17 59bd cb2d cbbd
00000040: 0daa 4240 e66e 173f 9673 133f c1e0 0f3f
00000050: a750 523e ec33 aabd 05c5 2040 0db6 02bd
00000060: acba 20bf 6de1 a6bd

encoder.0.1.running_mean f4 [26]
-4.2989883 -4.1537385 -0.88357824 0.42807037 -3.0923698 0.37879717 3.4655423 6.0087924
-0.06841513 0.59511906 -1.984417 -4.4859223 3.315144 -19.839634 -1.702118 -0.7154931
-25.31973 6.108322 0.4732226 -2.7792184 19.452139 0.92566794 20.87743 1.1200618
-1.2285368 0.4338464
00000000: 5091 89c0 6deb 84c0 2f32 62bf 0a2c db3e
00000010: 63e9 45c0 b4f1 c13e 72cb 5d40 0748 c040
00000020: 3b1d 8cbd b959 183f 6001 febf ad8c 8fc0
00000030: 522b 5440 92b7 9ec1 01df d9bf 8e2a 37bf
00000040: cf8e cac1 6077 c340 3c4a f23e b7de 31c0
00000050: fb9d 9b41 93f8 6c3f fa04 a741 2f5e 8f3f
00000060: b240 9dbf 1e21 de3e

encoder.0.1.running_var f4 [26]
359.16147 323.3046 1660.2351 0.9461486 279.66357 293.04233 289.09946 534.1052
0.26356322 0.18199104 873.7363 545.6615 926.1205 637.34344 342.97153 0.098110445
245.99384 363.97958 673.48035 780.95776 717.22546 0.3321407 252.29095 309.0831
841.7384 0.4282161
00000000: ab94 b343 fda6 a143 8687 cf44 cb36 723f
00000010: f0d4 8b43 6b85 9243 bb8c 9043 bc86 0544
00000020: c2f1 863e dc5b 3a3e 206f 5a44 566a 0844
00000030: b687 6744 fb55 1f44 5b7c ab43 21ee c83d
00000040: 6cfe 7543 63fd b543 be5e 2844 4c3d 4344
00000050: 6e4e 3344 590e aa3e 7c4a 7c43 a38a 9a43
00000060: 426f 5244 243f db3e

encoder.1.0.weight f4 [45, 26, 5]
0.4402969 0.526024 -0.16540913 -1.3551899 0.02941601 0.93919796 0.57960784 -3.4120488
-1.2673204 0.24216376 0.6043808 -2.056898 -3.84358 0.22441179 0.3080829 -0.05518982
-0.004821203 -0.05369469 0.098425746 -0.021709027 0.8939645 0.32009456 -1.5185641 -0.37105718
-0.2671248 0.46319738 0.3138998 -0.7969792 -0.01940777 -0.19096082 0.52100325 -0.07815266
0.21637554 -0.3366994 0.30652574 -0.3909681 -0.10748599 2.200799 2.3824077 -0.40905493
-0.060481817 -0.074676014 -0.03431182 -0.037005156 -0.04001214 0.0622089 0.029953051 -0.03978042
0.0011988797 0.009635753 -0.30401486 -0.67750615 0.7212463 -4.7848644 0.7965761 -0.24352016
0.008733118 0.40724295 1.6818007 -0.26259542 -1.6396934 -0.949349 0.154266 0.66021675
-0.25312376 1.5530045 0.84862536 -2.6966164 0.19078979 0.07128606 0.56269425 0.37659138
-2.7344055 -0.13734417 -0.003978462 0.071867265 0.04121321 0.08825483 -0.008985577 -0.0053031393
-2.1333177 -1.3141872 -2.0837796 0.065029316 0.62715006 -0.47838348 -0.39593422 -1.1064842
0.49591658 0.0075548165 0.73517704 0.3376652 -1.2847879 -0.186805 -0.06212528 -1.0165112
-0.64733404 0.8713233 1.7164322 0.15071847 0.76647425 0.48014316 -4.423191 -0.5622088
-0.0005904201 0.070772775 -0.038513612 0.052590612 -0.020257939 -0.057171635 -0.19022617 0.9405445
-3.831413 2.068168 -0.6969779 0.92155945 0.07079455 -4.0169897 0.1236127 0.0051913206
0.94362736 0.038133875 -0.7459022 -3.7102804 -0.100706324 0.038719185 0.08193511 -0.03533558
0.034466483 -0.07746888 -0.12310422 -0.11296704 -0.17039005 -0.12296303 -0.010233594 -0.092484534
-0.04493169 -0.040328056 -0.06538205 -0.01574886 -0.04124918 -0.061889835 -0.036976922 0.10514126
-0.055254832 0.0017564539 -0.009029976 0.07971101 -0.051951494 0.0011624665 -0.03165343 -0.13967922
-0.12754199 -0.008700456 0.058061913 -0.03744117 -0.11084264 -0.0054679313 -0.07486167 0.0025107737
-0.09499647 0.03688352 -0.0020075184 -0.05084468 -0.1358828 -0.05961048 0.0015552877 -0.0053993883
-0.06466492 0.099594586 0.0010959201 0.022989018 0.010486023 0.029822052 0.04370248 0.03630577
0.008276539 -0.019219188 -0.004599348 -0.04709935 -0.0047150496 -0.015442566 -0.06383994 -0.057400595
-0.04742255 -0.09187439 -0.09948238 -0.13094139 -0.036119513 -0.047894195 -0.036601506 -0.020382052
-0.003908711 -0.045847446 -0.028520113 -0.04302119 -0.09263182 -0.040193003 0.036216117 -0.017686253
-0.042861145 -0.091693684 -0.033532035 0.0765936 -0.011211309 0.035411205 0.018665818 0.042525176
-0.00053847 -0.0074888268 0.0171012 0.0055804346 -0.014827763 0.02476959 0.043071307 -0.095434435
-0.112478495 -0.06793929 0.0062027094 0.032311235 -0.026945198 -0.06238066 -0.034987345 -0.04943693
-0.03599645 -0.058677778 -0.0933412 -0.12647402 0.016191948 0.04989407 -0.11726487 0.05896556
-0.11206063 0.024895674 -0.016600123 0.06657254 -0.052255575 -0.06938653 0.047423054 0.038560186
-0.06524716 0.0011895928 0.03867729 -0.037252598 0.03435033 -0.20370468 -0.018213302 0.009002731
0.07830541 0.011561555 0.03511051 0.054458745 0.0016801528 -0.1065555 -0.054963548 -0.045007177
00000000: 986e e13e 82a9 063f 0361 29be dd76 adbf
00000010: d8f9 f03c 476f 703f 2e61 143f 025f 5ac0
00000020: 8e37 a2bf c7f9 773e b3b8 1a3f 38a4 03c0
00000030: 37fd 75c0 34cc 653e 0bbd 9d3e b80e 62bd
00000040: 2ffb 9dbb f7ee 5bbd 7093 c93d 21d7 b1bc
00000050: dcda 643f 6fe3 a33e 4f60 c2bf 35fb bdbe
00000060: 95c4 88be 3528 ed3e 79b7 a03e d406 4cbf
00000070: 0bfd 9ebc 3c8b 43be 7860 053f 800e a0bd
00000080: 8d91 5d3e dd63 acbe f1f0 9c3e f92c c8be
00000090: 9d21 dcbd e4d9 0c40 5e79 1840 a66f d1be
000000a0: c8bb 77bd bdef 98bd 8d8a 0cbd b892 17bd
000000b0: c5e3 23bd c2ce 7e3d 1a60 f53c cbf0 22bd
000000c0: ba23 9d3a 47df 1d3c d6a7 9bbe 0b71 2dbf
000000d0: 99a3 383f 9c1d 99c0 69ec 4b3f 595d 79be
000000e0: 5a15 0f3c 2682 d03e 3f45 d73f e872 86be
000000f0: 79e1 d1bf 8908 73bf e8f7 1d3e f703 293f
00000100: 7099 81be dac8 c63f 833f 593f 5d95 2cc0
00000110: 665e 433e 6dfe 913d bb0c 103f 96d0 c03e
00000120: 8000 2fc0 f3a3 0cbe c25d 82bb 252f 933d
00000130: 2fcf 283d f3be b43d 3e38 13bc f5c5 adbb
00000140: 4788 08c0 4937 a8bf a55c 05c0 172e 853d
00000150: e88c 203f aeee f4be e4b7 cabe 46a1 8dbf
00000160: c7e8 fd3e 658e f73b 9034 3c3f 74e2 ac3e
00000170: ee73 a4bf cf49 3fbe 1477 7ebd 0a1d 82bf
00000180: afb7 25bf 0b0f 5f3f 0db4 db3f f155 1a3e
00000190: a837 443f 53d5 f53e c88a 8dc0 eaec 0fbf
000001a0: 6cc6 1aba 51f1 903d 73c0 1dbd 4169 573d
000001b0: faf3 a5bc ce2c 6abd a6ca 42be 86c7 703f
000001c0: df35 75c0 dd5c 0440 256d 32bf 52eb 6b3f
000001d0: bcfc 903d 2e8b 80c0 a828 fd3d f41b aa3b
000001e0: 9091 713f 4432 1c3d 72f3 3ebf 3c75 6dc0
000001f0: 1e3f cebd 0298 1e3d 98cd a73d 0bbc 10bd
00000200: ba2c 0d3d 01a8 9ebd 111e fcbd 435b e7bd
00000210: bb7a 2ebe 0bd4 fbbd ceaa 27bc 8868 bdbd
00000220: 4b0a 38bd 082f 25bd 06e7 85bd c103 81bc
00000230: e6f4 28bd 3280 7dbd 1d75 17bd 4d54 d73d
00000240: e452 62bd d038 e63a 77f2 13bc 873f a33d
00000250: 17cb 54bd e75d 983a 07a7 01bd 1208 0fbe
00000260: 5e9a 02be 5b8c 0ebc 54d2 6d3d ea5b 19bd
00000270: 7701 e3bd 552c b3bb 1351 99bd cb8b 243b
00000280: 828d c2bd 2d13 173d 9290 03bb 8342 50bd
00000290: dc24 0bbe 1e2a 74bd ccda cb3a 5aed b0bb
000002a0: 0b6f 84bd 3ff8 cb3d faa4 8f3a 7753 bc3c
000002b0: 91cd 2b3c 604d f43c 5f01 333d 5cb5 143d
000002c0: 529a 073c 8f71 9dbc 21b6 96bb 3feb 40bd
000002d0: b480 9abb d102 7dbc 84be 82bd e31c 6bbd
000002e0: 263e 42bd a428 bcbd 6bbd cbbd 8015 06be
000002f0: 0ef2 13bd b42c 44bd 76eb 15bd 43f8 a6bc
00000300: a514 80bb 88ca 3bbd 03a3 e9bc fd36 30bd
00000310: c0b5 bdbd 6ba1 24bd 5a57 143d c3e2 90bc
00000320: 2b8f 2fbd e6c9 bbbd e358 09bd 1bdd 9c3d
00000330: a3af 37bc 570b 113d 0fe9 983c e12e 2e3d
00000340: 1c28 0dba d564 f5bb d117 8c3c 14dc b63b
00000350: 25f0 72bc 98e9 ca3c 8a6b 303d 2173 c3bd
00000360: 205b e6bd c123 8bbd 1940 cb3b c958 043d
00000370: 2dbc dcbc dd82 7fbd e44e 0fbd 617e 4abd
00000380: 0371 13bd 1c58 70bd ac29 bfbd 6882 01be
00000390: faa4 843c b95d 4c3d 9028 f0bd df85 713d
000003a0: 0b80 e5bd 03f2 cb3c fbfc 87bc 2f57 883d
000003b0: f109 56bd 861a 8ebd ad3e 423d 49f1 1d3d
000003c0: 4ea0 85bd 1cec 9b3a 146c 1e3d 2e96 18bd
000003d0: eeb2 0c3d f697 50be 1034 95bc 3180 133c
000003e0: 965e a03d ad6c 3d3c 0ad0 0f3d 2210 5f3d
000003f0: 9338 dc3a c539 dabd 7521 61bd 7259 38bd

encoder.1.0.bias f4 [45]
-0.13160342 0.01777818 3.7223306 0.48801666 -0.056529738 2.4627879 -4.524767 5.069179
0.4509165 -1.6439215 -0.064857654 3.9624858 1.6979812 1.5782822 2.067737 2.0017467
6.506685 0.029355014 -0.7468007 0.016778864 -3.4688256 1.844491 -0.63826674 -5.9540057
-0.68246883 0.018799571 1.7513791 -2.855932 0.42531416 -0.018999102 -4.9326224 -0.025619179
0.0013157243 0.024352076 -1.0520248 -0.97331274 -0.024101878 -1.3316258 -0.6080808 -1.8178153
2.0088737 -1.6063267 -1.6253204 -0.21378937 2.19442
00000000: 0cc3 06be 8ca3 913c aa3a 6e40 52dd f93e
00000010: ba8b 67bd 519e 1d40 e4ca 90c0 b736 a240
00000020: 87de e63e 056c d2bf 17d4 84bd 5e99 7d40
00000030: 7357 d93f 2705 ca3f ce55 0440 9e1c 0040
00000040: c336 d040 ed79 f03c 552e 3fbf d473 893c
00000050: 3d01 5ec0 4818 ec3f 7365 23bf 3787 bec0
00000060: 47b6 2ebf 8f01 9a3c 312d e03f 97c7 36c0
00000070: c7c2 d93e 01a4 9bbc 0bd8 9dc0 50df d1bc
00000080: 6274 ac3a 017e c73c c0a8 86bf 062b 79bf
00000090: 4d71 c5bc b772 aabf 2fab 1bbf 2cae e8bf
000000a0: 6391 0040 1d9c cdbf 800a d0bf 9aeb 5abe
000000b0: 6171 0c40

encoder.1.1.weight f4 [45]
0.474517 0.00631486 1.1919321 0.53477955 -0.010415762 -0.50899476 -1.4051067 1.3219972
1.055467 -1.340294 0.006404562 1.1135477 1.2704629 -1.0937477 1.1034873 1.1243482
0.62522155 -0.003753193 -0.47104058 -0.003223424 -1.1491424 1.1776907 -1.0736339 -1.3411092
-1.2193063 -0.0007911921 1.0113362 -0.53017116 0.3475424 0.0026842933 -1.0848458 0.001161838
0.0015918016 0.000805469 1.356659 -0.3885915 -0.0024902185 -1.7830942 -1.2141533 -1.0810988
1.2166127 -1.0706023 0.32282305 0.80046785 1.1888678
00000000: e4f3 f23e e3ec ce3b 3b91 983f 50e7 083f
00000010: dfa6 2abc 7b4d 02bf 89da b3bf 3437 a93f
00000020: 8b19 873f c18e abbf 5cdd d13b bb88 8e3f
00000030: 879e a23f edff 8bbf 123f 8d3f a4ea 8f3f
00000040: 850e 203f 21f8 75bb 3b2c f1be 1540 53bb
00000050: 1917 93bf 92be 963f d66c 89bf 77a9 abbf
00000060: 3b12 9cbf 0168 4fba 7773 813f 4cb9 07bf
00000070: 14f1 b13e f8ea 2f3b 3adc 8abf d048 983a
00000080: 00a4 d03a 1c26 533a 01a7 ad3f 77f5 c6be
00000090: ef32 23bb 6e3c e4bf 6069 9bbf 7261 8abf
000000a0: f7b9 9b3f 7f09 89bf 1049 a53e 76eb 4c3f
000000b0: d22c 983f

encoder.1.1.bias f4 [45]
-0.07780076 -0.056808528 -0.651841 1.684543 -0.14143871 2.1542933 -1.0207931 -1.0546637
-0.49231902 -0.6437348 -0.06506285 -0.53128546 -0.93558645 -0.6128503 -0.5077045 -0.38648424
2.8811939 -0.057268545 1.0658654 -0.032192983 -0.8107284 -0.9486212 -0.69121003 -0.9805752
-0.66636366 -0.09568938 -0.37488958 2.0911028 1.0970461 -0.020239057 -0.4760426 -0.019243866
-0.080551945 -0.016527522 -0.7158982 1.1659691 -0.12962855 -0.49363673 -0.81689227 -0.48557934
-0.7517852 -0.46192452 0.5433387 -0.098396845 -0.55092376
00000000: 0156 9fbd 0fb0 68bd 0ddf 26bf 1b9f d73f
00000010: 4fd5 10be f1df 0940 59a9 82bf 38ff 86bf
00000020: 3d11 fcbe cecb 24bf ac3f 85bd 5302 08bf
00000030: 9882 6fbf c2e3 1cbf ecf8 01bf 43e1 c5be
00000040: 7b65 3840 6c92 6abd 476e 883f cadc 03bd
00000050: e58b 4fbf d7d8 72bf 24f3 30bf fa06 7bbf
00000060: cf96 2abf cbf8 c3bd 87f1 bfbe a1d4 0540
00000070: 026c 8c3f 61cc a5bc dbbb f3be 50a5 9dbc
00000080: 6bf8 a4bd ba64 87bc 1b45 37bf 7a3e 953f
00000090: 59bd 04be f4bd fcbe da1f 51bf db9d f8be
000000a0: ff74 40bf 5f81 ecbe 3f18 0b3f 4984 c9bd
000000b0: 5709 0dbf

encoder.1.1.running_mean f4 [45]
-22.173523 -1.5128398 -25.320189 5.8580737 0.63835865 18.094921 -3.9834154 -12.218545
2.9059145 -3.1846552 0.17858686 -30.624344 11.784547 -23.488861 -21.316292 -37.929317
32.389057 -0.014400013 6.147692 0.107093476 14.038952 2.0852785 4.4986887 16.091625
-2.507959 -1.3906778 -1.7685002 -4.480887 25.837095 -1.1841779 45.257942 -0.46547124
0.783129 -1.033261 25.762314 -22.06355 0.6199735 23.285028 -13.596191 5.05543
8.065041 20.774675 3.7474718 -17.313835 -13.724404
00000000: 6063 b1c1 bca4 c1bf bf8f cac1 5775 bb40
00000010: 796b 233f 66c2 9041 47f0 7ec0 297f 43c1
00000020: 81fa 3940 64d1 4bc0 79df 363e a8fe f4c1
00000030: 818d 3c41 30e9 bbc1 c487 aac1 9fb7 17c2
00000040: 658e 0142 08ee 6bbc e5b9 c440 d353 db3d
00000050: 8c9f 6041 3475 0540 42f5 8f40 a6bb 8041
00000060: 6682 20c0 bb01 b2bf 375e e2bf 6d63 8fc0
00000070: 5fb2 ce41 2493 97bf 2208 3542 3f52 eebe
00000080: 247b 483f e541 84bf 3819 ce41 2782 b0c1
00000090: 95b6 1e3f bd47 ba41 008a 59c1 15c6 a140
000000a0: 680a 0141 8932 a641 94d6 6f40 bc82 8ac1
000000b0: 2997 5bc1

encoder.1.1.running_var f4 [45]
179.9151 0.8954403 316.67264 84.428925 0.4650571 32.188107 112.83757 133.10286
340.7398 554.44006 0.49200487 429.54718 209.99472 325.3837 403.2968 577.1208
31.531996 0.33384156 118.08044 0.2616547 142.45082 17.675735 185.22708 236.25941
275.3722 0.723217 318.32245 49.867905 205.11752 0.37879738 395.02124 0.31985113
0.49912933 0.1253474 415.33163 54.511406 0.4585004 635.5356 347.72937 392.94217
137.91518 407.92767 151.13443 333.86453 360.53012
00000000: 44ea 3343 933b 653f 1956 9e43 9cdb a842
00000010: f71b ee3e 9fc0 0042 d6ac e142 551a 0543
00000020: b25e aa43 2a9c 0a44 10e8 fb3e 0ac6 d643
00000030: a6fe 5143 1db1 a243 fea5 c943 bb47 1044
00000040: 8741 fc41 48ed aa3e 2f29 ec42 9bf7 853e
00000050: 6973 0e43 e867 8d41 223a 3943 6942 6c43
00000060: a4af 8943 c024 393f 4629 9f43 bc78 4742
00000070: 161e 4d43 bbf1 c13e b882 c543 87c3 a33e
00000080: e18d ff3e 125b 003e 73aa cf43 ae0b 5a42
00000090: 90c0 ea3e 47e2 1e44 5cdd ad43 9978 c443
000000a0: 49ea 0943 bef6 cb43 6a22 1743 a9ee a643
000000b0: db43 b443

encoder.2.0.weight f4 [79, 45, 5]
0.024007631 1.0956576 -1.0546273 2.0251136 0.078965865 -0.0049417843 0.08747644 -0.029441744
0.03440411 -0.031697102 0.026582379 -0.861429 0.44043934 0.97521275 -0.049993705 -0.014733935
0.9199071 0.45196828 -1.1219158 0.03538913 0.016505575 0.05236121 0.02512618 -0.05976695
-0.006536498 0.0025838115 -0.44919267 -1.4519854 -0.7215872 0.071875595 -0.042933162 0.052232537
-0.19363311 1.0783712 0.005107885 -0.0906555 1.558605 -2.0134614 1.3537618 0.04173541
0.05076 0.59928465 0.3309145 0.66572237 -0.01747042 -0.015299718 -0.06720101 0.6806302
2.0728035 0.014697418 -0.0033232372 -0.0038789634 0.067642696 -0.02341951 -0.07869197 0.06546114
-0.093299665 0.06884839 0.83929044 0.060835518 -0.047369413 0.8971728 -1.7099178 1.1853771
0.02122992 -0.0115050515 -1.8789395 -0.5516476 0.11434123 0.019285697 0.019460397 -1.1540155
0.934045 1.7970793 0.0031254664 -0.02161689 1.3378571 0.47289035 0.5618367 -0.034982033
0.07024326 -0.8923726 -0.8354655 -0.8121788 0.016911412 0.074739434 -0.005847352 -0.010930399
0.053107727 -0.063835956 -0.016481822 0.36219954 -0.0910201 1.3297868 -0.014808694 -0.08306461
0.03143068 0.04675154 0.022179846 0.030377036 0.052586343 -0.7887979 0.6814179 -0.61621934
-0.026842881 0.022973131 -0.056427173 -0.06626175 -0.36480132 0.088274576 -0.05692873 -0.16489945
-0.5288606 -0.5143164 -0.04255689 -0.048763923 -1.3447717 -0.42821515 -0.59874684 -0.04232816
-0.008079065 0.91821074 0.47283143 0.17080286 0.022578442 -0.0132659525 0.05963497 0.072823524
0.0062670573 0.04077224 0.042732395 -0.23628901 -1.555971 -0.39538345 -0.062688574 0.0029159274
-0.9947591 -0.986975 0.13228491 -0.118168645 0.067747876 1.3275138 -0.66042787 -0.7221884
-0.021858834 -0.038203366 -0.026248993 0.007071104 0.0027606026 -0.000815635 -0.004502723 -0.23512802
-0.26408565 -1.0942101 -0.05071741 0.032042854 -0.0497942 -0.12104546 0.025449121 0.020807339
-0.0018276641 0.005984014 -0.018766018 0.109208815 -0.07513864 0.0062462226 0.0038498675 -0.05617371
0.026162026 -0.034765106 -0.0035686274 0.15522344 0.26900223 -0.30314603 -0.019669926 0.023731846
0.78637266 0.37332636 0.7066752 0.027444724 0.156251 0.034353822 0.041694548 -0.009640856
-0.058920648 -0.038762446 -0.10187705 2.6866965 0.39774373 -0.0024548126 0.017541561 1.0754474
-1.2123523 1.0445185 0.008090656 0.003741191 1.2018073 -1.4682897 -0.13261962 -0.02895361
-0.07397651 0.34766984 1.0941936 -0.17530726 0.07529492 0.023627859 0.8927237 -1.0563025
1.1368034 -0.047924805 0.017174808 -1.0446963 -0.44118434 0.30018565 0.022584412 -0.05794316
1.7673973 0.010149714 -0.36066467 0.004534369 -0.051510375 0.018018883 1.5957564 0.11740964
-0.029250732 0.04307783 -1.5196981 -0.800005 -0.90632886 -0.0047660815 -0.014376421 0.06148597
-0.13109966 0.047812004 0.03360509 0.012936698 -0.47703007 -0.66680104 -1.0260113 -0.051190473
0.03227531 -0.7341644 0.6502994 0.23707053 0.0056470144 0.118119314 0.05138944 0.05981968
0.039442454 0.002739695 0.030965254 0.26895663 -0.252302 0.09803165 -0.03910427 -0.067139424
00000000: a7ab c43c 823e 8c3f 07fe 86bf 769b 0140
00000010: dbb8 a13d b1ee a1bb d926 b33d d02f f1bc
00000020: 53eb 0c3d d2d4 01bd 4ac3 d93c 9c86 5cbf
00000030: 4481 e13e 8ba7 793f 33c6 4cbd 9a66 71bc
00000040: 087f 6b3f 6368 e73e f09a 8fbf 31f4 103d
00000050: b336 873c b578 563d 6bd5 cd3c 30ce 74bd
00000060: 1f30 d6bb 2a55 293b 95fc e5be a8da b9bf
00000070: f0b9 38bf 8333 933d afda 2fbd c9f1 553d
00000080: c247 46be 1108 8a3f 0c60 a73b 97a9 b9bd
00000090: 5e80 c73f 8ddc 00c0 1148 ad3f c0f2 2a3d
000000a0: b8e9 4f3d b86a 193f a06d a93e c86c 2a3f
000000b0: 201e 8fbc abab 7abc afa0 89bd c83d 2e3f
000000c0: d0a8 0440 70cd 703c abca 59bb 3536 7ebb
000000d0: 4188 8a3d 46da bfbc 4129 a1bd 7d10 863d
000000e0: e513 bfbd 6200 8d3d bddb 563f aa2e 793d
000000f0: 6e06 42bd 1ead 653f 96de dabf 70ba 973f
00000100: 5fea ad3c af7f 3cbc 1781 f0bf c738 0dbf
00000110: bc2b ea3d 0afd 9d3c 696b 9f3c c8b6 93bf
00000120: 931d 6f3f b206 e63f a0d4 4c3b e715 b1bc
00000130: e73e ab3f af1e f23e 88d4 0f3f 5249 0fbd
00000140: b3db 8f3d 8872 64bf 11e1 55bf f3ea 4fbf
00000150: cd89 8a3c fd10 993d 259b bfbb 6b15 33bc
00000160: 7d87 593d 6dbc 82bd e304 87bc 3872 b93e
00000170: bf68 babd 7436 aa3f 2aa0 72bc c71d aabd
00000180: 75bd 003d 8b7e 3f3d 82b2 b53c 43d9 f83c
00000190: c764 573d a9ee 49bf 6771 2e3f 8dc0 1dbf
000001a0: 9ae5 dbbc 2632 bc3c 2e20 67bd 3eb4 87bd
000001b0: 3dc7 babe 4dc9 b43d 1a2e 69bd 67db 28be
000001c0: 6963 07bf 3daa 03bf 2250 2ebd aebc 47bd
000001d0: 7b21 acbf 043f dbbe 7947 19bf 4b60 2dbd
000001e0: 0e5e 04bc dc0f 6b3f f616 f23e f2e6 2e3e
000001f0: 6df6 b83c 7059 59bc cc43 743d 8024 953d
00000200: e35b cd3b cb00 273d 2a08 2f3d bff5 71be
00000210: 0f2a c7bf b36f cabe de62 80bd 2519 3f3b
00000220: 88a8 7ebf 65aa 7cbf b275 073e 6702 f2bd
00000230: 66bf 8a3d f9eb a93f cd11 29bf 57e1 38bf
00000240: 4c11 b3bc 227b 1cbd 2108 d7bc b8b4 e73b
00000250: 3aeb 343b 57d0 55ba 948b 93bb 66c5 70be
00000260: 3c36 87be 140f 8cbf 0fbd 4fbd 5e3f 033d
00000270: 01f5 4bbd afe6 f7bd ad7a d03c 2774 aa3c
00000280: 3b8e efba 8c15 c43b 31bb 99bc dfa8 df3d
00000290: 4ae2 99bd 1dad cc3b 0f4e 7c3b 6716 66bd
000002a0: bf51 d63c db65 0ebd a2df 69bb e5f2 1e3e
000002b0: a9ba 893e f535 9bbe d322 a1bc 4a69 c23c
000002c0: b84f 493f a224 bf3e aae8 343f c2d3 e03c
000002d0: 4300 203e 98b6 0c3d e7c7 2a3d aef4 1dbc
000002e0: c756 71bd 5fc5 1ebd eaa4 d0bd d6f2 2b40
000002f0: 11a5 cb3e ece0 20bb 52b3 8f3c 43a8 893f
00000300: 5c2e 9bbf c8b2 853f ac8e 043c c52e 753b
00000310: d2d4 993f ebf0 bbbf 70cd 07be 1f30 edbc
00000320: ff80 97bd c801 b23e 890e 8c3f bf83 33be
00000330: 3934 9a3d 368f c13c 8a89 643f ec34 87bf
00000340: c682 913f cd4c 44bd 2fb2 8c3c 9cb8 85bf
00000350: eae2 e1be efb1 993e f202 b93c cf55 6dbd
00000360: 133a e23f fc4a 263c 0aa9 b8be 0b95 943b
00000370: 8bfc 52bd 569c 933c bf41 cc3f 7774 f03d
00000380: 3b9f efbc 6172 303d 7885 c2bf 21cd 4cbf
00000390: 2b05 68bf ca2c 9cbb 158b 6bbc b6d8 7b3d
000003a0: fd3e 06be 85d6 433d 7ea5 093d 72f4 533c
000003b0: 493d f4be 79b3 2abf 5754 83bf 1aad 51bd
000003c0: 1e33 043d 33f2 3bbf 057a 263f 9ec2 723e
000003d0: 970a b93b 8ae8 f13d bc7d 523d 7b05 753d
000003e0: 698e 213d 748c 333b d8aa fd3c afb4 893e
000003f0: ba2d 81be d1c4 c83d cd2b 20bd 6580 89bd

encoder.2.0.bias f4 [79]
-0.57074827 -0.51551837 0.033573773 1.6504701 1.0649583 0.27016872 0.38451886 0.009752481
-0.002620477 -1.7409525 -0.6986481 0.42096135 -0.30603954 1.0234406 0.77133775 -0.2214742
-0.14135623 0.5653951 0.018215714 -0.026352981 -0.007611686 0.50594264 0.07081948 0.16951925
0.9730835 -1.113913 -0.015126382 -0.18415484 0.039758313 -1.2012832 -0.0030157636 0.4664422
1.6168486 0.7481704 -1.7845618 -0.567493 0.84832394 0.2365111 0.22758104 -0.17485926
0.2601103 1.525256 -0.68887436 -1.3272349 0.6080035 -0.8152877 -1.1148211 -0.9710558
-1.582779 -0.21959701 -0.43746945 0.9920827 -0.96633977 -0.06887034 0.057105705 -0.35042584
0.26200023 -0.009311354 0.76758224 -0.9564168 0.89976245 0.57089347 0.3223733 -0.2979461
-0.34699604 0.30857903 -1.8025311 -0.075413726 0.54021007 0.5526074 0.5100073 -0.3298064
0.3686185 1.5651587 0.6434078 -0.014675324 0.7855524 0.80147415 -0.43941638
00000000: 8f1c 12bf 03f9 03bf a784 093d 9b42 d33f
00000010: 8e50 883f 8e53 8a3e a8df c43e dfc8 1f3c
00000020: 4fbc 2bbb 88d7 debf 9ada 32bf 3f88 d73e
00000030: 37b1 9cbe 1a00 833f 6476 453f 22ca 62be
00000040: b0bf 10be bcbd 103f 1f39 953c 35e2 d7bc
00000050: 736b f9bb 7585 013f ce09 913d 7496 2d3e
00000060: 001c 793f b494 8ebf a5d4 77bc 1693 3cbe
00000070: 9dd9 223d a6c3 99bf 1ea4 45bb 83d1 ee3e
00000080: e5f4 ce3f 1888 3f3f 856c e4bf 3947 11bf
00000090: c22b 593f f72f 723e 010b 693e 4e0e 33be
000000a0: 2d2d 853e 973b c33f 125a 30bf d5e2 a9bf
000000b0: 1ea6 1b3f b2b6 50bf 75b2 8ebf 1d97 78bf
000000c0: 8198 cabf 0ade 60be fffb dfbe 22f9 7d3f
000000d0: 0b62 77bf e50b 8dbd ace7 693d 046b b3be
000000e0: e524 863e a68e 18bc 4580 443f bbd7 74bf
000000f0: d556 663f 1326 123f 1d0e a53e 648c 98be
00000100: 77a9 b1be 12fe 9d3e 57b9 e6bf 8372 9abd
00000110: 354b 0a3f ae77 0d3f d78f 023f 62dc a8be
00000120: 90bb bc3e 1f57 c83f 60b6 243f c570 70bc
00000130: f619 493f 692d 4d3f 2ffb e0be

encoder.2.1.weight f4 [79]
-0.2317543 0.23540792 0.00841895 0.42621946 0.21336979 -0.26000592 0.20062149 -0.0055766525
0.0047249356 -0.23534638 0.1856389 0.3193416 0.17323694 -0.32173648 0.24725954 -0.2530865
-0.43328512 0.24346684 0.0017291809 0.003297339 -0.0024269589 -0.2509904 0.0007810884 -0.2793992
0.3560345 0.15974693 -0.00030207736 -0.45057628 0.010226086 -0.46800396 -0.0006818884 0.37711614
-0.24795511 -0.19447146 -0.21825318 -0.4251867 0.90527993 -0.39491606 -0.19126964 -0.29157314
-0.24753407 0.30346113 0.5144571 0.29837784 -0.41879344 0.46505505 0.18050507 0.304576
-0.3094751 -0.2122888 -0.3054204 -0.5050792 0.21912758 -0.00047929777 -0.9006549 0.16033734
0.21029823 0.99208146 0.17187472 -0.32458603 0.13963014 0.20549387 0.28179318 -0.19751842
0.30781847 0.23789963 0.5503236 -0.19826221 -0.28343433 0.52437407 -0.68661416 0.17534493
-0.57788044 0.5405836 0.1779037 -0.39936966 0.35364234 0.21869665 0.22246672
00000000: 0051 6dbe c60e 713e a3ef 093c 7039 da3e
00000010: 9c7d 5a3e 7f1f 85be b86f 4d3e 5abc b6bb
00000020: a2d3 9a3b a4fe 70be 2018 3e3e be80 a33e
00000030: 0665 313e a5ba a4be 9b31 7d3e 8e94 81be
00000040: 8cd7 ddbe 5f4f 793e afa5 e23a 2b18 583b
00000050: 9d0d 1fbb d081 80be f5c1 4c3a 690d 8fbe
00000060: 274a b63e b394 233e 2360 9eb9 efb1 e6be
00000070: 508b 273c 379e efbe c2c0 32ba 5e15 c13e
00000080: f2e7 7dbe 8723 47be c37d 5fbe 12b2 d9be
00000090: 6dc0 673f 7032 cabe 30dc 43be 1349 95be
000000a0: 9279 7dbe 425f 9b3e 76b3 033f fbc4 983e
000000b0: 186c d6be b21b ee3e 52d6 383e 63f1 9b3e
000000c0: 8573 9ebe 3c62 59be 1060 9cbe df4c 01bf
000000d0: fb62 603e 424a fbb9 5291 66bf 792f 243e
000000e0: 6b58 573e 0df9 7d3f edff 2f3e 2430 a6be
000000f0: 34fb 0e3e fc6c 523e 3247 903e 4542 4abe
00000100: 629a 9d3e f69b 733e 02e2 0c3f 4005 4bbe
00000110: 4e1e 91be 613d 063f f2c5 2fbf 9f8d 333e
00000120: f9ef 13bf b063 0a3f 632c 363e 2e7a ccbe
00000130: 9c10 b53e 04f2 5f3e 51ce 633e

encoder.2.1.bias f4 [79]
0.027491888 0.14512894 -0.06541919 -0.38787684 0.13257396 0.61337334 -0.056478575 -0.029682584
-0.05163291 0.17201369 0.34156823 0.025171995 0.10237512 0.43196544 0.372323 0.21060452
-0.3208907 0.63076305 -0.057919126 -0.05926633 -0.01851885 0.36149725 -0.014477091 0.19698505
0.01697321 0.12662578 -0.019990658 0.21225668 -0.073218435 -0.010058845 -0.022047492 -0.3014731
0.2539847 0.5075416 -0.0036472622 -0.103442766 -1.3815933 -0.05346594 0.5162539 0.4155915
0.25974756 0.42906177 -0.19182117 -0.1446119 0.13055508 0.085643455 0.09919415 0.41281483
0.047549292 -0.0027967135 -0.10750418 -0.6027269 0.16248205 -0.01665279 -1.3373197 0.3689365
-0.031173376 -1.416293 0.08258323 -0.17673603 0.36837587 0.037138898 0.26628858 -0.008011325
0.27239388 0.14397492 -0.2739428 -0.09167427 0.43609616 -0.19013105 -0.8104407 0.18742247
-0.9498482 -0.16551653 0.4425763 -0.20402135 -0.14954442 0.5664049 0.31657472
00000000: ab36 e13c ae9c 143e 7ffa 85bd cb97 c6be
00000010: 78c1 073e 0906 1d3f 1456 67bd e428 f3bc
00000020: 087d 53bd 5b24 303e 08e2 ae3e 8035 ce3c
00000030: 0caa d13d 932a dd3e 1fa1 be3e b6a8 573e
00000040: c94b a4be b079 213f 9b3c 6dbd 40c1 72bd
00000050: d8b4 97bc 2b16 b93e 5231 6dbc 73b6 493e
00000060: 670b 8b3c 30aa 013e 73c3 a3bc d159 593e
00000070: 8cf3 95bd dbcd 24bc f19c b4bc af5a 9abe
00000080: 480a 823e 3fee 013f e806 6fbb cdd9 d3bd
00000090: 0dd8 b0bf 1aff 5abd 3729 043f 69c8 d43e
000000a0: a2fd 843e fcad db3e c56c 44be 2415 14be
000000b0: 3bb0 053e d665 af3d 4d26 cb3d 775c d33e
000000c0: 0cc3 423d 1149 37bb 272b dcbd 4f4c 1abf
000000d0: b261 263e 6f6b 88bc 4b2d abbf 3fe5 bc3e
000000e0: 4f5f ffbc 1749 b5bf 6621 a93d 4afa 34be
000000f0: c39b bc3e f51e 183d fa56 883e ef41 03bc
00000100: 3677 8b3e 296e 133e 3b42 8cbe b8bf bbbd
00000110: ff47 df3e b7b1 42be 0b79 4fbf adeb 3f3e
00000120: 4029 73bf 2a7d 29be 5c99 e23e f9ea 50be
00000130: 2c22 19be e9ff 103f 1516 a23e

encoder.2.1.running_mean f4 [79]
-7.764237 3.8241794 -0.42299122 5.0998545 -5.0759373 6.9774957 3.361316 0.046195507
-0.039911784 -0.61003584 1.8207976 -0.084440395 -13.595662 -4.726965 4.834189 1.9515189
6.7478395 8.643334 -0.28889972 -0.12651524 0.22556481 2.5846717 0.36335504 3.6322482
-0.28122652 -3.2570431 0.7270315 -8.311553 -0.1349871 3.1627486 -0.110384874 -11.51733
0.84956926 2.7234335 7.393207 5.4293427 -5.209077 1.5896481 -12.806658 -16.214928
-3.3344185 -2.8197937 -5.663021 0.06447248 1.1593022 -0.3181572 -4.252135 -0.2335678
-9.374167 -12.490092 2.8912396 4.3584986 1.6408015 -0.5750551 7.994817 4.9066734
-10.139291 -0.82258964 -5.6553802 5.015322 7.228972 0.27623692 -0.11829569 12.034755
11.936931 -0.25801682 -5.9056067 -1.6633266 -8.746049 -2.7000678 -4.224823 5.9338245
-0.43171558 2.9034245 5.8977275 13.675985 -15.9912 -19.096178 9.192038
00000000: a174 f8c0 5bbf 7440 4e92 d8be 0232 a340
00000010: 146e a2c0 a547 df40 cd1f 5740 8037 3d3d
00000020: 8a7a 23bd 4f2b 1cbf e50f e93f 16ef acbd
00000030: d587 59c1 4c43 97c0 adb1 9a40 5fcb f93f
00000040: 4dee d740 194b 0a41 aaea 93be 368d 01be
00000050: 76fa 663e 436b 2540 ac09 ba3e c176 6840
00000060: ecfc 8fbe 6573 50c0 bd1e 3a3f 1ffc 04c1
00000070: 0f3a 0abe 796a 4a40 7711 e2bd fc46 38c1
00000080: 5f7d 593f bc4c 2e40 2795 ec40 2dbd ad40
00000090: c2b0 a6c0 9779 cb3f 12e8 4cc1 2cb8 81c1
000000a0: 1d67 55c0 8077 34c0 7837 b5c0 260a 843d
000000b0: 0464 943f 80e5 a2be 7d11 88c0 662c 6fbe
000000c0: 97fc 15c1 6bd7 47c1 120a 3940 d278 8b40
000000d0: c905 d23f d036 13bf 8ad5 ff40 7803 9d40
000000e0: 893a 22c1 3c95 52bf e0f8 b4c0 857d a040
000000f0: bd53 e740 ed6e 8d3e 0345 f2bd 5b8e 4041
00000100: abfd 3e41 c81a 84be bbfa bcc0 e3e7 d4bf
00000110: d1ef 0bc1 e9cd 2cc0 c031 87c0 e4e1 bd40
00000120: d309 ddbe b5d1 3940 2fba bc40 d6d0 5a41
00000130: f5db 7fc1 f9c4 98c1 9612 1341

encoder.2.1.running_var f4 [79]
2.9983482 2.9190862 0.017889334 7.8027987 11.42196 2.135868 5.740333 0.0052239294
0.008035289 4.1342278 2.7490335 6.277289 6.043993 4.3799996 2.4412317 19.190132
3.932064 3.996254 0.011839971 0.0047200858 0.012737897 1.8568953 0.012148668 15.361783
4.6827083 4.2697725 0.0034681614 7.7663045 0.02167694 6.30809 0.009595248 3.2026398
3.1280618 2.035394 4.0324626 3.8828452 2.9208193 6.4165277 3.137069 2.0298023
5.072988 2.588606 5.0934305 4.967788 3.7070782 5.697527 1.4552654 3.5053792
6.8668013 2.1976895 1.7229382 6.836003 3.2442796 0.016278777 2.7364266 1.913106
5.814311 2.5360186 8.340358 3.0780442 2.0406365 1.9712547 11.771732 4.8921504
2.2765906 2.8914938 4.9365935 3.1400738 3.2002087 6.085796 2.4451709 2.9158785
1.0267217 5.810848 2.8937807 3.4875042 4.68411 1.4159493 3.0910182
00000000: f0e4 3f40 4fd2 3a40 a78c 923c 87b0 f940
00000010: 59c0 3641 10b2 0840 cfb0 b740 7f2d ab3b
00000020: 72a6 033c 984b 8440 2af0 2f40 8ddf c840
00000030: 6468 c140 f528 8c40 243d 1c40 6485 9941
00000040: f0a6 7b40 a0c2 7f40 70fc 413c f3aa 9a3b
00000050: 9db2 503c bfae ed3f 350b 473c ddc9 7541
00000060: bfd8 9540 faa1 8840 184a 633b 9185 f840
00000070: d793 b13c e0db c940 6335 1d3c 0df8 4c40
00000080: 2a32 4840 e543 0240 ef09 8140 8980 7840
00000090: b4ee 3a40 3254 cd40 bdc5 4840 48e8 0140
000000a0: eb55 a240 b9ab 2540 62fd a240 1ff8 9e40
000000b0: c540 6d40 2452 b640 2346 ba3f 2258 6040
000000c0: d6bc db40 f2a6 0c40 3d89 dc3f 89c0 da40
000000d0: 47a2 4f40 125b 853c 9d21 2f40 a8e0 f43f
000000e0: d60e ba40 214e 2240 1b72 0541 adfe 4440
000000f0: ca99 0240 1352 fc3f 0459 3c41 7f8c 9c40
00000100: a9b3 1140 3c0e 3940 93f8 9d40 f8f6 4840
00000110: 38d0 4c40 d7be c240 ae7d 1c40 c19d 3a40
00000120: 9e6b 833f 78f2 b940 b433 3940 4533 5f40
00000130: 3be4 9540 d43d b53f 3ed3 4540
