models/best-vae_circ_noisy-ThreeGPP-real-3gpp-8rx-3p.pt (torch, 140367 bytes, 44 tensors)

embed_data.weight f4 [21, 2, 1]
000000 c9 57 4c 3e 7e 4a 7c 3f 88 1a 1c 3f 8f 4e 33 be
       0.19955362 0.98551166 0.60977983 -0.17510436
000010 5a 4e d3 bc 03 2e d1 39 97 98 8e bb 43 5a 75 ba
       -0.025794197 0.00039897868 -0.004351686 -0.00093594583
000020 92 4f 48 bf a6 9d aa b9 4f 28 3f be 96 1b 2f be
       -0.78246415 -0.00032542384 -0.1866772 -0.17100367
000030 d0 6a 91 bc 89 3e 43 3c 18 b3 fd 3e 7d 5c 89 bf
       -0.017751127 0.011916765 0.495507 -1.073135
000040 53 66 12 bf 5d 91 2f bf b4 7c e9 be 51 db 37 be
       -0.57187384 -0.6858118 -0.45602953 -0.17954756
000050 2c e4 56 3f f1 3a 50 bd ff a5 43 be ea 30 23 3e
       0.8394191 -0.05083746 -0.19106291 0.15936628
000060 25 36 d1 be 81 7f 4f 3e b8 eb bf be 45 93 1f bd
       -0.40861621 0.20263483 -0.37484527 -0.038958807
000070 95 94 8b 3e 6f 56 53 3f eb 0a b7 be ac 1b 31 3f
       0.27261797 0.8255376 -0.35750517 0.6918285
000080 ab b6 61 bf 71 b8 1c 3e 96 d2 c8 be 29 ba 1e bf
       -0.88169354 0.15304734 -0.39223164 -0.6200281
000090 71 01 8c be 12 7c 3c 3f 65 3b a8 3e db 25 d4 3c
       -0.2734485 0.73626816 0.32857814 0.025896957
0000a0 58 ff 59 bd a4 fc c1 be
       -0.05322203 -0.37888062

embed_data.bias f4 [21]
000000 6b 48 99 be e7 96 b1 be c3 51 06 39 9d 6f 31 3c
       -0.29938063 -0.34685442 0.00012809694 0.010829833
000010 1e 41 a9 3d c2 5f d3 bc 0a f7 4b ba 18 4e 6d be
       0.08264373 -0.025802497 -0.0007780647 -0.23174322
000020 39 dc 10 bb db a8 8b 3f e0 35 8a 3f c4 d7 d1 3f
       -0.002210392 1.0910906 1.0797691 1.6393971
000030 02 20 1e 3f 12 e7 0b bf e9 1a 76 be 90 df 0f 3f
       0.6176759 -0.5464946 -0.24033703 0.56200504
000040 11 d7 af be 7b 7a 5e bd 49 04 c8 3d bb dc 92 3f
       -0.3434377 -0.054316025 0.09766442 1.1473612
000050 df 0c 06 3f
       0.5236339

fc_mu_var.weight f4 [32, 64]
000000 40 d1 b7 ba cb 38 21 3b f5 b4 4b 3a 73 9f 48 3b
       -0.0014024153 0.0024600502 0.00077708 0.0030612617
000010 a3 9e 2f 3b a0 67 2f bb 55 02 ba bd 79 2c 95 3c
       0.0026797436 -0.0026764646 -0.09082476 0.018209683
000020 8e 5d db b9 c2 da d3 ba d9 e8 ec 3a 0c e0 8c b9
       -0.0004184064 -0.0016163217 0.0018074765 -0.0002686981
000030 38 8c c8 b9 40 f2 a3 3c 14 ec c9 b8 5c b3 0e bd
       -0.00038251444 0.020012975 -9.6284e-05 -0.03483902
000040 4b 31 af 38 ee 76 26 3a cb 14 5c bc 19 92 1e ba
       8.353832e-05 0.00063501194 -0.013432692 -0.0006048992
000050 38 67 0b be ec 58 82 bd 31 51 86 bb 25 ea 10 3b
       -0.13613594 -0.06364617 -0.0040990342 0.0022112217
000060 3b ad 0d 3a 4e e2 f0 3a ac 2b ff 3c c2 dc 80 ba
       0.00054045365 0.0018377991 0.031148754 -0.0009831416
000070 54 df 81 3d 59 5e 16 3b 25 fa f7 3a b6 0c f5 ba
       0.063414246 0.002294442 0.0018919153 -0.0018695805
000080 19 85 db 39 21 d1 7a 3a f8 6c d4 3a 50 1c bb ba
       0.000418701 0.0009567906 0.0016206792 -0.0014275406
000090 89 a8 09 bd f4 86 28 b9 27 3e 1b ba 9d 2b 03 b9
       -0.033607993 -0.00016072002 -0.0005922042 -0.00012509381
0000a0 0d ea 66 bb dc 5b 04 3b 0b bc 9b 3a 9d 9b a6 3a
       -0.003523472 0.0020196354 0.0011881603 0.0012711171
0000b0 1f 59 50 3a 80 19 94 b9 52 80 2d ba 7d b9 ee ba
       0.00079478504 -0.0002824776 -0.00066185475 -0.0018213239
0000c0 12 cd 1a bb 1c 2d 2b 3b 34 5d 3a bb 18 93 33 ba
       -0.0023620767 0.0026119417 -0.00284369 -0.0006850227
0000d0 b7 fa 18 3a ae 88 ba b8 3f 2b 9e bb 0f fe 73 bb
       0.0005835699 -8.89463e-05 -0.0048269327 -0.0037230288
0000e0 b2 26 c5 ba 1c f4 6d 3a cd ed fb 3a b1 29 4e 3b
       -0.0015041439 0.00090772077 0.001922065 0.0031457955
0000f0 44 f4 3b 3b d8 bc d1 3c a0 31 61 bb 8d 87 32 3b
       0.002867953 0.025602743 -0.0034361854 0.002724144
000100 93 9c 92 3a fa 08 f4 39 29 96 04 ba e2 50 5e ba
       0.0011185579 0.00046545995 -0.0005057776 -0.00084806804
000110 a1 bb 03 3b 4c 98 97 3b 78 57 23 3b 35 55 37 bc
       0.002010085 0.0046263095 0.0024923962 -0.0111897485
000120 e6 ee 34 bb 58 33 03 bb 9b 77 99 ba 67 b3 55 bb
       -0.0027608215 -0.0020019617 -0.0011708619 -0.0032608153
000130 b4 b8 a8 b8 fb 33 9e 3b 19 f2 d3 ba d3 d3 a1 3c
       -8.045268e-05 0.004827974 -0.0016170173 0.019754326
000140 cf e6 16 3b 78 8c 6d 3b 25 f0 b3 bc 3b 3f 52 ba
       0.0023025756 0.0036247056 -0.021965096 -0.00080202863
000150 06 d2 9d bd 8f a7 8e bd ca 82 bd 3b ac 71 d5 3a
       -0.077060744 -0.06965553 0.0057834135 0.0016284487
000160 fd a1 1c 3b 28 31 e5 3a e9 24 94 bb 8d 2a 91 ba
       0.0023900263 0.0017485963 -0.0045210016 -0.0011075303
000170 cd 50 9d 3d 8c 60 7a 3a a8 0f c7 bb e9 64 b2 3a
       0.07681427 0.000955113 -0.0060748644 0.0013610396
000180 e2 83 27 3b 39 ff 21 3a 71 99 e5 3a 07 ce 85 ba
       0.0025560786 0.0006179694 0.0017517043 -0.0010208496
000190 7b e9 07 3d a9 dc 11 3a 09 6f 41 bb ce a5 4c bb
       0.03318165 0.0005564192 -0.0029515645 -0.0031226757
0001a0 1c c9 1e 3d 3b 68 1c bb 24 48 7a ba 5b b7 a9 bb
       0.03876601 -0.0023865837 -0.0009547493 -0.0051793284
0001b0 02 e1 7d 3b 21 c8 02 3b 3c 25 80 bb aa e2 82 ba
       0.0038738851 0.0019955712 -0.0039106887 -0.0009985764
0001c0 f6 d1 0f 3d 32 e1 67 b8 10 86 88 bb ba d0 8b ba
       0.035112344 -5.528442e-05 -0.004166372 -0.0010667064
0001d0 df cc bf bb 58 66 26 3b 0a 0e 09 bb fd 91 69 bb
       -0.00585328 0.0025390591 -0.002091291 -0.0035639994
0001e0 b9 37 c9 ba 38 a2 6d ba b8 cf 94 3b a0 9a 68 3b
       -0.001535169 -0.0009065005 0.0045413636 0.0035492554
0001f0 bd 4c b2 3b cb 83 93 bc ea 71 8e bb 18 3b cc 3b
       0.005441277 -0.01800718 -0.0043470757 0.0062326305
000200 74 93 c5 bb bc 45 45 bb 93 fa d8 3a 45 88 54 3b
       -0.0060295407 -0.003010138 0.0016554169 0.0032429856
000210 06 1f 6c b8 d9 c8 51 ba d8 d1 58 bc 0d 16 ca bd
       -5.6295677e-05 -0.0008002646 -0.013233624 -0.09867487
000220 2d c1 d7 ba f5 1e cd ba 98 60 d0 3a bb 3f ed 3a
       -0.0016460769 -0.0015649485 0.0015897928 0.0018100658
000230 ff be 5b ba 05 2b d8 bc 39 6a 83 3a cb 87 fd bb
       -0.00083826476 -0.0263877 0.0010026164 -0.007737135
000240 86 99 c4 bb 59 de 31 3a 97 71 6c 3b 0a 9d ed b9
       -0.0059997467 0.00067851465 0.0036078447 -0.00045321166
000250 65 c2 ae 3d 30 95 11 3d 02 67 1e bb 33 5d b2 3a
       0.085331716 0.035542667 -0.0024170284 0.0013608098
000260 c6 a9 06 bb e0 55 e6 3a c9 f0 1d bd 49 c6 8d ba
       -0.002054797 0.00175732 -0.03855971 -0.001081654
000270 a3 43 8b bd 40 e0 28 3b ae 93 3b 3b 13 74 32 b8
       -0.0680001 0.002576843 0.002862196 -4.254661e-05
000280 2f 16 02 3b 10 78 5d 3a 90 5c ff ba 08 0b c0 ba
       0.0019849648 0.00084483717 -0.0019482542 -0.0014651725
000290 e7 2a 39 bd 87 26 ba 3a de e1 12 3b 48 8c 96 3a
       -0.04520693 0.0014202156 0.002241246 0.0011485899
0002a0 e4 f0 12 bc 35 57 2d 3a 8e f7 46 ba 6a d5 b8 3a
       -0.008968566 0.0006612421 -0.0007589989 0.0014101688
0002b0 fe 06 cb b9 26 71 cd ba 5a d3 71 3b cd 77 a6 ba
       -0.00038724387 -0.001567398 0.0036899657 -0.0012700498
0002c0 a5 87 bf bd cd 6b 6f ba 88 71 43 3a b2 92 29 b9
       -0.09352044 -0.000913319 0.0007455577 -0.00016171744
0002d0 98 2d 60 3b ab af 6a 37 85 f7 8d ba 5e 94 c3 39
       0.0034206863 1.3988388e-05 -0.0010831213 0.0003730384
0002e0 46 31 ba ba b3 fd 93 3a 0b cc cc ba c0 1f 26 3a
       -0.0014205358 0.0011290818 -0.0015624774 0.00063371286
0002f0 03 87 42 ba b9 f7 b4 bc 12 84 75 b9 40 e1 1e 3a
       -0.0007420631 -0.02209078 -0.00023414221 0.00060607865
000300 49 47 0c bf 3f 4c 16 3f 60 c9 01 be 4f 23 04 bf
       -0.5479627 0.5871009 -0.12674475 -0.51616377
000310 67 a1 c0 be 1e 21 04 be 73 a5 bc 3c f3 a0 af 3d
       -0.3762314 -0.12903258 0.023028111 0.085756205
000320 99 21 2b 3f d3 fe 46 3f 3a 1f 2f bf 2d ca a8 be
       0.6684814 0.7773258 -0.6840702 -0.32966748
000330 bd f2 77 be 2f 3e 82 bd 2f b8 a9 3d 6b 4b b0 3c
       -0.24213691 -0.06359517 0.08287083 0.021520337
000340 65 cd d2 be 40 1a 38 3e a8 b5 e5 bc 7e a8 bc be
       -0.4117233 0.17978764 -0.028040722 -0.368473
000350 1f d0 89 bc f3 a2 2c 3d e5 78 0f 3f 20 d9 49 bf
       -0.016822873 0.042147588 0.56043845 -0.7884693
000360 d7 90 01 3f 91 37 b0 be a7 10 6a bd 59 c8 fe 3c
       0.50611633 -0.34417394 -0.057144787 0.031101393
000370 64 cf c8 bc 8e 16 08 bf 8c 6c 3e bf 35 f4 e9 3e
       -0.024512954 -0.53159416 -0.7438438 0.45694128
000380 53 1a 8a ba d9 50 69 be 59 de da 3c 68 c3 34 3f
       -0.001053641 -0.22784747 0.026717352 0.70610666
000390 c6 f7 e7 3c d2 0b 5e 3e 3d d7 3c bf dd ed ac 3d
       0.02831639 0.21684197 -0.7376593 0.08443806
0003a0 b7 06 2d bc e9 20 ad be 08 ab 53 bd ab 97 c2 bd
       -0.010560683 -0.3381417 -0.05167678 -0.095015846
0003b0 75 c1 71 3d c3 06 bc 3e 73 b9 a7 3e f1 c8 95 3e
       0.059022386 0.3672391 0.32758674 0.2925487
0003c0 e8 b0 a8 bc ce f5 c3 be 5e 48 d2 3e 6b 4a 81 3f
       -0.020592168 -0.38273472 0.41070837 1.0100836
0003d0 27 db f0 bd 0f 4c 5e 3e 27 49 b4 3e ae 18 12 be
       -0.1176055 0.21708702 0.3521206 -0.14267227
0003e0 52 6e 02 3f ce 2f 12 bf 64 63 c0 3c 6b f5 05 be
       0.50949585 -0.57104194 0.023484893 -0.13081901
0003f0 1e a2 df be 38 61 5f bb ad 53 c5 3d 92 24 cd be
       -0.43678373 -0.0034085046 0.096351005 -0.40066963

fc_mu_var.bias f4 [32]
000000 ee 3f 23 ba 72 d2 72 ba 2e 9f 81 3a be 19 25 be
       -0.0006227483 -0.0009262926 0.0009889358 -0.16123101
000010 d1 3d f3 ba 0d 7f 0b bb 52 fe 2e bb 52 00 18 39
       -0.0018557851 -0.0021285445 -0.002670188 0.00014495969
000020 38 0e 85 3a 12 09 10 ba ce da 8c 3a 6a c5 29 3a
       0.0010151332 -0.00054945156 0.0010746361 0.00064762554
000030 b0 08 38 ba 98 df 1b bc 90 a4 c8 ba 0d 5a 62 ba
       -0.00070203375 -0.009513758 -0.0015307833 -0.00086346344
000040 b9 89 a8 39 04 2d 3e 39 b2 1b 98 39 df 1d ec 3d
       0.00032146068 0.00018136582 0.00029012334 0.11529135
000050 02 41 42 b7 b8 1f 4f 3a 01 97 af 3a 34 db ab 39
       -1.1578437e-05 0.000790115 0.0013396443 0.0003277898
000060 61 a2 a5 38 8d f4 15 b9 1f 7c 5e 3a e0 46 81 3a
       7.8980585e-05 -0.0001430085 0.00084871234 0.0009863041
000070 89 ee cb 39 df f2 25 be 39 8c 3b b9 8c 9a a7 ba
       0.000388969 -0.16205929 -0.00017885947 -0.0012787147

encoder.0.0.weight f4 [21, 21, 4]
000000 ff c2 b6 3d 03 ac d7 bf 04 cc 1d 3f 4b 09 81 bd
       0.08923911 -1.6849369 0.6163943 -0.063006006
000010 2e 81 db 3e c8 6f d1 3e e6 d5 e3 be c0 66 99 be
       0.42871994 0.40905595 -0.4449913 -0.29961205
000020 59 bc 55 be 64 54 82 3d c1 94 d9 3c 0b 87 80 bd
       -0.2087263 0.063637525 0.02656019 -0.062757574
000030 ea 35 8e 3b d7 08 d9 3c ba eb 88 bd f1 d5 a5 bd
       0.004339923 0.026493473 -0.06685586 -0.08097447
000040 a4 30 b2 be 67 5f cf bd 92 db c9 3e 8f f3 d8 3c
       -0.34802735 -0.101256184 0.3942533 0.026483325
000050 c1 e6 4c be f9 45 0f 3f a4 10 ad bd eb a7 84 bd
       -0.200099 0.55966145 -0.084504396 -0.0647734
000060 ff 8b 87 bd 85 cc 07 be d0 61 d6 bd e6 03 2a bd
       -0.06618499 -0.13261612 -0.10467875 -0.041507624
000070 98 2d 34 3e 60 f5 98 3f a8 0c 40 bf 88 a5 09 bb
       0.17595518 1.1949883 -0.7501931 -0.0021003205
000080 eb 0b 0f be f5 e0 5a 3f 1d 6b 8d be d6 bd b1 bd
       -0.1396939 0.8549951 -0.27620783 -0.086787865
000090 74 9f 50 bf b6 2d 51 3e 32 20 7f 3d f3 83 05 3f
       -0.81493306 0.20427594 0.062286563 0.52154464
0000a0 cf 7c 10 be 28 07 33 3d 8c da b6 be 2d a7 ef 3e
       -0.1411011 0.043707997 -0.35713613 0.46807232
0000b0 79 7a 75 bf 44 8d 1e bf 6a 6f 17 3f 28 42 32 3f
       -0.95890003 -0.61934304 0.5915438 0.69632196
0000c0 e5 53 2b bf 98 93 20 bf 32 b6 1a 3f 74 09 bc 3e
       -0.6692489 -0.6272521 0.6043426 0.36725962
0000d0 09 34 23 3e 5e d0 16 bc 5b 2a 6e 3e 96 35 c1 be
       0.15937819 -0.009204952 0.23258345 -0.37736195
0000e0 47 67 0f 3e 57 61 bc bf a1 49 f7 3e e7 95 03 be
       0.14004241 -1.4717206 0.48298362 -0.12850152
0000f0 43 ec b3 be 80 e0 9e bf f5 2d 2b 3f cd fe 96 3e
       -0.3514119 -1.2412262 0.66867 0.29491273
000100 33 5d 3f be a1 be 5d be cb 60 ff 3e da e1 f7 bd
       -0.18687896 -0.2165475 0.49878535 -0.12103625
000110 0e 72 43 bb 83 c0 8c 3f c6 77 87 be 6d 05 af bd
       -0.002982262 1.099625 -0.26458567 -0.08545957
000120 cf 7b a6 bd 05 cd b4 bf 11 5b 44 3f 2e 05 2a 3d
       -0.08129083 -1.4125067 0.76701456 0.041508846
000130 23 e5 e2 be a8 e0 1d 3e 13 ee b6 be e4 0d 2b 3f
       -0.44315442 0.15417731 -0.3572851 0.6681807
000140 fd eb 8b be 96 77 cb 3f 77 b6 10 bf 36 c7 a0 3e
       -0.27328482 1.589587 -0.5652842 0.31401986
000150 7a 4d 9c bd e7 9c 9a bf f9 7c 77 3f 58 e7 c3 3d
       -0.07631965 -1.2079133 0.9667507 0.0956561
000160 28 cb 75 bc 6e a2 89 3e fe 57 45 bf 55 cf 57 3d
       -0.0150020495 0.26881737 -0.7708739 0.05268796
000170 75 2d 1d 3d 36 1a 98 bc 19 1a 28 be 42 21 90 b9
       0.03837343 -0.018567186 -0.16416205 -0.000274906
000180 b0 bc eb bc 8b 6e f3 3c ac d3 67 3d a1 b6 53 bd
       -0.028776497 0.029715797 0.05659835 -0.05168784
000190 a3 e1 b6 bb 6d 2c 8b 3d fe 90 df 3e 7b 09 69 3d
       -0.005581097 0.06795583 0.43665308 0.056893807
0001a0 29 80 03 3d b9 e0 1e 3f 8e da b1 bd b8 14 5d bc
       0.032104645 0.6206165 -0.08684264 -0.013493709
0001b0 34 47 4e 3c a6 71 ba bd 6d ba e5 bd 18 39 86 bd
       0.012590218 -0.09103708 -0.112171985 -0.065538585
0001c0 63 2a df 3d c9 b2 94 3f be fe b1 bf ad 7b c4 bd
       0.108967565 1.1617061 -1.3905866 -0.09593902
0001d0 34 ab 08 3d 2e 1b 6d 3f 36 92 d1 be 56 bf 82 bc
       0.033366397 0.926196 -0.40931863 -0.015960377
0001e0 16 26 b5 3c 68 db bf 3e e6 0e a7 3d c3 68 6f 3c
       0.022112887 0.3747208 0.081571385 0.0146123795
0001f0 ac b5 ae 3c 4d e3 87 3a b8 d6 22 bf 06 7d fc bc
       0.021326862 0.0010367424 -0.63608885 -0.030821335
000200 df 1a 25 3d d0 2f 0b bf 8f d8 45 3f e8 0a a0 3d
       0.04030883 -0.5436983 0.7728357 0.0781458
000210 5f fe 9d bd 8b 21 e4 be c9 0d 58 3f fa 3d f2 bb
       -0.07714533 -0.4455684 0.84396034 -0.007392642
000220 86 44 99 3c 9e 3c 16 3e 7f 6e d6 3e 7b 62 1e 3d
       0.018709432 0.14671561 0.41881177 0.038668137
000230 92 52 b4 bd 4e da 94 bf 64 fd 4a 3f 62 df 6b 3d
       -0.088048115 -1.1629121 0.79292893 0.05758608
000240 5f 0c ca bc dc da 88 bf dd 79 a0 3f 9b fa 6b 3d
       -0.024664102 -1.069179 1.253719 0.057612043
000250 25 8f 60 3c f3 2c 19 be 95 c7 2d 3f 81 e2 d1 3d
       0.013706003 -0.14958553 0.67882663 0.1024828
000260 96 e1 9a 3c 69 f6 89 3f ea ca 20 bf f7 58 81 3b
       0.018906396 1.0778323 -0.6280962 0.003947373
000270 56 0c de bd f5 f6 92 bf ea 18 93 3f 4b bb 4e 3d
       -0.10842197 -1.1481615 1.1491978 0.050471585
000280 b9 df 11 bc 7f ee e9 bd 01 17 00 bf 82 e6 f6 3b
       -0.008903437 -0.11422443 -0.500351 0.007534803
000290 a4 fd 67 3d 30 c2 95 3f c0 87 67 bf 79 09 96 bd
       0.056638375 1.1699886 -0.90441513 -0.073260255
0002a0 ff e5 05 3e c2 51 96 bb fd 23 80 be d9 3b 2c be
       0.13076018 -0.004587383 -0.25027457 -0.16819705
0002b0 d4 5a 5c be 90 cc e2 3f 9e 5a 1d bf c5 c3 a5 bd
       -0.21519023 1.7718678 -0.61466396 -0.08093981
0002c0 2f 7b 60 3b 8d 61 fb 3c 28 03 db bd 47 38 8d 3d
       0.003425311 0.030686164 -0.106939614 0.068955
0002d0 5a 87 70 bb 3b bc a5 3c 1e 69 cf 3d cd d7 05 3c
       -0.003670177 0.020231357 0.101274714 0.008169127
0002e0 cb bb 03 3e eb 66 f6 bf 42 7c 49 3f 79 aa 00 3e
       0.12864606 -1.9250158 0.7870523 0.1256503
0002f0 2f d7 fb 3c 1f a3 48 bf 12 0e 25 3f 22 ae c1 3d
       0.030742256 -0.78373903 0.64474595 0.09457041
000300 cf 90 2c 3d db d0 c8 bc 11 b6 83 3d ef 0d 9e 3c
       0.042130288 -0.024513653 0.06431211 0.019293753
000310 7f 50 ed bd 07 8c 4a 3f 72 0d 75 be 85 83 a2 3a
       -0.11587619 0.79119915 -0.2393091 0.0012398815
000320 d5 43 0a bd f0 f2 0a bf 70 a8 20 3f a1 26 0e 3e
       -0.033756096 -0.54276943 0.62757015 0.13881923
000330 d0 da af 3b 22 fc 9a bf 6c 25 4a 3f c2 ad 30 3d
       0.0053666607 -1.2108195 0.7896335 0.04313446
000340 84 e8 64 be 8e af fe 3f ba ba 3d bf 22 5b 82 bd
       -0.22354323 1.9897325 -0.7411305 -0.063650385
000350 01 2b 7d 3d d3 04 8f bf 7b 65 f9 3e f3 c0 a0 bd
       0.06180859 -1.1173347 0.48710236 -0.07849302
000360 07 d4 1a 3e cf 12 c1 bf eb 9d 09 3f 5a f9 59 3d
       0.15119945 -1.5083865 0.5375659 0.053216316
000370 90 41 fe 3d f2 a0 ca bf dc d9 36 3f dd 4b 80 3d
       0.12414849 -1.5830367 0.7142618 0.0626447
000380 2c 44 2f 3d 23 58 cc 3d e8 ca d7 be d4 1c f4 bd
       0.042789623 0.09977748 -0.42146993 -0.11919561
000390 43 e1 0c 3e 0c ac 2c bf 73 83 8b 3e 74 4f 76 3d
       0.13757806 -0.6745002 0.27248725 0.060134366
0003a0 a4 f8 52 3e 67 ab f5 bf 15 16 42 3f f1 94 83 3d
       0.20602661 -1.9192933 0.75814945 0.06424893
0003b0 44 e6 3d bd ed 9d d9 be ab d2 0e 3f 43 a6 ef 3d
       -0.046362177 -0.425033 0.55790204 0.11701634
0003c0 75 63 0a 3e 92 04 23 bf 94 48 da 3d cc 2c b5 bd
       0.13514502 -0.6367885 0.106583744 -0.08846435
0003d0 b0 65 0b be 27 1b cd 3f b4 f4 35 bf 45 ed 6a bd
       -0.1361301 1.6023911 -0.7107651 -0.057355184
0003e0 72 de 63 bc fa 3a 41 3d b6 32 86 3e 90 f6 03 3e
       -0.013908016 0.047175385 0.26210564 0.12887025
0003f0 df b0 f1 3e fd f6 4d bf 1b 64 19 bd 0d a9 0c be
       0.47205254 -0.80455 -0.037448984 -0.13736363

encoder.0.0.bias f4 [21]
000000 03 70 61 bc ad 63 ca 3e 36 ee 99 bb 2b 6d 0e 3e
       -0.013759616 0.39529172 -0.0046975864 0.13908832
000010 94 26 69 bb ef a9 02 3f 75 20 c6 3e ae 05 53 be
       -0.0035575973 0.5104055 0.38696638 -0.20607635
000020 7e e7 a6 3e 0e b3 64 bc 76 2f d4 3d b2 92 b4 bd
       0.3259849 -0.013958706 0.10360615 -0.088170424
000030 17 77 aa 3d f8 d1 24 3e ee 33 2a 3d 76 1e 96 3e
       0.08323496 0.16095722 0.04155343 0.29320115
000040 29 b7 eb 3d 14 b6 71 3d cb 48 81 ba e8 1a bd 39
       0.115095444 0.059011534 -0.0009863613 0.00036068936
000050 b7 1a 44 3e
       0.19150816

encoder.0.1.weight f4 [21]
000000 f3 90 de be 3d 13 99 bf 93 1b ab 3f ae df fe 3e
       -0.43469962 -1.1958996 1.336779 0.4978003
000010 1a 91 70 bf eb 12 91 bf f6 b5 52 bf 4f 9c 6c 3f
       -0.9397141 -1.1333898 -0.823089 0.9242601
000020 f5 9e 89 3f 69 93 70 3f 5b 7d 7c bf fc 42 89 3f
       1.0751635 0.9397493 -0.9862878 1.0723567
000030 cb d1 78 3f 70 35 8f 3f d7 b7 72 bf 77 b5 48 3f
       0.9719512 1.1188183 -0.9481177 0.78401893
000040 9f 91 a4 3f c8 28 54 3a 5f bc 88 bf b1 94 08 39
       1.285694 0.0008093235 -1.0682486 0.00013025363
000050 02 14 6f 3f
       0.93389904

encoder.0.1.bias f4 [21]
000000 a3 27 09 3f 22 47 dc 3b 71 14 38 bc b1 2b c1 3e
       0.53576106 0.006722347 -0.011235342 0.37728646
000010 aa 2f 97 bf 53 be 65 3c 56 5e b9 3d 1e 05 71 3c
       -1.1811421 0.014022428 0.09051196 0.014710693
000020 d1 c9 fa 3d d4 e6 8b bb 9a e1 86 bf 7c 67 fe 3d
       0.12245525 -0.00426946 -1.0537598 0.12422082
000030 b1 38 87 bf 8d 6a ce 3b 55 33 1d ba 2d 09 a9 3c
       -1.0564176 0.006299323 -0.0005996724 0.020634258
000040 c4 97 3d bb b5 d0 8b bd 81 f0 85 bf 29 3d 95 bc
       -0.002892957 -0.06826917 -1.0464021 -0.01821764
000050 03 7d e3 3c
       0.027769571

encoder.0.1.running_mean f4 [21]
000000 ba 64 8b be 16 37 ec 3d 48 d7 06 3f a5 0a b8 3f
       -0.27225286 0.11533944 0.52672243 1.4378248
000010 b2 a7 04 c1 3c fc d9 3f 96 80 a5 40 39 9f 2d bf
       -8.290941 1.7030101 5.1719465 -0.6782108
000020 4c 88 7e c0 3d 92 62 40 59 b3 02 c1 91 fe cf c0
       -3.977069 3.5401757 -8.168786 -6.499825
000030 ab d7 e2 40 2f c7 2c 3e ea 0f 96 bf e3 8a fe be
       7.0888267 0.16872858 -1.1723607 -0.49715337
000040 54 4b 0a 40 e3 4d 0f 3e fa a9 be c0 a6 bd cc be
       2.1608477 0.13994555 -5.958249 -0.3998844
000050 1f 5d 72 bf
       -0.9467334

encoder.0.1.running_var f4 [21]
000000 5f 3b 9b 43 fe 08 a8 43 5a 6f ce 43 db b1 b5 43
       310.46384 336.07025 412.86993 363.3895
000010 19 9f b4 42 90 ad a1 43 d8 6a 55 43 66 54 b1 43
       90.31074 323.35596 213.41736 354.65936
000020 58 0c 84 43 40 52 f7 43 b7 e6 c4 42 f3 6a 8a 43
       264.09644 494.64258 98.450615 276.83554
000030 88 62 cb 42 7b db d7 43 f2 ce 27 44 28 08 7f 43
       101.692444 431.7147 671.2335 255.03186
000040 24 93 96 43 99 59 da 3e 76 06 fb 42 27 40 c0 3e
       301.14954 0.42646483 125.51262 0.37548944
000050 ba 59 9d 43
       314.701

encoder.1.0.weight f4 [36, 21, 4]
000000 7f 52 0f 3d 0f fa 9d bb 9c 5d 32 3b 72 61 d5 b7
       0.034990784 -0.004821069 0.002721644 -2.5436955e-05
000010 33 23 ff bc 44 09 af 3d 0b fb e2 bc 27 65 fc 3c
       -0.031144714 0.08546689 -0.027707597 0.030809952
000020 33 17 a2 bd 4f 1d b1 3c 3f f3 bd 3c 87 ee 09 3b
       -0.07914581 0.02162042 0.023187278 0.0021046714
000030 4e 6e ba 3c bd 91 4f bd 10 76 8b bc b2 7d 54 bd
       0.022757675 -0.050676096 -0.01702407 -0.051877685
000040 5f 22 34 3d 1f 9c 54 bb c2 ab 16 3c 1c 21 cc bd
       0.04397809 -0.0032441688 0.009196224 -0.099672526
000050 62 3e f8 bc 96 9a 9b bd 33 24 a6 3c 2a ef 49 3c
       -0.030303184 -0.07597844 0.020280933 0.012325088
000060 15 31 dc 3c 14 c2 05 3c 3b 89 ee bd 30 4f 70 3d
       0.026878873 0.008163948 -0.116472684 0.05866927
000070 ec f4 16 bc bc 89 9e 3d 33 37 17 3d b5 10 04 3d
       -0.009213667 0.077411145 0.036917876 0.032242496
000080 f4 6e 33 3d 27 6a 41 bd 07 c9 e9 bc 8d 8c 93 3d
       0.043806985 -0.047220375 -0.02853824 0.07204542
000090 fd a7 f7 bb da 35 5c 3d f8 0d d2 3d 28 e6 48 3d
       -0.0075578676 0.053762294 0.102565706 0.04904762
0000a0 08 72 60 bc 22 8f a1 3c f7 57 89 3d ba dc da 3c
       -0.013699062 0.019721571 0.06706231 0.026716579
0000b0 c6 9a 9c 3b bb ac 3b 3d 9e 57 a1 bd b0 4e 35 bd
       0.0047791926 0.045819025 -0.0787804 -0.044264495
0000c0 e5 98 c2 3d 1b 43 ee 3d 1d 61 35 bc db 3b 94 bd
       0.095018186 0.11633893 -0.011070517 -0.07237979
0000d0 3a e0 e6 3a b7 e5 78 bc 71 66 9e 3d f3 3f 65 bd
       0.0017614432 -0.015191487 0.07734383 -0.05596919
0000e0 f0 93 ef 3a 90 11 a4 3d 9d 82 6d bd 7e 5a ca bb
       0.0018278342 0.08011162 -0.05798589 -0.0061753383
0000f0 ac e1 10 3d 52 47 51 bd f7 39 5a bd 81 b2 0e bd
       0.035371467 -0.051093407 -0.053277936 -0.034838203
000100 18 18 b6 bc 5d a4 1c 3d 28 36 31 bd a5 fa 60 3c
       -0.022228286 0.038242687 -0.043264538 0.013731633
000110 f8 79 38 bd df dc 10 3c f2 91 0a 3d 0f 89 4a bd
       -0.045038193 0.008841722 0.03383059 -0.049447116
000120 4e f5 ac bc cf 90 ba bd ea c2 e6 b9 ea 77 8b 3d
       -0.021113064 -0.09109651 -0.0004401424 0.06809981
000130 56 fb 13 ba e1 a5 86 bd 97 c8 1a bc 42 4e 79 3d
       -0.0005645057 -0.06574608 -0.009447238 0.060865648
000140 80 bc 37 bd ba 73 11 bd 8f 7e 87 bd d3 4b 2e 3d
       -0.044857502 -0.035510756 -0.06615936 0.04255278
000150 8a 83 6f 3d 08 6f 6c 3d c7 f1 a2 bc 0b a7 ce 3c
       0.058475055 0.057723075 -0.019890679 0.025226137
000160 8b 19 71 3c ad 35 71 bd 3a 68 c2 3c d1 2e 93 3c
       0.014715563 -0.05888908 0.02373134 0.01796666
000170 53 de 4e 3d 98 81 45 bd 30 3d c5 bc dc 80 ba bd
       0.050504994 -0.048219293 -0.024077028 -0.09106609
000180 eb 67 ce 3c 3f dc 1e 3d fa 0b 91 3d 77 3c 88 bd
       0.025196036 0.03878426 0.070823625 -0.06652158
000190 03 e6 42 3d 74 37 0c 3d 0a 5f b7 bc 5b 8d d2 bb
       0.047582638 0.03423257 -0.022384185 -0.0064255423
0001a0 86 53 0e 3c 23 49 2a bd 7f ec 2d bc 91 17 79 3c
       0.008686906 -0.041573655 -0.010615467 0.015203373
0001b0 4b 0c 01 bd c5 22 67 3d f2 bc 17 bd 5c 4d 2b 3d
       -0.031505864 0.056429643 -0.037045427 0.041821823
0001c0 84 66 2f bc b4 ad c6 bc d9 4a 39 3d 23 51 fc bc
       -0.010705594 -0.02425275 0.045237396 -0.030800408
0001d0 eb 6b a5 bc 03 42 79 bc eb a9 9c bd 92 46 a0 bc
       -0.02019306 -0.015213492 -0.07649597 -0.0195649
0001e0 a1 1d 62 bb 48 2f 81 3d fa 75 be 3d b1 87 b1 3a
       -0.0034502523 0.06307846 0.09299846 0.0013544468
0001f0 a6 a1 05 3d 6b de c8 3c 5a 2a b3 bd 03 6b 41 bd
       0.032624863 0.02452012 -0.08748312 -0.047221195
000200 d5 28 10 3d c1 4d 8e bc 0c ff 23 ba 9a 8a 6f bd
       0.03519519 -0.01737106 -0.00062559615 -0.05848179
000210 b5 9b 8f 3c d3 4c e5 3c 11 2b ea bd 4a be e0 3c
       0.017530302 0.027990734 -0.114339955 0.027434487
000220 a0 1e 2d bd a3 22 2d bd 0e 14 2e 3d ad 72 af 3b
       -0.042265534 -0.04226936 0.042499594 0.0053542466
000230 57 11 03 bd 04 f8 b3 bd d6 ec 00 3d 3d 2a 74 3c
       -0.03199896 -0.087875396 0.031475864 0.0149026485
000240 b8 0b 4a bd c1 e5 27 bd 5f 67 15 3c b1 ce c3 bc
       -0.049327582 -0.040990595 0.009118884 -0.02390227
000250 29 17 06 bd ee 38 49 3d b0 43 fd bb 79 76 b5 3c
       -0.03273693 0.049126558 -0.0077290162 0.022151219
000260 cd cc 48 bd e9 3a aa 3c 4d da e7 3c 9a 7c 23 bc
       -0.04902344 0.020780044 0.028302336 -0.009978438
000270 e0 3a 31 bd 07 82 62 bb 4b e7 56 3d 35 14 20 3d
       -0.04326904 -0.0034562366 0.052466672 0.03908177
000280 82 fa da 3c f3 37 db bb a2 e2 5c 3d 9b ce d7 3a
       0.02673078 -0.0066900193 0.05392707 0.0016464771
000290 71 41 83 bd d9 43 df 3a 8d 1a 07 3d 7b 96 a9 3c
       -0.06408966 0.001703377 0.032984305 0.020701637
0002a0 51 e8 12 bc 3a b7 a5 bd ce 83 4c bc b3 d1 a7 3d
       -0.008966521 -0.08091588 -0.012482597 0.08194294
0002b0 d7 58 cb 3c 98 9f 05 bd 1f b3 e9 3c bf c6 36 3e
       0.024822636 -0.032622904 0.028527794 0.17849253
0002c0 cf 97 e8 3d 73 8e a2 bd f1 e4 da 3d 0f 2c 75 3d
       0.1135708 -0.07937326 0.10688198 0.05985647
0002d0 c6 83 be bd 2c 49 2c 3d 82 41 08 3d 7d ec 8b bd
       -0.093024775 0.04206197 0.033265598 -0.06832216
0002e0 7a 09 9d 3c 97 24 8a 3d e5 c6 52 3c 14 43 23 3d
       0.019169558 0.0674526 0.012864803 0.039858893
0002f0 76 3a 98 3d e3 24 b1 3c 2f 36 98 bd cd ca e3 3c
       0.074330255 0.021624034 -0.0743221 0.027806664
000300 ed 3c 0e 3d 3c 01 e8 bc 8f 0b f1 3c a3 a8 e0 3c
       0.034726072 -0.028320901 0.029424457 0.027424162
000310 b4 0a 4d bd c7 a1 29 3d e6 6a 3f bd 50 3e 06 3e
       -0.050059035 0.04141405 -0.046732806 0.13109708
000320 85 b5 22 3d 0c 49 2d bd 73 5e a2 3d be e7 37 3d
       0.03972389 -0.04230599 0.07928171 0.04489874
000330 f6 02 17 3d 7c cd b9 bc 70 1c 27 3d a0 b3 d2 3d
       0.03686806 -0.02268099 0.040798604 0.10288167
000340 e4 e9 9a bd 8f 86 6e 3d e9 f2 92 3c 2c 05 69 3c
       -0.07564142 0.058233794 0.017938094 0.0142224245
000350 3f a4 13 3d 71 24 1e 3c 77 17 9a bd 12 fc 67 ba
       0.03604531 0.009652243 -0.07524007 -0.0008849512
000360 91 a3 ab 3d 00 fa 05 bd 2d 77 51 bd 7f f5 54 bc
       0.08380807 -0.03270912 -0.051139046 -0.012997984
000370 8d 57 bc 3d 11 c3 de bc 58 57 44 3d 3b 09 d3 3d
       0.091963865 -0.027192624 0.04793486 0.10304495
000380 3d b9 9a 3c ee e2 67 bd 1b d4 ec 3c ca a0 ff 3d
       0.018887157 -0.0566129 0.028909734 0.1248184
000390 9a 58 ee 3c 83 40 9b 3c e9 92 b1 3d 4f f7 3c 3d
       0.029094983 0.01895166 0.08670599 0.04613429
0003a0 08 92 82 bd 3b 17 1f bc 79 57 1a 3e ec 7e 00 bc
       -0.063755095 -0.009710128 0.1507243 -0.0078427605
0003b0 d7 a7 45 bd 32 78 c2 b7 70 d8 88 bc 5f a8 70 3c
       -0.048255768 -2.3182572e-05 -0.016704768 0.01468858
0003c0 f7 30 ce 3c 4e 76 33 3d 0e 53 0a bd 31 fc 22 3e
       0.025169833 0.043813996 -0.033770613 0.15916516
0003d0 4c ef a3 bc e8 51 37 bd ab cb 1e 3e d3 3a af 3d
       -0.020011567 -0.044755846 0.1550738 0.08556142
0003e0 10 39 8a 3d ab 95 b3 3b 06 96 c1 3c 73 0c 3b bd
       0.06749165 0.0054804883 0.023631107 -0.04566617
0003f0 fb 2f f0 bb d7 33 22 3d 0a 2c 8b 3d ce 0a 07 bd
       -0.0073299385 0.03960022 0.06795509 -0.03296929

encoder.1.0.bias f4 [36]
000000 20 8e f1 bd 2d 09 ab 3d d6 48 15 bb 3e 2f d7 3c
       -0.11794686 0.083513595 -0.002277901 0.026267644
000010 d2 7f 06 3d 6d fe 83 3d d8 8e d4 3c 40 cd f7 3c
       0.032836743 0.06445012 0.02594702 0.030249238
000020 41 2c 99 3c 1f 2a b1 3e fe 90 86 bd 40 c0 bc bd
       0.01869786 0.34602448 -0.06570624 -0.09216356
000030 11 35 89 bd f0 ea 63 be 48 3b 18 bf 08 1f fd 3d
       -0.06699575 -0.2225759 -0.59465456 0.12359434
000040 8c fe c9 3c 34 0f a3 bd ef 45 6c be 9f d5 76 bd
       0.02465751 -0.07961884 -0.23073553 -0.06026232
000050 cc b2 7e bd 25 ea 59 3c 7a 47 ed be 94 12 da bd
       -0.062182233 0.013300453 -0.46343595 -0.10648075
000060 0f 4e f8 3d de b2 50 3f 5e 96 64 bb 22 f2 0c 3f
       0.121242635 0.8152293 -0.0034879665 0.55056965
000070 1e dc 5b bc 13 16 23 3d 39 8d 0d be f7 7c b8 3e
       -0.013419179 0.039815973 -0.13823403 0.3603284
000080 80 1a da 3c bd f1 19 3f 83 54 94 3f 7b 89 dc be
       0.026623964 0.6013449 1.1588291 -0.4307364

encoder.1.1.weight f4 [36]
000000 c6 7b a2 3a a2 04 92 3b 19 a7 8d ba a1 de c6 3a
       0.0012396506 0.0044561187 -0.0010807245 0.001517255
000010 32 bb e5 3e ec 1a 38 bc 29 bd b4 3a 98 4a da 3a
       0.4486938 -0.011236887 0.0013789284 0.0016654311
000020 90 80 e9 3e 02 41 69 bf 56 fa 8f bb a8 60 15 3a
       0.45605898 -0.9111482 -0.004393856 0.0005698302
000030 e6 1f 21 3b 5b e5 62 bf 58 25 80 3f b4 bb a7 bc
       0.0024585663 -0.8863122 1.0011396 -0.020475246
000040 76 86 49 bb 3d 5d cd bb 87 4d 27 3f b9 5b c5 3b
       -0.003075031 -0.0062672184 0.6535267 0.006022897
000050 93 84 58 bb c2 ad 42 bb 42 c4 fa be 37 d8 f0 3e
       -0.0033038005 -0.0029705619 -0.48977858 0.4703996
000060 67 3a 7d bf 3b 58 00 bf 06 8e a1 ba 1e 43 8b bf
       -0.9891724 -0.5013463 -0.0012325651 -1.0879858
000070 92 f8 1d 3b e7 59 b7 ba 7a 9a 01 3f a8 6e 07 3f
       0.0024104458 -0.0013988585 0.5062634 0.52903223
000080 72 3b a9 39 de 4f eb 3e f2 08 0f bf 3a 23 6a bf
       0.00032278482 0.4595937 -0.55873024 -0.9146

encoder.1.1.bias f4 [36]
000000 38 b1 6c bd 28 c0 89 bd 16 1f d0 bc 6a d0 26 be
       -0.057786196 -0.06726104 -0.025405448 -0.16290441
000010 1c 18 3b bf 68 2d 63 bd dc a2 57 bd e9 c2 e9 bc
       -0.73083663 -0.055463225 -0.05264555 -0.028535323
000020 59 e5 27 3e 11 79 fc be 4b 15 15 bd 53 83 4a bd
       0.16396083 -0.49311116 -0.03639726 -0.049441647
000030 ac 2a dd bc f7 2d 01 bf 7d 3d e8 be 67 3b ba bd
       -0.026997887 -0.5046076 -0.45359412 -0.09093361
000040 09 b5 25 bd 9b b6 9b bd 49 94 07 3c 67 3c e2 bd
       -0.04045585 -0.076031886 0.0082751 -0.11046677
000050 08 5a 36 be c1 13 f5 bc 95 7b 3e be 17 1c 35 be
       -0.17807782 -0.029916646 -0.1860183 -0.17686497
000060 c5 51 12 bf ff a2 8e 3e 68 db df bc d9 8a 78 be
       -0.5715602 0.2785873 -0.0273263 -0.24271716
000070 b5 bb fd bc b0 44 a5 bc 08 d7 6f be 55 e7 8c 3e
       -0.030973295 -0.020174354 -0.23421872 0.27520242
000080 5f 03 ea bc b9 d1 5d be 5d 83 8c be b5 74 04 bf
       -0.02856606 -0.21662034 -0.27443972 -0.5174058

encoder.1.1.running_mean f4 [36]
000000 a1 97 f0 bd 94 b1 a3 3d 7d 8e 52 3e 21 f2 c3 be
       -0.11747671 0.07992855 0.20562167 -0.38270667
000010 59 fa b6 3e 55 59 dd 3e 72 ad 94 3e 6d c6 11 bd
       0.35737875 0.43232217 0.29038578 -0.035589624
000020 08 92 60 40 8f 3c 1c 40 27 22 cd 3e bc a0 98 3e
       3.508913 2.4411962 0.4006512 0.2981013
000030 28 c4 b4 be 5d 1d 02 40 8a 39 44 c0 38 22 08 3f
       -0.35305905 2.0330422 -3.066012 0.53177214
000040 9f 70 3d 3d 40 ef f2 3d d1 e2 9f c0 1f 20 9b 3e
       0.046249982 0.118620396 -4.9964375 0.30297944
000050 db 64 74 3e 5e 95 4c 3e e7 91 6f 3f c2 69 fa bf
       0.23866598 0.19978854 0.93582004 -1.9563525
000060 e5 66 48 40 3a 01 78 40 e7 25 bc bd 6d 99 50 40
       3.1312802 3.8750749 -0.09186917 3.2593644
000070 9d ec c0 bd 40 92 08 3e d0 2c 01 bf 40 91 53 c0
       -0.094201304 0.1333704 -0.50459003 -3.3057404
000080 1c 24 83 be 82 32 b1 3d 02 91 ac 3f d5 9f 13 40
       -0.25613487 0.08652212 1.3481753 2.3066304

encoder.1.1.running_var f4 [36]
000000 8f 83 43 3d 3a 67 27 3d 41 73 28 3e a0 cd 99 3e
       0.047732886 0.04086993 0.16450216 0.30039692
000010 03 5f e2 40 4b e8 84 3e a7 f6 cc 3e 16 5a 02 3e
       7.074098 0.25958475 0.4003193 0.12729678
000020 27 ff 34 41 80 34 43 41 11 ed ad 3e db 6d 91 3e
       11.312293 12.200317 0.3396993 0.28404126
000030 d1 fa e9 3d ca dc 22 41 bb a2 31 41 ff d6 5c 3e
       0.114247926 10.178904 11.102229 0.2156639
000040 78 0c b3 3d dc 7c 2d 3d b1 85 a9 41 ff 6a 5c 3e
       0.087426126 0.042355403 21.190279 0.21525191
000050 a5 66 30 3e 2f 3e c2 3d bc 78 40 40 fa b4 af 40
       0.17226656 0.09484517 3.007369 5.490842
000060 4a f8 2f 41 0d de 4f 41 75 81 a1 3d 45 c0 a7 41
       10.998117 12.991712 0.0788602 20.968882
000070 dd 8c 8b 3d ba 13 71 3d 7f d6 3d 40 18 d7 a6 41
       0.06813977 0.058856703 2.9662168 20.855026
000080 7e 34 08 3e b2 d2 52 40 03 db 3e 40 37 64 89 41
       0.13301274 3.2941098 2.9821174 17.173933

encoder.2.0.weight f4 [64, 36, 4]
000000 b3 06 a4 bc 3d 45 90 3c f7 ad 36 3d b0 27 63 bc
       -0.020022726 0.01761114 0.0445995 -0.013864443
000010 b0 f8 c2 bd 0e 7b bb 3d 4e f9 c4 3c 50 cd 76 3d
       -0.095200896 0.0915433 0.024044659 0.060254395
000020 3a 3f 4a bc 05 17 26 3d 03 ce 95 3c 06 83 be bd
       -0.012344176 0.040549297 0.01828671 -0.093023345
000030 40 9b e1 bb d9 87 d2 3c 8e 7a 33 3c 7a a5 e1 bc
       -0.0068849623 0.025699543 0.010954512 -0.027544726
000040 99 d3 97 3c be e5 b2 be 5d e7 1a 3f 5e 9a 9d bc
       0.018533515 -0.34940904 0.6050928 -0.019238647
000050 d7 1f cc 3c 32 00 08 bd 35 47 64 bc 80 30 a2 3c
       0.024917526 -0.03320331 -0.013932993 0.019798517
000060 5b 20 ae 3c 66 17 26 3c 56 6f 90 bb 36 5f b0 3d
       0.021255663 0.010137415 -0.0044078035 0.0861191
000070 1f a0 64 bd 96 b1 af 3d a1 ec 53 bd 28 08 81 bc
       -0.055816766 0.08578794 -0.05173934 -0.01575096
000080 3b e8 4d bb 0e da b5 3e 85 01 b9 3e 5a f8 28 bd
       -0.0031418938 0.35517925 0.36133972 -0.04125247
000090 c2 70 a4 3d 2f f5 10 3e cf 5e 03 3e dc 73 bf 3c
       0.08029319 0.1415603 0.12829135 0.023370676
0000a0 6f 57 e0 bc 51 10 9d 3d a9 9d 43 3d b6 48 1b 3a
       -0.027385442 0.07669128 0.04775778 0.00059236155
0000b0 9b ba ac bc 37 24 de bd 2b 7f 2d 3d 0a bb bc 3d
       -0.021085074 -0.10846751 0.042357605 0.09215362
0000c0 78 48 95 bb 76 cb 81 3d 91 c6 ff bc 86 b4 af bd
       -0.004555758 0.06337635 -0.031222614 -0.08579354
0000d0 b3 e7 5f 3d 2f dd d9 be c0 69 cf 3e 52 0f ce ba
       0.054664325 -0.42551562 0.40510368 -0.0015721119
0000e0 99 c9 91 bd 95 78 43 bf 80 58 11 3e b3 81 b3 bd
       -0.0711853 -0.7635587 0.14193916 -0.087649725
0000f0 1d e6 ef bc 64 73 e5 bc 1f 21 4b 3d b2 45 a7 3b
       -0.029284531 -0.028009124 0.049592134 0.005104744
000100 0c 52 24 bd f9 d7 5f 3c a3 36 35 3d dd 42 de bc
       -0.04011731 0.013662332 0.04424156 -0.027131492
000110 d0 f1 42 bc 9f 29 db 3c c8 cc ba 3b 93 e1 0b 3c
       -0.011898473 0.026753245 0.0057006814 0.008537668
000120 d6 b7 92 bd 73 53 87 be 61 5a 25 3f 03 30 65 3c
       -0.0716397 -0.26430854 0.6459103 0.013988498
000130 1b 53 97 bc 09 3a bb 3d 73 9a 61 3d f6 db 9b 3d
       -0.018472245 0.09141929 0.055078935 0.076103136
000140 57 23 ad 3d e5 a3 41 3d 01 00 a7 bd 06 15 3e bc
       0.08454006 0.047275443 -0.081542976 -0.011601692
000150 18 96 47 3d 89 02 eb bc 5c c7 ef bc b3 28 39 3c
       0.048727125 -0.028687732 -0.029269867 0.011301207
000160 a3 a7 0e 3d 5e b9 41 bf 15 7a ad be 75 08 67 bd
       0.03482784 -0.7567347 -0.33882204 -0.05640455
000170 a3 74 6f bc 83 e1 61 be 55 ef 02 bf 0a 2b 2e bd
       -0.014615211 -0.22058682 -0.5114644 -0.042521514
000180 fb 2f 0a 3d 3d fa d1 be 2b 24 e3 3f 8a dc 63 3a
       0.033737164 -0.4101123 1.7745413 0.00086922257
000190 c6 a9 25 bd d1 10 a1 be 2e 38 98 3e ab b2 43 bd
       -0.04044511 -0.31458142 0.29730362 -0.047777813
0001a0 56 d7 81 bc c4 d2 97 bc fb 62 e5 3d 2a c7 49 bd
       -0.01584975 -0.018533118 0.1120052 -0.049262203
0001b0 9d dc 9a bc a8 a9 61 3e a8 e0 1b 3e dd 8c 23 bd
       -0.018904025 0.22037375 0.15222418 -0.03992926
0001c0 71 47 9e bd b5 ab 55 bd b6 87 5e bd 65 28 5d bd
       -0.0772847 -0.052165706 -0.054328643 -0.0539936
0001d0 b2 b6 94 3c 28 7f 21 3d 87 60 c2 3b 13 07 89 bc
       0.018153522 0.039427906 0.005931917 -0.016727006
0001e0 ba ca 94 3c 21 93 c6 be e5 2b a8 be 45 49 9e 3c
       0.018163074 -0.38784125 -0.3284599 0.019322047
0001f0 a6 bf 21 3d e2 d6 2a bf 1c 5e 74 3e 35 be 82 bd
       0.03948941 -0.66734135 0.23864025 -0.06383935
000200 1c 97 10 bd 99 1b 11 bd 6b 73 93 bd 1d 5b 0b bd
       -0.03530036 -0.03542671 -0.071997486 -0.03402244
000210 bd c4 c7 bc 58 8d 04 bf be 6c 1a bf 47 10 87 3c
       -0.024385804 -0.51778173 -0.6032218 0.016487254
000220 a3 86 2b 3c 86 e1 05 bf bd bd a4 be 9d b9 e4 bd
       0.010469112 -0.52297246 -0.3217601 -0.111682154
000230 5b 00 29 3d 4f 19 7b bf 5a a1 8b 3e 68 62 7b 3c
       0.041260105 -0.9808549 0.2727154 0.015343286
000240 1e 6d 1d 3b 80 01 d0 3d 2d c2 05 3c 1a 77 c1 3b
       0.0024021338 0.10156536 0.008163971 0.0059040906
000250 ef 8b 11 3d e4 c6 84 ba 09 ca dc 3c 2b c6 d2 bd
       0.03553384 -0.0010130075 0.026951807 -0.10291704
000260 5d 41 fb bc 9c b3 b6 3c 34 46 6e 3d c6 92 2d bc
       -0.030670816 0.022302441 0.05817242 -0.010594076
000270 2c 63 c0 3d 06 1d 57 3b 23 52 62 bd db 41 7f 3c
       0.093939155 0.0032823696 -0.055254113 0.015579666
000280 15 dd 28 3d 16 e8 e5 3d 6d 97 ec 3e 58 23 6a 3c
       0.041226465 0.112259075 0.4620928 0.014290653
000290 4f 90 a6 bd fd c3 bf 3d 1e 84 9a 3d 45 d8 25 3d
       -0.081329934 0.09363554 0.075447306 0.040489454
0002a0 a2 c9 d7 bb c8 23 eb bd 9a 6d 94 bd ab f4 ab bc
       -0.006585316 -0.11481434 -0.07247467 -0.02099069
0002b0 78 15 f5 bd 22 e0 9f 3c cb 21 bc 3c be 41 1c 3c
       -0.119669855 0.019516055 0.022965332 0.0095371585
0002c0 c7 33 c0 3c 71 03 bf 3e 22 50 05 3c 5b b0 ad 3d
       0.02346219 0.37307313 0.008136781 0.08480903
0002d0 68 9d a7 3b 5f 7f 5e bf 88 91 05 40 47 8d cb 3c
       0.0051152 -0.869131 2.0870075 0.02484764
0002e0 d8 e3 da bd dc 51 f9 3c d8 71 37 bd 70 63 d8 3c
       -0.10687989 0.030434541 -0.044786304 0.026414603
0002f0 5c 4c 16 bc 3c 45 12 bc b9 5c de bd 5b 9d f4 bd
       -0.009173479 -0.00892764 -0.10857529 -0.11944076
000300 a8 73 b4 3c 0b 84 3d bc 22 7c 96 3c d5 15 59 3d
       0.022027805 -0.011567126 0.018369738 0.052999336
000310 03 94 2e bd d3 aa 15 bf 95 78 f7 3f 7b 15 bf 3c
       -0.042621624 -0.5846378 1.9333674 0.023325672
000320 1b 7b 06 3d 75 ad 21 be 2a 82 83 bf 95 5f 6e bc
       0.032832246 -0.15788825 -1.0274098 -0.014549156
000330 77 ac 8f ba 12 ba ae 3d 07 d9 ce bd 7e 26 b8 bd
       -0.0010961433 0.08531584 -0.100999884 -0.08991717
000340 52 40 e1 bd 64 ab 9a 3d a9 ee 37 bd 4d 4c 82 3c
       -0.10998596 0.075522214 -0.04490534 0.015905524
000350 2b d2 a1 bd d6 0e df ba 6e d4 b5 3d 90 d8 95 3d
       -0.079014145 -0.0017017971 0.08878408 0.07316697
000360 07 db 14 3b 9d 37 b7 be 68 74 cf be e2 6e 6c 3c
       0.0022713558 -0.35784617 -0.40518498 0.014430733
000370 b0 ec 65 3d 1f e7 82 bd c2 37 ba 3c 9b 3e e7 bc
       0.056133926 -0.06391739 0.022731666 -0.028228095
000380 b4 b7 82 bd 65 a3 60 bd 71 42 0d 3d 46 99 27 bd
       -0.06382695 -0.054843325 0.03448719 -0.040917657
000390 44 57 ab bd a7 6b ed 3d 30 a4 8b bc e1 f7 06 3d
       -0.08366254 0.11592799 -0.017046064 0.03295124
0003a0 a5 3f db ba d6 4a 0e be 04 5b f6 be a5 7e fe 3b
       -0.0016727342 -0.13895735 -0.48116314 0.007766562
0003b0 e5 6d 98 bc c8 d8 cd be b0 65 04 3f 61 ee 03 3c
       -0.01860709 -0.40204453 0.5171766 0.008052439
0003c0 aa 85 50 3c fa 02 8b bf 95 fe 8f be d0 f5 6a 3d
       0.0127271805 -1.0860283 -0.28123918 0.05736333
0003d0 88 21 2b bc 71 00 2b bf 57 52 f4 be 60 41 13 be
       -0.010445006 -0.6679755 -0.4771907 -0.14380407
0003e0 af b3 08 3c b6 0e dc bc 35 f7 55 bc a8 91 cf bd
       0.008343621 -0.026862483 -0.013059427 -0.101352036
0003f0 98 1e d5 3d 61 2c 97 3d b4 6a 24 bf 52 5d 6d bc
       0.10406226 0.073815115 -0.64225316 -0.014487581

encoder.2.0.bias f4 [64]
000000 95 59 8d 3e 33 fc 4a 3f 3d 2b 87 be 2c 1d 61 3c
       0.27607408 0.79291075 -0.26400176 0.013739865
000010 42 81 14 be 5c 95 0d be ae 86 85 3d b5 9d 50 bc
       -0.14502433 -0.13826507 0.06519829 -0.012732913
000020 54 c2 9e 3e 45 b4 dd 3e b9 75 de be 6c 74 c9 bd
       0.31007636 0.43301597 -0.4344919 -0.09836659
000030 79 47 ae 3e 6e a1 43 3c f7 2f 04 bf ad 5b 2c 3e
       0.34038904 0.011940343 -0.5163569 0.16831847
000040 70 f7 01 bb 50 ed 71 3e 93 15 f2 ba 11 1b eb 3d
       -0.0019831322 0.23625684 -0.0018469564 0.11479772
000050 f2 d7 11 3d cc 9a 06 3d d8 92 82 be f8 8f 64 3d
       0.035606332 0.03286247 -0.25502658 0.05580136
000060 80 61 bf 3e d7 3b 04 bd 1c 7d 37 3d 62 ec 5d be
       0.37379074 -0.03228363 0.044797048 -0.21672204
000070 38 53 d8 3c c0 d0 8b 3e 55 6e ac be a4 3e c8 bd
       0.02640687 0.273077 -0.33677927 -0.09777573
000080 6c 1e 0a bf f5 1e 15 3f 11 0b 07 bf 99 69 60 3e
       -0.5395267 0.5825036 -0.5275126 0.21915282
000090 b1 dd 3c 3d a0 a4 c8 bd 6a bb b2 be 19 95 1b 3e
       0.04610986 -0.09797025 -0.3490861 0.15193595
0000a0 27 c3 86 bc c4 a7 4b 3e 9b 9a f1 3d 4c 51 9f 3e
       -0.016450478 0.19888216 0.11797067 0.31116712
0000b0 aa 72 e1 bd 15 3a 36 3e be 13 7e bf 89 22 02 3f
       -0.110081986 0.17795594 -0.99248874 0.50833946
0000c0 cd 84 a1 3c 40 a4 0e be c1 e1 29 be 84 0b d1 3e
       0.019716645 -0.13929844 -0.16590025 0.40829098
0000d0 92 bc 8a 3e ca ea f6 3d 82 c7 68 be c0 a6 de 3c
       0.27096993 0.12056501 -0.22732356 0.027179122
0000e0 45 9c d2 bc 57 34 2c bf fe e4 9e 3d ba 41 ff 3e
       -0.02570928 -0.67267364 0.077585205 0.49854833
0000f0 0f 59 13 be b4 c3 67 bd f1 32 d2 be d7 44 5c bf
       -0.14389442 -0.05658312 -0.4105449 -0.8604254

encoder.2.1.weight f4 [64]
000000 f7 1c c7 be 17 8c d1 3e ed 04 37 bf 5d b2 cf 3e
       -0.38889286 0.40927193 -0.7149189 0.40565768
000010 a9 5d cb 3e cd 2c a8 be ed 44 7f bc eb 19 9e bc
       0.39719895 -0.3284668 -0.015580398 -0.019299468
000020 cb e5 c3 3e eb f8 ca 3e 0d d1 0d 3f 93 c4 b1 be
       0.38261256 0.39643034 0.5539711 -0.34720287
000030 4c e6 97 be e1 e1 19 3c 39 e5 a4 bf 6e 37 a7 bc
       -0.2966789 0.009392233 -1.2882453 -0.020412173
000040 34 b5 e3 3e 5a 02 a0 3e 35 19 84 bb 4a 2f ea be
       0.44474185 0.31251794 -0.004031325 -0.45739204
000050 1b 52 db 3a 87 4a 06 bb 29 de e7 3e 3f 48 e5 be
       0.0016732843 -0.00204912 0.45286682 -0.44781682
000060 4c 90 ab be ff 80 dc be b2 be 35 3b 29 a7 db be
       -0.33508527 -0.43067166 0.0027732071 -0.4290097
000070 43 69 47 ba 02 8b d7 be d8 bc df 3e 9c de 94 3e
       -0.0007606933 -0.42098242 0.43698764 0.29076087
000080 28 5c df 3e ed fd f3 3e 42 4b d5 be 11 17 b6 3e
       0.43624997 0.47654667 -0.4165898 0.35564473
000090 77 9a dd 39 05 61 36 3f f0 33 9a be 4b 80 91 be
       0.0004226749 0.7124179 -0.3011775 -0.28418192
0000a0 8b 9d b2 3b ae 67 a5 be 8c db ee 3e 17 29 fe be
       0.0054509095 -0.32305664 0.46651876 -0.49640724
0000b0 d5 cf 16 3f 30 c3 01 bf 4a c7 d0 be 46 57 21 bf
       0.58910877 -0.5068846 -0.40777045 -0.63023794
0000c0 11 de 85 3c c4 60 33 3e 2a bb fe 3e 14 49 ec 3e
       0.016341241 0.17517382 0.4975217 0.46149504
0000d0 5d ad fa be 9e 92 db 3e 0c f1 31 3f 40 c1 5a be
       -0.4896039 0.42885298 0.69508433 -0.21362782
0000e0 56 bf 02 3f 5b ab 8e 3e 49 1e 31 3f 2a ed ff 3e
       0.51073205 0.2786511 0.69186836 0.4998563
0000f0 ca 68 1d bf a2 49 e2 3a 45 45 c9 3e d5 8c 08 3f
       -0.6148802 0.0017264376 0.3931066 0.5333989

encoder.2.1.bias f4 [64]
000000 3e bd b9 bd d3 b5 98 3e cd e0 e8 be 0e ba c7 bd
       -0.09069298 0.2982622 -0.4548401 -0.09752284
000010 f9 e3 34 3e ed d6 81 bd ff 6d ab bd b5 27 5f bd
       0.1766509 -0.06339822 -0.083705895 -0.054481227
000020 1b 44 3e be 92 8a ee be 04 38 25 3d 13 3f 28 bd
       -0.18580668 -0.46590096 0.040336624 -0.041075777
000030 fc ef b2 3d 70 d3 a0 bd 71 8b d0 be 50 a6 0a bd
       0.0873718 -0.078528285 -0.40731385 -0.033850014
000040 25 92 85 3d 1b 4f 73 3d 56 10 e1 bc 04 dc 4a 3e
       0.065220155 0.059401613 -0.02747361 0.19810492
000050 3f be 98 bc 93 32 ae bd 5e cd 1f bf af a1 5e bd
       -0.018645404 -0.0850574 -0.6242274 -0.054353412
000060 df a5 38 3c b2 1a 28 3e 57 a7 19 bd f2 c6 58 3e
       0.0112700155 0.16416433 -0.037513103 0.21169642
000070 19 54 59 bd c5 4d 82 3e 65 0d 1c bf 3a 0e 38 3e
       -0.053058717 0.25449958 -0.6095794 0.17974177
000080 4b d2 b0 3d 1b 2d af be 2a 12 8e 3d ce cc 58 3e
       0.0863386 -0.342141 0.06937058 0.21171877
000090 54 b5 16 bd fa 58 91 3d b3 66 3c 3e c3 87 7c 3d
       -0.03679402 0.07097049 0.18398552 0.06165291
0000a0 3a e3 98 bd 16 71 d3 bc c7 f5 53 3d de 1b e0 be
       -0.07465215 -0.02581076 0.051748063 -0.4377126
0000b0 00 51 a1 be bb ca 73 3e e9 56 31 3e ed 76 15 3e
       -0.3150711 0.23807804 0.1731831 0.14596148
0000c0 e2 9f 1c bd be ca f7 3d 1a 32 76 be 51 97 87 3e
       -0.038238414 0.12099217 -0.2404255 0.26482633
0000d0 44 63 02 bf d8 ae b0 bd 18 e4 72 be 26 b2 92 3d
       -0.5093272 -0.08627099 -0.23719823 0.07162885
0000e0 15 c7 b0 bc fd 99 87 3d 6f 8f 73 be da 80 cc bc
       -0.021579305 0.06621168 -0.23785184 -0.024963785
0000f0 fd 61 06 bf 1d 52 1f bd ed 0a 1d 3e 2b 37 7e bf
       -0.5249327 -0.03889667 0.15336199 -0.9930293

encoder.2.1.running_mean f4 [64]
000000 fc fb 6c 3e 4f 18 bc be 8b 13 96 be c1 12 a6 be
       0.23143 -0.36737296 -0.29311785 -0.32436183
000010 d3 38 01 be 7b e0 d2 3e 41 ee 3c 3e a2 a3 00 3d
       -0.12619333 0.4118689 0.18450262 0.031406052
000020 5c b7 a2 3f 66 f0 91 3e 14 bb 30 bf 5a 2a 55 bb
       1.2712207 0.28503722 -0.6903546 -0.0032526464
000030 3a a7 2f 3f b6 a1 9b 3d ed 71 50 bf bd 4c f1 3e
       0.6861454 0.07599203 -0.81423837 0.4712886
000040 a9 d9 42 be 35 93 a0 3e 06 8d d8 3d da f3 27 3f
       -0.19028343 0.3136231 0.10573773 0.6560646
000050 77 15 cf 3b 31 e1 2b 3e ca 18 4f 3f cc 4f aa 3d
       0.0063196975 0.16785122 0.808972 0.08316001
000060 2b a8 9b 3e 8d 17 56 3e 4f a3 af 3c ed 11 e3 be
       0.3040174 0.20907421 0.021440176 -0.44349614
000070 12 2c d4 bd 16 38 65 bd b2 c8 ca be d6 1c da bd
       -0.10359968 -0.05596169 -0.39606243 -0.10650031
000080 4e 96 9d be 99 53 2f 3f ee 02 35 bf 3b fd 51 3f
       -0.30778736 0.68486935 -0.70707595 0.82027024
000090 c8 20 21 3c 34 ed 8f bd e0 1a f2 be c6 07 df bd
       0.009834476 -0.07027665 -0.4728613 -0.108901545
0000a0 6e 80 ba bd fe 56 41 3e 22 35 34 3f 33 a0 16 3d
       -0.09106527 0.18880841 0.70393574 0.03677387
0000b0 b1 54 2c 3f 7e 35 a2 3e 42 cc 84 bf 80 38 4e 3f
       0.6731673 0.31681436 -1.0374835 0.8055496
0000c0 14 30 07 3e 8f 3f 41 3d 2d 3b 76 3f 56 1c d4 3e
       0.13201934 0.047179755 0.96184045 0.4142787
0000d0 c0 3a ab 3e 9e 82 79 be a7 ae 5a bf 27 64 65 be
       0.3344326 -0.24366233 -0.8542275 -0.22401486
0000e0 bd 16 99 be 22 8c 27 bf 92 77 c7 3e a6 09 ff 3e
       -0.2990016 -0.654482 0.38958412 0.4981205
0000f0 91 98 8e bf 9f 5c ef bc a2 de c0 be b2 d2 1d bf
       -1.114031 -0.02921897 -0.37669855 -0.6164962

encoder.2.1.running_var f4 [64]
000000 86 e5 ab 3e 74 f3 17 3f 67 19 1c 3f 5c 5c 9d 3e
       0.3357355 0.59355855 0.6097626 0.30734527
000010 bc 0e d0 3e 94 74 a1 3e 3c f5 45 3b 3d 69 9a 3b
       0.4063624 0.31534255 0.0030205986 0.0047122524
000020 53 f6 2c 3e e4 22 86 3d e9 fd c0 3e 8d 0b 21 3e
       0.1689084 0.065496236 0.37693718 0.15727063
000030 6c d7 32 3e d7 b4 84 3a 59 84 88 3f 95 62 e8 3e
       0.1746499 0.0010124695 1.0665389 0.45387712
000040 96 ac c5 3e 33 60 b7 3e b3 10 7e 3c 3b bc 1b 3f
       0.38608235 0.35815582 0.015506911 0.6083409
000050 ac 0d fd 3a 99 30 ba 3b 7b c0 1d 3e 7c 37 1a 3e
       0.0019306443 0.005682063 0.15405457 0.15060228
000060 0e 89 23 3e 33 32 8e 3e ea 3d 13 3b 56 63 2d 3e
       0.15970251 0.27772674 0.0022467324 0.16932425
000070 4e fc 46 3c ba 27 bf 3e ea 8f 15 3e 44 fe 09 3e
       0.012145115 0.37334996 0.1460568 0.13475901
000080 02 5f b5 3e e4 3f 5c 3e 66 b3 a0 3e b3 d8 83 3e
       0.35424048 0.21508747 0.3138687 0.25751266
000090 fb 2f 34 3a a1 ed b4 3e 1e 35 4f 3e 63 eb 16 3e
       0.0006873605 0.35337546 0.20235106 0.1473823
0000a0 e1 31 03 3b fa 16 7e 3e 12 9b af 3e 83 38 3e 3d
       0.0020018744 0.24813452 0.34297997 0.046440613
0000b0 b5 d2 63 3e c6 d0 d4 3e cf e1 ad 3e ca 46 06 3f
       0.22248347 0.41565531 0.3396134 0.52451766
0000c0 8a a1 18 3c 59 f4 42 3e 91 2b ef 3e f2 1b a0 3e
       0.009315858 0.19038524 0.46712926 0.3127132
0000d0 46 99 a3 3e 74 95 a4 3e 93 92 1b 3f 55 6b 3f 3e
       0.31952876 0.32145274 0.6077053 0.18693288
0000e0 6f e6 a3 3e f1 a0 88 3e 17 52 1a 3f 69 e8 98 3e
       0.32011744 0.2668529 0.6028151 0.29864815
0000f0 7e ea 13 3f 9f 4a 09 3b fe 96 6d 3e 61 42 e6 3d
       0.5777968 0.0020949019 0.2320213 0.112431295
