models/best-vae_circ_noisy-ThreeGPP-real-3gpp-16rx-3p.pt (torch, 247695 bytes, 44 tensors)

embed_data.weight f4 [26, 2, 1]
0	0x3c114e7f	0.008868813
1	0x3c611829	0.01373867
2	0x3ea9b71e	0.3314752
3	0xbec5a616	-0.38603276
4	0x3f48053e	0.78133
5	0x3f4a3ff9	0.79003865
6	0xbe21236c	-0.15736169
7	0x3f38fa76	0.72257173
8	0xbb9d1ca2	-0.004794673
9	0xbac6dbdf	-0.0015171728
10	0xbf5d7a76	-0.86514986
11	0x3e9189da	0.28425485
12	0xbf2b8448	-0.6699872
13	0xbfa686ba	-1.3009865
14	0x3ee29b9d	0.4425935
15	0x3e6d1ef7	0.23156343
16	0xbc4e8467	-0.012604809
17	0xbb1962bc	-0.0023404798
18	0x3bbf8713	0.0058449595
19	0xbbb9a2e3	-0.0056651696
20	0xbc5a2c21	-0.013316185
21	0xbaa6c5cf	-0.0012723746
22	0xbf105ab1	-0.56388384
23	0x3f729f9d	0.947748
24	0xbf618753	-0.88097113
25	0x3eb88556	0.36039227
26	0x3fc4a848	1.5363855
27	0xbeffc7c1	-0.49957088
28	0x3f7c2702	0.9849702
29	0x3e99a2cb	0.30007014
30	0xbf84cf74	-1.037581
31	0x3adf1752	0.00170205
32	0x3f5ed7d8	0.870481
33	0xbf1b1254	-0.6057484
34	0x3f4afe20	0.79294014
35	0x3f9ba2e0	1.215908
36	0x3ecc7d77	0.39939472
37	0xbf24d8b2	-0.6439315
38	0x3d687395	0.056750853
39	0x3f420c47	0.75799984
40	0xbc6f8875	-0.014619936
41	0xbb8f8dec	-0.004380932
42	0x3e7d1912	0.24716595
43	0x3f0129ab	0.50454205
44	0x3f6f5ef6	0.93504274
45	0xbf3317df	-0.699583
46	0x3e851c86	0.25998324
47	0x3e2e18e4	0.17001683
48	0xbf4c1a09	-0.79727226
49	0xbf53c5fd	-0.8272398
50	0x3c80ee9a	0.015738774
51	0x3f74db64	0.95647264

embed_data.bias f4 [26]
0	0x3acf88cc	0.0015833615
1	0x3f081e4d	0.53171235
2	0xbf8ef29c	-1.1167789
3	0xbdb2870d	-0.08717165
4	0xbbc8486a	-0.006112148
5	0x3e42f13f	0.1903734
6	0x3f36eb6f	0.71452993
7	0x3e19646a	0.14979711
8	0x3fb82fdc	1.4389606
9	0xbba92a92	-0.0051625455
10	0x3fe36996	1.7766597
11	0x3f4b9e5c	0.7953851
12	0xbfb3c50e	-1.4044511
13	0x3da64938	0.08119434
14	0xbeaf9efc	-0.34300983
15	0xbe92eaa8	-0.28694654
16	0xbf2db561	-0.6785489
17	0x3f5d4bca	0.8644377
18	0xbe9724f2	-0.29520375
19	0xbefcbb98	-0.49361873
20	0x3f6ac72b	0.91710156
21	0x3eaad79a	0.33367616
22	0x3f050ccd	0.5197266
23	0x3f4e9a43	0.80704135
24	0xbdc5b3a1	-0.09653402
25	0xbebbf320	-0.36708927

fc_mu_var.weight f4 [32, 79]
0	0xbf99a27d	-1.2002712
1	0x3eb4ea70	0.35335112
2	0x3da68f57	0.08132809
3	0xbef4f0d9	-0.47840002
4	0xbe53f3b6	-0.20698437
5	0x3e74a434	0.23890764
6	0xbb8c7a26	-0.004287022
7	0x3d29f43b	0.041492682
8	0x3e133b9d	0.1437821
9	0xbf645c8e	-0.8920373
10	0xbe5436c3	-0.20724015
11	0x3e14d09b	0.14532702
12	0x3ebc5f62	0.3679152
13	0x3e442493	0.19154577
14	0x3e781ec4	0.24230486
15	0xbee402d6	-0.44533414
16	0xbd703891	-0.058647696
17	0x3e3160b3	0.17322044
18	0x3d94e507	0.07270246
19	0x3d3732c3	0.044726145
20	0xbc0a2ff9	-0.008434289
21	0xbf24984b	-0.6429488
22	0xbc1cf21a	-0.009579206
23	0x3d620b89	0.055186782
24	0x3f19f02b	0.6013209
25	0xbeeb54d8	-0.45963168
26	0x3db0f3cd	0.08640251
27	0x3f16e9ad	0.5895031
28	0xbd98125e	-0.07425378
29	0x3f1c8814	0.6114514
30	0x3dfb880b	0.122818075
31	0x3e5300db	0.20605795
32	0xbeec7460	-0.46182537
33	0x3de3306c	0.1109322
34	0x3e56f8da	0.20993367
35	0x3dbe7aea	0.09300788
36	0xbf21cbde	-0.632017
37	0xba20acaa	-0.00061292446
38	0x3f756043	0.9585001
39	0x3f84e39c	1.0381961
40	0x3e6117fe	0.21981809
41	0xbf81ba9a	-1.0135071
42	0x3f0851e0	0.5324993
43	0xbdcc6dd7	-0.09981888
44	0xbe103c10	-0.14085412
45	0x3ee946be	0.45561785
46	0x3e90394c	0.28168714
47	0x3e24e130	0.16101527
48	0xbe4cc1c4	-0.1999579
49	0x3eaf7de1	0.34275725
50	0x3d47297d	0.04862355
51	0x3d9977dd	0.07493565
52	0xbecb9681	-0.39763263
53	0xbef1aeef	-0.47203776
54	0x3d90eb4a	0.07076128
55	0xbedacff9	-0.42736796
56	0xbf404cb8	-0.75117064
57	0x3e862724	0.26201737
58	0xbfb09179	-1.3794395
59	0xbeb038cc	-0.34418333
60	0x3eb958dc	0.36200607
61	0xbe00950e	-0.1255686
62	0xbba0bd7b	-0.0049054003
63	0x3f714ab2	0.942546
64	0x3e1ef999	0.15524901
65	0xbe0bf15a	-0.13666287
66	0xbee0a785	-0.43877807
67	0xbf84b0c6	-1.0366447
68	0x3d8d1f4d	0.06890736
69	0xbe8221f5	-0.25416532
70	0x3d43d6fa	0.04781244
71	0x3f4bd47c	0.796211
72	0x3e8f0820	0.27935886
73	0x3d8428b6	0.064530775
74	0xbf334cec	-0.7003925
75	0xbed4e1d2	-0.41578537
76	0x3d87ea6c	0.06636509
77	0xbe69176c	-0.22762841
78	0x3e50506e	0.20343181
79	0xbaddf429	-0.0016933727
80	0x3c361100	0.011112452
81	0xbd87e877	-0.06636136
82	0x3c1f25dd	0.009713617
83	0x3b2faef9	0.0026807173
84	0xbb26035c	-0.0025331592
85	0x3ca41fd5	0.02003471
86	0xbd083921	-0.033257607
87	0x3c1908de	0.009340493
88	0x3b8baf86	0.0042628674
89	0xbbed1b9a	-0.0072359564
90	0xbb80b734	-0.0039280895
91	0x3b195be1	0.0023400711
92	0xbb29ed66	-0.0025928854
93	0x3b41421e	0.0029488872
94	0xbc12fb60	-0.008971065
95	0x3a72c5d9	0.0009261049
96	0x3b9ac790	0.0047234967
97	0x3cb9b05d	0.022667104
98	0xbd06a862	-0.032875426
99	0xbd21f874	-0.039543584
100	0xbb66ecc3	-0.0035236336
101	0x3d3509d0	0.04419881
102	0xba12b9ae	-0.00055971264
103	0x3b9e538a	0.004831736
104	0x3932470b	0.00017001868
105	0xbca2a63c	-0.019854657
106	0x3b986e26	0.0046518026
107	0x3c6c6a1c	0.014429595
108	0x3bb505ce	0.0055243736
109	0xbb8a3d08	-0.0042187013
110	0xbba4dee4	-0.0050314534
111	0x39e37f70	0.00043391762
112	0xbc06e21c	-0.00823262
113	0x3788bc3c	1.6300117e-05
114	0x393cbac8	0.00017998659
115	0x39e21fff	0.00043129918
116	0xbaf0042b	-0.0018311789
117	0x3a867dbf	0.0010260864
118	0xbb696f71	-0.0035619403
119	0xbadc8db1	-0.0016826895
120	0x3a09629a	0.0005240828
121	0xbb18ba96	-0.0023304573
122	0x3c1c0730	0.009523198
123	0x3bea57db	0.0071515865
124	0x3b64fe24	0.0034941519
125	0xbb2c6acf	-0.002630878
126	0x3b1fcd68	0.0024383906
127	0xbae1bd5e	-0.0017222574
128	0x3b88e882	0.0041781077
129	0xbc14a2ca	-0.009072015
130	0x3acaf477	0.0015484233
131	0xbb4d5c78	-0.0031335633
132	0x3b799556	0.0038083396
133	0xbb48f222	-0.00306619
134	0xbb35b4e3	-0.0027726225
135	0x3b575d7e	0.0032862122
136	0xbb0911f3	-0.002091524
137	0xbabecc84	-0.00145568
138	0xb8a4bfce	-7.855856e-05
139	0x3b77efe1	0.0037832188
140	0x3b9db739	0.0048131016
141	0x3b7c7732	0.0038523194
142	0x3bbd2fb8	0.005773511
143	0xbb6f8957	-0.0036550367
144	0x3aac5199	0.0013146877
145	0x39f85314	0.00047364144
146	0x3b9aeb7e	0.00472778
147	0x3b517aef	0.0031964143
148	0xbbeb9aba	-0.0071900757
149	0xbc46e043	-0.012138429
150	0xba961728	-0.0011450993
151	0xbb858ab6	-0.0040753735
152	0x3b70cbe4	0.0036742622
153	0xbc08f701	-0.008359672
154	0x3b2a25cf	0.0025962477
155	0x3b1a1675	0.002351192
156	0xbb4ba592	-0.003107403
157	0x3b0ea12f	0.0021763553
158	0xbe1afa15	-0.15134461
159	0xbe3d361e	-0.18477675
160	0xbd1fdba9	-0.039027844
161	0x3f02bfa2	0.5107366
162	0xbf82ce5f	-1.021923
163	0x3d88455e	0.06653856
164	0x3d20b8e2	0.039238818
165	0x3db82b5a	0.08992644
166	0xbf4fa719	-0.81114346
167	0x3d846024	0.0646365
168	0x3e4130da	0.18866292
169	0x3f94afb8	1.1616125
170	0x3e04fb9d	0.12986608
171	0xbe1f395e	-0.15549228
172	0xbdd7ae51	-0.10531295
173	0xbd9ab07f	-0.07553195
174	0xbf86199b	-1.0476564
175	0x3d5da29d	0.05411016
176	0x3c22ab13	0.009928483
177	0x3c75dba0	0.015005976
178	0x3d3acff9	0.045608494
179	0xbecf3c7d	-0.40475836
180	0xbbac9c55	-0.0052676597
181	0xbf0b56cf	-0.54429334
182	0x3ee81450	0.45327997
183	0x3e507fc1	0.20361234
184	0xbd1fcdc7	-0.039014604
185	0xbf2ca50b	-0.67439336
186	0xbc2b21ee	-0.010445101
187	0xbd3a0bf2	-0.04542155
188	0x3fcc9569	1.5983096
189	0x3e1bffc6	0.15234289
190	0x3e5e9bcc	0.2173912
191	0x3e7699f3	0.24082164
192	0xbebc679d	-0.367978
193	0x3d408a06	0.04700663
194	0x3f3a0606	0.7266544
195	0xbdf8912e	-0.12137066
196	0x3e0824b4	0.13295251
197	0x3dc05421	0.09391046
198	0x3d96ff04	0.07372859
199	0xbeb8eb6c	-0.36117113
200	0xbf13a88a	-0.57679045
201	0x3f0289c5	0.5099147
202	0xbf6a20a2	-0.91456044
203	0x3eb62d2d	0.3558134
204	0xbeb5f183	-0.3553582
205	0xbd87f27d	-0.06638048
206	0xbc83d653	-0.016093409
207	0xbe85f935	-0.26166692
208	0xbea7eeb0	-0.32799292
209	0xbea7caee	-0.3277201
210	0x3b0a95fc	0.0021146527
211	0x3eca8ef4	0.3956219
212	0x3d490a47	0.049082067
213	0xbe55e5a7	-0.20888387
214	0x3d61ae9f	0.055098172
215	0xbe03c3c4	-0.12867647
216	0xbe09c962	-0.13455728
217	0x3ed95a89	0.42451885
218	0x3f75d7a3	0.9603216
219	0xbddfe44a	-0.109322146
220	0x3c8e4e4a	0.017371316
221	0x3d966441	0.07343341
222	0x3f87a0a6	1.0595901
223	0x3dc13a57	0.094349556
224	0x3d61d4fa	0.05513475
225	0x3e14539d	0.14485021
226	0xbeb1d114	-0.34729826
227	0x3e76af45	0.24090298
228	0xbeed57a6	-0.46355933
229	0xbe0d7af8	-0.1381644
230	0xbf012439	-0.50445896
231	0xbe21badf	-0.15793942
232	0x3e5f2bf2	0.21794108
233	0x3e9e554f	0.3092446
234	0xbefa2294	-0.48854506
235	0x3d8eecf4	0.06978789
236	0x3ed2d238	0.4117601
237	0x3e89f1ec	0.26942384
238	0x3cefce5d	0.029273206
239	0x3cfd712d	0.030937755
240	0xbc9388b4	-0.018009521
241	0xbd104df9	-0.03523061
242	0xbf1dbac8	-0.6161313
243	0xbd3fb491	-0.04680306
244	0x3d5cb0c8	0.05387953
245	0x3ee3ea1e	0.44514555
246	0x3b919b8e	0.0044435924
247	0xbeea0c08	-0.45712304
248	0xba0b6dfd	-0.0005318819
249	0x3f5cbd4d	0.8622635
250	0xbd33a6d7	-0.043860283
251	0xbe8954a0	-0.26822376
252	0xbd852d3c	-0.065027684
253	0xbdf95ed4	-0.1217629
254	0x3ef9bd52	0.48777252
255	0xbc1006b4	-0.008790661

fc_mu_var.bias f4 [32]
0	0xbe8e6786	-0.27813357
1	0x3a7705e4	0.000942318
2	0xbdc30a72	-0.09523477
3	0xbaba0990	-0.0014193524
4	0xbad7cbf5	-0.0016463982
5	0x3f15545e	0.5833186
6	0x3b2b858b	0.0026172127
7	0x3aadb44b	0.0013252584
8	0x3a4223cd	0.00074058474
9	0xbb891044	-0.004182847
10	0x3a33e974	0.00068630953
11	0xbee8369d	-0.45354167
12	0xba9ca98c	-0.0011952384
13	0x3d51057f	0.051030632
14	0x3a8fa8fc	0.0010960395
15	0x3a475159	0.00076033693
16	0xbec0285d	-0.37530795
17	0x3ad44eb9	0.0016197778
18	0xbf0d1b68	-0.55119944
19	0x3e51dc8c	0.20494288
20	0x3990534b	0.00027527878
21	0x3e531167	0.20612107
22	0x3a776c21	0.00094384147
23	0xbaa1c169	-0.0012340966
24	0xba1996a5	-0.00058589346
25	0xb985fef7	-0.000255577
26	0x3a038b20	0.00050179847
27	0xbe74109b	-0.2383446
28	0xba179457	-0.0005782297
29	0xbf04ce73	-0.51877517
30	0x3a9bb63d	0.0011879873
31	0x3acb5724	0.0015513641

encoder.0.0.weight f4 [26, 26, 5]
0	0x3c962995	0.018330375
1	0xbe968a6a	-0.29402477
2	0x3e0b3b53	0.13596849
3	0x3c86e5f0	0.016467065
4	0x3c30e6ca	0.010797212
5	0x3b881a0f	0.004153497
6	0x3c7e873e	0.015535174
7	0xbed0fe2f	-0.40818927
8	0x3f861a5f	1.0476798
9	0xbe4fb896	-0.20285258
10	0x3e05b13d	0.13055892
11	0x3c900a5c	0.017583065
12	0xc046dd6d	-3.1072648
13	0xbecb46d0	-0.39702463
14	0xbdfbd4f2	-0.122964755
15	0x3e0f27b2	0.13979986
16	0xbdd9c319	-0.10632915
17	0xbecb1fff	-0.3967285
18	0xbfadf7bd	-1.3591229
19	0x3e619a66	0.22031555
20	0x3d6271d3	0.055284332
21	0x3d9daef7	0.076993875
22	0x3b442a62	0.0029932489
23	0xbe237cca	-0.15965572
24	0xbd41a904	-0.047280326
25	0xbdfcbb4a	-0.1234041
26	0xbdb8a563	-0.0901592
27	0x3f8dc81c	1.1076694
28	0xbf2b23a3	-0.6685125
29	0x3e33db22	0.17564061
30	0xbe0405b8	-0.12892807
31	0x3d8f65e2	0.070018545
32	0x401dff5e	2.4687114
33	0x3f47cd81	0.7804795
34	0xbd6fd8cc	-0.058556363
35	0x3e1dcc5b	0.15409987
36	0x3b481a14	0.0030533122
37	0xc01b1d6f	-2.4236715
38	0x3e05eba4	0.13078171
39	0x3d33fbfc	0.043941483
40	0x3e59f064	0.21283108
41	0x3e3b8498	0.18312299
42	0x3f8de9c0	1.108696
43	0x3eaef381	0.34170154
44	0xbe186af8	-0.14884555
45	0x3c8d470f	0.017245797
46	0xba778129	-0.00094415486
47	0x3e0548bb	0.13016026
48	0x3dc60320	0.09668565
49	0xbd845e9c	-0.06463358
50	0x3e189096	0.14898905
51	0x3e21ab6d	0.1578805
52	0x3f989cad	1.1922814
53	0x3ed1cbc8	0.40975785
54	0xbdfb540d	-0.12271891
55	0x3c7282b8	0.014801674
56	0xbe247e13	-0.16063718
57	0x3e215b99	0.15757598
58	0xbfaa5f6b	-1.3310369
59	0x3e6b84c6	0.22999868
60	0xbdc538a9	-0.09629948
61	0xbdcacd66	-0.09902458
62	0x3f88a323	1.0674785
63	0xbf61479a	-0.8799988
64	0x3df9bb8f	0.12193977
65	0x3e135ff9	0.1439208
66	0x3d21fec7	0.039549615
67	0xbf97812b	-1.1836294
68	0x3f565cca	0.83735335
69	0xbe396a08	-0.18106854
70	0x3e1777e1	0.14791824
71	0x3ce8b24f	0.028405337
72	0xc0186dad	-2.381694
73	0x3deed4ae	0.11661659
74	0xbde59957	-0.11210888
75	0xbdd83c21	-0.10558344
76	0xbdb10ebb	-0.08645388
77	0x3fd935c7	1.6969537
78	0xbeeeeca2	-0.46664912
79	0x3de47184	0.11154464
80	0xbd2cf3ea	-0.042224802
81	0x3d5fa632	0.054601856
82	0xbf45eddb	-0.77316064
83	0x3f82ac02	1.0208743
84	0xbe659a57	-0.22422157
85	0x3e95a7a9	0.29229477
86	0xbc2f2af3	-0.010691392
87	0xc02e3a75	-2.722318
88	0xbf209bf7	-0.62737983
89	0xbc6e8019	-0.014556908
90	0xbe17959b	-0.14803164
91	0x3cb9862f	0.022646992
92	0xbe343861	-0.17599632
93	0x3fa831de	1.3140218
94	0xbe5f2380	-0.21790886
95	0x3e156442	0.14589027
96	0xbdaff644	-0.08591893
97	0xbf8641bf	-1.0488814
98	0xbf88641f	-1.0655555
99	0x3e29bcf3	0.16575985
100	0x3e6d080f	0.23147605
101	0x3d008714	0.03137882
102	0x3f4f6182	0.8100816
103	0x3ec145b3	0.3774849
104	0xbe04d2fb	-0.12971108
105	0x3e4d6360	0.2005744
106	0x3d360c62	0.044445403
107	0xc004e95d	-2.0767434
108	0xbf2eccfd	-0.6828154
109	0x3deeea9d	0.11665843
110	0x3e0a6095	0.13513406
111	0x3e1b2c0f	0.15153526
112	0xbf354935	-0.7081483
113	0x3f80c84f	1.0061129
114	0xbde872e6	-0.1135004
115	0x3e8723be	0.26394457
116	0xbc0d1caf	-0.008612796
117	0xc010be0d	-2.2615998
118	0xbc2af94f	-0.010435416
119	0x3dcb59c8	0.09929234
120	0xbe49cf1b	-0.1970791
121	0x3de323be	0.11090802
122	0x40472c05	3.1120617
123	0x3e9df990	0.30854464
124	0xbc20addf	-0.009807079
125	0x3e056529	0.13026871
126	0xbde2971e	-0.110639796
127	0xbf6b6290	-0.9194727
128	0xbfa369d8	-1.2766676
129	0x3e475f74	0.19470006
130	0xbd1ff1fa	-0.039049126
131	0xbbfb7c2b	-0.007674714
132	0xbc6d25aa	-0.014474312
133	0xbc0a06bb	-0.008424456
134	0xbbaa82e1	-0.0052035903
135	0xbd4a572e	-0.049399547
136	0x3d7dacd3	0.061932396
137	0xbdeca0db	-0.11554118
138	0xbe629618	-0.22127569
139	0x3cbca706	0.023028862
140	0xbdefeb97	-0.11714857
141	0xbfb5cf03	-1.42038
142	0x3f0cec26	0.55047834
143	0x3fbe10d1	1.4848882
144	0xbd1e5388	-0.03865388
145	0x3c1b68ef	0.009485467
146	0xbf337723	-0.70103663
147	0x3ed3ccb5	0.41367117
148	0x3f4e12c5	0.8049739
149	0xbcf52d04	-0.029928692
150	0x3d764fc0	0.06013465
151	0x3d18fbe5	0.0373496
152	0xbd1c44df	-0.038151618
153	0x3b8afd7d	0.004241644
154	0x3d7c0d3f	0.06153607
155	0x3e0ab7d3	0.13546686
156	0x3f4977f5	0.78698665
157	0xbde43ba2	-0.111441866
158	0xbf2259b1	-0.6341811
159	0x3dcbb2eb	0.09946235
160	0x3ddcb5c8	0.107768595
161	0x3fa7b20e	1.3101213
162	0xbf08bc70	-0.5341253
163	0xbfb6826b	-1.425855
164	0xbd06671d	-0.03281318
165	0xbde6b6d2	-0.11265339
166	0xbfc286ed	-1.5197426
167	0x3e941ea8	0.2892964
168	0x3fbb8105	1.4648749
169	0x3b5c5641	0.0033620747
170	0x3ca1cfd8	0.019752428
171	0x3e3fa7e5	0.1871639
172	0xbdd0c9a8	-0.10194713
173	0xbe62e494	-0.22157508
174	0x3e0f6d8b	0.14006631
175	0xbbe298f6	-0.006915207
176	0xbdaf0abe	-0.08546971
177	0x3dceef39	0.10104222
178	0x3ce8cd98	0.028418347
179	0xbd88d894	-0.06681934
180	0x3d4caf04	0.049971595
181	0x3e65b174	0.22430974
182	0xbddb02fb	-0.10693928
183	0xbe90ed69	-0.2830613
184	0x3e18157f	0.1485195
185	0x3d890130	0.066896796
186	0xbe9895c4	-0.29801762
187	0x3e921c56	0.28537244
188	0x3ed1a7df	0.40948388
189	0xbcf976c8	-0.030452147
190	0x3d99b6e0	0.07505584
191	0x3f3e51b5	0.74343425
192	0xbd37a1a6	-0.044831894
193	0xbee37415	-0.444245
194	0x3d5bc444	0.05365397
195	0xbdee5068	-0.1163643
196	0xbf6bbe4b	-0.9208724
197	0x3df8fbfe	0.12157439
198	0x3f399924	0.724993
199	0xbd905776	-0.07047932
200	0xbe1bc50b	-0.15211885
201	0xbfbbd1cf	-1.4673404
202	0x3edd4c58	0.43222308
203	0x3fab8e42	1.3402789
204	0xbd60265b	-0.05472408
205	0x3e01e4d1	0.12684943
206	0x3f97bff6	1.1855457
207	0xbe3c8d19	-0.184132
208	0xbf8774a1	-1.0582467
209	0x3dcfcc0a	0.10146339
210	0xbe22abd3	-0.15885858
211	0xbeb79aba	-0.35860234
212	0xbd3d74b0	-0.04625386
213	0x3e15a7cb	0.14614789
214	0xbca73422	-0.020410601
215	0xbd190070	-0.037353933
216	0xbfb94672	-1.4474623
217	0x3ef6d82a	0.48211795
218	0x3fc568fe	1.5422666
219	0xbc015c80	-0.007895589
220	0xbd460c98	-0.048351854
221	0x3e869565	0.26285854
222	0xbe81ff19	-0.25389937
223	0xbe9d6cba	-0.30747014
224	0xbd058f2b	-0.03260724
225	0x3c1e778d	0.009672058
226	0xbf82873e	-1.0197523
227	0x3eced6ea	0.4039834
228	0x3f89f073	1.0776504
229	0x3cf9ff85	0.030517349
230	0xbc486103	-0.012230161
231	0x3e55f107	0.20892726
232	0xbdf17734	-0.11790314
233	0xbe5a93ab	-0.21345393
234	0x3e0ae7b5	0.13564952
235	0xbd4b4435	-0.049625594
236	0xbfa79e9d	-1.309528
237	0x3ee10498	0.43948817
238	0x3fad848d	1.3556076
239	0x3cd28d2e	0.025702085
240	0xbe16c3eb	-0.14723174
241	0xbe9f7ea1	-0.31151298
242	0xbd5bfc75	-0.05370756
243	0x3dc97fa0	0.09838796
244	0xbb853543	-0.004065187
245	0xbd920228	-0.071293175
246	0xbfb27ead	-1.3944908
247	0x3ebd384e	0.3695702
248	0x3fae6301	1.3623964
249	0xbda357d3	-0.079757355
250	0x3d902eb3	0.07040157
251	0x3fc5c508	1.5450754
252	0xbedeb15d	-0.43494692
253	0xbfc864c4	-1.5655751
254	0xbc7d7704	-0.01547027
255	0xbcdac02b	-0.026702961

encoder.0.0.bias f4 [26]
0	0xbff4c188	-1.9121561
1	0xbf3854b7	-0.72004265
2	0x3ba5697c	0.005047975
3	0xbd928848	-0.071549
4	0xbf918611	-1.1369039
5	0x3f9fc8f7	1.2483205
6	0xbfade724	-1.3586164
7	0xbf4ea478	-0.8071971
8	0x3f8d2fea	1.1030247
9	0x3c64a55f	0.013955443
10	0xbfd098ff	-1.6296691
11	0x3f399a52	0.725011
12	0xbf8cc11b	-1.0996431
13	0xc0101a01	-2.2515872
14	0xbd801c49	-0.06255395
15	0x3c8a135c	0.016854934
16	0xbeae7335	-0.3407227
17	0x3f72bf68	0.9482331
18	0xbed6d44e	-0.4195885
19	0x3e8d6395	0.27615038
20	0x3fb0e2b0	1.381918
21	0x3fb65879	1.424575
22	0x3f2f4d08	0.68476915
23	0xbc0bf383	-0.008541944
24	0x3d120cd5	0.03565677
25	0xbf8440e2	-1.0332301

encoder.0.1.weight f4 [26]
0	0xbf79b3b2	-0.9753982
1	0xbfe0bb04	-1.7557073
2	0x3844bd29	4.690621e-05
3	0xba8254d2	-0.0009943491
4	0xbfbd91cf	-1.4810122
5	0x3fed777c	1.8552089
6	0xbf8cdd4a	-1.1005032
7	0xbfeeb888	-1.8650064
8	0x3ff255f9	1.8932487
9	0xb943135a	-0.00018603858
10	0xbf9bbc8a	-1.2166913
11	0x3f9ea4f7	1.2394093
12	0x3f8bf7c1	1.0934983
13	0xbf9311d0	-1.1489811
14	0xbffcb59c	-1.9742923
15	0xbba6bd15	-0.0050884583
16	0x3f75d333	0.9602539
17	0x3fe545f3	1.7911972
18	0xbf67de4a	-0.9057356
19	0xbf7e98ca	-0.9945189
20	0x4000b594	2.0110826
21	0x3fb0b392	1.38048
22	0xbfa8d3bf	-1.318962
23	0x3b01e5f2	0.0019820896
24	0x3a2f3c49	0.00066847034
25	0xbf8f2de1	-1.1185876

encoder.0.1.bias f4 [26]
0	0xbc6c7f85	-0.0144347
1	0xbbf16f44	-0.007368
2	0xbc7beec7	-0.015376753
3	0xbd33e8a4	-0.043923035
4	0xbc3b9fd7	-0.011451683
5	0xbb1d0974	-0.0023961933
6	0xbd049a21	-0.03237355
7	0x3bc98d35	0.0061508664
8	0xbba2416e	-0.0049516475
9	0xbd170af2	-0.036875673
10	0x3bc339a7	0.0059578004
11	0x3b2015b5	0.0024427
12	0x3ebde444	0.37088215
13	0x3cf36bdb	0.029714515
14	0xbb89bf66	-0.0042037247
15	0xbdcb2dcb	-0.09920844
16	0x3ed2eed6	0.41197842
17	0x3af5b4bc	0.001874588
18	0x3e365c04	0.17808539
19	0x3e0c4e38	0.13701713
20	0x3be25ff7	0.0069084126
21	0xbeeac20d	-0.45851174
22	0x3ee6ab03	0.45052347
23	0xbd1baec8	-0.03800848
24	0xbe14c0a3	-0.1452661
25	0xbefac90e	-0.48981518

encoder.0.1.running_mean f4 [26]
0	0x40bdaffb	5.927732
1	0xbf88cd2b	-1.0687612
2	0xbea89e0d	-0.32933083
3	0xbeeaaa68	-0.45833135
4	0xbfe70272	-1.8047621
5	0x3fc75b58	1.5574751
6	0x411a42d2	9.641314
7	0xbfb197a1	-1.3874398
8	0x3ed3132c	0.41225564
9	0xbe68feb1	-0.22753407
10	0xc0116cdf	-2.27227
11	0x4088ac19	4.271008
12	0x4110819e	9.031645
13	0xc1019db0	-8.100998
14	0xbea3b753	-0.31975803
15	0xbd085f57	-0.03329405
16	0xbf997d09	-1.1991283
17	0x3fc75763	1.5573543
18	0xbf036c2a	-0.5133692
19	0xc0e50608	-7.156986
20	0x3ff3fba1	1.9061166
21	0xc0ca986a	-6.331105
22	0xc04cfb20	-3.2028275
23	0x3dc3885f	0.09547495
24	0x3e4a4d8d	0.19756146
25	0x40d83927	6.7569766

encoder.0.1.running_var f4 [26]
0	0x45289b61	2697.7112
1	0x44c9b3cb	1613.6185
2	0x403705be	2.8597255
3	0x3f706e2b	0.939181
4	0x44cd597a	1642.7961
5	0x4502c7d9	2092.4905
6	0x450a9358	2217.209
7	0x4500f16d	2063.089
8	0x450fc5c3	2300.36
9	0x3ec44d03	0.38340005
10	0x4529f694	2719.4111
11	0x44e525a4	1833.1763
12	0x452d29d5	2770.6145
13	0x4515d103	2397.0632
14	0x44e5a36a	1837.1067
15	0x3f26cd07	0.65156597
16	0x4508b799	2187.4749
17	0x44d6af01	1717.4689
18	0x4537fb29	2943.6975
19	0x45760b59	3936.7092
20	0x44e8a451	1861.1349
21	0x44eb5fff	1882.9999
22	0x4523d01f	2621.0076
23	0x3f749c53	0.9555103
24	0x406d4aa9	3.707682
25	0x44f8a0a0	1989.0195

encoder.1.0.weight f4 [45, 26, 5]
0	0x3f1868c3	0.59534854
1	0x3fc44295	1.5332819
2	0x3f55d8e0	0.8353405
3	0xbfa6b230	-1.3023129
4	0x3f16e050	0.58936024
5	0x3ea046a7	0.31303903
6	0xbd91b194	-0.071139485
7	0x3ebb2768	0.36553502
8	0xbf440afb	-0.76579255
9	0xbd845017	-0.064605884
10	0x3d9f7afc	0.07787129
11	0xbd98a40f	-0.07453167
12	0x3db4fd6e	0.088374004
13	0xbacc5735	-0.0015589955
14	0xbd253689	-0.040335212
15	0xbcabbee2	-0.020965043
16	0xbd3989e4	-0.04529752
17	0xbcc7994a	-0.024365086
18	0x3ce3769c	0.027766518
19	0x3c410343	0.011780563
20	0x3c184c30	0.009295508
21	0x3d688481	0.05676699
22	0x3eb821fd	0.3596343
23	0xbf442b78	-0.7662883
24	0x3e339507	0.17537318
25	0x3ec43504	0.38321698
26	0x3f718648	0.9434552
27	0xbeba1927	-0.36347315
28	0xbf04913e	-0.5178412
29	0x3f91b045	1.1381918
30	0x3f09d473	0.53839797
31	0x40074e4c	2.1141539
32	0xbee31340	-0.44350624
33	0xbef79895	-0.48358598
34	0x3e99fcf5	0.30075803
35	0x3d22d7a7	0.039756443
36	0x3f8039ee	1.0017679
37	0x3f58190e	0.8441323
38	0xbf9514ed	-1.1647011
39	0x3f8dc38c	1.1075301
40	0x3eec3169	0.46131447
41	0x3f4973dc	0.7869241
42	0x3d8be991	0.06831659
43	0xbf4c4078	-0.7978587
44	0x3fa70f1f	1.305149
45	0x3d7ecec2	0.0622089
46	0x3cf5601a	0.029953051
47	0xbd22f0cb	-0.03978042
48	0x3a9d23ba	0.0011988797
49	0x3c1ddf47	0.009635753
50	0x3f408f74	0.7521889
51	0x3fbcbec3	1.4745716
52	0xbf0f1bb8	-0.5590167
53	0xbebfb5c9	-0.3744338
54	0x3f9bfb56	1.2186077
55	0xbb498344	-0.0030748406
56	0x3f420340	0.7578621
57	0x3f879d3f	1.0594863
58	0xbf3e5d20	-0.7436085
59	0x3e79331e	0.24335906
60	0x3e752086	0.23938188
61	0x3f4fade2	0.811247
62	0x3f3f71f4	0.74783254
63	0x3e15d6d4	0.14632732
64	0x3fa3d775	1.2800127
65	0x3f82e834	1.0227113
66	0x3fc30d59	1.5238448
67	0x3e5a1a85	0.21299179
68	0xbef0bdb1	-0.47019723
69	0x3faea246	1.3643272
70	0x3d956a93	0.07295718
71	0x3ef776fd	0.48332968
72	0xbddc2097	-0.107484035
73	0xbd19e807	-0.037574794
74	0x3c501bae	0.012701912
75	0x3d932f25	0.071867265
76	0x3d28cf2f	0.04121321
77	0x3db4bef3	0.08825483
78	0xbc13383e	-0.008985577
79	0xbbadc5f5	-0.0053031393
80	0x3e100406	0.14064035
81	0x3eded4f1	0.43521836
82	0x3ef59c15	0.47970644
83	0xbee85aa9	-0.45381668
84	0x3fa52335	1.2901369
85	0x3e31bbc3	0.17356782
86	0x3e85999b	0.26093754
87	0x3f158241	0.58401877
88	0xbee17b54	-0.44039404
89	0x3dbc2ad6	0.09187858
90	0xbd8f49c6	-0.06996493
91	0x3f326d94	0.6969845
92	0x3eda0036	0.42578286
93	0x3e2f490e	0.17117712
94	0x3f116391	0.5679255
95	0xbe002c60	-0.12516928
96	0x3f59477f	0.8487472
97	0x3fe847c2	1.8146899
98	0x3ef11286	0.47084445
99	0x3f2d7c06	0.6776737
100	0x3e416148	0.18884766
101	0x3f183731	0.59459215
102	0x3de6f9a6	0.112780854
103	0xbea385d7	-0.3193805
104	0x3e93f36b	0.2889665
105	0x3edcbd40	0.43113136
106	0x3f1d31cf	0.61404127
107	0x3f300d62	0.6877042
108	0xbe3427bd	-0.17593284
109	0x3f4ed140	0.8078804
110	0xbe9672c4	-0.29384434
111	0x3f53f85f	0.8280086
112	0x3e269691	0.16268374
113	0xbeffb281	-0.49940875
114	0x3eebf869	0.4608796
115	0xbd4f86c6	-0.05066564
116	0xbd7bcde7	-0.06147566
117	0x3d70215c	0.058625564
118	0x3d8d92d4	0.06912771
119	0x3cb52323	0.022111481
120	0x3cecede7	0.028922034
121	0xbd22f47e	-0.039783947
122	0x3d07f0df	0.033188697
123	0xbcbabc57	-0.022794886
124	0xbdedfb2f	-0.11620175
125	0xb9e43423	-0.00043526394
126	0x3c8f7a43	0.017514354
127	0xbe0071af	-0.12543367
128	0x3e65b7cf	0.22433399
129	0x3ee55802	0.44793707
130	0xbe94d52a	-0.2906888
131	0xc011dcb9	-2.2790968
132	0xbeb29904	-0.34882367
133	0x3d0c3afb	0.034235936
134	0xbf264a99	-0.64957577
135	0xbef43da6	-0.47703284
136	0xbf542cae	-0.82880676
137	0xbf10aea5	-0.56516486
138	0xbe14196f	-0.14462827
139	0xbedae53f	-0.42753026
140	0x3d4c3526	0.049855374
141	0x3d001a66	0.031275176
142	0x3d5022f2	0.050814576
143	0x3ce8057a	0.028322924
144	0xbda54749	-0.08070237
145	0x3a877a5c	0.0010336149
146	0xbc334d2a	-0.01094369
147	0x3d9e0770	0.07716262
148	0xbd568562	-0.052373298
149	0x3a985de7	0.0011624665
150	0xbea5d562	-0.3238936
151	0xbf341773	-0.7034828
152	0xbed9de51	-0.42552426
153	0x3c95b60f	0.018275289
154	0xbe3eebf1	-0.18644692
155	0xbe02cc48	-0.1277324
156	0x3e99c8a9	0.30035904
157	0x3ee2e850	0.44317865
158	0x3e7ad0ad	0.24493666
159	0xbf5466b7	-0.8296923
160	0x3e415cc2	0.1888304
161	0xbf6cee5b	-0.925512
162	0x3ec34e28	0.38145566
163	0x3bd02326	0.0063518463
164	0xbfa662f0	-1.2998943
165	0xbe950d71	-0.29111817
166	0xbf339263	-0.70145243
167	0x3e8a30a4	0.26990235
168	0x3edc3b4f	0.43014
169	0xbe9beb74	-0.30453074
170	0xbed94422	-0.42434794
171	0x3ce028aa	0.02736314
172	0x3f06b8a0	0.52625465
173	0x3e6f6ab5	0.23380549
174	0xbf425a98	-0.75919485
175	0x3d14b55c	0.03630577
176	0x3c079a52	0.008276539
177	0xbc9d718f	-0.019219188
178	0xbb96b621	-0.004599348
179	0xbd40eb3f	-0.04709935
180	0x3dd1d421	0.102455385
181	0xbf78c319	-0.97172695
182	0x3e06a300	0.13148117
183	0xbeec91ad	-0.46204892
184	0xbfce439e	-1.6114385
185	0xbece8be5	-0.40341106
186	0xc0232f96	-2.5497794
187	0xbfe2a3a8	-1.7706194
188	0xbf046af8	-0.5172572
189	0xbe886b96	-0.26644582
190	0xbed482f6	-0.41506165
191	0x3f3f818c	0.7480705
192	0xbdc66a22	-0.09688212
193	0x3f01a15a	0.5063683
194	0x3ebdfc97	0.37106773
195	0xbead4e82	-0.3384896
196	0xbfa588d9	-1.2932388
197	0x3c96890e	0.0183759
198	0xbe9ce699	-0.30644682
199	0xbf91c76e	-1.1388986
200	0xbe8bd285	-0.2730905
201	0xbf3b822e	-0.73245513
202	0xbe49c1e5	-0.19702871
203	0xbcae87ad	-0.02130493
204	0xbf4e9422	-0.8069478
205	0x3d110b57	0.035411205
206	0x3c98e90f	0.018665818
207	0x3d2e2ee1	0.042525176
208	0xba0d281c	-0.00053847
209	0xbbf564d5	-0.0074888268
210	0x3f2188e1	0.63099486
211	0xbc700322	-0.014649184
212	0xbd99a79b	-0.07502671
213	0x3e9ec9a2	0.3101321
214	0x3e815696	0.25261372
215	0xbf018f27	-0.5060906
216	0xbf8d33f3	-1.1031479
217	0xbf0b43c5	-0.54400283
218	0xbeb0d752	-0.34539276
219	0xbeb3c5e3	-0.35111913
220	0xbf1ab1f4	-0.60427785
221	0xbf8cf87f	-1.1013335
222	0xbf407509	-0.7517858
223	0xbefc42d9	-0.4926975
224	0xbed80b31	-0.42196038
225	0xbe986799	-0.2976654
226	0xbf1df1ac	-0.61696887
227	0xbf918f68	-1.1371889
228	0xbf353a07	-0.7079167
229	0xbe4ea4f6	-0.20180115
230	0xbe972ee1	-0.29527953
231	0xbf6876ff	-0.90806574
232	0x3d03e2b6	0.03219863
233	0xbe745139	-0.23859109
234	0xbf4bf299	-0.7966705
235	0xbf26edb5	-0.6520646
236	0xbf85b623	-1.0446209
237	0x3e690724	0.2275663
238	0x3eaae33e	0.33376497
239	0x3ecd9584	0.40153134
240	0xbf061b70	-0.52385616
241	0xbec215a4	-0.37907135
242	0xbe9f9d2b	-0.31174597
243	0xbe96b19d	-0.29432383
244	0x3ecaee24	0.39634812
245	0xbdb87b3e	-0.090078816
246	0xbbcb86ec	-0.0062111523
247	0x3daeb731	0.08531035
248	0x3d07658c	0.033055827
249	0x3ca33e0a	0.019927043
250	0x3d0e815c	0.034791335
251	0x3d9b24ad	0.07575355
252	0x3de64887	0.11244302
253	0x3c505e5c	0.0127178095
254	0xbc5f7a25	-0.013639961
255	0xbbdb7d64	-0.0066982973

encoder.1.0.bias f4 [45]
0	0xbf5ecbf3	-0.8702995
1	0x3e8f6ce3	0.2801276
2	0x3fdd44bd	1.7286602
3	0xbb7693af	-0.0037624647
4	0xbd66c624	-0.056341305
5	0xbf4e8b54	-0.8068135
6	0x3db03d17	0.08605402
7	0x3facfdef	1.3514994
8	0x3fa2f3aa	1.273061
9	0xbd113954	-0.035455063
10	0xbd9aaf2f	-0.07552945
11	0x3dcbedd1	0.09957469
12	0x3f5b52a4	0.85672975
13	0xc003b43e	-2.057876
14	0x403155af	2.7708547
15	0x3fbd7e69	1.4804202
16	0x3d4d8200	0.050172806
17	0x3cea7888	0.028621927
18	0x3d85812c	0.06518778
19	0x3c9375d6	0.018000524
20	0xbf9f9b7d	-1.2469326
21	0x3ccb0809	0.024784105
22	0xbfefd13f	-1.8735732
23	0xbf8f6050	-1.1201267
24	0xc040010e	-3.0000644
25	0xbbdbc157	-0.0067063975
26	0xbc0f4517	-0.0087445
27	0x3d1f8416	0.038944326
28	0xbe9f259c	-0.3108338
29	0x3e7e1400	0.24812317
30	0xbfc01995	-1.5007807
31	0xbce7cc89	-0.028295772
32	0x3c19fe2a	0.009398976
33	0x3cc75a40	0.024335027
34	0x3fc4d322	1.5376933
35	0x3faaf0b5	1.3354708
36	0xbcd74f8b	-0.026283046
37	0xbcc6647b	-0.024217835
38	0xc012d4e6	-2.2942443
39	0xbf48dd26	-0.78462446
40	0x401051a7	2.2549837
41	0x3fc82ec1	1.5639268
42	0xbbdb9c6e	-0.0067019975
43	0x3c00a8bc	0.007852729
44	0x3c1b33d1	0.009472803

encoder.1.1.weight f4 [45]
0	0xbea52f55	-0.32262674
1	0x3f3dc883	0.7413408
2	0x3f5fa018	0.8735366
3	0xb89f333c	-7.591254e-05
4	0xbc877929	-0.016537266
5	0xbeaabd5d	-0.33347598
6	0xba0afd39	-0.00053020153
7	0x3f2726b8	0.65293455
8	0x3f31cdd8	0.6945472
9	0xbc64093e	-0.013918219
10	0x3b925143	0.0044652536
11	0xbaf2a813	-0.0018513225
12	0x3f706fc3	0.93920535
13	0xbf307410	-0.689271
14	0x3ece3a24	0.40278733
15	0x3f79e95f	0.9762172
16	0xbaf9fc65	-0.0019072412
17	0xb95598ce	-0.00020370187
18	0xbadb4358	-0.0016728444
19	0xbbfb0dc3	-0.0076615526
20	0xbf7ae9fb	-0.98013276
21	0xb97d62dd	-0.0002416479
22	0xbf79228b	-0.97318333
23	0xbf54219c	-0.82863784
24	0xbf23ec74	-0.64032674
25	0x3c90e9a7	0.01768954
26	0x3bd086b6	0.006363715
27	0x3b0dd3e3	0.0021641187
28	0xbecb9f7e	-0.3977012
29	0x3f00c2dc	0.5029733
30	0xbf88f6d5	-1.0700327
31	0x3a0b022e	0.0005302754
32	0xbbc6b5f5	-0.0060641714
33	0xba195fcf	-0.00058507634
34	0x3eab4203	0.334488
35	0x3f1a8eff	0.60374445
36	0x3bf42096	0.0074501736
37	0xbb10ad3a	-0.0022075907
38	0xbf7e3e6a	-0.99313986
39	0xbf9a28bd	-1.2043682
40	0x3f61e000	0.8823242
41	0x3f875ac9	1.057458
42	0x3a5606a0	0.00081644394
43	0x3c179308	0.009251364
44	0x3c2b4522	0.010453494

encoder.1.1.bias f4 [45]
0	0x3e2d1551	0.16902663
1	0xbed0f26e	-0.4080996
2	0xbf012921	-0.5045338
3	0xbbfe2db1	-0.0077569117
4	0xbe092fe3	-0.13397174
5	0x3e15b588	0.1462003
6	0xbc6e7213	-0.014553565
7	0xbe9df954	-0.30854285
8	0xbe969d1d	-0.29416743
9	0xbdc1b71c	-0.094587535
10	0xbd9139dd	-0.07091115
11	0xbd90002a	-0.07031281
12	0xbf1522f9	-0.5825649
13	0xbec2d954	-0.38056433
14	0x3aa32040	0.0012445524
15	0xbf17fda3	-0.59371394
16	0xbcf86d94	-0.030325688
17	0xbd885fab	-0.06658872
18	0xbd46bcf2	-0.048520036
19	0xbd94eb8a	-0.07271488
20	0xbf17d8a2	-0.5931493
21	0xbc7e4eb4	-0.015521694
22	0xbf166054	-0.58740735
23	0xbec14785	-0.37749878
24	0xbea8c548	-0.32963014
25	0xbd9074a8	-0.070535004
26	0xbd153842	-0.036430605
27	0xbceb7304	-0.028741367
28	0xbaffcb35	-0.0019515516
29	0x3e6e3d8d	0.23265667
30	0xbf23f44f	-0.6404466
31	0xbc0ac4f2	-0.008469807
32	0xbd8f77c8	-0.07005268
33	0xbc52e8d3	-0.012872892
34	0xbde2dd40	-0.11077356
35	0xbe317aea	-0.17332044
36	0xbe0a238d	-0.13490124
37	0xbcfa41ba	-0.030548919
38	0xbf181c87	-0.5941853
39	0xbf070537	-0.5274233
40	0xbf09a144	-0.53761697
41	0xbf274770	-0.6534338
42	0xbc9de135	-0.019272426
43	0xbd8b1c08	-0.06792456
44	0xbd92cfc9	-0.07168538

encoder.1.1.running_mean f4 [45]
0	0x4118e2ec	9.555401
1	0xc12fa296	-10.977194
2	0xc07ef082	-3.9834294
3	0x3e9860ca	0.29761344
4	0x3f3d1588	0.7386098
5	0x40cb4416	6.3520613
6	0x3f8abe26	1.0839279
7	0xc04bc903	-3.1841438
8	0xc0ef7006	-7.4824247
9	0x3faa8a42	1.3323443
10	0x3e16c6a9	0.1472422
11	0xbf88b9ac	-1.0681663
12	0xc0bb4a94	-5.852854
13	0x408c7a57	4.389934
14	0x41aecda3	21.850409
15	0xbfbe8ee9	-1.4887363
16	0xbe1f45ae	-0.15553924
17	0xbd79bed3	-0.060973
18	0x3eb06809	0.34454373
19	0x3f981bef	1.1883525
20	0x4100fe7e	8.062132
21	0x3e5e9e52	0.21740082
22	0x40d684d0	6.7037125
23	0x4129d32e	10.614058
24	0x40289da6	2.634622
25	0xbfabb282	-1.3413851
26	0xbf51c453	-0.8194019
27	0xbf383e1a	-0.7196976
28	0x41133c9a	9.202295
29	0xc16d3551	-14.825517
30	0x40b2f19a	5.5919924
31	0xbeb54a44	-0.35408223
32	0x3f6e8f6a	0.9318758
33	0xbe4bdf45	-0.1990939
34	0xc042d0c9	-3.0439932
35	0xc10fc2e9	-8.9850855
36	0x3ea95119	0.33069685
37	0x3e5a0339	0.21290292
38	0x4022c7df	2.5434492
39	0x410c56d4	8.771198
40	0xc0566300	-3.3497925
41	0xc01c94f5	-2.4465916
42	0x3dca41bc	0.09875819
43	0xbf06deb5	-0.52683574
44	0xbefa4279	-0.4887884

encoder.1.1.running_var f4 [45]
0	0x42e94212	116.62904
1	0x4315db28	149.85608
2	0x429dc9fc	78.8945
3	0x3eb02c4a	0.3440879
4	0x3f7bd21f	0.98367494
5	0x42732258	60.78354
6	0x3f95db43	1.1707538
7	0x423f666e	47.85003
8	0x42def9d5	111.48795
9	0x3ffc6c54	1.9720559
10	0x3e2f99fd	0.17148586
11	0x3fbc202f	1.4697322
12	0x42a0c91b	80.392784
13	0x424bae86	50.920433
14	0x43dce6db	441.80356
15	0x4295e2ca	74.94295
16	0x3ea785f1	0.32719377
17	0x3e64018c	0.22266215
18	0x3eed225a	0.4631527
19	0x3fdfb2b4	1.7476411
20	0x42c6c583	99.385765
21	0x3e6c0214	0.23047668
22	0x42eeaaeb	119.333824
23	0x433f80be	191.5029
24	0x42277e75	41.873493
25	0x40197da5	2.3982937
26	0x3f6b0357	0.9180197
27	0x3f62c6cf	0.8858461
28	0x428bfefa	69.998
29	0x4380dccb	257.72495
30	0x42c97eb3	100.74746
31	0x3eb7c9f4	0.35896266
32	0x3f84163e	1.0319288
33	0x3e29026e	0.16504833
34	0x41dd2ae5	27.645945
35	0x43105f7d	144.373
36	0x3ebf47dc	0.37359512
37	0x3f41fdce	0.757779
38	0x429b36df	77.60717
39	0x437bf4ef	251.95677
40	0x4287c446	67.88335
41	0x42aee56d	87.4481
42	0x3ec9b3b3	0.39394912
43	0x3f144f86	0.57933843
44	0x3f11b9ff	0.5692443

encoder.2.0.weight f4 [79, 45, 5]
0	0x3cc4aba7	0.024007631
1	0xbe2a6cf5	-0.16643126
2	0x3e2667e8	0.16250575
3	0xbe6c9bc4	-0.23106295
4	0x3da1b8db	0.078965865
5	0xbba1eeb1	-0.0049417843
6	0x3e8c653f	0.27420995
7	0x3ec07b4f	0.37594077
8	0xbea3ee70	-0.3201785
9	0xbd01d4d2	-0.031697102
10	0x3cd9c34a	0.026582379
11	0x3c00cc00	0.007861137
12	0xbed6e441	-0.4197102
13	0x3ee4e55f	0.44706246
14	0xbd4cc633	-0.049993705
15	0xbc71669a	-0.014733935
16	0x3dc12196	0.09430234
17	0xbdbeace4	-0.0931032
18	0xbcd9fa6d	-0.02660867
19	0x3d10f431	0.03538913
20	0x3c8736b3	0.016505575
21	0x3d8709e3	0.065936826
22	0x3ccb7921	0.024838032
23	0xbd9c2d79	-0.07625861
24	0xbbd6301f	-0.006536498
25	0x3b29552a	0.0025838115
26	0x3e668038	0.22509849
27	0x3db2a869	0.08723528
28	0x3e0784f5	0.13234313
29	0x3d933383	0.071875595
30	0xbd2fdaaf	-0.042933162
31	0x3bb96fb7	0.0056590694
32	0x3d217042	0.039413698
33	0xbd016df4	-0.031599
34	0x3ba7600c	0.005107885
35	0xbdb9a997	-0.0906555
36	0xbe25b6f5	-0.16183074
37	0x3f3f64e9	0.7476335
38	0x3eda12a0	0.42592335
39	0x3d2af2c0	0.04173541
40	0x3d4fe9b8	0.05076
41	0x3f8e3948	1.1111231
42	0xc0009e31	-2.0096552
43	0x3f0a54f2	0.54035866
44	0xbc8f1e20	-0.01747042
45	0xbc7aabab	-0.015299718
46	0xbc940102	-0.018066887
47	0xbd41cddc	-0.047315463
48	0x3d8850c5	0.066560306
49	0x3c70cd70	0.014697418
50	0xbb59caab	-0.0033232372
51	0x3d1235a9	0.035695706
52	0x3d73b9d8	0.059503406
53	0xbc911594	-0.017710485
54	0xbda12941	-0.07869197
55	0x3d86107d	0.06546114
56	0x3d1bf145	0.03807189
57	0x3d2502aa	0.040285744
58	0xbbe3c2f2	-0.0069507295
59	0x3d792eaa	0.060835518
60	0xbd42066e	-0.047369413
61	0x3eb61048	0.35559297
62	0x3f3a6b95	0.7282041
63	0xbf5c97ca	-0.8616911
64	0x3cadea5f	0.02122992
65	0xbc3c7faf	-0.0115050515
66	0xbe9c364c	-0.30510175
67	0xbf068159	-0.5254112
68	0xbea4c0e8	-0.32178426
69	0x3c9dfd0a	0.019285697
70	0x3c9f6b69	0.019460397
71	0xbf34a1eb	-0.7055957
72	0xbf891e0e	-1.0712297
73	0xbf2f8f95	-0.68578464
74	0x3b4cd4a0	0.0031254664
75	0xbcb115e7	-0.02161689
76	0x3e8f2b22	0.27962595
77	0xbf62b25f	-0.8855342
78	0xbf17d562	-0.5930997
79	0xbd0f4952	-0.034982033
80	0x3d8fdbb3	0.07024326
81	0x3d32b5c0	0.04363036
82	0x3c32610d	0.0108873965
83	0x3d97c731	0.074110396
84	0x3c8a89cd	0.016911412
85	0x3d9910fd	0.074739434
86	0xbcb0c462	-0.021578018
87	0xbcb4e333	-0.022080993
88	0x3d1b1904	0.037865654
89	0xbd82bc6d	-0.063835956
90	0xbc8704e3	-0.016481822
91	0x3cfa5309	0.030557172
92	0x3d31244f	0.043247517
93	0x3c016511	0.007897631
94	0xbc72a02a	-0.014808694
95	0xbdaa1dc7	-0.08306461
96	0x3c59c5bb	0.0132917715
97	0x3d7a4e37	0.061109748
98	0x3d7a166c	0.06105654
99	0x3cf8d943	0.030377036
100	0x3d5764c7	0.052586343
101	0x3e1cf0df	0.1532626
102	0xbeade4c5	-0.339636
103	0xbd0c92b0	-0.03431958
104	0xbcdbe59a	-0.026842881
105	0x3cbc3226	0.022973131
106	0x3db10530	0.086435676
107	0x3dd01bcc	0.10161552
108	0x3d1032de	0.03520476
109	0x3db4c94d	0.088274576
110	0xbd692e1a	-0.05692873
111	0xbf97a994	-1.1848626
112	0x3ea742c6	0.32668132
113	0xbf2fc8a0	-0.68665504
114	0xbd2e5022	-0.04255689
115	0xbd47bcae	-0.048763923
116	0xbed7f282	-0.42177206
117	0x3ef5a134	0.4797455
118	0x3db1f7a2	0.0868981
119	0xbd2d604b	-0.04232816
120	0xbc045e0e	-0.008079065
121	0x3cd105ee	0.025515523
122	0x3d9af666	0.07566528
123	0xbeb2cd3a	-0.349222
124	0x3cb8f66d	0.022578442
125	0xbc595970	-0.0132659525
126	0x3d355c9d	0.044277776
127	0xbcd75270	-0.026284426
128	0xbb0c34eb	-0.0021393846
129	0x3d2700cb	0.04077224
130	0x3d2f082a	0.042732395
131	0xbd25519f	-0.040361043
132	0x3d83931b	0.064245425
133	0x3c52ecd7	0.01287385
134	0xbd8062de	-0.062688574
135	0x3b3f1925	0.0029159274
136	0xbb89c9b1	-0.0042049517
137	0x3d07adfd	0.033124913
138	0x3d634532	0.05548591
139	0xbdf20267	-0.118168645
140	0x3d8abf66	0.067747876
141	0xbe66a385	-0.22523315
142	0x3da1d582	0.079020515
143	0x3e9ab008	0.30212426
144	0xbcb3114c	-0.021858834
145	0xbd1c7b22	-0.038203366
146	0x3ee6f079	0.4510534
147	0xbd39fc04	-0.045406356
148	0xbf9adf3a	-1.2099373
149	0xba55d057	-0.000815635
150	0xbb938b94	-0.004502723
151	0x3f3b731a	0.73222506
152	0x3f652490	0.89508915
153	0xbf782e76	-0.96945894
154	0xbd4fbd0f	-0.05071741
155	0x3d033f5e	0.032042854
156	0xbd02a996	-0.03190001
157	0xbe124bde	-0.14286754
158	0xbbff85a8	-0.0077979155
159	0x3caa7427	0.020807339
160	0xbaef8e3b	-0.0018276641
161	0xbc418fe6	-0.011814093
162	0xbd25b95c	-0.040459976
163	0x3d49f57e	0.049306385
164	0xbd99e24a	-0.07513864
165	0x3bccad1d	0.0062462226
166	0xbbf25ddf	-0.007396444
167	0xbd5fb6ff	-0.054617878
168	0x3d7cd83a	0.061729647
169	0xbd0e65db	-0.034765106
170	0xbb69dfa2	-0.0035686274
171	0x3e60b275	0.21943076
172	0x3f1d70d3	0.6150028
173	0xbea033df	-0.31289575
174	0xbca122d3	-0.019669926
175	0x3cc2694a	0.023731846
176	0x3d2ab57a	0.041676976
177	0x3e3f5689	0.18685354
178	0xbe539e93	-0.2066596
179	0x3ce0d3c2	0.027444724
180	0x3e200043	0.156251
181	0x3c34a3db	0.011025394
182	0x3d125fd9	0.03573594
183	0xbc1c265e	-0.009530632
184	0xbd7156c7	-0.058920648
185	0xbd1ec55f	-0.038762446
186	0x3d4461f4	0.047944978
187	0xbd1369f1	-0.035989705
188	0x3d480c99	0.04884014
189	0xbb20e0ec	-0.0024548126
190	0x3c8fb352	0.017541561
191	0x3e999ae0	0.30000973
192	0xbf1e92ce	-0.61942756
193	0x3f0828b8	0.5318713
194	0x3c048eac	0.008090656
195	0x3b752ec5	0.003741191
196	0x3f209309	0.6272436
197	0xbf08985e	-0.53357494
198	0x3f007ff4	0.5019524
199	0xbced301f	-0.02895361
200	0xbd9780ff	-0.07397651
201	0x3fa4ab57	1.2864789
202	0xbc2bbc5e	-0.010481922
203	0xbf9ca9b0	-1.2239285
204	0x3d9a3439	0.07529492
205	0x3cc18f36	0.023627859
206	0x3f0e59c8	0.55605745
207	0x3f80275b	1.001201
208	0xbf9bcbed	-1.2171608
209	0xbd444ccd	-0.047924805
210	0x3c8cb22f	0.017174808
211	0xbcc9fecf	-0.024657635
212	0x3dd4aa2d	0.10384021
213	0x3be37c2e	0.0069422936
214	0x3cb902f2	0.022584412
215	0xbd6d55cf	-0.05794316
216	0xbd8763ee	-0.06610857
217	0xbcb7e9ce	-0.022450354
218	0x3dd0346d	0.101662494
219	0x3b94950b	0.004534369
220	0xbd52fc8b	-0.051510375
221	0xbd87e86a	-0.06636126
222	0xbc859118	-0.016304538
223	0x3d04bb63	0.03240527
224	0xbcef9f3b	-0.029250732
225	0x3d307261	0.04307783
226	0x400904ba	2.1409135
227	0xbf2edc6f	-0.68305105
228	0x3ee15ff8	0.4401853
229	0xbb9c2cca	-0.0047660815
230	0xbc6b8b15	-0.014376421
231	0x403ba3b7	2.9318674
232	0xbf407900	-0.7518463
233	0xbe9bc10c	-0.3042072
234	0x3d09a57e	0.03360509
235	0x3c53f472	0.012936698
236	0x3db9d6c6	0.09074168
237	0x3d9b173b	0.0757279
238	0xbf264ad8	-0.6495795
239	0xbd51ad1a	-0.051190473
240	0x3d04331e	0.03227531
241	0x3d272db2	0.040815063
242	0x3d8632bc	0.065526456
243	0xbd9e3645	-0.07725195
244	0x3bb90a97	0.0056470144
245	0x3df1e88a	0.118119314
246	0x3cdcdbad	0.026960218
247	0x3d2a9d32	0.04165382
248	0x3d581873	0.05275769
249	0x3b338c74	0.002739695
250	0x3cfdaad8	0.030965254
251	0xbdbc1311	-0.09183324
252	0xbc4e7e78	-0.012603395
253	0xbdac00e7	-0.083986096
254	0xbd202bcd	-0.03910427
255	0xbd898065	-0.067139424

encoder.2.0.bias f4 [79]
0	0xbf4f35b8	-0.80941343
1	0x3f00ea44	0.5035746
2	0x3d070fc5	0.032974023
3	0x3ea86962	0.328929
4	0xbec7407b	-0.38916382
5	0x3e83b518	0.257241
6	0x3dae305a	0.08505316
7	0x3c1fe1de	0.009758441
8	0x3c07d8e5	0.008291458
9	0xbf0a0f7f	-0.53929895
10	0x3f017572	0.5056983
11	0x3e9bb7db	0.30413708
12	0xbe1f41a4	-0.15552384
13	0x3f1ca5c7	0.61190456
14	0xbe0d2d23	-0.1378675
15	0x3f39478f	0.72374815
16	0x3eccdd49	0.40012577
17	0xbdc994e5	-0.098428525
18	0x3c95391f	0.018215714
19	0xbcd7e235	-0.026352981
20	0xbbf95788	-0.0076093115
21	0x3daa235b	0.08307525
22	0x3d924716	0.07142465
23	0x3f96543e	1.1744459
24	0xbbc551af	-0.0060217003
25	0xbedb6a46	-0.42854518
26	0xbc77d4a5	-0.015126382
27	0x3fac3142	1.3452532
28	0x3d2219f4	0.039575532
29	0x3e644389	0.22291388
30	0xbf96e89c	-1.1789737
31	0xbf41b4ea	-0.7566668
32	0x3edc745f	0.43057534
33	0x3ed403ea	0.41409236
34	0xbf3def70	-0.7419348
35	0xbec175b8	-0.37785125
36	0x3ebb3716	0.36565465
37	0x3e14122d	0.14460059
38	0xbf8f4cd2	-1.1195319
39	0x3d027cc8	0.031857282
40	0x3e9ff605	0.31242386
41	0x3f2b0428	0.66803217
42	0xbe8b965f	-0.27263162
43	0xbf815527	-1.0104111
44	0x3f1a1b5c	0.60198
45	0x3f1ce858	0.6129203
46	0xbfb3c46a	-1.4044316
47	0xbe0ef041	-0.13958837
48	0x3eb2e787	0.34942266
49	0x3e81f560	0.2538252
50	0x3ee59022	0.44836527
51	0x3f36bfb0	0.7138624
52	0x3f71b7de	0.94421184
53	0xbd88686f	-0.06660544
54	0xbf39f88d	-0.72644883
55	0xbdc50794	-0.09620586
56	0xbe4ada68	-0.19809878
57	0xbf3c2fb9	-0.7351032
58	0x3fa21e7a	1.2665551
59	0x3d1dc854	0.038521126
60	0x3f351669	0.7073732
61	0x3ef34612	0.47514397
62	0x3ca63bec	0.020292245
63	0xbd848f43	-0.064726375
64	0xbf2382f6	-0.63871706
65	0xbfa8ce14	-1.318789
66	0x3f11fa53	0.5702259
67	0x3fabaa24	1.3411298
68	0x3eee5bc3	0.46554384
69	0xbec64fb5	-0.38732687
70	0x3e05659d	0.13027044
71	0xbe490577	-0.19630991
72	0xbe40c271	-0.18824174
73	0xbdebff1f	-0.1152327
74	0xbe81387e	-0.25238413
75	0x3e000dc0	0.12505245
76	0xbe38c3e4	-0.18043476
77	0xbfb708e9	-1.4299594
78	0x3f985d39	1.1903449

encoder.2.1.weight f4 [79]
0	0xbea24682	-0.31694418
1	0x3e89f0fc	0.2694167
2	0xbb49d98b	-0.0030799832
3	0x3ea07818	0.31341624
4	0x3e84e6a2	0.2595721
5	0xbef1023f	-0.47072026
6	0x3bc39e6e	0.005969814
7	0x3b58ee1b	0.0033100906
8	0xbe8f5bb5	-0.27999654
9	0xbf0022b2	-0.5005294
10	0x3ecaaed5	0.3958651
11	0x3ee651e8	0.44984365
12	0x3ec6905e	0.38782018
13	0xbe271786	-0.16317567
14	0xbe9e04b9	-0.30862978
15	0xbec23069	-0.3792756
16	0xbf4a69a4	-0.79067445
17	0x3ec558ed	0.38544407
18	0x3ae2a5af	0.0017291809
19	0x3b58182b	0.003297339
20	0xb9840ba5	-0.00025185678
21	0x3ea0c30f	0.31398818
22	0xba7b7b30	-0.00095932465
23	0xbe8146e8	-0.2524941
24	0xbeff50ac	-0.49866235
25	0x3e774ae2	0.2414966
26	0xb99e6023	-0.00030207736
27	0xbf0b5b44	-0.54436135
28	0xbbed95f8	-0.0072505437
29	0xbe80f6e7	-0.25188372
30	0x3ea55356	0.32290143
31	0x3ed7c516	0.42142552
32	0xbf35756d	-0.708823
33	0xbe98cae8	-0.29842305
34	0xbe953bdf	-0.2914724
35	0xbf05ab4d	-0.5221451
36	0x3ea3dd45	0.32004753
37	0xbee67333	-0.45009765
38	0xbe84c924	-0.25934708
39	0xbea164d0	-0.31522226
40	0xbe8dc965	-0.27692714
41	0x3f1b9dde	0.6078776
42	0x3eb6a223	0.35670575
43	0x3f13a159	0.5766807
44	0xbe785682	-0.2425175
45	0x3e86bfb4	0.26318133
46	0x3efe224d	0.49635544
47	0x3ed70089	0.41992596
48	0xbef460c0	-0.47730064
49	0xbf188ca9	-0.5958963
50	0xbeef464f	-0.4673333
51	0xbeebd920	-0.4606409
52	0x3f313545	0.6922191
53	0xbea5d133	-0.3238617
54	0xbf05a2e9	-0.52201706
55	0x3f1a2bf3	0.6022331
56	0x3f029650	0.5101061
57	0x3f14776b	0.5799472
58	0x3efbb709	0.49163082
59	0xbe7f0ed2	-0.24907997
60	0x3ed4f375	0.41591993
61	0x3ea4cd52	0.32187897
62	0x3a96140d	0.0011450067
63	0xbead4b4e	-0.33846515
64	0x3f1bcdff	0.608612
65	0xbe59717d	-0.21234699
66	0x3ee204ea	0.44144374
67	0xbe82fd1e	-0.25583738
68	0xbf21af07	-0.63157696
69	0x3edc8ba9	0.43075302
70	0xbede0d17	-0.43369362
71	0xbed2e3c5	-0.411894
72	0xbe98dfc6	-0.29858226
73	0xbe5c2a5c	-0.21500534
74	0x3f1583a0	0.5840397
75	0xbe840d95	-0.25791612
76	0x3ea6aeb9	0.32555178
77	0x3ea389a9	0.31940964
78	0x3eb020c4	0.34399998

encoder.2.1.bias f4 [79]
0	0x3e5f7017	0.21820103
1	0xbcb649ba	-0.022251952
2	0xbd870580	-0.06592846
3	0x3d89ea55	0.067341484
4	0x3e16c115	0.14722092
5	0xbe0a1018	-0.13482702
6	0xbd58621a	-0.052827932
7	0xbd2049c9	-0.039132867
8	0xbda04807	-0.07826238
9	0xbe9777b2	-0.29583508
10	0x3e2ca445	0.16859539
11	0x3cd1661d	0.025561387
12	0x3dff43a5	0.12464074
13	0x3dafe954	0.08589426
14	0xbd274545	-0.040837545
15	0xbe525aa9	-0.20542397
16	0xbe922cff	-0.28549954
17	0x3c2477c9	0.010038325
18	0xbd6d3c9b	-0.057919126
19	0xbd72c140	-0.05926633
20	0xbc91f55f	-0.017817197
21	0x3e0d1373	0.1377695
22	0xbcdf0fd1	-0.027229222
23	0xbced0326	-0.028932165
24	0xbe67d17c	-0.22638506
25	0x3e0a14ed	0.13484545
26	0xbca3c373	-0.019990658
27	0xbf0e284a	-0.55530226
28	0xbd60d80c	-0.05489354
29	0x3efa6b86	0.4891016
30	0x3e148be5	0.1450649
31	0x3e0e61a6	0.13904437
32	0x3e5ab2bd	0.21357246
33	0xbdf33e6e	-0.11877142
34	0x3d19abe9	0.037517462
35	0xbe906c54	-0.28207648
36	0x3dac4438	0.08411449
37	0x3e0f48b4	0.13992578
38	0x3e41a809	0.18911757
39	0x3e4c95a2	0.19978955
40	0x3f227db2	0.63473046
41	0xbed2f65c	-0.41203582
42	0x3e9e49c4	0.30915654
43	0xbeab1889	-0.33417156
44	0x3e14ffa4	0.14550644
45	0x3e1da7c3	0.15396027
46	0x3bf323f8	0.0074200593
47	0xbccd56ce	-0.025065806
48	0x3e87ad50	0.26499414
49	0xbe3fec82	-0.18742564
50	0xbe699098	-0.22809064
51	0x3de9ab1f	0.11409592
52	0xbe637c6f	-0.22215436
53	0xbeb14398	-0.34621882
54	0x3e15175c	0.14559692
55	0xbe51eee4	-0.20501286
56	0xbe9a1752	-0.30095917
57	0x3e1528fb	0.14566414
58	0xbf21faed	-0.6327351
59	0x3df80c14	0.12111679
60	0xbf02282a	-0.50842535
61	0xbe9654c4	-0.29361546
62	0xbd6153f5	-0.05501171
63	0xbdd6a8ef	-0.1048144
64	0xbee7e976	-0.45295304
65	0x3f236c0f	0.6383676
66	0x3e69a9d3	0.22818689
67	0x3d43a1ed	0.047761846
68	0xbec2eb94	-0.38070357
69	0xbe085454	-0.13313419
70	0xbf06a827	-0.5260033
71	0x3e5b2b82	0.21403316
72	0xbd132411	-0.035923067
73	0x3db24a98	0.08705634
74	0xbecf2596	-0.40458363
75	0x3e020545	0.12697323
76	0xbcf5be26	-0.029997896
77	0x3e556d8d	0.20842572
78	0x3b067f44	0.0020522634

encoder.2.1.running_mean f4 [79]
0	0xbfb6b143	-1.4272846
1	0x3e0d5315	0.13801225
2	0xbbd95fd2	-0.006633737
3	0x3fa5e915	1.2961756
4	0xbd415b74	-0.047206357
5	0x3e8c59b1	0.2741218
6	0x3cce6a15	0.025197068
7	0x3d14fa63	0.0363716
8	0x3f07131f	0.5276355
9	0xbe22ad3d	-0.15886398
10	0x40531e38	3.2987194
11	0xbe8ed9f0	-0.27900648
12	0xbf864585	-1.0489966
13	0x3f93cfae	1.1547754
14	0x3f1e8d1f	0.61934084
15	0x3f945ee3	1.1591457
16	0x3f97623e	1.1826856
17	0x3ab9aa2d	0.0014165096
18	0xbb437b95	-0.00298283
19	0xbd892a75	-0.06697551
20	0xbb1c6b39	-0.002386762
21	0xbf59a04b	-0.8501021
22	0x3e20f36e	0.15717861
23	0x3f550a11	0.83218485
24	0x3f87b071	1.0600721
25	0xbf0b6105	-0.54444915
26	0x3d1d922a	0.03846947
27	0xbf126e60	-0.5719967
28	0x3db52453	0.08844819
29	0x3f61350e	0.8797158
30	0xbf92ead2	-1.1477911
31	0xbfc2fe48	-1.523385
32	0x3fb89753	1.442118
33	0xbdb5b92f	-0.088732116
34	0xbe93bbd0	-0.28854227
35	0xbc816e0b	-0.015799543
36	0x3f9f6a13	1.2454246
37	0x3e461d8a	0.19347206
38	0xbfd6f791	-1.6794301
39	0xbf0ddc22	-0.5541402
40	0x3f4feafb	0.81217927
41	0x3ea28210	0.31739855
42	0xbe8d35c2	-0.27580076
43	0xbfb23f9e	-1.3925664
44	0x3e601519	0.21883048
45	0x3f6b325d	0.91873723
46	0xbf9aebfe	-1.2103269
47	0xbf2c8b7f	-0.67400354
48	0x3ee91f0d	0.45531502
49	0x3faaae61	1.3334466
50	0x3f8ef5ad	1.1168724
51	0x3f70c73e	0.9405402
52	0xbf269a95	-0.65079623
53	0xbfc0c174	-1.5059037
54	0xbfb8da75	-1.4441668
55	0xbf81fbb6	-1.0154941
56	0xbeca8f9b	-0.39562687
57	0x3e1bbaa9	0.15207924
58	0x405e6e89	3.4754965
59	0xbe9e4b68	-0.30916905
60	0x401de076	2.466825
61	0x3fc2e4eb	1.522611
62	0x3d9481e9	0.07251341
63	0x3f1df77f	0.61705774
64	0xbf69f29f	-0.91385835
65	0xc007b089	-2.1201499
66	0xbe22bdde	-0.15892741
67	0x3f4c9925	0.7992118
68	0x3f5f4f2c	0.8723018
69	0xbf8cb80f	-1.099367
70	0xbf826d97	-1.0189694
71	0xbf314dd6	-0.69259393
72	0x3ed84f03	0.4224778
73	0xbea7faf0	-0.32808638
74	0xbe8da97f	-0.27668378
75	0xbf1ce3fb	-0.6128537
76	0xbe2c7457	-0.16841255
77	0xbea74951	-0.32673123
78	0x3f4ab6e3	0.79185313

encoder.2.1.running_var f4 [79]
0	0x3f7d8a41	0.99039084
1	0x3ecfaa56	0.40559644
2	0x3bb12e8d	0.0054071606
3	0x3f49e021	0.7885762
4	0x3f314fa9	0.69262177
5	0x3f3e93b0	0.74444103
6	0x3b12580a	0.0022330307
7	0x3adb5528	0.0016733753
8	0x3f2421dd	0.6411417
9	0x3ed5a089	0.4172404
10	0x4027d4e6	2.6223693
11	0x3f189b82	0.59612286
12	0x3f062bb7	0.52410454
13	0x3e5a6f6b	0.21331565
14	0x3eecc76c	0.46245897
15	0x3ed8015d	0.4218854
16	0x3f84b60d	1.0368057
17	0x3eb152ef	0.34633586
18	0x3b2ca924	0.0026345933
19	0x3a702393	0.00091605744
20	0x3a1b9d1f	0.00059361936
21	0x3f00186f	0.5003728
22	0x3b4b5046	0.0031023188
23	0x3e5440c2	0.20727828
24	0x3fcbeeab	1.5932211
25	0x3f2bf75e	0.6717433
26	0x3bd4371a	0.006476295
27	0x3f82189e	1.0163763
28	0x3acf9f23	0.0015840273
29	0x3ea8aa24	0.32942307
30	0x3f88bb42	1.0682147
31	0x3f2bb146	0.6706737
32	0x40048d64	2.0711298
33	0x3ed18951	0.40925077
34	0x3f170952	0.58998597
35	0x3f106dc9	0.5641752
36	0x3f47374b	0.77818745
37	0x3f4c0804	0.7969973
38	0x3f378db5	0.717006
39	0x3f64e953	0.89418525
40	0x3eb83ee8	0.35985494
41	0x3eb3c4fc	0.35111225
42	0x3f8afa9c	1.085773
43	0x3ebdfa9a	0.37105256
44	0x3f0be50d	0.5464638
45	0x3f03addf	0.5143718
46	0x3f8fc545	1.1232077
47	0x3f28f559	0.6599937
48	0x3efac439	0.4897783
49	0x3fc3684f	1.5266207
50	0x3e838440	0.25686836
51	0x3f0a3d6e	0.53999984
52	0x40a56e6c	5.169729
53	0x3f66924a	0.9006697
54	0x3f7b9433	0.9827301
55	0x3fc5e142	1.5459368
56	0x3fcb4052	1.5879004
57	0x3f9e7172	1.2378371
58	0x3fbfe25f	1.4990958
59	0x3f52a048	0.8227582
60	0x3f95e8df	1.1711692
61	0x3ede3f98	0.43407893
62	0x3b952218	0.0045511834
63	0x3f5ca7eb	0.8619372
64	0x3e94f791	0.29095128
65	0x3e96a10d	0.29419747
66	0x3fbd9aa5	1.4812819
67	0x3f2d476b	0.676871
68	0x3f608543	0.8770334
69	0x3fc0f5ac	1.5074973
70	0x3f0062d1	0.5015078
71	0x3f2eca30	0.68277264
72	0x3e98bd67	0.29832003
73	0x3f0a0a6a	0.5392214
74	0x3f90d63d	1.131538
75	0x3f87e579	1.0616904
76	0x3f13e25d	0.5776728
77	0x3fbb8c65	1.465222
78	0x3f010aa1	0.50406843
