models/best-vae_circ_noisy-ThreeGPP-real-3gpp-4rx-3p.pt (torch, 98767 bytes, 44 tensors)

embed_data.weight f4 [17, 2, 1]
-0.7279526 -0.36664036 0.0020839295 -0.0026376955 -0.42174938 -0.07346024 -1.3104963 -0.15184833
-0.0028955704 -0.010111092 -0.031487234 1.6118605 -0.70466524 0.57235414 -0.004952376 -0.01647535
0.11663345 0.87676156 0.2045733 0.55623704 0.86869663 0.34632668 -1.9841242e-05 0.003938306
0.010322841 -0.0016434226 0.8516658 -0.3338923 -0.45938906 0.92017686 -0.00494318 0.0023743988
-0.0024488308 -0.013367581
00000000: 1a5b 3abf 49b8 bbbe 8992 083b 30dd 2cbb
00000010: 89ef d7be 5372 96bd 58be a7bf 217e 1bbe
00000020: 9cc3 3dbb fea8 25bc c2f8 00bd 7251 ce3f
00000030: f164 34bf cd85 123f 8a47 a2bb 50f7 86bc
00000040: 85dd ee3d 7273 603f aa7b 513e 8d65 0e3f
00000050: e762 5e3f bb51 b13e be70 a6b7 e80c 813b
00000060: 2221 293c 1d68 d7ba c506 5a3f eef3 aabe
00000070: 0b35 ebbe b690 6b3f 66fa a1bb cd9b 1b3b
00000080: 907c 20bb b303 5bbc

embed_data.bias f4 [17]
0.63792646 1.3199823 -0.71501434 -0.14733051 0.0046322607 0.26739183 0.14680734 0.0033683171
0.28998253 0.18666792 -0.2968678 -0.0035286462 -0.00071705476 -0.5384071 -0.77512115 -0.0021732813
0.011421942
00000000: 264f 233f 2ef5 a83f 2e0b 37bf cfdd 16be
00000010: 38ca 973b 95e7 883e aa54 163e fcbe 5c3b
00000020: 9778 943e e025 3f3e 0eff 97be dc40 67bb
00000030: bbf8 3bba 0cd5 09bf 576e 46bf 9c6d 0ebb
00000040: 1923 3b3c

fc_mu_var.weight f4 [32, 52]
0.002071621 -0.00088554586 0.0016512559 0.0035554192 -0.00042188168 -0.0031232908 0.05618616 0.005234769
0.0001536802 -0.0013460941 -0.0005347405 -0.00018659295 0.0013527737 0.011280781 -0.00029728634 -0.004501883
0.05421229 0.0015175949 -0.0006486417 -0.0014676242 0.00018491776 -0.043093953 -0.0040940996 0.000119695556
-0.001901858 0.09744665 -0.011447496 0.0020664867 0.0050679035 0.00040411908 -0.00033275702 0.0021141581
0.051411264 0.0013007736 0.04060067 -0.0014268277 0.0014864005 0.00087155506 -0.00011788295 0.0006859025
0.0032181812 0.00065163366 0.0008220193 0.005520557 0.0023723226 0.012654276 0.0016898968 -0.0015860844
0.059196044 0.0023610943 -0.0018443392 0.0005673346 0.037327576 0.0026767752 0.0001257469 0.002354076
0.0007792719 0.0011787431 -0.01722911 0.032172807 -0.0024972274 -0.0033618466 0.00028534673 0.002451248
-0.0028364412 -0.007793556 0.00050049694 -0.0004501643 0.086166404 0.0008468827 -0.0024919335 -0.004431521
0.0033218125 -0.022779875 0.0003969004 -0.00092115486 0.0009692688 0.046173003 -0.006341803 0.0019264094
-6.4560604e-06 0.0012945327 -0.0006762024 0.00014050587 -0.000887901 -0.00011735587 0.0056507285 0.00064952316
0.000151948 -0.0012285179 0.002284465 0.0042314646 -0.000562089 0.0005060218 0.0004994957 -0.0009974109
-0.0029069546 0.0011087253 0.002191678 -0.00055832934 -0.079189636 0.035432015 -0.0019955486 0.0030090422
-0.02023325 -0.0015474835 0.00036795976 -0.0016515317 0.00016787353 0.00048653947 -0.08300703 -0.071727894
0.0021839319 0.0016920741 -0.00032927867 -0.002804055 0.0020579034 0.020813022 0.00051901705 -0.00046932988
0.006395417 0.00013494898 0.00105038 0.0030085577 -0.0018179499 0.020552622 -0.0012488263 0.0029674612
-9.0979775e-05 0.005973022 0.017116185 -0.0009765943 -3.9939234e-05 -0.0007521108 0.00021267767 8.201979e-05
0.03464207 0.0012751134 0.02750643 0.00017440857 -0.0011792771 0.0013615106 -0.0012999928 -0.0036548905
0.0018525636 -0.00095350307 -0.0012971484 0.0019708471 0.002009311 -0.015407097 -0.0027701384 0.00071577984
-0.10925874 0.008896982 0.0015016166 -0.0009821606 0.02657235 -0.0012872806 0.0010465254 -0.0006442929
-0.00036647217 -0.0031313912 0.02658388 0.013968084 0.00038710627 0.0023727822 0.00018593644 0.0015985972
-0.0010683294 0.013757537 0.001222688 0.0011357391 -0.029136665 -0.0007238009 0.0032276467 0.0018142499
-0.0024080751 0.0352856 0.0025509547 -0.0014695983 0.0008605332 0.023221828 -0.019096298 -0.0012065859
-1.7392562e-05 0.0008083132 0.0017206637 0.0009690494 -0.115398936 -0.0008324803 0.0010930249 0.00047868508
0.0014950851 0.00056895916 -0.00015149306 -0.0011851973 -0.0027522412 0.0010678908 0.0014573173 0.0018035518
0.0009816986 0.015859438 0.0011443854 6.9740156e-05 -0.044041205 0.021047859 -0.00010378996 -0.0019153054
0.033231262 -0.0023690837 -0.0011556328 0.0011377678 -0.0019835287 -0.0031394 0.08203364 -0.0048341868
-0.00052478194 0.0014431695 0.0030068392 -0.003764715 0.0027050597 0.018180968 -0.00088867906 0.0007397689
-0.02366042 -0.0003297893 0.00017210522 0.0035467846 -0.0031735091 0.006776597 -0.0027827674 -0.0017047321
-0.0043436703 0.020734996 0.025307555 0.0009618177 0.0012305033 0.00049101404 0.0007837533 0.00026304438
-0.0008187046 0.00061531214 -0.026808476 -0.0005234656 0.00016835808 0.0007895944 -0.0009558745 -0.0038072437
0.0008093363 -0.0014402927 5.438278e-05 0.006169202 0.0061010746 0.004065735 -0.0018049527 0.00084610353
00000000: 08c4 073b fa23 68ba f46e d83a 0902 693b
00000010: 0030 ddb9 20b0 4cbb 7523 663d 6d88 ab3b
00000020: 3725 2139 6c6f b0ba d42d 0cba 2aa8 43b9
00000030: 8e4f b13a 06d3 383c 19dd 9bb9 8884 93bb
00000040: b50d 5e3d 09ea c63a 9c09 2aba 4c5d c0ba
00000050: 7ce6 4139 4983 30bd cc27 86bb 1005 fb38
00000060: c447 f9ba 1c92 c73d 478e 3bbc e56d 073b
00000070: a810 a63b f2df d339 e475 aeb9 b08d 0a3b
00000080: 9e94 523d b87e aa3a e34c 263d 6504 bbba
00000090: 53d3 c23a 1279 643a ed37 f7b8 23ce 333a
000000a0: 1fe8 523b 65d2 2a3a c87c 573a cae5 b43b
000000b0: f878 1b3b e153 4f3c 877f dd3a 29e4 cfba
000000c0: 8d77 723d 97bc 1a3b c1bd f1ba 2eb9 143a
000000d0: cde4 183d d66c 2f3b edda 0339 d746 1a3b
000000e0: 0d48 4c3a 0e80 9a3a 1024 8dbc a2c7 033d
000000f0: 86a8 23bb 6d52 5cbb 979a 9539 1ea5 203b
00000100: 96e3 39bb 1661 ffbb c833 033a 0804 ecb9
00000110: 0378 b03d 5601 5e3a b54f 23bb 4b36 91bb
00000120: c4b2 593b dc9c babc 1217 d039 a879 71ba
00000130: 8716 7e3a e71f 3d3d e6ce cfbb 937f fc3a
00000140: 23a1 d8b6 4fad a93a 2d43 31ba c254 1339
00000150: 07c2 68ba f41c f6b8 bf29 b93b c344 2a3a
00000160: 3b54 1f39 3806 a1ba f6b6 153b 19a8 8a3b
00000170: 2759 13ba 8ca6 043a 97f0 023a 8ebb 82ba
00000180: 9b82 3ebb a652 913a 41a2 0f3b d95c 12ba
00000190: 2d2e a2bd 2921 113d c0c7 02bb 5a33 453b
000001a0: 33c0 a5bc eed4 caba b9ea c039 3578 d8ba
000001b0: 3507 3039 3916 ff39 97ff a9bd 13e6 92bd
000001c0: 4c20 0f3b 96c8 dd3a 09a3 acb9 3dc4 37bb
000001d0: e4dd 063b 1280 aa3c a50e 083a 6410 f6b9
000001e0: a590 d13b 1781 0d39 e7ac 893a 392b 453b
000001f0: 4748 eeba f95d a83c a8af a3ba bd79 423b
00000200: 65cc beb8 57b9 c33b 3e37 8c3c 1101 80ba
00000210: 6d84 27b8 4d29 45ba 3a02 5f39 0a02 ac38
00000220: d8e4 0d3d b521 a73a 2a55 e13c 72e1 3639
00000230: f991 9aba b774 b23a 8564 aaba e386 6fbb
00000240: b8d1 f23a 82f4 79ba 1405 aaba 5429 013b
00000250: a5ae 033b 0c6e 7cbc 368b 35bb 2ca3 3b3a
00000260: 0cc3 dfbd a6c4 113c e4d1 c43a d7bb 80ba
00000270: 42ae d93c f8b9 a8ba 912b 893a c4e5 28ba
00000280: 1023 c0b9 0738 4dbb 70c6 d93c 64da 643c
00000290: 86f4 ca39 ae80 1b3b eff7 4239 0588 d13a
000002a0: 3007 8cba 4b67 613c 9a42 a03a 15dd 943a
000002b0: 04b0 eebc 75bd 3dba ed86 533b 20cc ed3a
000002c0: ccd0 1dbb a287 103d eb2d 273b 899f c0ba
000002d0: 6895 613a b43b be3c d76f 9cbc 4e26 9eba
000002e0: 3ee6 91b7 fbe4 533a e587 e13a ce07 7e3a
000002f0: 4756 ecbd cf3a 5aba d443 8f3a 06f8 fa39
00000300: bbf6 c33a 3426 153a 1cda 1eb9 9f58 9bba
00000310: f25e 34bb 78f8 8b3a 7403 bf3a 2865 ec3a
00000320: 57ac 803a a7eb 813c 34ff 953a 7641 9238
00000330: 8d64 34bd 8f6c ac3c cfa9 d9b8 fc0a fbba
00000340: 811d 083d a142 1bbb 9a78 97ba 2721 953a
00000350: 17fe 01bb 64be 4dbb 4101 a83d 1968 9ebb
00000360: 8591 09ba bc28 bd3a 640e 453b 70b9 76bb
00000370: 5f47 313b 41f0 943c 3ef6 68ba 0ded 413a
00000380: 7fd3 c1bc 92e7 acb9 2577 3439 2c71 683b
00000390: a6fa 4fbb 370e de3b 175f 36bb 5171 dfba
000003a0: 5955 8ebb 70dc a93c ca51 cf3c 7e22 7c3a
000003b0: d748 a13a 65b7 003a cb74 4d3a 38e9 8939
000003c0: 569e 56ba e64c 213a 739d dbbc 2f39 09ba
000003d0: 4789 3039 c9fc 4e3a a793 7aba f382 79bb
000003e0: a429 543a 34c8 bcba 1119 6438 0427 ca3b
000003f0: 86eb c73b db39 853b 2a94 ecba 0ccd 5d3a

fc_mu_var.bias f4 [32]
0.00048400267 -0.0004734696 0.00025364812 5.0125986e-05 -0.00023421767 -0.0003458836 -0.00029700063 0.1621607
0.00026243005 0.00023013572 4.2015377e-05 -0.0017278953 0.00046493878 1.6970635e-05 0.00014110163 -0.0001695465
3.207263e-05 0.00011805895 -4.6381618e-05 -0.00016651233 -0.00027454758 -0.00021861772 0.0006594764 -0.21135633
0.00030608568 -0.00047701644 0.00017036474 0.0014815717 0.00036368138 0.0005603489 -0.0002341638 0.000101828606
00000000: bdc1 fd39 043c f8b9 13fc 8439 5e3e 5238
00000010: 5498 75b9 b657 b5b9 c0b6 9bb9 740d 263e
00000020: c496 8939 9650 7139 ab39 3038 8c7a e2ba
00000030: 07c3 f339 295c 8e37 aef4 1339 4bc8 31b9
00000040: b985 0638 6b96 f738 e289 42b8 d099 2eb9
00000050: 27f1 8fb9 bf3c 65b9 b6e0 2c3a cb6d 58be
00000060: 207a a039 1018 fab9 f0a3 3239 4c31 c23a
00000070: 7dac be39 61e4 123a de89 75b9 d18c d538

encoder.0.0.weight f4 [17, 17, 4]
0.04418494 0.043589026 0.05444988 -0.79989076 -0.13329269 0.082189195 -0.3049273 -0.3062862
0.12593372 0.07120899 -0.0019571928 -0.036409765 0.054663617 0.10839633 -0.20708486 -0.30823
0.05430842 0.012716999 -0.14512812 -0.051549163 -0.11686487 -0.038265917 -1.2675204 1.9313655
0.031764533 0.086213425 -0.9280377 0.81881726 0.09691082 0.0004738601 0.04796868 -0.02397101
-0.08745282 0.03655546 -1.0087986 1.6170516 -0.116769925 -0.0041959197 -0.8196489 1.3933926
-0.06844301 -0.072427966 0.048264556 0.67543346 -0.058713064 -0.042576794 -0.032289144 -0.016833557
0.025544958 0.021665022 -0.09608413 0.012188105 -0.01681963 -0.10982984 0.6311349 -0.17819427
0.0784597 0.09575799 -1.3093615 1.2795105 -0.049688395 -0.0070827818 0.0009856459 -0.0070996094
0.07522675 0.022542858 -0.0015655145 -0.042273425 0.16052137 -0.16240703 0.79870933 0.37608314
0.048275717 0.11105689 0.0030830957 0.052272078 -0.07840075 -0.40693778 0.78566444 0.07522483
0.0046580657 -0.6122414 1.0223857 0.23495506 -0.006421974 -0.0041818186 -0.032826237 -0.06560493
-0.06791771 -1.4456823 0.3886234 -0.09212478 0.04297912 -1.560252 0.89754903 0.15866786
-0.046211652 0.04418242 -0.0100472 -0.023276215 -0.08483086 -1.176271 0.15011582 -0.15690129
-0.11256579 -0.86080354 -0.0035405082 -0.17593142 -0.115131 0.30187932 -0.8812097 -0.29024708
0.013038381 0.047003552 0.019033631 0.0091286 0.06720784 0.005282547 0.0011062961 -0.0012258742
-0.09859675 1.2547321 -0.9730314 -0.2373585 -0.091828 -1.7357419 0.6898854 0.0016306101
-0.059020504 -0.012834442 -0.0009123337 0.012470745 -0.017723765 0.044100635 -0.029015042 -0.0720487
0.40286905 0.98068523 -0.07573767 -0.21050231 0.24244316 -0.31080812 -0.031000445 -1.0570098
-0.24301893 0.82411605 -0.043661807 0.17577995 -0.06272109 0.52875125 -0.08539 -0.299693
0.0986768 -0.02307601 -0.031828083 0.05919291 0.055698548 -2.1113183 0.15920383 -0.048232
0.071527444 -0.5050475 0.1628733 -0.21077624 -0.093708284 -0.114101246 -0.12369696 -0.39092284
0.054693677 -2.2893577 0.10407676 -0.036736816 -0.012267911 -2.224681 0.054738022 0.0145083135
-0.37193835 -0.94686687 0.006057077 0.28633338 -0.06716673 0.09221466 -0.019891614 0.21980707
0.11075128 0.031085989 -0.030777732 0.027928201 -0.22315049 0.14596243 -0.050500546 0.3232016
-0.44053474 -1.211724 0.17730683 0.031341836 -0.052251797 -0.43772382 0.19711354 0.08600596
0.07609055 0.24413708 -0.22557127 -0.1810588 0.06606962 0.1880639 -1.347839 0.51551634
-0.19251864 -0.09756666 0.050762862 -0.20190929 0.17780285 0.14425948 -1.2905363 0.8440452
0.11269959 0.123266086 -1.7295327 1.1388687 0.034749266 -0.0015424904 -0.07093489 -0.039542492
-0.17230396 -0.19926481 0.014890046 0.7531501 -0.09405394 -0.05454014 -0.9594197 1.3729941
0.06721026 -0.021786578 -0.065373056 0.03586974 -0.1211919 -0.09817941 0.18929157 0.48619074
-0.14818643 -0.164888 0.36455795 0.2690226 -0.123469815 -0.15478618 1.4105998 -0.6570379
-0.045985114 0.0015163099 0.022378197 -0.02086713 -0.043004137 0.0017157618 0.034001756 -0.050300423
00000000: 45fb 343d 688a 323d d606 5f3d a4c5 4cbf
00000010: e17d 08be cf52 a83d 6e1f 9cbe 8bd1 9cbe
00000020: c5f4 003e 05d6 913d 3f44 00bb 6822 15bd
00000030: f5e6 5f3d e5fe dd3d 0e0e 54be 53d0 9dbe
00000040: 8172 5e3d f65a 503c 779c 14be 3725 53bd
00000050: d956 efbd b9bc 1cbd 1c3e a2bf fc36 f73f
00000060: 871b 023d aa90 b03d e193 6dbf 029e 513f
00000070: 2e79 c63d 6d70 f839 ce7a 443d da5e c4bc
00000080: 771a b3bd 2ebb 153d 5020 81bf 8cfb ce3f
00000090: 1225 efbd ed7d 89bb 83d4 51bf b05a b23f
000000a0: d92b 8cbd 1d55 94bd 0eb1 453d 35e9 2c3f
000000b0: 1c7d 70bd 0165 2ebd 9f41 04bd 87e6 89bc
000000c0: a943 d13c d87a b13c c2c7 c4bd 9eb0 473c
000000d0: 52c9 89bc 78ee e0bd 0f92 213f 8f78 36be
000000e0: 7baf a03d c41c c43d 2899 a7bf 00c7 a33f
000000f0: 0f86 4bbd ae16 e8bb ca30 813a d7a3 e8bb
00000100: 7b10 9a3d cdab b83c f331 cdba e626 2dbd
00000110: b75f 243e 074e 26be 3778 4c3f f88d c03e
00000120: c2bc 453d cb71 e33d c30d 4a3b 3f1b 563d
00000130: 9390 a0bd 265a d0be 4e21 493f 7a0f 9a3d
00000140: b0a2 983b dabb 1cbf 89dd 823f 0f98 703e
00000150: 6c6f d2bb a307 89bb ce74 06bd e15b 86bd
00000160: 7118 8bbd 1e0c b9bf a5f9 c63e ebab bcbd
00000170: e00a 303d 56b6 c7bf c6c5 653f d479 223e
00000180: 6e48 3dbd a0f8 343d 039d 24bc c3ad bebc
00000190: cdbb adbd 0c90 96bf f6b7 193e bbaa 20be
000001a0: e588 e6bd 9f5d 5cbf df07 68bb 5e27 34be
000001b0: cdc9 ebbd ed8f 9a3e f596 61bf 449b 94be
000001c0: ef9e 553c cc86 403d 6bec 9b3c 2090 153c
000001d0: 44a4 893d 3719 ad3b 2301 913a 83ad a0ba
000001e0: 18ed c9bd 109b a03f 9618 79bf 1b0e 73be
000001f0: 5210 bcbd ca2c debf 549c 303f 32ba d53a
00000200: 7cbf 71bd 8d47 52bc ae29 6fba 1852 4c3c
00000210: 6e31 91bc dea2 343d f4b0 edbc 458e 93bd
00000220: da44 ce3e 300e 7b3f 5a1c 9bbd eb8d 57be
00000230: 0543 783e 3e22 9fbe a5f4 fdbc 194c 87bf
00000240: f4d9 78be 45f9 523f b9d6 32bd a9ff 333e
00000250: ea73 80bd 3e5c 073f f4e0 aebd 5c71 99be
00000260: 1017 ca3d e709 bdbc 2a5e 02bd 4474 723d
00000270: 2924 643d d71f 07c0 5406 233e eb8e 45bd
00000280: fb7c 923d cb4a 01bf 42c8 263e bad5 57be
00000290: 21ea bfbd eaad e9bd d554 fdbd 0a27 c8be
000002a0: 7a06 603d d684 12c0 3226 d53d 5879 16bd
000002b0: 59ff 48bc 2c61 0ec0 fa34 603d 47b4 6d3c
000002c0: b46e bebe de65 72bf 727a c63b 4a9a 923e
000002d0: b68e 89bd 0adb bc3d bdf3 a2bc 1b15 613e
000002e0: 91d1 e23d 0ba8 fe3c 9521 fcbc afc9 e43c
000002f0: 9081 64be 2d77 153e a9d9 4ebd ae7a a53e
00000300: c58d e1be c619 9bbf ec8f 353e 4c60 003d
00000310: fb05 56bd 561d e0be 22d8 493e e523 b03d
00000320: 5dd5 9b3d 12ff 793e 28fc 66be 7a67 39be
00000330: 824f 873d d393 403e fd85 acbf e1f8 033f
00000340: 9b23 45be 07d1 c7bd b8ec 4f3d 4fc1 4ebe
00000350: f311 363e c2b8 133e 4b30 a5bf 5913 583f
00000360: 0bcf e63d ee72 fc3d 5461 ddbf 73c6 913f
00000370: 3f55 0e3d 642d caba 5046 91bd 4ff7 21bd
00000380: 7370 30be 130c 4cbe 61f5 733c 72ce 403f
00000390: 5a9f c0bd 7b65 5fbd 889c 75bf 45be af3f
000003a0: 88a5 893d c479 b2bc 4fe2 85bd 26ec 123d
000003b0: 7533 f8bd 4912 c9bd a6d5 413e feed f83e
000003c0: 2fbe 17be 66d8 28be 57a7 ba3e 55bd 893e
000003d0: bedd fcbd 4580 1ebe 898e b43f a333 28bf
000003e0: e35a 3cbd ebbe c63a 7b52 b73c 8bf1 aabc
000003f0: 1b25 30bd 6ae3 e03a 6d45 0b3d d107 4ebd

encoder.0.0.bias f4 [17]
0.21518214 0.0233712 0.19736241 -0.001832367 0.21452816 0.07633402 0.25904426 0.005661118
-0.06970404 -0.54889023 0.12167937 0.0499732 0.0855085 0.22854179 -0.40241006 -0.20603949
-0.14405562
00000000: b558 5c3e f574 bf3c 5f19 4a3e 092c f0ba
00000010: 45ad 5b3e 0355 9c3d 73a1 843e e680 b93b
00000020: fec0 8ebd 1284 0cbf 0933 f93d b3b0 4c3d
00000030: 151f af3d dc06 6a3e b108 cebe 04fc 52be
00000040: 5183 13be

encoder.0.1.weight f4 [17]
-1.3186866 0.819613 0.89987 1.2053709 1.0314281 -0.0058241636 1.054671 -0.0005636515
-1.2906921 -0.86076695 0.9553589 0.9497605 -0.0034206577 1.0205541 -0.969575 -1.1516889
-0.7387988
00000000: b9ca a8bf 28d2 513f e15d 663f 9849 9a3f
00000010: d605 843f a0d8 bebb 76ff 863f 03c2 13ba
00000020: 6635 a5bf 395b 5cbf 6792 743f 8123 733f
00000030: 1d2d 60bb 84a1 823f 1136 78bf 8b6a 93bf
00000040: eb21 3dbf

encoder.0.1.bias f4 [17]
-0.006778695 -0.006923195 -0.5232719 0.03314516 0.054497678 -0.09619172 -0.041785657 -0.06378797
0.0017173799 -0.016923647 -0.036365796 0.46024787 -0.06222313 0.57272124 0.018626638 -0.6925944
0.0051237913
00000000: d11f debb f8db e2bb 26f5 05bf 38c3 073d
00000010: f538 5f3d 2a00 c5bd 7027 2bbd 44a3 82bd
00000020: b519 e13a 76a3 8abc 4df4 14bd 9ca5 eb3e
00000030: aedd 7ebd dc9d 123f e496 983c de4d 31bf
00000040: 7ae5 a73b

encoder.0.1.running_mean f4 [17]
-0.7394298 0.8686542 -1.027555 -0.8378883 -2.5047667 -0.035084564 1.5430827 0.3019464
-0.6123101 -2.1993353 1.7173091 -4.4906073 0.15978822 -0.7019508 0.4421588 -3.3150666
0.7136847
00000000: 454b 3dbf 1f60 5e3f ec86 83bf d97f 56bf
00000010: 194e 20c0 d5b4 0fbd bc83 c53f b898 9a3e
00000020: 5bc0 1cbf e9c1 0cc0 c9d0 db3f 0eb3 8fc0
00000030: 869f 233e 0cb3 33bf a362 e23e 0d2a 54c0
00000040: 0ab4 363f

encoder.0.1.running_var f4 [17]
232.05968 286.83453 306.96725 246.66287 242.98102 0.12621053 704.80194 0.17158931
236.8885 226.53398 867.32996 176.17546 1.821287 368.0191 220.9108 315.02686
227.00998
00000000: 470f 6843 d26a 8f43 cf7b 9943 b2a9 7643
00000010: 24fb 7243 553d 013e 5333 3044 1cb5 2f3e
00000020: 75e3 6c43 b388 6243 1ed5 5844 eb2c 3043
00000030: ef1f e93f 7202 b843 2ae9 5c43 7083 9d43
00000040: 8e02 6343

encoder.1.0.weight f4 [29, 17, 4]
0.4454959 -1.0502163 -0.21153949 0.38541818 0.026355436 -0.15769652 -2.6694639 -0.9736392
-0.019829351 -0.15846916 -0.25043094 0.87437445 0.34424844 -0.76567763 0.05689097 0.21896
-0.2976014 -1.18997 0.39149854 -0.4871807 0.006778659 0.071086064 -0.001924769 -0.04322776
0.28678808 0.056680646 -1.1470343 -0.6519505 0.043815013 0.07013306 -0.07944381 -0.037134133
-0.13544202 -1.3599143 -0.14048402 1.1978756 0.11512088 0.3417946 0.33142284 0.043234177
0.39877164 0.0865407 -0.7905539 -1.0184187 0.46807778 -0.11062279 0.52429223 -0.18267915
-0.06067749 0.021246672 -0.050830256 0.060161002 0.17735109 -0.8470938 -0.33207312 0.37806457
-0.23365636 -1.7150832 -0.330225 0.67250055 -0.217459 -0.047924038 -0.19307162 -0.1285358
0.69431293 0.12071559 0.14935586 -1.8996271 -0.35678154 0.73196566 0.18288781 -0.7054117
-0.102285594 -0.36392382 -0.38222414 -0.52564037 -0.2325333 -0.06961749 -0.45122036 -0.25461763
-0.06118254 0.23472932 0.62695414 -0.8213326 -1.038656 0.06580062 0.19497442 -0.9092897
0.036622245 -0.012108226 -0.050637167 -0.0029352705 -0.2283312 -0.17539684 -1.1511723 -0.123561926
0.08143937 -0.11678138 0.040705737 -0.103896074 -0.4076832 0.016809743 0.5449054 -0.6397866
-1.0354459 -0.20700406 0.11338139 -0.6554286 -0.30721727 -0.00505178 -1.4819921 -0.22512119
-0.16061705 0.09685688 -0.67397964 0.19426587 0.02770892 -0.08521881 0.00074510026 -0.031281833
-0.073352516 0.90554005 2.240562 0.078491874 -0.55817866 0.120806076 -0.6886788 -0.36999586
-0.23486799 -0.1639755 -2.0235698 -0.1955452 -0.56042707 -0.0035027387 -0.2515969 -0.7656627
-0.18906431 -0.8122452 -0.365429 0.6632259 0.63566554 0.87843525 -1.0866144 0.2547527
-0.8127132 -0.6607694 0.32903144 -0.6199108 -0.13199908 -1.3693109 -0.12360311 0.86695564
0.25011063 0.970354 0.090686515 -0.16255592 -0.015633604 0.010103611 -0.06336769 -0.02325881
0.2518091 -0.743368 -0.6707024 0.7784512 -0.10326735 0.07116735 0.024427954 -0.025121802
0.23420456 -1.9991002 -0.5272648 1.031359 0.26272562 0.14280778 0.024990637 0.65451026
0.053440064 -0.16523711 -0.5775712 -1.0682431 -0.030022196 -0.6459764 1.351367 -0.037195623
0.09602088 0.047575604 0.05902349 -0.05514454 0.2169509 -1.2449112 -0.14713487 0.26444054
0.23218821 0.22168292 0.079195954 1.5583017 0.6264583 0.66282076 0.72912735 -0.17747088
1.5947728 0.31050983 0.518117 -0.08470679 0.10126937 -0.049178317 -0.079729006 -0.26677775
0.02948172 0.05050541 0.038025223 -0.0012134317 0.10624187 0.04920104 -0.062408637 0.041044757
0.02643002 0.008550552 -0.060555022 -0.10645504 -0.032971356 -0.024272146 -0.07265389 -0.1367574
0.068452284 -0.030537317 -0.03279112 -0.10725389 -0.04648734 0.09899227 0.04211459 -0.09859642
-0.040584058 0.014804876 0.050783176 -0.011891144 0.13970342 -0.0039386936 -0.03098229 -0.1779919
0.0012701203 0.122350805 0.05298999 -0.07373142 -0.007523771 0.070993386 -0.04253063 -0.06613487
0.13330583 -0.0488129 -0.0052746367 -0.042006318 0.01697122 -0.028631164 0.04689705 -0.03450883
00000000: 0a18 e43e 7d6d 86bf cf9d 58be 8855 c53e
00000010: 5be7 d73c 327b 21be 7fd8 2ac0 6b40 79bf
00000020: 2a71 a2bc bd45 22be 7c38 80be 01d7 5f3f
00000030: 5541 b03e 7303 44bf 8106 693d 0d37 603e
00000040: 365f 98be f050 98bf 7f72 c83e c06f f9be
00000050: 831f de3b 9295 913d 8848 fcba 970f 31bd
00000060: e3d5 923e f729 683d 05d2 92bf 3ae6 26bf
00000070: 5f77 333d eca1 8f3d 70b3 a2bd f619 18bd
00000080: 50b1 0abe ac11 aebf 0bdb 0fbe fd53 993f
00000090: 7fc4 eb3d b4ff ae3e 41b0 a93e 5216 313d
000000a0: cc2b cc3e 403c b13d be61 4abf 8b5b 82bf
000000b0: e4a7 ef3e 348e e2bd 0438 063f 3e10 3bbe
000000c0: f688 78bd 800d ae3c 6333 50bd 626b 763d
000000d0: 869b 353e 24db 58bf 7d05 aabe ae91 c13e
000000e0: 9d43 6fbe d987 dbbf 4013 a9be ff28 2c3f
000000f0: 92ad 5ebe ff4b 44bd 91b4 45be e49e 03be
00000100: 7ebe 313f bc39 f73d bef0 183e fb26 f3bf
00000110: 12ac b6be 1a62 3b3f f146 3b3e dc95 34bf
00000120: 1c7b d1bd 3954 babe e2b2 c3be 5e90 06bf
00000130: 361d 6ebe 9d93 8ebd 5b06 e7be 3e5d 82be
00000140: 8b9a 7abd e25c 703e 1180 203f da42 52bf
00000150: aef2 84bf 7ac2 863d 60a7 473e 36c7 68bf
00000160: 3501 163d 9561 46bc eb68 4fbd ab5d 40bb
00000170: a7cf 69be 3b9b 33be 9d59 93bf 090e fdbd
00000180: afc9 a63d 132b efbd 0fbb 263d 77c7 d4bd
00000190: dabb d0be 96b4 893c ec7e 0b3f 0ec9 23bf
000001a0: 7e89 84bf dff8 53be 8134 e83d 2bca 27bf
000001b0: 954b 9dbe 6789 a5bb ebb1 bdbf 2b86 66be
000001c0: cc78 24be e65c c63d ee89 2cbf a2ed 463e
000001d0: d1fd e23c 3387 aebd d552 433a 6121 00bd
000001e0: d839 96bd 79d1 673f 5e65 0f40 59c0 a03d
000001f0: cce4 0ebf 2d69 f73d 414d 30bf 1970 bdbe
00000200: 3c81 70be 32e9 27be 2b82 01c0 003d 48be
00000210: 2678 0fbf 348e 65bb 4fd1 80be 7902 44bf
00000220: 139a 41be 4def 4fbf 8319 bbbe 2cc9 293f
00000230: faba 223f 22e1 603f 2e16 8bbf f26e 823e
00000240: f90d 50bf 2f28 29bf cf76 a83e 79b2 1ebf
00000250: c42a 07be 9445 afbf a123 fdbd cef0 5d3f
00000260: 800e 803e 1f69 783f dab9 b93d 0f75 26be
00000270: 0b12 80bc 9e89 253c ebc6 81bd 4389 bebc
00000280: 1fed 803e 5e4d 3ebf 27b3 2bbf 9448 473f
00000290: d57d d3bd 30c0 913d 221d c83c 3dcc cdbc
000002a0: 52d3 6f3e 84e2 ffbf d3fa 06bf 9203 843f
000002b0: f983 863e 343c 123e 2ab9 cc3c fc8d 273f
000002c0: f8e3 5a3d eb33 29be b5db 13bf 31bc 88bf
000002d0: 1cf1 f5bc b65e 25bf 98f9 ac3f 705a 18bd
000002e0: 98a6 c43d a3de 423d 9dc2 713d 3edf 61bd
000002f0: 6028 5e3e 4059 9fbf 86aa 16be c064 873e
00000300: bfc2 6d3e d900 633e 7d31 a23d 6e76 c73f
00000310: 925f 203f 9fae 293f 17a8 3a3f edba 35be
00000320: 8421 cc3f 25fb 9e3e 51a3 043f c17a adbd
00000330: 5166 cf3d 346f 49bd f648 a3bd 1897 88be
00000340: a683 f13c c3de 4e3d 56c0 1b3d 030c 9fba
00000350: 5695 d93d 0887 493d 33a0 7fbd 8c1e 283d
00000360: c583 d83c 9d17 0c3c 8b08 78bd 1a05 dabd
00000370: f90c 07bd 61d6 c6bc 90cb 94bd 220a 0cbe
00000380: b630 8c3d 6529 fabc fb4f 06bd eda7 dbbd
00000390: 8269 3ebd 76bc ca3d 5980 2c3d ebec c9bd
000003a0: 783b 26bd 2790 723c 0502 503d 13d3 42bc
000003b0: 6a0e 0f3e 2810 81bb 92ce fdbc 8243 36be
000003c0: 2a7a a63a 0f93 fa3d 080c 593d 8000 97bd
000003d0: f789 f6bb fb64 913d 9934 2ebd b871 87bd
000003e0: 5381 083e 09f0 47bd dcd6 acbb d10e 2cbd
000003f0: 3a07 8b3c e78b eabc 1f17 403d 2259 0dbd

encoder.1.0.bias f4 [29]
0.32191443 0.12526628 -0.029139724 0.076361924 -0.0057237176 0.44369277 -0.005656025 -0.26601842
-0.022730844 0.20648383 0.02908423 0.026961016 -0.01775239 -0.08076016 0.1261848 0.24232817
-0.38756147 0.019868216 -0.05583369 -0.0051350705 -0.010110449 0.31048915 -0.09804995 -0.09174425
0.03916771 0.38246357 -0.39667493 -0.0709798 0.13722523
00000000: f8d1 a43e ce45 003e 6eb6 eebc a463 9c3d
00000010: 068e bbbb b32b e33e 2d56 b9bb 9133 88be
00000020: 0936 babc 7f70 533e 0d42 ee3c 59dd dc3c
00000030: 766d 91bc 9565 a5bd 9736 013e e024 783e
00000040: 756e c6be abc2 a23c deb1 64bd 1844 a8bb
00000050: 4ca6 25bc 6ff8 9e3e 6ace c8bd 69e4 bbbd
00000060: 526e 203d 44d2 c33e fa18 cbbe db5d 91bd
00000070: c584 0c3e

encoder.1.1.weight f4 [29]
1.3422431 0.6634353 0.46280816 0.0013326714 -0.0032944418 0.52074605 -0.0031775238 0.43074492
0.0024986959 -0.28074157 0.2748642 -0.00853893 0.00017957865 0.43867636 -0.004436773 0.68660915
-0.7285651 1.0453753 0.003927555 0.0067370636 0.0033532092 2.0509117 0.662918 0.39482158
0.008925728 -0.71109265 -0.85259086 0.7691548 1.510628
00000000: 9fce ab3f e5d6 293f 31f5 ec3e 08ad ae3a
00000010: 90e7 57bb 9d4f 053f 013e 50bb 998a dc3e
00000020: 29c1 233b 5cbd 8fbe 00bb 8c3e dee6 0bbc
00000030: 474d 3c39 309a e03e 5962 91bb 9ec5 2f3f
00000040: 3e83 3abf dcce 853f b8b2 803b 96c2 dc3b
00000050: 84c1 5b3b 2342 0340 feb4 293f 0e26 ca3e
00000060: 373d 123c 2b0a 36bf 6543 5abf 54e7 443f
00000070: 425c c13f

encoder.1.1.bias f4 [29]
-0.43811238 -0.44204763 -0.2458996 -0.028810149 -0.030091764 0.22847186 -0.0452423 -0.20181872
-0.021645771 0.05852536 -0.020314613 -0.097258456 -0.041778065 -0.08401673 -0.037897866 -0.34023356
-0.34243125 0.15431806 -0.1018163 -0.13051851 -0.05461203 -0.93899894 -0.3175053 -0.2893169
-0.13762549 -0.40510646 0.102146946 -0.115551904 -0.13266422
00000000: 4450 e0be 1154 e2be 1bcd 7bbe 4303 ecbc
00000010: 0183 f6bc 87f4 693e fd4f 39bd 91a9 4ebe
00000020: 7952 b1bc 4ab8 6f3d d56a a6bc 712f c7bd
00000030: 7a1f 2bbd f710 acbd cb3a 1bbd 1833 aebe
00000040: 2653 afbe 8e05 1e3e 1085 d0bd a5a6 05be
00000050: ddb0 5fbd 3c62 70bf 0e90 a2be 5821 94be
00000060: b2ed 0cbe 1d6a cfbe 6b32 d13d 7aa6 ecbd
00000070: 21d9 07be

encoder.1.1.running_mean f4 [29]
-3.299371 -0.0816704 -1.2486371 0.002233281 0.31691787 -0.027890816 -0.014347234 0.6646578
-0.42717835 -0.88105226 -0.071010806 0.19968836 -0.043844108 -0.85713774 0.69937974 -4.7178187
4.139571 -5.990044 -0.23577863 0.14195257 0.07109715 -3.4567137 0.44547597 -1.4673142
-0.47439227 3.8085766 5.1884675 14.399007 -3.6439393
00000000: e528 53c0 d042 a7bd 57d3 9fbf 3d5c 123b
00000010: 0f43 a23e 487b e4bc a910 6bbc 0327 2a3f
00000020: 1fb7 dabe a48c 61bf 1d6e 91bd 1b7b 4c3e
00000030: e195 33bd 616d 5bbf 8d0a 333f 5ff8 96c0
00000040: 5e77 8440 71ae bfc0 f46f 71be 045c 113e
00000050: 629b 913d cc3a 5dc0 6d15 e43e f4d0 bbbf
00000060: 8be3 f2be b8bf 7340 ed07 a640 5562 6641
00000070: 4d36 69c0

encoder.1.1.running_var f4 [29]
19.96959 4.8654504 8.418227 0.22293949 0.2987373 8.5540285 0.13651173 5.2281313
0.22669266 7.616012 4.5822515 0.22857818 0.05856632 1.7179687 0.42952204 9.759424
11.563129 41.25538 0.06973137 0.06222536 0.08087015 17.719183 5.2291427 2.7724123
0.3434723 7.169484 26.167128 170.13344 21.575134
00000000: b8c1 9f41 c5b1 9b40 0fb1 0641 404a 643e
00000010: 18f4 983e 4ddd 0841 bbc9 0b3e da4c a740
00000020: 1f22 683e 5fb6 f340 cea1 9240 6610 6a3e
00000030: 3de3 6f3d 66e6 db3f 50ea db3e 9a26 1c41
00000040: 9402 3941 8205 2542 52cf 8e3d 05e0 7e3d
00000050: 409f a53d e3c0 8d41 2355 a740 346f 3140
00000060: 9adb af3e 6a6c e540 4756 d141 2922 2a43
00000070: e099 ac41

encoder.2.0.weight f4 [52, 29, 4]
-0.008143019 0.03179671 0.015262781 0.06679054 -0.035739597 0.04204852 0.008123614 -0.035826314
0.022336122 0.0636013 -0.024474934 0.05854094 -0.029687589 0.031335805 -0.01636078 0.010201825
-0.012271462 0.08426328 -0.055301767 0.060268965 -0.056502905 -0.09297423 -0.042420726 0.05388492
-0.006696423 0.08773653 -0.08844481 -0.14292154 -0.039525744 -0.018116584 0.09917769 0.059194695
-0.034847613 0.10526172 -0.053032205 0.045712426 0.02165721 0.104241125 -0.05835276 0.0024509826
0.059484202 0.08189808 0.05668447 -0.045789015 0.07797141 0.010959206 0.0015797403 0.016151348
-0.051535632 -0.018223565 0.12303386 0.0050745117 -0.0582272 -0.09373061 -0.06276452 0.024282454
0.056613863 0.005940045 0.1570915 0.030080995 -0.13203965 0.04444697 0.095498934 0.016750794
0.05027349 -0.0893656 0.0007127906 -0.035685506 0.036952112 -0.051264655 0.02531946 -0.07788615
-0.0010103186 0.02058779 0.044241264 0.061321866 -0.13688764 0.000915116 0.0727099 -0.026229432
-0.06211562 -0.023061622 -0.04055218 0.015469386 0.06811519 -0.07440498 0.05698886 0.0052508386
-0.011256977 0.05842429 0.13868314 -0.046522956 0.02838016 0.026785308 0.036434524 -0.011448919
-0.058049764 0.07811035 -0.06370222 0.06564542 0.04298465 -0.088960424 0.022833744 0.007946072
0.038313083 0.016916398 -0.033313356 -0.025496682 -0.06520207 0.018836234 0.12046269 -0.068802476
0.10059003 -0.011448006 -0.0293452 -0.07974608 -0.084364824 -0.01564716 -0.39449477 -0.093787454
0.028569058 0.40698954 0.5036056 0.032578923 0.0016005862 -0.23519553 0.10629092 0.043453578
0.006630473 0.02359239 0.063912205 -0.095249034 -0.059688967 0.05959667 -0.0096673 0.0132082105
-0.09705643 -0.277304 -0.5944519 0.06181364 -0.038765416 -0.09055807 0.06736424 0.011798532
-0.029717652 -0.17049076 0.32170767 -0.02878501 0.02492969 0.03993717 0.011964784 0.093702175
0.053736854 -0.517289 -0.23831373 -0.040289406 0.056200534 -0.23692134 0.17111008 0.051049914
-0.086286016 0.0024963156 -0.00070665 -0.024331974 0.09686936 -0.062146988 -0.046687003 0.0044792197
0.02765404 -0.009764181 0.25611266 -0.03903535 0.027218139 -0.013317862 0.047640067 0.04524482
-0.05693834 0.29095876 0.46269894 -0.048669096 0.013523998 -0.029925058 0.65179735 -0.051051527
-0.012457433 -0.19543149 -0.15916798 -0.103268504 -0.025694225 0.0027584715 -0.05127915 0.06798393
0.008602646 0.020806685 0.038984325 -0.019787064 -0.014544978 0.039836604 0.020003151 -0.023074726
0.014826004 0.9296161 -3.9427023 -0.021739675 0.012905173 0.14536172 0.6342901 -0.016729904
-0.03755006 0.12606156 0.08010467 0.040092807 -0.033287898 0.020149244 0.010323063 0.036456488
-0.0004205707 0.49414268 0.3524963 -0.044967398 0.05308038 -0.069714755 -0.46460304 -0.01315372
-0.03623424 0.9139013 0.6393178 0.008845541 0.027694423 -0.16136163 -0.7692124 -0.035018
0.050819773 0.3922327 0.24126266 0.0015940523 -0.026122823 0.2504633 1.3832022 0.041034084
-0.0118406555 0.004507262 0.1854032 0.012053924 0.055477172 -0.0079547865 -0.06094929 0.01445213
-0.044544037 0.005025836 0.013803166 -0.039644115 -0.004141293 -0.08909474 -0.15268075 0.025433604
00000000: 4c6a 05bc 443d 023d be10 7a3c 7bc9 883d
00000010: af63 12bd 123b 2c3d e818 053c 9dbe 12bd
00000020: 3efa b63c 6641 823d a87f c8bc a0c8 6f3d
00000030: 6333 f3bc f959 003d 0b07 86bc 8e25 273c
00000040: 3e0e 49bc 3a92 ac3d 1b84 62bd 97dc 763d
00000050: 976f 67bd 4669 bebd 5bc1 2dbd 6fb6 5c3d
00000060: ab6d dbbb 36af b33d 8d22 b5bd 065a 12be
00000070: bfe5 21bd 3b69 94bc ac1d cb3d 2376 723d
00000080: 5fbc 0ebd 7593 d73d 4c38 59bd f43c 3b3d
00000090: 766a b13c 5f7c d53d 4e03 6fbd aaa0 203b
000000a0: b5a5 733d 2eba a73d fa2d 683d 438d 3bbd
000000b0: 79af 9f3d 3e8e 333c 4a0f cf3a d54f 843c
000000c0: 0717 53bd 9649 95bc 2df9 fb3d 1748 a63b
000000d0: a57f 6ebd d6f5 bfbd af8a 80bd ffeb c63c
000000e0: f0e3 673d b6a4 c23b 98dc 203e 6b6c f63c
000000f0: 6735 07be 070e 363d f294 c33d f638 893c
00000100: 93eb 4d3d 5005 b7bd 91da 3a3a f72a 12bd
00000110: 195b 173d e3fa 51bd c26a cf3c c682 9fbd
00000120: ab6c 84ba baa7 a83c 5436 353d a32c 7b3d
00000130: 462c 0cbe 65e4 6f3a eee8 943d 1bdf d6bc
00000140: f36c 7ebd baeb bcbc 0b1a 26bd 4f73 7d3c
00000150: fa7f 8b3d a361 98bd 276d 693d 3a0f ac3b
00000160: 2f6f 38bc 4f4e 6f3d f402 0e3e db8e 3ebd
00000170: 827d e83c dd6c db3c 5e3c 153d 3f94 3bbc
00000180: 97c5 6dbd 52f8 9f3d 4f76 82bd 1b71 863d
00000190: ac10 303d e230 b6bd d50d bb3c 3e30 023c
000001a0: 2eee 1c3d 4294 8a3c 9673 08bd 6bde d0bc
000001b0: aa88 85bd 724e 9a3c 25b5 f63d 50e8 8cbd
000001c0: 2502 ce3d 6b90 3bbc 5865 f0bc ea51 a3bd
000001d0: 77c7 acbd 792e 80bc 38fb c9be a313 c0bd
000001e0: a809 ea3c ef60 d03e 4cec 003f 7a71 053d
000001f0: c3ca d13a 19d7 70be 0eaf d93d 61fc 313d
00000200: 7044 d93b d444 c13c 67e4 823d ed11 c3bd
00000210: 6b7c 74bd a31b 743d 9863 1ebc 4067 583c
00000220: 86c5 c6bd cafa 8dbe 002e 18bf 4d30 7d3d
00000230: 7cc8 1ebd 8276 b9bd 43f6 893d a14e 413c
00000240: 6f72 f3bc 2195 2ebe deb6 a43e 8bce ebbc
00000250: 5939 cc3c 2895 233d f107 443c ede6 bf3d
00000260: 2d1b 5c3d 0d6d 04bf 8408 74be 8106 25bd
00000270: 8832 663d 829b 72be 7b37 2f3e b719 513d
00000280: b9b6 b0bd 3a99 233b 7b3e 39ba d953 c7bc
00000290: 7163 c63d d78d 7ebd df3a 3fbd 6bc6 923b
000002a0: ba8a e23c f2f9 1fbc 3321 833e 88e3 1fbd
000002b0: 93f8 de3c 2933 5abc 3b22 433d a252 393d
000002c0: 2d38 69bd 8cf8 943e e0e6 ec3e 3f59 47bd
000002d0: c293 5d3c 6525 f5bc 31dc 263f 681b 51bd
000002e0: 431a 4cbc 311f 48be eefc 22be 707e d3bd
000002f0: b27c d2bc 79c7 343b 160a 52bd 293b 8b3d
00000300: 1df2 0c3c c872 aa3c 07ae 1f3d 7b18 a2bc
00000310: 0f4e 6ebc b52b 233d a6dd a33c 3507 bdbc
00000320: c5e8 723c 52fb 6d3f 3c55 7cc0 6717 b2bc
00000330: 3870 533c b4d9 143e d660 223f 270d 89bc
00000340: 17ce 19bd 4816 013e eb0d a43d 5b38 243d
00000350: e458 08bd 0710 a53c 1022 293c 6653 153d
00000360: 0b80 dcb9 4500 fd3e 657a b43e bc2f 38bd
00000370: d06a 593d 9cc6 8ebd 73e0 edbe b382 57bc
00000380: 5b6a 14bd 70f5 693f 55aa 233f e3ec 103c
00000390: 6adf e23c fc3b 25be 1beb 44bf 096f 0fbd
000003a0: 6528 503d b9d2 c83e 8f0d 773e 85ef d03a
000003b0: 88ff d5bc ba3c 803e c50c b13f 5b13 283d
000003c0: 4fff 41bc a7b1 933b 56da 3d3e d27d 453c
000003d0: 083c 633d cb54 02bc f6a5 79bd a0c8 6c3c
000003e0: cf73 36bd c5af a43b ad26 623c de61 22bd
000003f0: afb3 87bb 4e77 b6bd 5858 1cbe 225a d03c

encoder.2.0.bias f4 [52]
0.030373838 -0.10505727 -0.38881794 -0.070235655 0.5677733 0.38154522 0.014328247 -0.0012223974
-0.17189385 -0.36673093 0.30585915 0.48012948 -0.054889504 -0.03013015 0.059746675 0.18079087
0.056288037 0.017304627 0.004102208 0.10459546 0.24821438 -0.03635219 -0.11610674 0.058408543
0.07735202 0.034674216 0.023214905 0.011642686 -0.08546119 0.41974458 0.25191832 0.2767486
0.046600502 0.1796609 0.05276419 0.15198235 -0.11280047 -0.37632865 0.04279346 -0.815266
0.13437589 -0.09687573 0.27573478 -0.08055538 0.05069354 -0.059495103 -0.13744928 0.037022583
-0.015761422 -0.015113117 0.15939562 -0.09745547
00000000: 8ed2 f83c 4428 d7bd 2513 c7be b6d7 8fbd
00000010: 9759 113f e559 c33e 06c1 6a3c da38 a0ba
00000020: f104 30be 28c4 bbbe 9299 9c3e 88d3 f53e
00000030: d1d3 60bd 81d3 f6bc eeb8 743d 3e21 393e
00000040: 498e 663d 6fc2 8d3c d16b 863b 2536 d63d
00000050: e92b 7e3e 09e6 14bd 5fc9 edbd cc3d 6f3d
00000060: bc6a 9e3d 8d06 0e3d 2f2d be3c f7c0 3e3c
00000070: 4706 afbd c3e8 d63e 70fb 803e feb1 8d3e
00000080: 2be0 3e3d 07f9 373e 431f 583d 43a1 1b3e
00000090: ef03 e7bd 26ae c0be 3248 2f3d 46b5 50bf
000000a0: d599 093e c866 c6bd 1c2d 8d3e 38fa a4bd
000000b0: 08a4 4f3d 23b1 73bd 81bf 0cbe fea4 173d
000000c0: 191e 81bc 029d 77bc 9b38 233e bc96 c7bd

encoder.2.1.weight f4 [52]
0.00015731005 0.5948446 -0.34352523 0.35145903 -0.6090524 -0.638793 -0.0003079007 -0.0130278645
-0.57503986 0.59443915 -0.48125228 -0.48714226 0.47228262 -0.00014711298 0.33704504 0.73466957
-0.0002466364 0.25612462 0.5376644 0.6580972 -0.731983 0.0059384885 0.4336895 0.39225003
-0.41592208 -0.0052238214 0.0022808746 0.45097226 0.9057036 -0.45192507 -0.6527635 -0.56407905
0.008513258 -0.6848852 0.0021257817 0.58744097 0.5326381 0.50065124 -0.31816328 -0.60789675
0.75216264 0.5081552 -0.3846995 0.66160357 0.45284116 0.0011187753 0.47882444 -0.34143534
-0.010827771 0.004694179 0.33110398 -0.56094456
00000000: 98f3 2439 bc47 183f 8ae2 afbe 70f2 b33e
00000010: dcea 1bbf f087 23bf bb6d a1b9 d372 55bc
00000020: d035 13bf 2a2d 183f b366 f6be b66a f9be
00000030: 07cf f13e 5742 1ab9 2b91 ac3e 4e13 3c3f
00000040: fa4e 81b9 c422 833e 60a4 093f 0f79 283f
00000050: 3d63 3bbf a797 c23b 8d0c de3e ffd4 c83e
00000060: bdf3 d4be 972c abbb ba7a 153b d6e5 e63e
00000070: 31dc 673f b962 e7be 821b 27bf 7c67 10bf
00000080: 317b 0b3c a354 2fbf b350 0b3b 8862 163f
00000090: f85a 083f ae2a 003f 4ce6 a2be 1f9f 1bbf
000000a0: bb8d 403f 7616 023f 55f7 c4be da5e 293f
000000b0: ccda e73e dfa3 923a 7a28 f53e 9dd0 aebe
000000c0: f766 31bc a1d1 993b 7686 a93e 109a 0fbf

encoder.2.1.bias f4 [52]
-0.05502686 0.14315374 -0.1148288 0.10291751 0.016031522 -0.2796328 -0.001323544 -0.031581357
-0.4858671 0.20089778 -0.6562354 0.17417154 -0.36874318 -0.00037115096 -0.32952005 0.06641723
-0.053803552 0.22769356 -0.3499101 -0.1544618 -0.42298838 -0.10023734 0.11442086 0.137228
-0.37050495 -0.066654846 -0.046493117 -0.34137976 -0.21525076 0.07035047 -0.580536 -0.40742323
-0.11640405 -0.07209188 -0.06347097 -0.18674317 -0.3295266 -0.31788334 0.25344726 -0.40302157
0.17020583 -0.3356512 0.22829165 -0.800436 0.034625538 -0.031205492 0.11880188 -0.18827127
-0.13634749 -0.03924736 -0.050602034 0.06429403
00000000: d863 61bd e596 123e 5d2b ebbd 6ac6 d23d
00000010: 8a54 833c 082c 8fbe c47a adba 745b 01bd
00000020: 93c3 f8be 26b8 4d3e 0bff 27bf 065a 323e
00000030: e8cb bcbe 0a97 c2b9 dab6 a8be c205 883d
00000040: 1d61 5cbd 8028 693e 6b27 b3be 3c2b 1ebe
00000050: ef91 d8be 3c49 cdbd 7c55 ea3d 7f85 0c3e
00000060: d3b2 bdbe 5682 88bd 916f 3ebd 54c9 aebe
00000070: b26a 5cbe e813 903d 029e 14bf c799 d0be
00000080: 3f65 eebd e8a4 93bd 11fd 81bd 9a39 3fbe
00000090: b6b7 a8be 9bc1 a2be d7c3 813e d858 cebe
000000a0: 704a 2e3e 79da abbe 49c5 693e 60e9 4cbf
000000b0: 82d3 0d3d a9a2 ffbc 664e f33d 2fca 40be
000000c0: ad9e 0bbe d7c1 20bd 1444 4fbd 97ac 833d

encoder.2.1.running_mean f4 [52]
0.02184166 -0.63305604 -0.5549938 0.720881 0.3538403 0.6418826 0.17352068 0.38181403
1.9945807 -0.20575999 0.6382546 0.050159786 -0.43909028 0.3751345 0.53044045 0.04253523
-0.029753082 -0.40356407 -0.52068 0.0719249 0.65551805 -0.0005578795 0.507742 0.6512511
0.4228949 0.17773055 -0.6910469 -0.010074995 0.5402747 -0.016082453 0.2578137 2.4183583
0.08546138 0.9003762 0.19227436 -0.16719963 0.062677115 0.1490211 2.8160248 -0.2898242
1.0697929 -0.94514114 0.03279887 -0.187313 0.5730236 -0.95124626 0.017766884 1.5079756
-0.020375628 -0.14375652 -1.6254988 -0.04381113
00000000: 48ed b23c f60f 22bf 1314 0ebf a88b 383f
00000010: 8e2a b53e 6b52 243f 68af 313e 217d c33e
00000020: 6c4e ff3f bfb2 52be a764 233f 5974 4d3d
00000030: 71d0 e0be a111 c03e f2ca 073f 6c39 2e3d
00000040: bcbc f3bc f39f cebe 494b 05bf 5d4d 933d
00000050: 08d0 273f a93e 12ba 61fb 013f 64b8 263f
00000060: ae85 d83e fffe 353e 73e8 30bf 9811 25bc
00000070: 714f 0a3f 59bf 83bc 2800 843e 62c6 1a40
00000080: 6006 af3d 0e7f 663f 92e3 443e 6136 2bbe
00000090: dc5c 803d fd98 183e c039 3440 d663 94be
000000a0: f9ee 883f c5f4 71bf 1c58 063d fbce 3fbe
000000b0: adb1 123f e084 73bf db8b 913c 5805 c13f
000000c0: caea a6bc e934 13be 5810 d0bf 4d73 33bd

encoder.2.1.running_var f4 [52]
0.011540453 1.9882722 0.34910044 0.93151855 0.96349585 1.2235028 0.11898825 0.39221278
5.1276546 1.6171813 0.13771002 2.0691135 0.32746184 0.30345938 0.5177688 2.1150274
0.034438368 0.26568973 0.9019689 1.5790508 0.47742632 0.013550623 2.8066227 0.96156925
0.23422395 0.01504007 0.44138634 1.1610683 3.0232387 2.3384538 0.81113666 3.3701093
0.0025756494 5.920877 0.00804801 1.0255826 0.58863604 0.8312124 3.3835502 1.0050967
1.1619304 2.155618 0.5974071 0.8148397 0.43310714 5.2195115 0.6922774 1.8607585
0.00182265 0.85493696 1.4429251 0.8439449
00000000: 2b14 3d3c b47f fe3f 4bbd b23e 0078 6e3f
00000010: aaa7 763f bd9b 9c3f 1db0 f33d 1dd0 c83e
00000020: bf15 a440 ccff ce3f db03 0d3e 5b6c 0440
00000030: 14a9 a73e 075f 9b3e 7f8c 043f 9c5c 0740
00000040: 3f0f 0d3d 7c08 883e 6fe7 663f 561e ca3f
00000050: 3971 f43e 6f03 5e3c b59f 3340 6729 763f
00000060: 67d8 6f3e a06a 763c 64fd e13e e39d 943f
00000070: be7c 4140 3aa9 1540 a7a6 4f3f dfaf 5740
00000080: 3acc 283b d377 bd40 cddb 033c 4a46 833f
00000090: dab0 163f 56ca 543f 168c 5840 02a7 803f
000000a0: 23ba 943f a5f5 0940 acef 183f 5699 503f
000000b0: 38c0 dd3e 3d06 a740 1739 313f 562d ee3f
000000c0: fce5 ee3a 26dd 5a3f c5b1 b83f c60c 583f

decoder_input.weight f4 [52, 16]
-0.018976146 -0.016948175 0.0035763937 0.012637736 0.024062695 0.0010362976 0.004506703 0.31828642
-0.036973204 -0.055071212 -0.0062608803 -0.06600891 0.024716191 0.029653793 0.047949564 -0.0011933368
0.004984889 -0.004200676 0.011044275 0.00082821463 0.0018100267 -0.020728014 0.014475629 -6.430236
-0.0018940638 0.007932127 -0.0038884901 -0.018214123 0.029922975 -0.0040434226 0.0008667568 0.0048987167
0.04421991 -0.0836701 0.014218316 0.0072724936 -0.04862707 0.0019913632 0.016369415 0.04663436
0.0036795442 0.059212647 -0.05638465 0.0653871 -0.09463485 -0.027912516 -0.06182281 -0.063210994
-0.0019838172 0.068797454 -0.02956397 -0.030081434 0.019385595 0.040497035 -0.00056491233 -2.8394797
0.009090741 -0.06406603 0.005203393 0.011187636 -0.012212021 0.049463876 -0.060999144 0.07509685
-0.13478257 0.018552551 0.054823365 -0.021887911 0.022054428 -0.038538985 0.009882402 -0.066822566
-0.08928981 0.064444475 0.009485276 -0.020124765 -0.03973768 0.030324105 0.12960781 0.00435504
0.001401313 -0.08598587 0.07317066 -0.002924328 0.032520745 -0.011097402 0.055151694 0.0189809
-0.09394614 -0.013445544 0.06221895 0.020033598 0.0082190605 0.007006766 0.033397574 0.049333956
-0.021425521 0.0139196655 -0.025540002 0.019445546 0.024923624 0.017304715 -0.039027452 -0.3592892
-0.0076090205 0.0019047591 -0.0010957641 -0.040286765 0.026341867 0.021108588 -0.0336292 -0.024498105
0.048109006 -0.20408064 0.016958779 0.015767856 0.010870179 -0.034203112 0.07915875 0.5247738
-0.09239788 -0.015503347 -0.011237918 0.07340378 -0.085749626 -0.111334726 0.084223576 -0.010305715
-0.0067742676 -0.03604519 0.051173087 -0.0035616758 0.013113463 -0.027406806 0.016956726 0.17770511
-0.04783744 -0.022255002 -0.007697676 -0.039847955 0.037880864 0.00095542136 0.030277185 -0.024360929
-0.032013483 -0.029494418 -0.012018295 -0.0036645918 0.038760964 -0.0155536495 -0.029313035 -0.060018197
-0.024790362 -0.0085319765 -0.008423249 -0.04583837 0.014698116 -0.014482735 0.030217528 -0.002025812
-0.053206142 -0.0348691 -0.0063372185 -0.0039462214 -0.015805682 -0.018232334 -0.011826883 0.34495428
-0.015535356 -0.037619475 -0.0257319 -0.03154622 0.015909294 0.017908435 0.048689432 0.00066188246
-0.0005294661 -0.008831884 0.045465548 -0.030834582 0.022640461 -0.032676972 0.009719495 -0.018651152
-0.032972854 -0.037453372 0.016226703 -0.065929435 0.05331273 0.0150001235 -0.013845509 -0.03619372
-0.019139506 0.1505737 0.0016723655 -0.032295533 0.02387794 0.02750147 -0.06699939 -0.6002543
0.050547447 -0.006734072 -0.029289017 -0.10121802 0.06045912 0.08958539 -0.013220642 0.02968224
0.0037463212 -0.0002212768 -0.021275487 0.04558719 0.018208377 0.0076054726 0.03869328 6.784768
0.00913938 -0.04299166 0.006761122 -0.009205826 0.0011253689 -0.024872499 -0.04307165 0.00068948587
-0.000628658 -0.009310006 -0.018511236 0.006565008 -0.0013493062 0.009172006 -0.023799768 -0.24405251
-0.028315414 -0.0041719503 0.0058212564 -0.01149868 0.019334339 0.025389599 0.008913654 -0.007201632
0.021956412 -0.0050566127 0.032035336 -0.072500594 -0.0023270946 -0.040491667 -0.015771292 -6.0438266
-0.020434273 -0.007750719 -0.04265341 0.027401542 -0.02825571 -0.009693248 -0.021909049 -0.013836523
00000000: dd73 9bbc e6d6 8abc ee61 6a3b 820e 4f3c
00000010: 211f c53c 61d4 873a f7ac 933b 70f6 a23e
00000020: 3771 17bd 5a92 61bd 1228 cdbb ae2f 87bd
00000030: 9c79 ca3c 83ec f23c c366 443d bd69 9cba
00000040: 4858 a33b d3a5 89bb 0cf3 343c 8b1c 593a
00000050: 6b3e ed3a cccd a9bc 302b 6d3c 7ec4 cdc0
00000060: 3c42 f8ba c1f5 013c 0ad6 7ebb c935 95bc
00000070: 0721 f53c b07e 84bb 1037 633a 6a85 a03b
00000080: f01f 353d 3b5b abbd f1f3 683c 194e ee3b
00000090: 2e2d 47bd 8881 023b 2719 863c ac03 3f3d
000000a0: 8224 713b f688 723d 97f3 66bd ace9 853d
000000b0: ebcf c1bd caa8 e4bc ea39 7dbd c474 81bd
000000c0: ee02 02bb aee5 8c3d 2430 f2bc 576d f6bc
000000d0: 8ace 9e3c 38e0 253d a016 14ba 09ba 35c0
000000e0: 55f1 143c 0d35 83bd 3981 aa3b 594c 373c
000000f0: ee14 48bc a29a 4a3d 3dda 79bd 61cc 993d
00000100: 7104 0abe 85fb 973c 778e 603d 474e b3bc
00000110: 7dab b43c 0edb 1dbd cce9 213c 45da 88bd
00000120: 93dd b6bd 77fb 833d 2268 1b3c b1dc a4bc
00000130: fac3 22bd 426a f83c e9b7 043e b9b4 8e3b
00000140: 43ac b73a 5c19 b0bd 80da 953d 15a6 3fbb
00000150: 7934 053d e1d1 35bc bee6 613d d57d 9b3c
00000160: d566 c0bd b34a 5cbc 4cd9 7e3d 801d a43c
00000170: 3da9 063c 0399 e53b e5cb 083d 6712 4a3d
00000180: 9384 afbc 4f0f 643c 4439 d1bc 444c 9f3c
00000190: a12c cc3c 9ec2 8d3c 40db 1fbd c1f4 b7be
000001a0: 1755 f9bb 1ca9 f93a be9f 8fba bc03 25bd
000001b0: e6ca d73c ebeb ac3c c6be 09bd 40b0 c8bc
000001c0: f30d 453d 84fa 50be 23ed 8a3c 972b 813c
000001d0: d618 323c 9018 0cbd fc1d a23d 9357 063f
000001e0: 1a3b bdbd c001 7ebc 3f1f 38bc b954 963d
000001f0: 809d afbd 7603 e4bd 697d ac3d 4dd9 28bc
00000200: adfa ddbb 1fa4 13bd df9a 513d 016b 69bb
00000210: dad9 563c 3d84 e0bc d5e8 8a3c 54f8 353e
00000220: 31f1 43bd 1f50 b6bc c93c fcbb 9c37 23bd
00000230: f728 1b3d 3e75 7a3a dc07 f83c 9290 c7bc
00000240: 9220 03bd 479e f1bc 62e8 44bc a629 70bb
00000250: d1c3 1e3d bcd4 7ebc e421 f0bc a4d5 75bd
00000260: 2815 cbbc b4c9 0bbc ab01 0abc 04c1 3bbd
00000270: 5ed0 703c fe48 6dbc c08a f73c 7cc3 04bb
00000280: afee 59bd e7d2 0ebd 71a8 cfbb 4e4f 81bb
00000290: eb7a 81bc fa5b 95bc 8bc5 41bc d99d b03e
000002a0: 0188 7ebc e116 1abd b5cb d2bc 9c36 01bd
000002b0: 3554 823c b6b4 923c 926e 473d 2e82 2d3a
000002c0: decb 0aba 9bb3 10bc 153a 3a3d ce98 fcbc
000002d0: 7d78 b93c 4ad8 05bd 843e 1f3c 4dca 98bc
000002e0: 8b0e 07bd b568 19bd dded 843c 0306 87bd
000002f0: 735e 5a3d 14c3 753c 46d8 62bc de3f 14bd
00000300: 74ca 9cbc fe2f 1a3e 4633 db3a 5248 04bd
00000310: ab9b c33c c34a e13c fa36 89bd 44aa 19bf
00000320: d70a 4f3d 7ea9 dcbb 85ef efbc 654b cfbd
00000330: fba3 773d 8c78 b73d 649b 58bc 2b28 f33c
00000340: d784 753b 8a06 68b9 ee49 aebc a2b9 3a3d
00000350: bc29 953c 5437 f93b d87c 1e3d d21c d940
00000360: 57bd 153c 0618 30bd 678c dd3b 08d4 16bc
00000370: 1d81 933a 69c1 cbbc e66b 30bd 9dbe 343a
00000380: 86cc 24ba ff88 18bc e0a4 97bc 471f d73b
00000390: 34db b0ba 2e46 163c bbf7 c2bc e7e8 79be
000003a0: baf5 e7bc dbb4 88bb 3dc0 be3b f664 3cbc
000003b0: 0c63 9e3c d9fd cf3c 930a 123c abfb ebbb
000003c0: efdd b33c f1b1 a5bb 7c37 033d 317b 94bd
000003d0: 2b82 18bb 97da 25bd cc32 81bc 0767 c1c0
000003e0: c765 a7bc bef9 fdbb 58b5 2ebd 3379 e03c
000003f0: 8578 e7bc 6ed0 1ebc 9b7a b3bc 95b2 62bc

decoder_input.bias f4 [52]
-1.4617201 -0.3536771 -0.0019859758 -0.6106415 -0.032829642 -0.007173241 -1.4780774 0.70615405
-1.9104962 -1.3980691 -1.7399554 -1.9226714 -0.9847698 0.12573113 -1.616734 -0.3303036
-1.181847 1.7441496 -0.58055556 -1.0687852 -0.7669093 0.013147598 1.8114549 0.14105175
-0.013267993 -1.0655786 1.4150565 -0.14914371 -1.4822992 1.8270907 0.0061781313 1.3217494
-0.0014265013 1.2212603 1.6084123 -0.11748431 -1.569744 0.015188059 -1.4002026 0.35287574
0.23944232 -1.8617526 -0.56732136 -0.002510299 0.008331345 -0.0154911475 1.7176759 -0.9126883
-1.3698409 1.0794654 -0.85988325 0.3002088
00000000: a519 bbbf 2a15 b5be 2527 02bb 0053 1cbf
00000010: 6078 06bd 820d ebbb a431 bdbf 83c6 343f
00000020: 248b f4bf eef3 b2bf dcb6 debf 191a f6bf
00000030: e019 7cbf a9bf 003e 24f1 cebf 8e1d a9be
00000040: c346 97bf 4b40 df3f 4a9f 14bf f4cd 88bf
00000050: 2b54 44bf 0669 573c c1dd e73f df6f 103e
00000060: ff61 59bc e164 88bf 9220 b53f 21b9 18be
00000070: fbbb bdbf 1cde e93f ec71 ca3b 162f a93f
00000080: 71f9 baba 4252 9c3f 74e0 cd3f 9d9b f0bd
00000090: 5fed c8bf 56d7 783c d739 b3bf 21ac b43e
000000a0: 5e30 753e e94d eebf f93b 11bf d483 24bb
000000b0: 3280 083c 95ce 7dbc cedc db3f f1a5 69bf
000000c0: f256 afbf ec2b 8a3f 4f21 5cbf f8b4 993e
