models/best-vae_circ_noisy-ThreeGPP-real-3gpp-32rx-1p.pt (torch, 428559 bytes, 44 tensors)

embed_data.weight f4 [32, 2, 1]
-0.12796955 -1.0800097 -0.0074615497 -0.009639832 -0.01166914 0.9460884 0.6294594 -0.116085686
-0.08284871 0.88784856 1.1784114 -1.0146071 0.009322082 0.0018351825 0.005679855 -0.0036366405
-0.20708883 -1.3364524 0.008788497 0.0030761375 -0.65410346 -0.091359995 0.8208502 0.2291852
-0.009934316 0.0026512574 -0.0051596435 0.0018013297 -0.5715225 -0.72939044 0.0067709843 0.00025236222
0.0054630386 -0.0029139693 -0.0051772147 0.0058980635 -0.0049716253 -0.0043868027 -0.49799693 -0.0594181
-0.006154718 0.010007763 0.85365987 0.13244417 0.0075576664 0.0034362904 0.005435436 -0.0037677255
-0.95977867 0.6718361 -0.005607852 -0.0020474696 0.0040041334 -0.0015943 0.004316501 0.017823316
-0.635294 -0.8521324 0.006563681 -0.0021071164 0.97649276 0.00036229787 -0.0064180996 -0.015986187
00000000: 730a 03be c23d 8abf 0480 f4bb 63f0 1dbc
00000010: ec2f 3fbc d932 723f 4024 213f 55be edbd
00000020: 96ac a9bd 0b4a 633f 2fd6 963f a5de 81bf
00000030: a5bb 183c 828a f03a 141e ba3b b454 6ebb
00000040: 180f 54be df10 abbf a1fd 0f3c 0699 493b
00000050: 5373 27bf f31a bbbd 3d23 523f 86af 6a3e
00000060: 8bc3 22bc b8c0 2d3b 3a12 a9bb 981a ec3a
00000070: 4c4f 12bf 55b9 3abf 22df dd3b 7c4f 8439
00000080: 4a03 b33b 4bf8 3ebb a0a5 a9bb 8b44 c13b
00000090: 04e9 a2bb 2bbf 8fbb 74f9 febe 6560 73bd
000000a0: 84ad c9bb 9af7 233c 7489 5a3f 729f 073e
000000b0: 4da6 f73b 6333 613b be1b b23b f2eb 76bb
000000c0: 0eb4 75bf 73fd 2b3f 12c2 b7bb d72e 06bb
000000d0: 1b35 833b d5f7 d0ba 6f71 8d3b 3402 923c
000000e0: a1a2 22bf 5925 5abf 2614 d73b 8c17 0abb
000000f0: 6efb 793f ccf2 bd39 ec4e d2bb 77f5 82bc

embed_data.bias f4 [32]
-1.2666894 0.007468583 -1.21497 0.8935575 -1.0365248 -1.4547501 0.008616806 -1.7632475
1.6545113 0.005991731 -1.722093 -1.4377912 -0.0045521986 1.8293719 1.4551667 -1.5578066
-1.956862 0.006226049 -0.0047189747 -0.011162325 -0.007133281 1.344485 0.005991833 -1.8694121
-0.73121446 1.8227323 -0.0016736909 0.011545605 -1.4415658 -1.5625855 -0.21884584 -0.015389782
00000000: e122 a2bf 04bb f43b 2384 9bbf 2fc0 643f
00000010: d8ac 84bf 4035 babf 812d 0d3c 18b2 e1bf
00000020: 07c7 d33f 4856 c43b 8b6d dcbf 8b09 b8bf
00000030: 9c2a 95bb dc28 ea3f e742 ba3f 3566 c7bf
00000040: 747a fabf e203 cc3b a1a1 9abb 2fe2 36bc
00000050: 4cbe e9bb 1618 ac3f 2357 c43b e548 efbf
00000060: df30 3bbf 4b4f e93f bf5f dbba c729 3d3c
00000070: 3a85 b8bf cd02 c8bf 2019 60be 6d25 7cbc

fc_mu_var.weight f4 [32, 294]
-0.14327617 0.16279568 -0.6425396 0.012470961 0.5412875 -0.047348347 0.3775957 -0.60032433
-0.53785235 0.006983406 0.44130903 -0.025183558 -0.052699387 -0.3496077 0.5383423 -0.20323093
-0.08101488 -0.16867632 -0.1427048 -0.010447339 0.03449799 -0.026715651 -0.15525173 0.0024816007
0.250112 0.10858915 0.25164524 -0.1947514 0.10060399 0.41076943 -0.20334676 0.20114374
0.047727276 -0.0055792984 0.06324846 0.051978435 0.054117627 0.022829631 -0.00678802 0.45577797
0.0879827 -0.18793447 0.6528899 0.69838595 -1.0465552 0.076858334 -0.086461246 0.00613018
-0.010321359 0.061049145 -0.039314702 0.15947556 -0.22523955 -0.17960201 -0.024804441 0.06402198
-0.01721953 -0.18664809 0.037924834 0.1766456 -0.2103244 0.09754204 1.2901692 0.115185
-0.1550087 0.56683785 -0.32600567 0.14284259 0.9790258 -0.6584508 -0.26294494 0.37291366
-0.34305176 -0.32351366 0.67477393 -0.16931713 -0.1561442 0.43585306 -0.14736147 0.109910704
0.05820213 0.28272054 -0.287932 -0.13693213 -0.05656154 -0.13938056 0.02576439 -0.0391421
-0.0032646996 0.029290047 0.49821377 -0.18717402 -0.111778356 0.024402147 0.5491289 -0.13916464
1.104163 0.09811874 -0.69894886 0.08417629 0.40054658 -0.58680284 -0.004745814 0.090585805
0.021011656 -0.20079745 -0.051626332 0.12388901 0.48369655 0.9178489 -0.932034 -0.031776026
-0.10185615 -0.009206128 -0.04394777 -0.23870175 0.17052753 0.0017050665 0.028038802 0.023837432
-0.6542151 0.00013339349 0.721598 0.035394154 0.038413186 -0.06663664 -0.40083906 0.38814884
0.0032136252 0.09749547 0.0024441478 0.037096377 -0.033488248 -0.033263307 0.055745378 0.022496607
0.004945229 0.008950171 -0.14383535 -0.03332604 0.008442616 0.26736626 -0.08051418 -0.5689828
0.1692248 -0.008653456 -0.04225229 0.37535045 0.8942757 0.19408813 0.5102317 0.58595586
-0.87233704 0.12985797 -0.48141646 -0.02682077 -2.196846 -0.22682858 0.25346228 0.087751806
0.063389614 -0.020497661 -3.429982 0.13706575 -0.06092058 -0.4923584 -0.32124084 0.27183813
-0.14909501 0.21157502 -0.059495702 -0.059628528 -0.11174296 -0.05684815 -0.020944456 0.21030478
0.32357624 0.08632343 0.2240197 -0.006402031 0.26465368 -0.16513237 -0.26338306 0.3807534
0.3134503 -0.03880609 0.065402046 -0.013357688 -0.02767583 0.8563927 -0.70284605 -0.4366517
-0.23819782 0.11935 -0.09089733 -0.27294117 -0.22431193 0.24731626 0.022945367 0.10369613
-0.81356966 0.0010127946 0.096370414 0.0115450835 -0.028452666 0.20943885 -0.006760409 -0.275449
0.15377605 0.029919606 -0.19655487 -0.42640218 1.0865593 -0.045430772 0.4515953 -0.044233363
0.079835646 -0.080553845 0.037139338 0.0890597 0.011510419 0.3459202 0.33070323 -0.34010977
-0.12485684 -0.27810657 0.40926588 0.56480914 -0.17236283 0.12967996 0.34045714 -0.31786397
-1.3163819 0.66733086 -0.21153152 0.2860887 0.3519814 -0.024978612 0.16229923 -0.1642743
-0.10394101 -0.47955394 -0.16913891 0.05037281 -0.13652417 -0.14196415 -0.22894031 0.47433668
-1.1072857 -0.50410783 -0.18906377 0.6120603 0.22437298 0.51246136 -1.1069287 -0.11849196
00000000: fdb6 12be e9b3 263e 7a7d 24bf 0053 4c3c
00000010: d191 0a3f 57f0 41bd 3954 c13e dbae 19bf
00000020: b1b0 09bf 0ed5 e43b 42f3 e13e c04d cebc
00000030: 50db 57bd c8ff b2be cdd0 093f c51b 50be
00000040: 21eb a5bd 7cb9 2cbe 3521 12be 512b 2bbc
00000050: c44d 0d3d c8da dabc 4ffa 1ebe 5aa2 223b
00000060: ae0e 803e fd63 de3d a5d7 803e e96c 47be
00000070: 7709 ce3d 5f50 d23e 223a 50be a0f8 4d3e
00000080: ad7d 433d 8cd2 b6bb 6988 813d 57e7 543d
00000090: 72aa 5d3d 3505 bb3c 0a6e debb bb5b e93e
000000a0: 4630 b43d e571 40be cb23 273f 6cc9 323f
000000b0: 85f5 85bf e767 9d3d 9812 b1bd addf c83b
000000c0: eb1a 29bc ab0e 7a3d 7408 21bd 904d 233e
000000d0: 32a5 66be 97e9 37be af32 cbbc f51d 833d
000000e0: f90f 8dbc ad20 3fbe 1257 1b3d 96e2 343e
000000f0: 485f 57be 1fc4 c73d 4424 a53f 1de6 eb3d
00000100: 9aba 1ebe 491c 113f 37ea a6be 5445 123e
00000110: 6fa1 7a3f 3b90 28bf b8a0 86be 8aee be3e
00000120: 7ba4 afbe 95a3 a5be fcbd 2c3f 7861 2dbe
00000130: 44e4 1fbe 2228 df3e ede5 16be dd18 e13d
00000140: 5b65 6e3d bfc0 903e d36b 93be f037 0cbe
00000150: 13ad 67bd c7b9 0ebe d80f d33c 7753 20bd
00000160: 92f4 55bb aef1 ef3c e015 ff3e 8caa 3fbe
00000170: 0dec e4bd 03e7 c73c b693 0c3f 2d81 0ebe
00000180: 3755 8d3f 7af2 c83d 50ee 32bf 9e64 ac3d
00000190: 7114 cd3e b638 16bf c682 9bbb 0d85 b93d
000001a0: a320 ac3c d99d 4dbe 2276 53bd 85b9 fd3d
000001b0: 13a7 f73e 25f8 6a3f c899 6ebf 9427 02bd
000001c0: f599 d0bd 4dd5 16bc 9402 34bd 3b6e 74be
000001d0: c59e 2e3e 8a7c df3a a1b1 e53c b846 c33c
000001e0: a47a 27bf 8bdf 0b39 a6ba 383f 76f9 103d
000001f0: 2557 1d3d ca78 88bd c73a cdbe 72bb c63e
00000200: af9b 523b b4ab c73d ff2d 203b 5ff2 173d
00000210: f92a 09bd 1b3f 08bd 4455 643d ce4a b83c
00000220: 960b a23b bda3 123c 9349 13be e380 08bd
00000230: e652 0a3c 3be4 883e 9ee4 a4bd dba8 11bf
00000240: 4449 2d3e 3ac7 0dbc bd10 2dbd ef2d c03e
00000250: 41ef 643f 0abf 463e 8b9e 023f 3401 163f
00000260: 7b51 5fbf 7df9 043e 387c f6be 3bb7 dbbc
00000270: 2099 0cc0 c045 68be cfc5 813e 38b7 b33d
00000280: 6ad2 813d b6ea a7bc d384 5bc0 f75a 0c3e
00000290: dc87 79bd 6616 fcbe ae79 a4be 5e2e 8b3e
000002a0: 5dac 18be 1fa7 583e c4b1 73bd 0b3d 74bd
000002b0: 7ed9 e4bd 9bd9 68bd b593 abbc 235a 573e
000002c0: c9ab a53e 57ca b03d 6c65 653e 21c8 d1bb
000002d0: b080 873e 7618 29be 25da 86be 1cf2 c23e
000002e0: 8f7c a03e 22f3 1ebd 82f1 853d 34da 5abc
000002f0: 6cb8 e2bc 8d3c 5b3f b8ed 33bf d090 dfbe
00000300: 21ea 73be c66d f43d 6128 babd f2be 8bbe
00000310: 07b2 65be 7940 7d3e ecf7 bb3c a35e d43d
00000320: 1a46 50bf bfbf 843a da5d c53d 9727 3d3c
00000330: 9115 e9bc 2377 563e 6c86 ddbb a707 8dbe
00000340: 7877 1d3e f619 f53c ae45 49be 6351 dabe
00000350: 6014 8b3f 9e15 3abd 8037 e73e 0b2e 35bd
00000360: df80 a33d 6af9 a4bd 6b1f 183d ef64 b63d
00000370: 3296 3c3c 741c b13e ef51 a93e de22 aebe
00000380: f1b4 ffbd fc63 8ebe 4c8b d13e 5597 103f
00000390: e27f 30be d3ca 043e 6650 ae3e 11bf a2be
000003a0: 347f a8bf 32d6 2a3f b89b 58be 387a 923e
000003b0: e836 b43e f29f ccbc c531 263e 8637 28be
000003c0: 06df d4bd 1888 f5be c032 2dbe b853 4e3d
000003d0: fecc 0bbe 0d5f 11be 546f 6abe 42dc f23e
000003e0: 8abb 8dbf 360d 01bf ef99 41be fcaf 1c3f
000003f0: 08c2 653e ab30 033f d7af 8dbf eaab f2bd

fc_mu_var.bias f4 [32]
0.086969264 -0.00022307062 -0.044308167 0.001493905 -0.0027024362 0.0010013537 -0.00095774507 0.00031751397
-0.00010475955 -0.0010166039 -0.00021724304 0.06981255 -0.002301227 0.14418688 -0.0002445193 -0.21584035
-1.3158228 -0.000149463 -0.5929053 -0.0005658729 0.000316642 -0.00038994814 -0.0012825389 -0.0027517313
-0.0011783394 0.0013348735 -0.0007565641 -1.3577454 -0.0005995996 -0.6405179 -8.635087e-05 -0.7641998
00000000: f11c b23d 10e8 69b9 7b7c 35bd 22cf c33a
00000010: 5b1b 31bb db3f 833a 2f11 7bba 0178 a639
00000020: 5bb2 dbb8 913f 85ba bccb 63b9 e2f9 8e3d
00000030: 2fd0 16bb baa5 133e d332 80b9 4105 5dbe
00000040: e26c a8bf 2bb9 1cb9 a4c8 17bf 1657 14ba
00000050: f802 a639 f471 ccb9 dd1a a8ba 6456 34bb
00000060: 8272 9aba ecf6 ae3a 2854 46ba 9aca adbf
00000070: 732e 1dba fbf8 23bf 4517 b5b8 99a2 43bf

encoder.0.0.weight f4 [32, 32, 5]
-1.165307 -0.4367937 -0.8357744 -1.2220567 -0.5311526 -0.013698707 -0.084277555 -0.09260827
0.021245135 0.040242832 -0.6297711 0.3684517 0.7720981 1.0611309 0.30986038 0.6791423
-0.07915987 -0.73151636 -0.73636425 -0.32443506 -0.38237315 0.3069945 0.7381885 1.0762666
0.29688758 -1.5433047 -0.4078431 -1.3324848 -1.2533569 -0.69888175 -0.034523413 -0.0020416284
-0.053121615 0.09248557 -0.18710174 -1.5924554 0.24738206 -0.77129424 -1.235809 -0.19302207
0.7502374 -0.37202746 -0.8138113 -1.1887267 -0.46343577 -0.078781396 0.12959756 -0.052238982
0.12961318 -0.0597416 -1.4164482 0.008041812 0.5800866 0.5801301 0.17200886 -1.3886707
0.13710636 -0.6701866 -0.7518569 -0.36679366 0.09586002 0.11536206 -0.0712779 0.03928013
-0.01596275 1.6788586 -0.20902623 0.66358435 1.1131579 0.20151773 0.9127036 -0.12302346
-0.36374947 -0.79333186 0.12370257 -1.3209186 0.24213958 -0.7483018 -0.9182552 -0.15838914
-1.987908 0.37889206 -0.6098932 -1.0543227 -0.37715173 0.055304017 -0.11109799 -0.13356121
0.13932818 0.079531215 -0.003946812 -0.032547902 0.05096988 -0.06101328 0.019930888 -0.67777485
-0.11605277 0.6033562 0.5425571 0.25588635 0.08930741 0.1316323 -0.09174455 0.05163106
-0.08534295 1.057445 0.015224668 -0.81544244 -0.66857666 -0.38926917 0.0022843203 0.027098125
0.0048125377 0.03248524 0.050479054 -1.9221425 0.32464227 -0.65024376 -0.95157063 -0.33113095
-0.19987682 0.26005483 1.0824835 1.0795856 0.5944239 1.6556988 -0.36976975 0.8736724
1.183353 0.13764657 0.037070632 -0.0084000025 -0.050920323 0.15815866 -0.15250531 0.022518486
0.14839746 -0.10449669 0.011835078 0.054894302 -1.4320015 -0.25986975 -0.6667986 -1.0371511
-0.15077055 -1.550019 0.22687459 -0.6839406 -0.7799678 -0.26459104 0.25585148 -0.06442145
-0.77478635 -0.76077604 -0.45354682 0.06428672 -0.067294866 0.1759163 -0.0983164 -0.025452597
-0.18105927 -1.4663298 -0.72132957 -0.17619114 0.015007004 -0.027323315 0.18419616 -0.07749442
0.11302708 -0.10104728 0.49467382 1.2706041 0.71954507 0.17250833 -0.044459634 0.38870028
2.2882552 1.2675072 0.35488057 0.15085499 0.4424727 1.0195446 0.6180208 -0.0018014506
-0.038054038 0.80299205 1.2387921 0.81790185 0.26314276 0.0837531 -0.018155714 -0.0028731783
0.24000412 -0.024239266 -0.016567191 0.7342208 1.1570896 -2.424742 0.058845386 -1.2685649
-0.9404215 -1.6644232 -1.0133553 -0.15832573 0.00027537212 0.023968814 -0.3311825 0.032822337
0.1369078 -0.110617414 0.32668313 -2.5991938 -1.4726269 -0.2581171 -0.06892669 1.1275436
2.737998 1.3627746 0.3704188 -0.036277555 -0.017035998 0.069501944 -0.025749044 0.1272741
0.07763524 -0.8076166 -1.1519679 2.3338182 -0.21722639 1.4410117 -0.9812711 -2.4794383
-1.3205051 -0.2325634 0.013888759 0.6190841 0.91170603 -1.7426671 0.066530146 -1.2308034
0.7693498 1.4710932 -2.3677223 0.5112324 -1.5972052 -0.05233384 0.10048351 -0.06508661
-0.13971704 0.1031873 0.11987479 -0.0979773 0.09014394 -0.33189678 -0.023523847 -1.1387777
00000000: c828 95bf 6da3 dfbe 50f5 55bf 5b6c 9cbf
00000010: 9ef9 07bf 8b70 60bc b699 acbd 68a9 bdbd
00000020: 470a ae3c abd5 243d ae38 21bf b4a5 bc3e
00000030: 39a8 453f 23d3 873f 05a6 9e3e 45dc 2d3f
00000040: 921e a2bd a844 3bbf 5e82 3cbf 5a1c a6be
00000050: 6ac6 c3be 622e 9d3e ecf9 3c3f 1bc3 893f
00000060: a601 983e 028b c5bf d0d0 d0be dd8e aabf
00000070: 006e a0bf eae9 32bf 6c68 0dbd d7cc 05bb
00000080: 0d96 59bd 1369 bd3d 9997 3fbe 94d5 cbbf
00000090: b951 7d3e 8a73 45bf fd2e 9ebf 94a7 45be
000000a0: 8f0f 403f 627a bebe f055 50bf 3228 98bf
000000b0: 7447 edbe 2458 a1bd 39b5 043e 8bf8 55bd
000000c0: 51b9 043e 9cb3 74bd 2d4e b5bf cec1 033c
000000d0: 8e80 143f 6883 143f 1723 303e f6bf b1bf
000000e0: 9c65 0c3e 5991 2bbf b279 40bf 61cc bbbe
000000f0: 4252 c43d f242 ec3d 26fa 91bd 34e4 203d
00000100: 50c4 82bc d7e4 d63f f90a 56be aae0 293f
00000110: f57b 8e3f aa5a 4e3e f1a6 693f b9f3 fbbd
00000120: 5f3d babe cc17 4bbf c657 fd3d dc13 a9bf
00000130: 70f3 773e b590 3fbf c612 6bbf c330 22be
00000140: c573 febf 24fe c13e f621 1cbf 0cf4 86bf
00000150: 081a c1be 7786 623d 5887 e3bd 45c4 08be
00000160: 0cac 0e3e 43e1 a23d 4254 81bb f350 05bd
00000170: cbc5 503d 10e9 79bd 1a46 a33c a782 2dbf
00000180: 13ad edbd 8d75 1a3f 06e5 0a3f 8903 833e
00000190: cee6 b63d 9eca 063e 91e4 bbbd 177b 533d
000001a0: 49c8 aebd 5c5a 873f e370 793c d6c0 50bf
000001b0: d727 2bbf 4a4e c7be 89b4 153b e3fc dd3c
000001c0: 7eb2 9d3b 3e0f 053d 20c3 4e3d c408 f6bf
000001d0: 8337 a63e 6076 26bf 229a 73bf ff89 a9be
000001e0: 82ac 4cbe e825 853e d28e 8a3f dc2f 8a3f
000001f0: 2a2c 183f f0ed d33f 7652 bdbe ffa8 5f3f
00000200: 1c78 973f 39f3 0c3e 60d7 173d 2aa0 09bc
00000210: d491 50bd 58f4 213e 5a2a 1cbe b078 b83c
00000220: 81f5 173e 5c02 d6bd eae7 413c d9d8 603d
00000230: d34b b7bf a60d 85be 50b3 2abf 5ec1 84bf
00000240: 9863 1abe 0667 c6bf d051 683e bb16 2fbf
00000250: f8ab 47bf 7a78 87be f7fe 823e 65ef 83bd
00000260: 6658 46bf 38c2 42bf 4a37 e8be c1a8 833d
00000270: e4d1 89bd 6723 343e 1c5a c9bd f781 d0bc
00000280: 9a67 39be b2b0 bbbf 0ea9 38bf 736b 34be
00000290: f0df 753c 25d5 dfbc eb9d 3c3e 65b5 9ebd
000002a0: be7a e73d e0f1 cebd e345 fd3e 28a3 a23f
000002b0: 1b34 383f 06a6 303e 4e1b 36bd b903 c73e
000002c0: c672 1240 ad3d a23f e8b2 b53e bb79 1a3e
000002d0: c88b e23e 7080 823f 9c36 1e3f a71e ecba
000002e0: 8dde 1bbd e390 4d3f bd90 9e3f 0462 513f
000002f0: a6ba 863e bf86 ab3d 4bbb 94bc ef4b 3cbb
00000300: a4c3 753e 6d91 c6bc ebb7 87bc e5f5 3b3f
00000310: 831b 943f f92e 1bc0 dc07 713d 5660 a2bf
00000320: 77bf 70bf d20b d5bf a0b5 81bf 2420 22be
00000330: d25f 9039 3f5a c43c c190 a9be b770 063d
00000340: 8f31 0c3e 628b e2bd 0343 a73e 3159 26c0
00000350: 0a7f bcbf ed27 84be 7029 8dbd 5953 903f
00000360: 5c3b 2f40 666f ae3f 88a7 bd3e c697 14bd
00000370: 148f 8bbc 0957 8e3d a9ef d2bc 2454 023e
00000380: 3aff 9e3d f6bf 4ebf af73 93bf 475d 1540
00000390: 9870 5ebe 1273 b83f 9534 7bbf 1eaf 1ec0
000003a0: 5006 a9bf 1a25 6ebe ad8d 633c 4c7c 1e3f
000003b0: 9165 693f b70f dfbf f540 883d f78a 9dbf
000003c0: 1cf4 443f c84c bc3f c388 17c0 20e0 023f
000003d0: 3871 ccbf 025c 56bd 4cca cd3d 214c 85bd
000003e0: fc11 0fbe dd53 d33d ea80 f53d 53a8 c8bd
000003f0: 639d b83d 60ee a9be 15b5 c0bc 78c3 91bf

encoder.0.0.bias f4 [32]
3.1524944 1.8959538 -0.9606581 -0.76737493 -0.22398303 1.7857152 0.017929802 -0.24223551
-1.6078378 0.019391235 1.9016416 1.9273702 -0.53409886 0.4464205 0.03307133 0.61027765
-4.324228 -1.0469162 -2.6199863 -0.18303162 -1.3923777 0.052539602 -4.328598 -1.6706196
0.91886157 -0.010969734 0.3787932 0.46243483 -0.23114434 0.033050563 -0.03767575 -0.9042703
00000000: 78c2 4940 9dae f23f b0ed 75bf af72 44bf
00000010: cf5b 65be 5192 e43f 85e1 923c 960c 78be
00000020: a1cd cdbf 5eda 9e3c fe68 f33f 11b4 f63f
00000030: b4ba 08bf 3a91 e43e ce75 073d 283b 1c3f
00000040: 1360 8ac0 5a01 86bf dbad 27c0 a46c 3bbe
00000050: 6f39 b2bf c433 573d e083 8ac0 ddd6 d5bf
00000060: 833a 6b3f 66ba 33bc 2ff1 c13e 42c4 ec3e
00000070: 1ab1 6cbe 0760 073d e351 1abd 427e 67bf

encoder.0.1.weight f4 [32]
-0.9062785 0.9621553 1.0918063 1.36611 -1.0945683 1.0766352 -1.4018742 1.3756422
0.94598293 0.0003922962 1.0069156 1.4856414 1.2678478 2.1828306 0.00026968028 -1.324098
-1.2840551 -1.4132752 -0.8378425 1.6638784 1.223506 0.005602742 -1.4905962 -1.4713697
0.93356574 -0.00027499016 -1.3313711 1.2820855 0.70881194 0.0026797068 -1.3132613 -1.381609
00000000: de01 68bf cf4f 763f 4fc0 8b3f b1dc ae3f
00000010: d01a 8cbf 2fcf 893f 9d70 b3bf 0b15 b03f
00000020: f02b 723f 1bad cd39 9ce2 803f 7f29 be3f
00000030: d648 a23f 7fb3 0b40 e063 8d39 0b7c a9bf
00000040: eb5b a4bf 34e6 b4bf d97c 56bf f8f9 d43f
00000050: d89b 9c3f 3597 b73b dbcb bebf d855 bcbf
00000060: 2afe 6e3f 8e2c 90b9 5e6a aabf 611b a43f
00000070: b374 353f 059e 2f3b f218 a8bf 90d8 b0bf

encoder.0.1.bias f4 [32]
0.09958136 -0.024396595 0.37937534 -0.0014202119 0.004816084 0.021107623 -0.0020444638 0.2498081
0.22110769 -0.013127611 0.15455133 -0.6617717 0.59960026 0.0034145333 -0.010123504 0.19803219
-0.41099632 0.00978493 0.002953704 -0.0040739765 0.39923644 -0.12634723 -0.29596096 -0.0025819126
-0.03528216 -0.00616 0.46888638 0.25134197 3.094396 -0.07487689 0.009123315 -0.0018819447
00000000: 50f1 cb3d 5edb c7bc 7c3d c23e 6726 baba
00000010: 3ed0 9d3b e5e9 ac3c 69fc 05bb b2cd 7f3e
00000020: 0e6a 623e 3115 57bc b442 1e3e df69 29bf
00000030: 677f 193f 5dc6 5f3b 0edd 25bc f3c8 4a3e
00000040: 1c6e d2be f950 203c ee92 413b fe7e 85bb
00000050: b868 cc3e 2b61 01be 3288 97be 4e35 29bb
00000060: 0784 10bd d3d9 c9bb e011 f03e e5af 803e
00000070: 960a 4640 0e59 99bd f579 153c 96ab f6ba

encoder.0.1.running_mean f4 [32]
52.97605 16.882738 28.169937 12.142459 2.708892 8.617174 7.0632963 -7.327029
108.267845 0.12387302 -19.182684 8.1799345 -3.859016 -5.591729 1.5886565 -20.967997
38.95753 -6.7155814 -3.56239 -0.76917934 7.835777 -0.7730665 3.9617758 -3.0949156
-0.07562603 0.5045274 23.88857 -20.70593 34.308704 1.4490808 8.336288 -10.503463
00000000: 7ae7 5342 d90f 8741 085c e141 8347 4241
00000010: 7d5e 2d40 f2df 0941 8606 e240 0677 eac0
00000020: 2389 d842 23b1 fd3d 2376 99c1 03e1 0241
00000030: 1efa 76c0 72ef b2c0 1959 cb3f 75be a7c1
00000040: 83d4 1b42 0be6 d6c0 33fe 63c0 f0e8 44bf
00000050: afbe fa40 b0e7 45bf bc8d 7d40 1913 46c0
00000060: d2e1 9abd b528 013f cb1b bf41 bfa5 a5c1
00000070: 1d3c 0942 7b7b b93f 7061 0541 2f0e 28c1

encoder.0.1.running_var f4 [32]
678.98694 1971.2406 2623.2473 2035.65 1824.5596 2515.5054 1930.8313 4197.306
7214.5713 28.74481 647.628 5724.84 3068.2173 2000.1636 19.963028 2992.0479
3862.3694 1980.2297 2872.3584 2116.0808 7722.2734 4.9292264 2483.6387 2006.6228
2816.6472 3.383349 1319.0444 3440.709 494.4474 2.0185487 2118.5354 1884.2272
00000000: 2abf 2944 b367 f644 f5f3 2345 cd74 fe44
00000010: e811 e444 1638 1d45 9a5a f144 732a 8345
00000020: 9274 e145 5ff5 e541 31e8 2144 b8e6 b245
00000030: 7ac3 3f45 3c05 fa44 48b4 9f41 c400 3b45
00000040: e965 7145 5a87 f744 bc85 3345 4b41 0445
00000050: 3052 f145 39bc 9d40 383a 1b45 eed3 fa44
00000060: 5b0a 3045 ca88 5840 6ce1 a444 580b 5745
00000070: 4439 f743 e72f 0140 9168 0445 4587 eb44

encoder.1.0.weight f4 [56, 32, 5]
0.03948435 0.7941249 -0.2715006 0.22255215 -0.50462526 -0.71962094 0.053078853 0.38367203
0.83642495 -0.62051415 0.64624286 -0.16548482 -0.33607534 -0.24369043 0.2615245 0.5537806
0.5935335 0.52976733 1.2053837 -0.2814721 -0.599106 1.2654283 1.2454442 1.3854656
-0.20130485 0.2026908 -0.11770862 0.15304066 0.50544876 -0.016840061 0.16372378 0.87397647
0.39611173 0.6575481 0.08844234 -0.6292771 -1.7043709 -1.5349588 -0.02046206 -0.22667427
0.62166476 -1.0802405 -0.8521366 -1.2996842 0.098197035 0.04018767 -0.096245736 -0.14172935
-0.13093874 0.12416021 -0.51055455 0.5828931 -0.77406013 0.5357803 0.37011048 -0.48769256
-0.23097095 0.7566843 0.67293733 0.18970785 -0.115262255 -1.2328991 -1.4924022 0.45024705
0.41217488 0.5500466 1.8549664 2.5526018 2.6653955 0.54420185 0.1590695 -0.010705788
-0.18011676 -0.012898932 0.08256985 -0.115976185 -1.4221089 -1.6179175 0.027789196 -0.13288307
-1.1833792 -1.574878 -1.145476 -0.6956697 0.15519486 0.4088172 1.2005664 1.3899692
1.4307477 0.24476278 0.42233548 -0.0071253343 0.09784278 0.13443214 -0.5717983 1.2361029
1.6089988 1.4075347 2.1258764 0.4217021 0.09189374 -0.98391074 -0.008819144 -0.20971954
0.1708435 -0.105992205 0.0052108956 -0.0015006859 0.085274 0.038621385 -0.95885754 -2.6033905
-3.8371193 -3.4082577 -0.59586 0.46428913 0.6108178 0.83578175 1.762542 0.24868423
-0.38767698 -0.20942299 0.18255539 0.5740167 -0.346243 0.01774174 0.060184475 -0.028415758
0.013776696 -0.04582541 0.7839128 0.13859396 -2.6728754 -1.5597929 -0.41924688 -1.0210975
-1.8861684 -0.17782812 -0.33799827 0.14712127 2.4344537 -2.2337236 0.22607598 -0.3930641
0.17998561 -0.009386539 0.07567099 0.009233609 0.04349342 0.041075096 0.58425444 0.45757055
0.62575155 0.5996128 -0.45112416 0.18240692 0.22462188 0.7860392 1.5461496 -0.17636505
-0.059301607 0.034121133 0.007815659 -0.0822502 -0.0038655817 -0.04207081 0.011545304 -0.030438043
-0.042360518 -0.027241642 0.062452335 -0.013025321 -0.05068448 0.011311864 -0.025758222 -0.07081689
0.09541963 -0.050304282 -0.0075065116 0.02195194 0.022187922 0.0011290747 0.009778079 0.050451174
0.04745264 -0.06946913 0.05504948 -0.04740085 -0.09720493 0.07676162 -0.041461103 0.03309386
-0.029323028 -0.04479753 0.0048450567 -0.030322207 0.06121788 -0.0028079015 0.011952468 0.037545953
-0.032940045 -0.07529391 0.044736385 0.012918937 0.041066952 0.0076148105 0.04159686 0.018841716
0.044515774 0.059833102 0.066043094 -0.0069326074 -0.07247877 0.06096412 0.04323757 -0.015756952
0.07226866 -0.08110305 0.051947303 -0.08274372 -0.01863581 0.062272258 0.012967615 -0.007086438
0.07351793 -0.05527622 0.05238136 -0.026743812 -0.030079741 0.025479114 -0.0076733525 0.006517311
-0.112997204 0.033673882 -0.06593542 -0.023375304 -0.038243882 -0.00050568266 0.093262866 0.02264262
0.047204226 0.031960994 0.10606467 -0.018214293 0.044801343 0.06629283 0.01992855 -0.059031736
-0.014375765 -0.057092305 -0.036432456 -0.009889143 -0.06816532 -0.053539287 0.028726574 0.010003136
00000000: 57ba 213d c54b 4b3f 2002 8bbe b6e4 633e
00000010: 1f2f 01bf 1439 38bf 3669 593d a970 c43e
00000020: f21f 563f 04da 1ebf 2c70 253f da74 29be
00000030: 1112 acbe fc89 79be 8ae6 853e 91c4 0d3f
00000040: d0f1 173f d59e 073f 034a 9a3f 1c1d 90be
00000050: 035f 19bf 8ef9 a13f b76a 9f3f f056 b13f
00000060: dc22 4ebe 2d8e 4f3e 3811 f1bd b1b6 1c3e
00000070: 1765 013f 2bf4 89bc 35a7 273e ecbc 5f3f
00000080: 28cf ca3e 1355 283f 4221 b53d 4e18 21bf
00000090: d328 dabf 8879 c4bf 0da0 a7bc 4d1d 68be
000000a0: 6c25 1f3f 5245 8abf a025 5abf 0d5c a6bf
000000b0: 871b c93d d49b 243d 7c1c c5bd 8021 11be
000000c0: ce14 06be b547 fe3d b4b3 02bf 7b38 153f
000000d0: ce28 46bf e628 093f 1f7f bd3e d7b2 f9be
000000e0: a683 6cbe 10b6 413f 9f45 2c3f c642 423e
000000f0: 9e0e ecbd a3cf 9dbf 0907 bfbf c886 e63e
00000100: 9608 d33e dbcf 0c3f 8a6f ed3f d45d 2340
00000110: d795 2a40 d050 0b3f 1de3 223e 5467 2fbc
00000120: 8770 38be 0b56 53bc 621a a93d ec84 edbd
00000130: aa07 b6bf ec17 cfbf 2ba6 e33c 8012 08be
00000140: f878 97bf 9a95 c9bf f59e 92bf 6917 32bf
00000150: 67eb 1e3e 7d50 d13e 29ac 993f 83ea b13f
00000160: be22 b73f 18a3 7a3e 5b3c d83e a37b e9bb
00000170: cc61 c83d 94a8 093e 6061 12bf 9f38 9e3f
00000180: acf3 cd3f 192a b43f 5c0e 0840 56e9 d73e
00000190: c932 bc3d 93e1 7bbf 2c7e 10bc b8c0 56be
000001a0: 99f1 2e3e 7112 d9bd 29c0 aa3b aab2 c4ba
000001b0: 23a4 ae3d 7531 1e3d b077 75bf f39d 26c0
000001c0: 5d93 75c0 e520 5ac0 488a 18bf 4eb7 ed3e
000001d0: 8e5e 1c3f cbf5 553f fa9a e13f 14a7 7e3e
000001e0: 997d c6be fb72 56be cdef 3a3e c2f2 123f
000001f0: c346 b1be 2057 913c ff83 763d 2ac8 e8bc
00000200: a7b7 613c 6db3 3bbd 82ae 483f 93eb 0d3e
00000210: 6410 2bc0 4ba7 c7bf 87a7 d6be 53b3 82bf
00000220: f76d f1bf 9318 36be 1c0e adbe f5a6 163e
00000230: 17ce 1b40 54f5 0ec0 7680 673e b33f c9be
00000240: 264e 383e 00ca 19bc 64f9 9a3d 9048 173c
00000250: 2826 323d 5c3e 283d b391 153f b046 ea3e
00000260: 4131 203f 3980 193f bff9 e6be e1c8 3a3e
00000270: 4703 663e dd39 493f 3be8 c53f 0a99 34be
00000280: 3ee6 72bd 9ac2 0b3d 400d 003c cb72 a8bd
00000290: b355 7dbb 7152 2cbd 8428 3d3c 3459 f9bc
000002a0: 3982 2dbd dd29 dfbc 05ce 7f3d 2868 55bc
000002b0: 889a 4fbd 6555 393c e802 d3bc 7208 91bd
000002c0: 5e6b c33d dd0b 4ebd 2ff9 f5bb 8ed4 b33c
000002d0: 72c3 b53c 76fd 933a 3c34 203c e4a5 4e3d
000002e0: b35d 423d d545 8ebd 907b 613d 6527 42bd
000002f0: 6113 c7bd 3235 9d3d 1ed3 29bd 6d8d 073d
00000300: d936 f0bc 9d7d 37bd 48c3 9e3b 4766 f8bc
00000310: 9abf 7a3d c504 38bb 49d4 433c c9c9 193d
00000320: 24ec 06bd b233 9abd 803d 373d f3a9 533c
00000330: d235 283d a985 f93b 7861 2a3d f159 9a3c
00000340: 2c56 363d 8e13 753d 9a41 873d ed2a e3bb
00000350: c06f 94bd 83b5 793d e119 313d b914 81bc
00000360: 9701 943d 5b19 a6bd b2c6 543d 8a75 a9bd
00000370: 20aa 98bc 3211 7f3d 1f76 543c 5a35 e8bb
00000380: 9290 963d 5169 62bd d68d 563d d715 dbbc
00000390: ca69 f6bc 93b9 d03c bf70 fbbb 2b8f d53b
000003a0: 146b e7bd a0ed 093d 2609 87bd 917d bfbc
000003b0: 9ea5 1cbd ca8f 04ba 9a00 bf3d 047d b93c
000003c0: 3859 413d 88e9 023d 6f38 d93d 2436 95bc
000003d0: 9d81 373d 89c4 873d 3341 a33c 43cb 71bd
000003e0: 5488 6bbc 9fd9 69bd 333a 15bd 1206 22bc
000003f0: 429a 8bbd 034c 5bbd fe53 eb3c 31e4 233c

encoder.1.0.bias f4 [56]
-2.2422216 0.013178052 -1.426394 0.006954033 -2.1760118 0.039363075 -4.049619 3.4171262
-1.3702757 -0.18782264 2.0105627 -0.011331097 2.9331527 0.68829155 0.03986066 -1.417666
0.080370024 2.6258159 -0.7958057 0.020442719 3.8273208 2.1202428 1.5753943 -4.915514
-0.06402803 -0.2562154 0.05859311 -1.2207228 0.41155085 3.2919376 -0.04961352 -0.035799824
2.4744008 0.07930557 -0.0003591406 -0.017223502 -0.0071976166 0.22835389 0.015585512 -0.47232658
-0.029719103 4.875742 1.3351648 0.2826792 -1.6066217 0.88261783 -0.6369219 -1.3492715
-0.51008594 -4.195309 0.036600824 0.060284115 -2.1881716 -8.2584305 -0.03157755 -0.9498578
00000000: 8f80 0fc0 c2e8 573c 1494 b6bf a8de e33b
00000010: c743 0bc0 2d3b 213d 7b96 81c0 32b2 5a40
00000020: 3265 afbf 9454 40be 0fad 0040 11a6 39bc
00000030: c6b8 3b40 e033 303f ee44 233d 1476 b5bf
00000040: 0a99 a43d 5e0d 2840 ecb9 4bbf 7d77 a73c
00000050: d3f2 7440 0fb2 0740 85a6 c93f e44b 9dc0
00000060: 2121 83bd aa2e 83be 54ff 6f3d a540 9cbf
00000070: cbb6 d23e 1baf 5240 8c37 4bbd d6a2 12bd
00000080: 955c 1e40 f56a a23d 094b bcb9 4d18 8dbc
00000090: fcd9 ebbb 9ad5 693e 605a 7f3c cad4 f1be
000000a0: 7a75 f3bc 1406 9c40 aee6 aa3f 54bb 903e
000000b0: c8a5 cdbf 3ef3 613f 500d 23bf eeb4 acbf
000000c0: fe94 02bf f93f 86c0 bfea 153d 7aec 763d
000000d0: 010b 0cc0 8822 04c1 7657 01bd e129 73bf

encoder.1.1.weight f4 [56]
-1.7923185 0.0008003034 -1.8899584 0.0018961388 -0.70655185 0.008805952 -0.9736964 1.1700852
-0.38880506 1.2112012 1.7204316 -0.00032226174 0.9717905 0.7947204 -0.028860765 -1.6503507
0.0030744446 1.2416295 -0.9304189 0.0018097443 1.1956666 0.8217583 0.73257554 -1.070551
0.005177723 1.3259778 0.001060444 -1.3729895 0.6972368 1.9346856 -0.017840914 0.0074041025
0.93367 -0.79570955 0.024574509 0.017116169 -0.0016382 -1.2122725 0.00014599746 -1.689346
0.0057102577 0.9395256 0.26856712 -1.1018423 -1.3671694 0.97406995 -1.2286465 -1.3850667
-1.6434643 -1.2086507 0.006681012 -0.00025139353 -1.7732921 -1.2300543 -1.3017313 -1.493541
00000000: b16a e5bf 74cb 513a 28ea f1bf dc87 f83a
00000010: 95e0 34bf d746 103c 2b44 79bf 5ac5 953f
00000020: 7511 c7be a408 9b3f 1a37 dc3f 3df5 a8b9
00000030: 43c7 783f cc72 4b3f 696d ecbc b13e d3bf
00000040: 9f7c 493b b7ed 9e3f ef2f 6ebf f134 ed3a
00000050: 9a0b 993f c05e 523f 128a 3b3f d107 89bf
00000060: e3a9 a93b a4b9 a93f 99fe 8a3a 1fbe afbf
00000070: 1c7e 323f c7a3 f73f 1c27 92bc 1d9e f23b
00000080: ff04 6f3f 9fb3 4bbf 7b50 c93c 3537 8c3c
00000090: dfb8 d6ba bf2b 9bbf e516 1939 7d3c d8bf
000000a0: 1d1d bb3b c084 703f a181 893e 2b09 8dbf
000000b0: 68ff aebf a65c 793f 4a44 9dbf de49 b1bf
000000c0: 0a5d d2bf 11b5 9abf 64ec da3b 78cd 83b9
000000d0: 3cfb e2bf 6b72 9dbf 229f a6bf 5a2c bfbf

encoder.1.1.bias f4 [56]
-1.248613 -0.022153126 -1.0601454 -0.045534782 -0.118266314 -0.17083019 -0.42975318 -0.6787686
0.007906892 -0.3496361 -0.906284 -0.031110784 -0.47786263 -0.09247909 -0.10010586 -0.7924315
-0.041150063 -0.4667858 -0.30254486 -0.06290559 -0.83726525 -0.23742129 -0.081053555 -0.6452297
-0.09907677 -0.4788443 -0.010524993 -0.41167322 -0.033854153 -1.5314721 -0.059979793 -0.12235132
-0.20123993 0.6572865 -0.058624685 -0.059110846 -0.10346571 -0.6594654 -0.003599253 -1.1104041
-0.15956403 -0.46819302 0.1944878 -0.5320357 -0.52684623 -0.5644689 -0.6142934 -0.97375375
-0.7376919 -0.70083797 -0.1023236 -0.005296669 -1.1658117 -0.42867365 -0.41574213 -0.6052834
00000000: 8dd2 9fbf 797a b5bc d8b2 87bf ae82 3abd
00000010: 9c35 f2bd 1cee 2ebe 9c08 dcbe c7c3 2dbf
00000020: e98b 013c 8103 b3be 3a02 68bf 0bdc febc
00000030: 69aa f4be ad65 bdbd 4d04 cdbd cadc 4abf
00000040: f88c 28bd 8cfe eebe 29e7 9abe a5d4 80bd
00000050: 0457 56bf 911e 73be 68ff a5bd c62d 25bf
00000060: c3e8 cabd 152b f5be 0571 2cbc d5c6 d2be
00000070: a7aa 0abd 4707 c4bf 5fad 75bd 5493 fabd
00000080: d711 4ebe ee43 283f 7020 70bd 371e 72bd
00000090: d5e5 d3bd b9d2 28bf 72e1 6bbb b921 8ebf
000000a0: c164 23be ffb6 efbe cf27 473e 7e33 08bf
000000b0: 65df 06bf 0981 10bf 5542 1dbf ed47 79bf
000000c0: 60d9 3cbf 1e6a 33bf 098f d1bd ae8f adbb
000000d0: 5139 95bf 1d7b dbbe 27dc d4be daf3 1abf

encoder.1.1.running_mean f4 [56]
-1.7658644 -0.21371157 8.16347 0.41959172 11.9991255 -1.8500067 12.968195 -21.108435
6.698216 -4.166312 -34.553032 -1.5447129 -20.29273 -42.127247 2.2258022 7.260234
-0.7882715 -11.020379 9.96615 -0.30581948 -11.097072 -28.140411 -6.067699 17.083872
-0.43305132 -11.50389 -0.8090044 -1.4250746 -6.502195 -0.86622393 1.3082598 0.229381
-39.161236 30.540709 -1.3746655 -1.6348697 -0.088515505 -2.656973 -0.42268017 -9.795997
-0.17559375 -18.073187 -7.230568 4.63276 25.853012 3.103949 6.9264126 0.29388314
0.73078483 4.116764 1.2778946 -0.21782567 -11.0796 -23.818617 25.511692 18.741764
00000000: d807 e2bf 35d7 5abe 939d 0241 bad4 d63e
00000010: 6bfc 3f41 05cd ecbf ba7d 4f41 13de a8c1
00000020: c957 d640 6e52 85c0 4e36 0ac2 27b9 c5bf
00000030: 8357 a2c1 4d82 28c2 8b73 0e40 d653 e840
00000040: 29cc 49bf 7953 30c1 5a75 1f41 5f94 9cbe
00000050: 9b8d 31c1 901f e1c1 972a c2c0 c5ab 8841
00000060: e7b8 ddbe ef0f 38c1 ea1a 4fbf d868 b6bf
00000070: fb11 d0c0 dac0 5dbf 0f75 a73f dae2 6a3e
00000080: 1ba5 1cc2 5f53 f441 0af5 afbf 6943 d1bf
00000090: 9e47 b5bd d80b 2ac0 8969 d8be 67bc 1cc1
000000a0: d9ce 33be e395 90c1 d060 e7c0 923f 9440
000000b0: f8d2 ce41 1aa7 4640 2ca5 dd40 da77 963e
000000c0: b714 3b3f 88bc 8340 0d92 a33f b10d 5fbe
000000d0: 0b46 31c1 878c bec1 f217 cc41 22ef 9541

encoder.1.1.running_var f4 [56]
33.57777 0.17035873 68.332596 1.4336963 121.8493 2.6026375 148.60925 181.5268
76.262344 364.3509 296.61356 1.6620307 177.31265 259.9102 5.1225185 418.61813
1.6441746 217.6915 137.48637 0.19043858 81.27259 146.43803 169.22404 147.77658
0.20629588 379.1168 1.0277771 208.38478 182.0538 34.18643 1.4516287 1.6430235
257.3085 684.4999 1.9696265 1.5810332 0.7152973 56.788956 0.37586457 123.26581
0.33142743 141.05649 65.88588 112.89083 292.68286 55.80296 230.09467 85.884094
382.07535 143.72733 2.781612 0.6961635 114.15138 32.454166 307.7052 245.93292
00000000: a34f 0642 8572 2e3e 4aaa 8842 5c83 b73f
00000010: d7b2 f342 9d91 2640 f89b 1443 dc86 3543
00000020: 5286 9842 ea2c b643 894e 9443 6cbd d43f
00000030: 0a50 3143 81f4 8143 aceb a340 1f4f d143
00000040: 5074 d23f 06b1 5943 837c 0943 5502 433e
00000050: 918b a242 2370 1243 5b39 2943 cec6 1343
00000060: 3a3f 533e f38e bd43 338e 833f 8162 5043
00000070: c60d 3643 e8be 0842 f8ce b93f 984e d23f
00000080: 7da7 8043 fe1f 2b44 b91c fc3f 4c5f ca3f
00000090: b91d 373f e427 6342 5271 c03e 1888 f642
000000a0: dbb0 a93e 760e 0d43 92c5 8342 1bc8 e142
000000b0: 6857 9243 3b36 5f42 3c18 6643 a8c4 ab42
000000c0: a509 bf43 32ba 0f43 ee05 3240 c537 323f
000000d0: 824d e442 11d1 0142 44da 9943 d4ee 7543

encoder.2.0.weight f4 [98, 56, 5]
-2.0593908 0.97456986 0.90162194 -1.6009644 -0.09420024 0.029521493 -0.030667095 -0.047836766
-0.001530001 -0.0080464 -1.419177 0.5086101 -0.17705348 -0.87725294 -0.39491355 -0.05482725
-0.02864569 -0.023414461 -0.008151888 0.0336067 0.008042606 -0.6011202 -0.9028937 0.8547976
1.172168 -0.024265606 0.062027752 -0.050262343 -0.0422644 -0.004813046 -0.41610292 -0.96357024
-0.37986284 0.08845962 1.9898748 -0.38625363 -1.2114912 -0.41387337 -0.4445611 3.0723224
-2.0624502 1.8165927 0.5084296 -0.6173648 0.48284084 0.8812423 -0.35064167 0.48626584
-0.3815807 0.911138 0.9664006 -1.2297443 0.036474366 0.017328788 0.20321545 -0.08675981
0.038043328 0.019927824 -0.012375311 0.05111586 0.5290887 -0.7348977 -7.753202 -2.5506687
-2.5315425 -0.3637891 -0.40697464 -1.2673624 -1.2149218 -1.3151422 0.132251 -0.021351656
0.061603244 -0.029547226 0.056156117 0.8911782 -2.251779 -1.5515138 -0.16835496 2.046953
-0.04688793 -0.03441269 0.055672318 0.020645998 0.059214804 -0.06328204 -0.8956601 -0.975505
0.5493965 1.3066723 0.38350612 1.4279152 -0.5608814 -0.50772697 1.6097324 0.029731158
-0.018275607 0.09751119 -0.009158784 0.021767115 0.9802083 0.096990176 -0.17118958 -5.6643105
1.7308366 0.5256623 -1.295662 0.22154048 1.4531535 -1.4194787 -2.0460973 -0.64231044
-0.1811501 -1.2527406 -0.27302316 1.2828808 0.30860355 -5.1555367 -4.036037 -1.6071588
-0.015227742 -0.09540163 -0.031984784 0.13958801 0.112221204 -0.025626706 -0.19250648 1.2282902
-0.801659 -0.6021973 0.013949934 0.012053703 -0.017885454 0.011737808 -0.027476655 1.1817532
0.37414482 0.06726475 -1.7186798 -1.5763264 -0.6778213 0.10321406 -0.22204055 -0.80486345
1.7635368 1.8413948 -0.46816537 -0.058094945 0.6498736 1.5274677 0.042082097 0.03866453
0.020069787 0.00474748 0.010313028 -0.06671107 -0.029432086 -0.04319048 -0.0087046195 -0.02990405
0.08092276 0.17357144 0.18799819 -1.201976 -1.3304616 1.646911 0.5666938 -0.25712106
-1.7323186 0.80901253 -0.115129784 0.028506448 0.04004962 0.0031088116 -0.030126218 0.050261196
0.07039222 -0.018704606 -0.0040924726 -0.09552455 0.08452103 -0.03215533 0.0047687623 -0.09333707
0.07488864 1.780916 -0.45842117 0.847907 0.72514474 0.4609448 0.06072113 0.030509772
-0.042478807 0.08513993 0.016372664 -0.0931843 0.3138623 0.12167916 0.3280067 0.40305904
0.0056305984 -0.008358579 0.0387053 -0.04379132 0.028718896 0.17577656 -0.47541726 -1.7567469
-7.6081514 -1.3760873 -0.9224012 1.2796971 0.1943301 0.7274026 -0.046112996 0.9465092
0.13800402 -0.43710434 -0.5255468 2.2883844 0.644583 -0.6087686 0.21186584 -0.74730885
-1.5197388 0.048755888 0.22951895 0.12287253 -0.4402369 0.95139706 -0.03503346 -1.5583535
0.053071138 -1.5233518 -1.3874758 -1.4432869 1.4064528 -0.10133411 0.72575957 1.2825291
0.21535136 0.9299452 0.2516672 -0.81766593 0.6238974 -8.046833 -1.0856497 -0.28160787
1.5836056 1.0311826 0.05469382 -0.0025887357 -0.03839099 0.020683518 -0.08544921 -0.08956002
00000000: 0fcd 03c0 697d 793f b2d0 663f 67ec ccbf
00000010: 0eec c0bd 0fd7 f13c 8f39 fbbc 7cf0 43bd
00000020: 518a c8ba 0cd5 03bc 98a7 b5bf 4634 023f
00000030: 824d 35be a693 60bf 1c32 cabe 8a92 60bd
00000040: 5eaa eabc afcf bfbc 7f8f 05bc 2ea7 093d
00000050: 22c5 033c 03e3 19bf 0b24 67bf 04d4 5a3f
00000060: 9a09 963f aac8 c6bc d010 7e3d e3df 4dbd
00000070: 6f1d 2dbd c2b6 9dbb 710b d5be 8aac 76bf
00000080: 627d c2be 512a b53d 38b4 fe3f 09c3 c5be
00000090: 2512 9bbf 36e7 d3be 839d e3be eea0 4440
000000a0: 2fff 03c0 1c86 e83f 7128 023f 9f0b 1ebf
000000b0: ea36 f73e 1899 613f 4e87 b3be d6f7 f83e
000000c0: 8c5e c3be 5740 693f 0866 773f 4368 9dbf
000000d0: 2566 153d 1af5 8d3c b617 503e 21af b1bd
000000e0: 52d3 1b3d ad3f a33c d1c1 4abc dd5e 513d
000000f0: 5b72 073f 4122 3cbf 3b1a f8c0 283e 23c0
00000100: cb04 22c0 9142 babe fb5e d0be ee38 a2bf
00000110: 8f82 9bbf 9456 a8bf ce6c 073e abe9 aebc
00000120: af53 7c3d 060d f2bc f503 663d 4124 643f
00000130: 261d 10c0 0198 c6bf 3e65 2cbe 4701 0340
00000140: 8f0d 40bd 52f4 0cbd a808 643d cc21 a93c
00000150: 398b 723d 049a 81bd fb49 65bf b2ba 79bf
00000160: 40a5 0c3f 0a41 a73f ea5a c43e edc5 b63f
00000170: ec95 0fbf 65fa 01bf b60b ce3f c28e f33c
00000180: bab6 95bc f2b3 c73d b90e 16bc f350 b23c
00000190: eeee 7a3f c9a2 c63d 524c 2fbe 0842 b5c0
000001a0: 0e8c dd3f ce91 063f 41d8 a5bf 82db 623e
000001b0: ef00 ba3f 7ab1 b5bf 42f3 02c0 756e 24bf
000001c0: 697f 39be ce59 a0bf b1c9 8bbe 7035 a43f
000001d0: 4901 9e3e 28fa a4c0 3727 81c0 61b7 cdbf
000001e0: c77d 79bc ee61 c3bd 7a02 03bd 29f0 0e3e
000001f0: 3bd4 e53d 19ef d1bc 6b20 45be 9d38 9d3f
00000200: 8639 4dbf 9a29 1abf 448e 643c e57c 453c
00000210: 8484 92bc ef4f 403c b916 e1bc b043 973f
00000220: e98f bf3e 1ac2 893d b3fd dbbf 10c5 c9bf
00000230: b285 2dbf e561 d33d 995e 63be 880b 4ebf
00000240: 93bb e13f d3b2 eb3f 5fb3 efbe f7f4 6dbd
00000250: 1e5e 263f 1084 c33f 475e 2c3d b35e 1e3d
00000260: 6569 a43c c090 9b3b f9f7 283c d09f 88bd
00000270: 8f1b f1bc 80e8 30bd d29d 0ebc 57f9 f4bc
00000280: d5ba a53d b6bc 313e 9982 403e 59da 99bf
00000290: 914c aabf fbcd d23f d812 113f 5fa5 83be
000002a0: 9ebc ddbf 721b 4f3f 2ac9 ebbd 5b86 e93c
000002b0: 120b 243d 34bd 4b3b 42cb f6bc afde 4d3d
000002c0: cc29 903d 673a 99bc 261a 86bb 60a2 c3bd
000002d0: 5d19 ad3d 4fb5 03bd 4743 9c3b 8127 bfbd
000002e0: 375f 993d 0ef5 e33f 2eb6 eabe 6f10 593f
000002f0: 16a3 393f f500 ec3e b8b6 783d a1ef f93c
00000300: 42fe 2dbd d85d ae3d f71f 863c 69d7 bebd
00000310: 8fb2 a03e ec32 f93d 7ff0 a73e c15d ce3e
00000320: e280 b83b 6cf2 08bc 7389 1e3d 875e 33bd
00000330: e443 eb3c c5fe 333e e469 f3be 15dd e0bf
00000340: fa75 f3c0 a123 b0bf 7c22 6cbf 1dcd a33f
00000350: 78fe 463e 0f37 3a3f fbe0 3cbd 6d4e 723f
00000360: ed50 0d3e 24cc dfbe 3c8a 06bf e474 1240
00000370: 6403 253f 42d8 1bbf 5cf3 583e a24f 3fbf
00000380: cd86 c2bf 41b4 473d 0407 6b3e 98a4 fb3d
00000390: bb66 e1be c28e 733f 3f7f 0fbd 2178 c7bf
000003a0: 1f61 593d 31fd c2bf cf98 b1bf a0bd b8bf
000003b0: a506 b43f 4288 cfbd 61cb 393f ea29 a43f
000003c0: 1185 5c3e e310 6e3f 86da 803e 8e52 51bf
000003d0: bdb7 1f3f d4bf 00c1 92f6 8abf e82e 90be
000003e0: 97b3 ca3f cbfd 833f a106 603d c7a7 29bb
000003f0: df3f 1dbd 7b70 a93c ffff aebd 3e6b b7bd

encoder.2.0.bias f4 [98]
0.75753504 -2.3958993 -2.3025646 1.4044158 -1.2160068 -1.5983014 -1.9087024 9.183336
-2.078458 1.5163654 2.0003276 0.0030913602 -0.01238235 -1.2984167 -2.2992346 -0.033610016
0.20880423 5.7538257 -0.022076491 0.49495125 0.1910033 -1.2664107 -2.6772888 -1.9395809
4.537783 0.9576634 -3.3197658 0.4872645 -8.37463 -3.0650237 -0.09060618 0.050691135
2.5027678 1.8141758 2.9636834 -0.55188733 -0.46258545 -0.008629051 2.9097354 0.020298747
2.4026513 2.2560225 0.26960707 0.050203927 -0.6767621 -0.008376018 3.052463 2.2325406
4.6156435 3.3983057 -0.5955986 0.08363757 1.8582865 19.44918 2.0228431 -2.0914114
-3.6162577 -0.0010056073 0.82118213 -2.2408702 -3.6178935 -1.2784171 -0.08160123 3.3219507
-2.6983593 -1.7842145 2.177506 -0.013369775 8.804147 1.2250786 -1.822508 -2.124667
-0.036058515 2.8144357 -0.5415989 2.0580297 -0.072969474 -0.68458515 0.4953901 32.50134
2.6417086 -0.047824018 3.2653275 -2.8173382 -2.7823853 -0.9786439 0.8502523 -1.4140154
2.2996123 0.0029287233 0.017407667 -9.681945 4.615454 4.7200437 -0.009728919 2.1021152
3.8570209 -1.3755709
00000000: d1ed 413f 6a56 19c0 385d 13c0 e6c3 b33f
00000010: 1ca6 9bbf 2495 ccbf 5c50 f4bf f2ee 1241
00000020: 7505 05c0 4318 c23f 5e05 0040 6b98 4a3b
00000030: 57df 4abc 8532 a6bf a926 13c0 a8aa 09bd
00000040: c7d0 553e 571f b840 c2d9 b4bc 406a fd3e
00000050: 5e96 433e bf19 a2bf b358 2bc0 3044 f8bf
00000060: 8535 9140 6e29 753f 0b77 54c0 bc7a f93e
00000070: 7cfe 05c1 5929 44c0 bc8f b9bd 82a1 4f3d
00000080: 592d 2040 ea36 e83f fdac 3d40 7d48 0dbf
00000090: 00d8 ecbe dd60 0dbc 1b39 3a40 8f49 a63c
000000a0: 0ac5 1940 ac62 1040 f009 8a3e a2a2 4d3d
000000b0: 4840 2dbf 913b 09bc 8e5b 4340 f2e1 0e40
000000c0: 5ab3 9340 d77d 5940 2679 18bf 2d4a ab3d
000000d0: 55dc ed3f ec97 9b41 4376 0140 afd9 05c0
000000e0: c470 67c0 95ce 83ba fe38 523f 6b6a 0fc0
000000f0: 918b 67c0 2ca3 a3bf 8c1e a7bd d79a 5440
00000100: ebb1 2cc0 2461 e4bf 425c 0b40 e70c 5bbc
00000110: c9dd 0c41 60cf 9c3f f147 e9bf 8bfa 07c0
00000120: 18b2 13bd b71f 3440 3aa6 0abf c2b6 0340
00000130: 0571 95bd f940 2fbf c5a3 fd3e 5f01 0242
00000140: c111 2940 1ee3 43bd 20fb 5040 454f 34c0
00000150: 9a12 32c0 6888 7abf 22aa 593f 75fe b4bf
00000160: d92c 1340 d3ef 3f3b 869a 8e3c 3fe9 1ac1
00000170: cdb1 9340 990a 9740 0b66 1fbc 0e89 0640
00000180: 6ed9 7640 b512 b0bf

encoder.2.1.weight f4 [98]
0.23991969 -0.24950826 -0.20968086 0.22843763 0.17227484 -0.23005679 -0.533222 -0.16747177
-0.16812345 0.15375519 0.20750323 0.0009967138 -0.0039050526 -0.19584839 0.12697652 -0.00398702
-0.20259336 0.19355404 -0.0030105086 -0.21453804 0.28740042 -0.18399303 -0.2172017 -0.1877806
0.40878886 -0.17743774 -0.465159 0.18291064 0.3272279 -0.2827989 0.1574194 0.3391386
0.22128424 0.15227228 0.39352685 -0.22186327 -0.21370105 0.00094789104 0.17977062 -0.011618177
0.20982942 -0.19445755 0.25306097 0.014786661 -0.38838822 -0.000515236 0.35910994 -0.15785496
-0.15721327 0.21507919 -0.18146586 0.17477435 0.2512133 -0.13290031 0.17512727 -0.188702
0.110942975 0.0009197528 0.20273773 0.193357 -0.19602276 0.13181993 0.006344524 0.27819297
-0.4635995 -0.21538474 -0.081310205 0.014942937 -0.18417832 0.30996838 -0.19444914 0.28287625
0.00049197784 0.3178707 0.18581457 0.19628268 0.3374965 -0.13613813 -0.13143314 0.103390776
0.19626759 0.28036213 0.34386888 -0.19593623 -0.22847545 0.23777533 0.32456607 -0.16341056
0.23608516 -0.0011333709 0.00059898547 0.30866346 0.41586837 0.25381073 0.17908421 -0.22326109
0.23031594 -0.24891615
00000000: 82ad 753e 187f 7fbe 94b6 56be 8eeb 693e
00000010: d168 303e 0294 6bbe 3d81 08bf b87d 2bbe
00000020: 8e28 2cbe 0072 1d3e ba7b 543e 2aa4 823a
00000030: e9eb 7fbb 7b8c 48be 2206 023e 8ca5 82bb
00000040: a274 4fbe 0833 463e f44b 45bb dcaf 5bbe
00000050: 2626 933e ab68 3cbe 1f6a 5ebe 8f49 40be
00000060: c64c d13e 3db2 35be 5229 eebe ed4c 3b3e
00000070: 6a8a a73e 04cb 90be 8d32 213e 93a3 ad3e
00000080: 5698 623e 44ed 1b3e 5a7c c93e 2030 63be
00000090: 73d4 5abe e47b 783a ca15 383e 2b5a 3ebc
000000a0: 86dd 563e e11f 47be 3591 813e c043 723c
000000b0: d2da c6be e710 07ba 42dd b73e bba4 21be
000000c0: 84fc 20be b83d 5c3e 30d2 39be 0cf8 323e
000000d0: 089f 803e 0517 08be 9054 333e 193b 41be
000000e0: 1236 e33d 911b 713a 7b9a 4f3e 61ff 453e
000000f0: 31ba 48be cefb 063e bae5 cf3b 4f6f 8e3e
00000100: ea5c edbe d18d 5cbe f785 a6bd 38d3 743c
00000110: 3e99 3cbe 2db4 9e3e ad1d 47be 28d5 903e
00000120: 13f8 003a f3bf a23e 2d46 3e3e 54fe 483e
00000130: 57cc ac3e cb67 0bbe 6996 06be 8bbe d33d
00000140: 5ffa 483e a08b 8f3e 950f b03e 82a3 48be
00000150: 78f5 69be 607b 733e 862d a63e 1955 27be
00000160: 4fc0 713e 9e8d 94ba 3c05 1d3a 2309 9e3e
00000170: b3ec d43e 7bf3 813e da61 373e 8e9e 64be
00000180: f1d7 6b3e e0e3 7ebe

encoder.2.1.bias f4 [98]
-0.026923679 -0.086947516 -0.02664725 0.0408817 -0.017612567 -0.07112432 -0.34066883 0.09040155
-0.05111774 0.08523031 -0.05537615 -0.025801832 -0.04141749 0.0027472773 -0.015872361 -0.07800794
-0.070931956 -0.026006393 -0.0810256 -0.08906554 -0.20481868 -0.15885855 -0.056106154 0.0794783
-0.25019318 -0.13482717 -0.3118341 0.02908388 -0.44025856 -0.21651249 0.11643693 -0.23283876
-0.005191468 0.020391382 -0.2536959 -0.051974453 -0.047476057 -0.01866651 0.0987733 -0.1308759
-0.07672393 -0.057179794 -0.098754875 -0.08373525 0.32933962 -0.02888093 -0.17388964 -0.034922674
-0.023528839 -0.0492508 -0.022923777 -0.042956676 -0.15210113 -0.14102021 -0.056697983 -0.025080923
-0.016927034 -0.014195688 -0.08986522 -0.12371033 0.004555751 -0.053493958 -0.07456306 -0.061636012
-0.23537853 -0.041554574 0.005436791 -0.06679251 -0.06494694 -0.43095994 -0.026645808 -0.24967948
-0.012003704 -0.26767695 0.07100204 -0.03634332 -0.28500047 -0.04791224 -0.05257108 -0.03799754
-0.027496664 -0.10393801 -0.089400016 -0.043501984 -0.08954426 -0.22231804 -0.14340664 -0.015941625
-0.119499 -0.12701474 -0.0071969773 -0.3757778 -0.28077462 -0.25139722 -0.030091621 -0.11353592
-0.01904761 -0.03419437
00000000: 0c8f dcbc 8a11 b2bd 554b dabc 9273 273d
00000010: 3b48 90bc a1a9 91bd 256c aebe 7324 b93d
00000020: d660 51bd 3b8d ae3d 1ad2 62bd 5d5e d3bc
00000030: 63a5 29bd aa0b 343b c106 82bc a0c2 9fbd
00000040: c644 91bd 5c0b d5bc c0f0 a5bd fe67 b6bd
00000050: fdbb 51be d1ab 22be 91cf 65bd 85c5 a23d
00000060: 5219 80be 2210 0abe b8a8 9fbe 5141 ee3c
00000070: 9269 e1be 73b5 5dbe 7c76 ee3d 496d 6ebe
00000080: 311d aabb d40b a73c 6ee4 81be 2ae3 54bd
00000090: 4176 42bd 82ea 98bc a849 ca3d 5504 06be
000000a0: 7021 9dbd 5c35 6abd ff3f cabd 637d abbd
000000b0: 349f a83e b397 ecbc 2010 32be 140b 0fbd
000000c0: 8dbf c0bc 35bb 49bd a5ca bbbc 57f3 2fbd
000000d0: 66c0 1bbe 9a67 10be 253c 68bd 8276 cdbc
000000e0: 90aa 8abc 0895 68bc 420b b8bd d75b fdbd
000000f0: 6948 953b 7b1c 5bbd 85b4 98bd 0b76 7cbd
00000100: 1207 71be 2135 2abd 1c27 b23b 83ca 88bd
00000110: e702 85bd c8a6 dcbe 4f48 dabc faab 7fbe
00000120: 2fab 44bc f40c 89be 8469 913d bcdc 14bd
00000130: 95eb 91be a03f 44bd c654 57bd 4fa3 1bbd
00000140: af40 e1bc 74dd d4bd 5b17 b7bd 232f 32bd
00000150: fb62 b7bd 57a7 63be 31d9 12be 0398 82bc
00000160: e4bb f4bd 2710 02be 9fd4 ebbb f365 c0be
00000170: b1c1 8fbe 23b7 80be b482 f6bc 8585 e8bd
00000180: bc09 9cbc 650f 0cbd

encoder.2.1.running_mean f4 [98]
-4.524151 4.4156914 3.598646 -7.035964 -7.9205694 6.0589867 2.740147 8.830312
0.18611522 -8.171175 -3.6183736 0.048664767 -0.06899095 6.238642 4.406817 0.10763912
3.3438554 7.8388996 -0.42836967 2.5154378 -2.6719608 -0.6357853 2.8407874 7.076981
-5.070887 -3.8225353 1.0663172 0.531735 -6.4289246 2.4682922 4.2498336 0.74072415
-3.8242786 -5.4851522 -3.512137 2.3039973 7.8601604 0.20764029 -3.3234823 0.22614864
-3.240891 -1.0308512 -2.2823095 0.65522313 -2.3442843 0.20682257 -3.1239567 1.9025637
2.4764035 -5.333068 0.17425448 -2.3838737 -2.1737788 18.82872 -1.8645189 3.951662
-1.6070051 0.08455751 -4.4966288 2.7369514 6.276564 0.6589262 0.21619429 -7.9700413
5.9060335 5.9617195 -1.7735971 -0.0040582637 5.0772395 2.5849562 2.4861019 2.6628022
0.04497036 -1.7822789 3.484028 -0.6530794 0.51507133 1.9309708 2.3605154 33.582485
-1.5582321 -1.1299951 -4.316963 3.6423712 4.3026567 2.0012786 -2.610544 3.158284
-0.13733569 0.0732499 -0.25991955 -8.292497 -1.2794883 8.032541 -1.2199328 -2.4712954
-5.465457 5.06062
00000000: d8c5 90c0 584d 8d40 3750 6640 9e26 e1c0
00000010: 4e75 fdc0 38e3 c140 925e 2f40 f548 0d41
00000020: fd94 3e3e 22bd 02c1 6f93 67c0 b554 473d
00000030: 214b 8dbd f5a2 c740 a504 8d40 e671 dc3d
00000040: ba01 5640 44d8 fa40 4553 dbbe effc 2040
00000050: 6801 2bc0 d3c2 22bf 76cf 3540 a176 e240
00000060: b544 a2c0 6ba4 74c0 157d 883f c91f 083f
00000070: c0b9 cdc0 80f8 1d40 a3fe 8740 19a0 3d3f
00000080: fbc0 74c0 5e86 afc0 dac6 60c0 b174 1340
00000090: 6f86 fb40 a89f 543e efb3 54c0 8293 673e
000000a0: c26a 4fc0 eff2 83bf 5c11 12c0 b4bc 273f
000000b0: c108 16c0 4cc9 533e e8ee 47c0 3587 f33f
000000c0: 657d 1e40 7ea8 aac0 c46f 323e 6391 18c0
000000d0: 311f 0bc0 38a1 9641 8ea8 eebf 08e8 7c40
000000e0: 58b2 cdbf 7d2c ad3d 62e4 8fc0 362a 2f40
000000f0: 9dd9 c840 63af 283f 0962 5d3e 940a ffc0
00000100: 3afe bc40 68c6 be40 3b05 e3bf 2ffb 84bb
00000110: bf78 a240 ec6f 2540 4b1c 1f40 5a6b 2a40
00000120: d732 383d b721 e4bf 51fa 5e40 3630 27bf
00000130: b7db 033f 0d2a f73f af12 1740 7754 0642
00000140: 2674 c7bf aea3 90bf 9024 8ac0 9c1c 6940
00000150: 5daf 8940 f314 0040 2713 27c0 5321 4a40
00000160: baa1 0cbe 0b04 963d 2d14 85be 11ae 04c1
00000170: 46c6 a3bf 4a85 0041 c226 9cbf b429 1ec0
00000180: 06e5 aec0 99f0 a140

encoder.2.1.running_var f4 [98]
36.49532 44.669846 23.046225 52.834877 31.858614 35.655 42.3745 15.537403
17.673409 19.368961 53.79508 0.013685709 0.15943362 29.611572 50.695885 0.052004084
57.991184 12.691532 0.16106603 35.513477 35.93049 11.469686 31.348478 48.033394
52.845295 13.305809 33.756226 20.655514 13.604694 13.465265 38.361935 40.16334
46.06182 26.872416 26.938639 39.494686 26.065514 0.042662326 33.06143 0.052134607
33.414352 24.5873 50.81143 0.45190522 76.39455 0.02064264 36.0565 28.735294
16.174362 24.925632 61.267635 19.454115 26.146091 10.316321 19.522787 24.226357
11.51142 0.013279623 21.312494 20.025 31.866524 16.735233 0.054931417 41.006527
58.98257 22.235878 26.960978 0.08364948 17.019964 8.315805 34.04925 22.493332
0.029462636 15.980534 30.309763 19.850878 20.20914 19.338673 24.62757 9.561993
18.338318 58.754097 36.820705 21.837969 31.943373 13.264563 30.940916 25.798464
29.315924 0.024905814 0.049906164 9.099254 26.734755 11.259167 32.18276 30.130047
30.854792 39.687164
00000000: 35fb 1142 ecad 3242 ab5e b841 ea56 5342
00000010: 71de fe41 b89e 0e42 7d7f 2942 3499 7841
00000020: 2463 8d41 a2f3 9a41 292e 5742 063a 603c
00000030: 9142 233e 80e4 ec41 96c8 4a42 3c02 553d
00000040: f9f6 6742 8410 4b41 7eee 243e cd0d 0e42
00000050: d2b8 0f42 d583 3741 afc9 fa41 3222 4042
00000060: 9561 5342 98e4 5441 6006 0742 7e3e a541
00000070: d4ac 5941 ba71 5741 9f72 1942 43a7 2042
00000080: 4e3f 3842 b5fa d641 5582 d741 8ffa 1d42
00000090: 2c86 d041 b1be 2e3d e83e 0442 198b 553d
000000a0: 4ca8 0542 cab2 c441 e83e 4b42 1f60 e73e
000000b0: 02ca 9842 c11a a93c db39 1042 e2e1 e541
000000c0: 1865 8141 b267 c741 0f12 7542 07a2 9b41
000000d0: 322b d141 a70f 2541 ab2e 9c41 94cf c141
000000e0: c72e 3841 c792 593c fd7f aa41 3333 a041
000000f0: a4ee fe41 c2e1 8541 c4ff 603d af06 2442
00000100: 27ee 6b42 14e3 b141 15b0 d741 6b50 ab3d
00000110: e328 8841 8a0d 0541 6f32 0842 58f2 b341
00000120: a05b f13c 44b0 7f41 657a f241 99ce 9e41
00000130: 52ac a141 9ab5 9a41 4305 c541 ecfd 1841
00000140: e0b4 9241 3204 6b42 6748 1342 29b4 ae41
00000150: 078c ff41 a63b 5441 ff86 f741 4163 ce41
00000160: 0387 ea41 4707 cc3c 686a 4c3d 8b96 1141
00000170: c7e0 d541 8c25 3441 25bb 0042 560a f141
00000180: 9dd6 f641 a8bf 1e42
