models/best-vae_circ-ThreeGPP-genie-3gpp-32rx-3p.pt (torch, 485135 bytes, 44 tensors)

embed_data.weight f4 [32, 2, 1]
0	0xbaaeac89	-0.0013326566
1	0x3af075ab	0.0018345615
2	0x3f484ee0	0.78245354
3	0x3e67a017	0.22619663
4	0x3ee8d5d4	0.45475638
5	0xbf03b3f6	-0.51446474
6	0xb9a8f102	-0.00032223022
7	0x3989d587	0.00026289767
8	0x3d7d6289	0.06186155
9	0xbf47974b	-0.7796523
10	0x3ba4fc1c	0.0050349366
11	0x3bb1bb84	0.005423965
12	0xba3959e6	-0.0007070586
13	0xbb8d1902	-0.0043059597
14	0x3af96a23	0.0019028824
15	0x38c8ee8e	9.5811774e-05
16	0x3dbcdcc5	0.09221796
17	0xbf7aca09	-0.9796453
18	0x3b753660	0.0037416443
19	0x3ba0a778	0.0049027763
20	0x3eff1565	0.4982101
21	0xbed8dab6	-0.42354363
22	0x3f640248	0.8906598
23	0xbf1b1470	-0.6057806
24	0x3ba91a6e	0.0051606214
25	0x3be4723f	0.006971627
26	0x3b82e974	0.003995115
27	0x3b72981c	0.0037016934
28	0x3afc5ada	0.001925315
29	0x3a30e8a0	0.0006748531
30	0xbbada434	-0.0052991156
31	0x3bd99b85	0.006640854
32	0x3e44b141	0.19208242
33	0xbcd8aa85	-0.026448498
34	0x3ec65fb8	0.38744903
35	0x3f4f4549	0.80965096
36	0x3f828b1e	1.0198705
37	0x3f0ba2fc	0.5454557
38	0xbf6d315e	-0.92653453
39	0xbe973548	-0.29532838
40	0x3a803c54	0.0009783604
41	0x3bb93e1f	0.0056531574
42	0xbe1275d9	-0.14302768
43	0xbea927e2	-0.3303824
44	0x3aa64e7d	0.0012688186
45	0xb91f758e	-0.00015207214
46	0x3babfaaf	0.0052483897
47	0xbb5a13cf	-0.0033275967
48	0xb9fa60d7	-0.00047755867
49	0x3b9c8054	0.00477604
50	0x3b0f3803	0.0021853454
51	0x3bfcc49d	0.007713868
52	0xb9f765f4	-0.00047187472
53	0xbb095db1	-0.0020960385
54	0x3c00ae24	0.007854018
55	0x3bf727de	0.0075425943
56	0x3b35f0da	0.0027761967
57	0xbaea37af	-0.0017869378
58	0x3dfb4361	0.12268711
59	0xbf33c208	-0.70217943
60	0x39c4ef7e	0.0003756247
61	0x3947f0d9	0.00019067842
62	0x3af7716c	0.0018878407
63	0x3a9fdc9a	0.0012196482

embed_data.bias f4 [32]
0	0xb9cbc7ba	-0.00038867985
1	0x3cccd157	0.025002165
2	0xbf85c6ed	-1.0451332
3	0x3976fcb2	0.00023554525
4	0x3ed4d6a6	0.41570014
5	0x3b1cba79	0.0023914857
6	0x3b86bbb8	0.0041117333
7	0xbb73692e	-0.003714155
8	0x3f26c74d	0.6514786
9	0xbf5809ba	-0.8438984
10	0x3e8dd0ae	0.27698272
11	0xbf316c3c	-0.6930578
12	0x3b817c62	0.003951595
13	0xbf2cca5e	-0.6749629
14	0xbb03d626	-0.0020116656
15	0xbb4829d7	-0.0030542517
16	0x3bbb8673	0.0057228147
17	0x3b957956	0.0045615835
18	0x3cc64e31	0.024207206
19	0xbf3a08b8	-0.72669554
20	0x3b52ecad	0.0032184527
21	0xbeec2c14	-0.4612738
22	0x3b2738ff	0.002551615
23	0xbc3d71c8	-0.011562772
24	0xba1f9b81	-0.00060885405
25	0xb99de122	-0.0003011311
26	0x3b1022e7	0.002199346
27	0xbf6b388b	-0.9188315
28	0x3bb659ba	0.0055648955
29	0x3f1cd027	0.61255115
30	0x3bbfec9d	0.005857064
31	0x3f136678	0.5757823

fc_mu_var.weight f4 [64, 294]
0	0x3d0674e4	0.03282632
1	0x3dbb3d3f	0.09142541
2	0xbc38c6a5	-0.011277829
3	0x3f14fa11	0.5819407
4	0xbf82632b	-1.0186514
5	0x3f31bdf5	0.69430476
6	0x3d2c9df4	0.042142823
7	0x3e44c177	0.19214426
8	0xbf082238	-0.53177214
9	0xbe993f7f	-0.29931256
10	0x3f4d3ed3	0.8017399
11	0x3e8d3421	0.27578834
12	0xbe5385f1	-0.20656563
13	0xbd933276	-0.07187359
14	0x3effc03f	0.4995136
15	0x3f1944c6	0.59870565
16	0xbedf8ddf	-0.43662927
17	0xbcb96796	-0.022632401
18	0xbf0c9179	-0.54909474
19	0x3f5dd3aa	0.866511
20	0xbe91bf9a	-0.28466493
21	0xbf2d64cd	-0.67731935
22	0xbeb9af2a	-0.36266452
23	0x3e4cd1fd	0.20001979
24	0x3ee776b1	0.45207742
25	0xbf52bb95	-0.8231748
26	0xbe9cc460	-0.30618572
27	0xbcc32515	-0.023821393
28	0xbc444233	-0.011978674
29	0x3b9e7d2a	0.004836698
30	0x3e7fe9ad	0.24991484
31	0xbefd5a55	-0.4948298
32	0xbd958863	-0.07301404
33	0xbd821878	-0.06352323
34	0x3d007c37	0.03136846
35	0xbdbae2dc	-0.09125301
36	0xbdaa2f68	-0.08309823
37	0x3ef39a50	0.4757867
38	0xbea35e7b	-0.3190802
39	0xbe648a4c	-0.22318381
40	0x3d62f31a	0.05540762
41	0x3f442fcc	0.7663543
42	0xbee28231	-0.44239953
43	0x3ee9f068	0.45691228
44	0xbd1de76f	-0.03855079
45	0x3de844e5	0.113412656
46	0x3ed86741	0.42266276
47	0xbf17c7a0	-0.5928898
48	0xbd3cea86	-0.046122096
49	0x3e35bd28	0.17747939
50	0x3e7cca34	0.2468651
51	0x3ee59546	0.4484045
52	0xbf158b28	-0.5841546
53	0x3f193d42	0.59859097
54	0x3eb95105	0.36194625
55	0xbf021204	-0.5080874
56	0x3f1f5046	0.6223186
57	0x3ebbdb02	0.36690527
58	0x3e29948e	0.16560575
59	0x3e480902	0.19534686
60	0xbeba2c0b	-0.36361727
61	0x3ea316b9	0.31853274
62	0xbea50b54	-0.32235205
63	0x3f3301ee	0.6992482
64	0x3edc15eb	0.42985472
65	0xbb357f16	-0.0027694157
66	0xbf7b969c	-0.98276687
67	0x3ee59a31	0.448442
68	0xbf1affee	-0.6054677
69	0xbdada26b	-0.084782444
70	0xbdfa1009	-0.1221009
71	0x3c82993d	0.01594221
72	0xbed7d0e2	-0.42151552
73	0x3f4ca02e	0.79931915
74	0xbf80d6f9	-1.0065604
75	0xbf1e4717	-0.61827224
76	0xbf6835bb	-0.90706986
77	0x3ee347ea	0.44390804
78	0xbf3c36af	-0.7352094
79	0x3f336b6e	0.700858
80	0xbeb5760e	-0.3544163
81	0x3f84c31f	1.0372046
82	0x3dc34719	0.09535045
83	0xbe05785c	-0.13034195
84	0x3f90b8ec	1.1306434
85	0x3f8795e6	1.059262
86	0xbf34e784	-0.70665765
87	0xbd07890b	-0.03308968
88	0x3eabc1d8	0.3354633
89	0x3e0df0dc	0.13861412
90	0x3ef8c090	0.48584414
91	0x3d137366	0.035998724
92	0xbf494067	-0.78613895
93	0x3faa4995	1.3303705
94	0xbf1fecb6	-0.6247057
95	0x3f0fbd95	0.56148654
96	0x3e1b82bf	0.15186594
97	0xbf089a9f	-0.53360933
98	0x3f94e0da	1.1631119
99	0x3d7b712b	0.061387222
100	0x3d41ca36	0.047311984
101	0x3b884537	0.0041586417
102	0x3b665eb0	0.0035151653
103	0x39fe74d3	0.00048533696
104	0xbd31e345	-0.04342963
105	0x3f6bbd03	0.92085284
106	0x3deaac11	0.114586
107	0x3e86e803	0.26348886
108	0xbead97d3	-0.33904895
109	0x3e22707e	0.15863225
110	0xbe24c6db	-0.16091482
111	0x3cc34581	0.023836853
112	0x3c4fe7a2	0.012689503
113	0xbcda09aa	-0.026615936
114	0x3f6632f4	0.899215
115	0xbef3947a	-0.47574216
116	0x3e4b90af	0.19879411
117	0xbf38bc79	-0.72162586
118	0x3f03c79c	0.51476455
119	0x3de67cf9	0.112543054
120	0xbe74d30c	-0.23908633
121	0xbf3c3122	-0.7351247
122	0x3e51ecbe	0.20500466
123	0xbee5cb32	-0.44881588
124	0x3eb1c725	0.34722248
125	0xbf6feb5c	-0.93718505
126	0xbf77560b	-0.96615666
127	0x3f8f9ac0	1.1219101
128	0xbf72f34b	-0.94902486
129	0x3c8d7219	0.01726632
130	0xb819a97b	-3.6635884e-05
131	0x3cd63718	0.026149318
132	0xbf52ca10	-0.8233957
133	0x3e90ecae	0.28305572
134	0x3ebf7f0e	0.37401623
135	0x3d5853ea	0.0528144
136	0xbd58252a	-0.052769817
137	0xbdac5a79	-0.08415694
138	0xbec12d00	-0.37729645
139	0x3e91b0b0	0.28455114
140	0x3d9c3c12	0.07628645
141	0x3dd9eacc	0.10640487
142	0xbf035fbd	-0.5131796
143	0x3f0fb008	0.5612798
144	0xbdb58fde	-0.08865331
145	0xbec7455e	-0.3892011
146	0x3e2afae3	0.16697268
147	0x3e6a03fa	0.2285308
148	0xbda4f183	-0.08053877
149	0xbf2a3da2	-0.66500294
150	0xbd7c3a46	-0.06157901
151	0x3e8dc517	0.2768943
152	0x3d902b21	0.07039476
153	0x3c5a91e1	0.013340444
154	0x3c831e37	0.016005618
155	0x3d2059ea	0.03914825
156	0xbe9f99f6	-0.3117215
157	0xbf193713	-0.5984966
158	0x3e2f8a14	0.17142516
159	0xbe8a46a5	-0.27007023
160	0x3eac1013	0.33606014
161	0xbf807937	-1.0036992
162	0xbf253328	-0.64531183
163	0x3fc68dd6	1.5512035
164	0xbf92b714	-1.1462121
165	0xbec3ddb2	-0.38255078
166	0x3e99ec09	0.30062893
167	0xbe8884a3	-0.26663694
168	0xbe662342	-0.22474387
169	0xbee83aee	-0.4535746
170	0x3dd098f3	0.10185423
171	0x3ef19cb7	0.47189876
172	0x3de029e5	0.10945491
173	0x3e795955	0.24350484
174	0xbf04ee42	-0.5192605
175	0x3ed3d293	0.41371593
176	0x3c495714	0.012288827
177	0xbe626d36	-0.22111973
178	0xbe1f1fcf	-0.15539478
179	0x3ea8905b	0.32922634
180	0x3e1f4faf	0.1555774
181	0xbf02dc38	-0.5111728
182	0x3cc3f991	0.023922713
183	0xbe758b73	-0.23978977
184	0x3ec35d73	0.38157234
185	0x3de38100	0.11108589
186	0x3ee0938a	0.43862563
187	0x3f385ecf	0.72019666
188	0xbe91934c	-0.2843269
189	0x3ef8747a	0.48526365
190	0xbfcaf963	-1.5857357
191	0x3fb040a6	1.3769729
192	0xbf38787e	-0.72058856
193	0xbe0adb9e	-0.1356034
194	0x3f4bb171	0.7956763
195	0xbece60b8	-0.40308166
196	0x3e1dd2fe	0.15412518
197	0x3e98457d	0.29740515
198	0xbc943fb1	-0.018096777
199	0xbd9c5287	-0.07632928
200	0x3d235317	0.039874163
201	0x400c1a0f	2.1890905
202	0xbef48a52	-0.4776178
203	0x3daef05c	0.08541939
204	0xbe7935dc	-0.24336952
205	0xbe3e0d93	-0.18559866
206	0xbeba6266	-0.36403197
207	0xbf26ef0c	-0.65208507
208	0x3f8a2cbf	1.0794905
209	0xbf40fa5b	-0.7538201
210	0x3ea5c7fd	0.3237914
211	0xbf2e076e	-0.67980087
212	0x3f8b2ab3	1.0872406
213	0xbf3d3302	-0.73905957
214	0x3f3bf65e	0.734228
215	0xbf21a4ef	-0.63142294
216	0xbf3ea73c	-0.7447393
217	0x3ee49ffe	0.44653314
218	0xbf4153b5	-0.7551835
219	0xbd26201b	-0.040557962
220	0xbdb4171b	-0.087934695
221	0xbd787cbd	-0.060665835
222	0xbed55e69	-0.41673592
223	0xbd7bac6f	-0.061443742
224	0x3f00169e	0.5003451
225	0xbf2eadab	-0.68233746
226	0x3df2d55a	0.118571
227	0xbeac4930	-0.33649588
228	0x3eba1c36	0.36349648
229	0xbf3e35c5	-0.74300796
230	0x3ee09b80	0.43868637
231	0x3d08d557	0.03340658
232	0x3ca9a7b1	0.020709844
233	0xbd88de94	-0.066830784
234	0xbc9fec38	-0.019521818
235	0xbd73d5e0	-0.05953014
236	0x3db86be1	0.09004951
237	0x3c7695e1	0.015050382
238	0xbd25f4e3	-0.040516745
239	0x3d2525a1	0.04031909
240	0x3fcab787	1.5837258
241	0xbf6bb134	-0.92067266
242	0x3ec19398	0.37807918
243	0xbd676120	-0.05648911
244	0xbefc76bc	-0.49309337
245	0x3e72afb5	0.2369984
246	0xbe708f7c	-0.23492235
247	0xbea57388	-0.32314706
248	0x3d5cadf0	0.053876817
249	0x3dc89998	0.09794921
250	0x3cfc46a7	0.030795408
251	0x3c018e6c	0.007907491
252	0x3d8601db	0.06543323
253	0x3cea3e2f	0.028594105
254	0xbc9614e3	-0.018320506
255	0x3d97887a	0.07399078

fc_mu_var.bias f4 [64]
0	0x3e7f5493	0.24934606
1	0x3a239ba2	0.00062411476
2	0xbf317975	-0.69325954
3	0x3f2fa43f	0.68609995
4	0x3c62b1cd	0.013836336
5	0xbe78681d	-0.24258466
6	0xbb97dea3	-0.0046346947
7	0xbcde724f	-0.027154116
8	0x39ecb688	0.00045149424
9	0xbcf10db1	-0.029425474
10	0xbb45c287	-0.0030175762
11	0xbeaa1954	-0.3322245
12	0xbc13860d	-0.009004128
13	0x3cb052c2	0.021523837
14	0x3c661b1e	0.014044551
15	0xbbaaba30	-0.0052101836
16	0x3dd1a070	0.10235679
17	0x3d0a8cf2	0.033825822
18	0x3e82b4cd	0.25528565
19	0x3c9e097e	0.019291636
20	0x3d453d55	0.048154194
21	0xbc122a16	-0.008921167
22	0x3d36b3aa	0.044604935
23	0xbad4412e	-0.0016193741
24	0xbe3899d3	-0.1802743
25	0x3ddae3ad	0.10687957
26	0xbcab1eb1	-0.020888658
27	0x3b978722	0.0046242634
28	0x3d3fd989	0.046838317
29	0xbc88e569	-0.016710954
30	0x3d57132e	0.052508526
31	0x3ca4ae02	0.020102505
32	0xbffa680d	-1.9563004
33	0xbfaf0f55	-1.3676554
34	0xbf13aca3	-0.576853
35	0xbee47d52	-0.44626862
36	0xbc89ffd9	-0.01684563
37	0xbfb8be7b	-1.443313
38	0xbc713ec8	-0.014724441
39	0xbf8ee34b	-1.1163114
40	0xbc60465d	-0.013688651
41	0xbc81349a	-0.015772153
42	0xbc80af93	-0.01570872
43	0xbfaa9d8b	-1.3329328
44	0xbc653b77	-0.013991228
45	0xbc869c68	-0.016432002
46	0xbc89ba95	-0.016812602
47	0xbc78e0ab	-0.015190284
48	0xc0119377	-2.2746255
49	0xbc544b2a	-0.012957374
50	0xbfa9ca03	-1.3264774
51	0xbc79a17e	-0.015236257
52	0xbfc0560e	-1.5026262
53	0xbc83e7fe	-0.016101833
54	0xbc4bdab8	-0.012442283
55	0xbc62ec24	-0.013850246
56	0xc011d861	-2.2788317
57	0xbfc7bbce	-1.5604188
58	0xbc8e6f84	-0.01738716
59	0xbc84c46a	-0.016206939
60	0xbf7cc96c	-0.98744845
61	0xbc78b21b	-0.015179182
62	0xc000d781	-2.0131533
63	0xbc5e839a	-0.013581181

encoder.0.0.weight f4 [32, 32, 5]
0	0xbd32f83f	-0.043693777
1	0xbda1ed69	-0.079066105
2	0xbca2ff7c	-0.019897215
3	0x3e273022	0.16326955
4	0xbe833147	-0.25623533
5	0x3f51d285	0.8196185
6	0xbf6b52f7	-0.9192347
7	0xbf089920	-0.5335865
8	0xbd33c376	-0.043887578
9	0xbe31f0ba	-0.17376986
10	0x3f7b87cb	0.9825408
11	0xbdef230a	-0.11676605
12	0xbf381f71	-0.71922976
13	0xbd9e9279	-0.07742781
14	0xbca9b91d	-0.020718152
15	0x3c81318a	0.015770692
16	0x3ebcc1b4	0.36866534
17	0x3d97dc68	0.07415086
18	0xbe41c5f6	-0.18923172
19	0xbdc74701	-0.0973034
20	0x3fee7d4c	1.8631988
21	0x3f131427	0.57452625
22	0xbf1d7ad5	-0.6151555
23	0x3c64b954	0.013960201
24	0xbd029c14	-0.03188713
25	0x3d822842	0.06355335
26	0x3e39fa1d	0.18161817
27	0x3df197a5	0.11796502
28	0xbddea53e	-0.10871361
29	0x3e5165a5	0.2044893
30	0x3b678a84	0.0035330364
31	0xbe9a33ef	-0.30117747
32	0xbc9edaa6	-0.01939137
33	0xbd95a1ba	-0.073062375
34	0x3d932f1d	0.071867205
35	0xbb215df4	-0.002462265
36	0x3eb419e3	0.35176
37	0x3deb3bd8	0.11486024
38	0xbe8683ab	-0.2627233
39	0xbbe67e83	-0.0070341243
40	0x40016a25	2.0221035
41	0x3f0f4bbe	0.5597495
42	0xbf32a24d	-0.697789
43	0xbd922fb1	-0.07138003
44	0x3ce698f6	0.02814911
45	0xbce3c152	-0.027802143
46	0xbd9a13c7	-0.075233035
47	0xbf36382a	-0.7117945
48	0x3dc4f470	0.09616935
49	0x3e40f52a	0.18843523
50	0x3fe4486e	1.7834604
51	0xbeaf9a23	-0.34297284
52	0xbf539331	-0.8264647
53	0xbc9c90eb	-0.019112071
54	0xbe11882d	-0.14212103
55	0x3ff3d77b	1.9050134
56	0xbed279de	-0.41108602
57	0xbf45ac49	-0.7721601
58	0xbe1d3c93	-0.15355138
59	0xbd464a29	-0.04841057
60	0x3c78d566	0.015187597
61	0xbc81a2fd	-0.01582479
62	0xbd9ccc82	-0.07656194
63	0x3e094b60	0.1340766
64	0xbd8651d5	-0.06558577
65	0xbecedc8c	-0.4040264
66	0xbc82b975	-0.015957573
67	0xbe6bef7b	-0.23040573
68	0xbe01a4ad	-0.12660475
69	0x3e171426	0.1475378
70	0xbe063524	-0.13106209
71	0xbdda53ff	-0.10660552
72	0x3b9fe8c2	0.004880042
73	0xbe6d28b5	-0.2316006
74	0xbcb1bfb7	-0.021697862
75	0xbe26aab9	-0.16276063
76	0xbd18885e	-0.037239425
77	0xbe1364b0	-0.14393878
78	0xba8e659d	-0.0010864023
79	0xbc59cf39	-0.013294035
80	0x3fac0afc	1.3440852
81	0xbf24012c	-0.6406429
82	0xbf46275d	-0.77403814
83	0xbe162cdd	-0.14665551
84	0xbe52417c	-0.20532793
85	0xbf46e8c4	-0.7769892
86	0xbf57f3b5	-0.8435624
87	0x3f1d34a1	0.6140843
88	0x3da0bba5	0.0784829
89	0x3e08208c	0.13293666
90	0x3f030dc2	0.5119287
91	0xbf756b1e	-0.9586657
92	0xbec6fd92	-0.38865334
93	0x3d535d8b	0.05160288
94	0x3c939cee	0.018019166
95	0xbf035eae	-0.51316345
96	0x3f6f78f3	0.9354393
97	0x3ef76b5f	0.48324105
98	0x3b34c8fe	0.002758562
99	0x3d800208	0.062503874
100	0xbd31bc6f	-0.043392595
101	0x3e8e6921	0.27814582
102	0x3cd1a2d0	0.02559033
103	0xbc0abe87	-0.008468277
104	0xbe238a05	-0.15970619
105	0x3f472d98	0.77803946
106	0x3f3dc81e	0.7413348
107	0xbf04d029	-0.5188013
108	0xbdecb947	-0.11558776
109	0xbe230f81	-0.15923883
110	0xbd570fc0	-0.052505255
111	0x3d68487e	0.05670976
112	0xbc2f8823	-0.01071361
113	0xbdb12838	-0.08650249
114	0x3e152613	0.14565305
115	0x3eb8feb3	0.3613182
116	0x3d67b18e	0.056565814
117	0xbef42180	-0.47681808
118	0x3e334d96	0.17510065
119	0x3d1e00ee	0.038575105
120	0x3d9aa7cf	0.07551538
121	0x3dc517a4	0.0962365
122	0xbd56d372	-0.052447744
123	0x3e707529	0.23482193
124	0x3c4203dc	0.01184174
125	0xbc1f3473	-0.009717095
126	0xbd1179fa	-0.035516717
127	0xbdf473ad	-0.11936126
128	0x3e9ebc84	0.310032
129	0xbe715b07	-0.2356988
130	0xbb994064	-0.0046768654
131	0xbe57f124	-0.21088082
132	0x3dc3a9ce	0.09553872
133	0xbe55c205	-0.20874794
134	0xbdce4a77	-0.10072797
135	0x3e3c35ff	0.18379973
136	0xbdc49cdc	-0.09600231
137	0xbf4a679b	-0.7906434
138	0x3d545beb	0.051845472
139	0x3defbf66	0.11706428
140	0x3ce4b4ab	0.02791818
141	0xbd94f722	-0.07273699
142	0x3cc0d0bc	0.023537032
143	0xbcbd926e	-0.023141112
144	0x3bba2e11	0.005681761
145	0x3fe27b32	1.7693846
146	0x3ee6d4dd	0.45084277
147	0xbf247cb7	-0.642528
148	0xb88e8b3a	-6.7970206e-05
149	0x3cabb81b	0.020961812
150	0x3d4ffc03	0.050777446
151	0x3be98c5e	0.007127329
152	0xbd49109e	-0.049088113
153	0x3ec98924	0.39362442
154	0xbe293a7b	-0.16526215
155	0x3f14fa65	0.5819457
156	0xbcd5832c	-0.026063524
157	0xbdeb8e93	-0.11501803
158	0x3dd020c8	0.101625025
159	0x3dc70ff2	0.09719838
160	0x3cc39a14	0.023877181
161	0xbc7643fc	-0.015030857
162	0xbc3269b5	-0.01088946
163	0xbd4ee760	-0.050513625
164	0xbb2f9df1	-0.0026797021
165	0x3d804bc6	0.06264453
166	0x3fcb2d35	1.5873171
167	0xbdc5978d	-0.09648047
168	0xbedd5b33	-0.43233642
169	0xbc93b2f9	-0.018029677
170	0xbe7aebc1	-0.24503995
171	0x3d919786	0.07108979
172	0x3f93f7b8	1.1559973
173	0xbeb5918d	-0.3546261
174	0xbd9d24d1	-0.07673038
175	0x3cdfee1a	0.027335215
176	0x3cdc164e	0.026866104
177	0x3c99a906	0.018757354
178	0x3c1ff27e	0.0097624045
179	0x3c06ab22	0.008219512
180	0xbe53c55d	-0.20680757
181	0xbf156ab4	-0.5836594
182	0x3fd33719	1.650119
183	0x3e42b167	0.19012986
184	0xbc8e95a7	-0.017405344
185	0x3d634a90	0.05549103
186	0xb9c8e705	-0.00038319096
187	0x3bbd1a8a	0.005770986
188	0xbca2b1d7	-0.019860191
189	0x3d0d2bb4	0.034465507
190	0xbd5949dd	-0.053048957
191	0x3bad46e3	0.0052879914
192	0xbb0c530f	-0.0021411811
193	0xbcb80a2d	-0.02246579
194	0xbc413668	-0.011792757
195	0x3cc123ee	0.023576703
196	0x3dabf8dd	0.08397076
197	0xbb00f15f	-0.0019675118
198	0x3b135c4d	0.0022485435
199	0xbda425b0	-0.08015001
200	0x3d2c866f	0.042120393
201	0xbf16525b	-0.58719414
202	0x3fd878a9	1.6911823
203	0x3e5f9c7b	0.21837036
204	0x3d77143e	0.06032204
205	0xbee9984b	-0.45624003
206	0x3e352802	0.17691043
207	0x3efcef7b	0.4940146
208	0xbe2617c0	-0.16219997
209	0x3cdeade8	0.027182534
210	0xbdad9b84	-0.08476928
211	0x3e5204a8	0.20509589
212	0x3f801cdd	1.0008808
213	0xbeded09c	-0.4351853
214	0xbe173897	-0.14767681
215	0x3dece5ac	0.11567244
216	0x3f1b3e10	0.60641575
217	0x3f96bb62	1.1775935
218	0xbe896f30	-0.26842642
219	0x3d52b772	0.05144448
220	0x3d4b6c69	0.049663935
221	0xbd87e8fe	-0.066362366
222	0x3d540aa4	0.05176796
223	0xbdc61193	-0.09671321
224	0x3db8e43e	0.09027909
225	0xbec27d18	-0.37986064
226	0x3e9a5327	0.30141565
227	0x3ec6e1f1	0.38844255
228	0xbd055967	-0.032555964
229	0xbce9b740	-0.028529763
230	0x3cca99fe	0.024731632
231	0xbc120617	-0.008912585
232	0xbc76da12	-0.01506664
233	0x3c625ef7	0.013816587
234	0xbb834eee	-0.004007212
235	0x3daae46f	0.083443515
236	0xbeb53999	-0.35395506
237	0x3d5e59a0	0.05428469
238	0x3e801707	0.25017568
239	0xbd944994	-0.072405964
240	0xbdef4a20	-0.1168406
241	0x3f2827f5	0.6568597
242	0x3e37fe3b	0.17968075
243	0xbf3081ac	-0.68947864
244	0xbea3ee1d	-0.32017604
245	0x3e0b1433	0.13581924
246	0x3f944c91	1.1585866
247	0xbf9d4680	-1.228714
248	0xbf1a6cb4	-0.6032212
249	0xbe3d2a97	-0.18473278
250	0x3e58fc7d	0.21190067
251	0x3fe007c8	1.7502375
252	0xbe143f66	-0.1447731
253	0xbef8ba60	-0.48579693
254	0xbccaa2ca	-0.024735827
255	0xbe8ee344	-0.27907765

encoder.0.0.bias f4 [32]
0	0xc064b506	-3.5735488
1	0x3ebef29d	0.37294474
2	0x3fd0d8d9	1.6316177
3	0x3db9e091	0.09076036
4	0xc01304f2	-2.2971768
5	0x3daa3c99	0.08312339
6	0xbc9f3b40	-0.019437432
7	0x403b1791	2.9233134
8	0x403d4373	2.9572418
9	0x3fdd4163	1.728558
10	0xbe8cd14e	-0.27503437
11	0xc0151f8f	-2.3300512
12	0x3f93c2ef	1.1543864
13	0x3e330f3b	0.17486279
14	0x40742e61	3.8153307
15	0x40593f23	3.3944786
16	0xbd9e3577	-0.07725041
17	0x3fa356eb	1.27609
18	0xbf6ed295	-0.9329007
19	0xc05776a2	-3.3666158
20	0x4047ff9c	3.1249762
21	0x3e30aef3	0.17254238
22	0x409dad95	4.927439
23	0x3fcf3356	1.6187541
24	0xbf47d353	-0.7805683
25	0x3f9d8234	1.230536
26	0x3eca2fa3	0.3948947
27	0xbcd43774	-0.025905348
28	0xbf073602	-0.52816784
29	0x3f819ba3	1.0125622
30	0xc00f73ab	-2.2414348
31	0xc00f958a	-2.2435021

encoder.0.1.weight f4 [32]
0	0xbf4e6c55	-0.8063405
1	0x3f303979	0.68837696
2	0x3f616c4b	0.88055867
3	0x3f09a150	0.5376177
4	0x3e8bc4a9	0.27298477
5	0x3a35ce94	0.00069353846
6	0xbf76149a	-0.96125185
7	0x3f8b87bf	1.0900801
8	0x3f4c09d1	0.7970248
9	0xbee81b02	-0.45333105
10	0x3f0014ff	0.5003204
11	0xbf984488	-1.1895914
12	0xbf1a5fa2	-0.60302174
13	0x3f4537c6	0.7703823
14	0x3f9b8725	1.2150618
15	0x3f9b6e37	1.214301
16	0xbf31d187	-0.6946034
17	0xbf4fad91	-0.81124216
18	0x3ef86100	0.48511505
19	0xbf915e3d	-1.1356884
20	0x3f0adff0	0.5424795
21	0xbf0069d5	-0.50161487
22	0x3faa7e00	1.3319702
23	0xbf6989d6	-0.91225946
24	0x3f8db090	1.1069508
25	0xbf134bc8	-0.5753751
26	0xbf7b2497	-0.98102707
27	0xbb542328	-0.0032369588
28	0x3f0f5213	0.5598461
29	0x3f5ddbf4	0.86663747
30	0xbf8d4e69	-1.1039554
31	0x3e814ee5	0.25255504

encoder.0.1.bias f4 [32]
0	0xbec05a17	-0.37568733
1	0x3e797599	0.24361266
2	0xbedcdb93	-0.43136272
3	0x3e051f57	0.13000236
4	0x3f29f366	0.6638702
5	0xbc5dc40f	-0.013535514
6	0xbeaa3ea2	-0.3325091
7	0xbc90a01d	-0.017654473
8	0x3ea371b1	0.31922677
9	0x3f3c707d	0.73609143
10	0x3e4eb503	0.20186238
11	0xbd0c249c	-0.0342146
12	0xbd011364	-0.031512633
13	0x3e89d7fe	0.269226
14	0xbc181662	-0.00928268
15	0xbd4e7eb6	-0.05041381
16	0x3e97a6d7	0.29619476
17	0x3ee8917d	0.454235
18	0xbcb47779	-0.022029625
19	0xbb4d2ad0	-0.0031306036
20	0xbe4fb4d2	-0.20283821
21	0x3e42b7aa	0.19015375
22	0xbd50b2fb	-0.05095194
23	0x3e119c2c	0.14219731
24	0x3ed90a91	0.42390874
25	0x3e1db972	0.15402773
26	0x3c863f8b	0.016387722
27	0xbd9ecb0d	-0.077535726
28	0x3f0a7a11	0.5409251
29	0x3e7f96d3	0.24959879
30	0xbb8f2f54	-0.0043696556
31	0x3fa007ec	1.2502418

encoder.0.1.running_mean f4 [32]
0	0xbed2834d	-0.411158
1	0x3f2fa706	0.6861423
2	0x40039887	2.0561845
3	0xbf2ec71d	-0.6827257
4	0x40ec1645	7.3777184
5	0xbe13853c	-0.14406294
6	0x40d7977c	6.7372417
7	0x4082216b	4.0665793
8	0xc02696fd	-2.6029656
9	0xc0d5c516	-6.6803083
10	0x3f2dbc6d	0.6786564
11	0xc00d37e4	-2.2065363
12	0x40e19e1f	7.050552
13	0xc0220dc2	-2.5320897
14	0x4089ba65	4.3040032
15	0x40554459	3.3322966
16	0x3fe89bbc	1.8172526
17	0xc09a7886	-4.8272123
18	0xc0c4d0c0	-6.150482
19	0xc0628dfd	-3.5399163
20	0x40cf145f	6.4712367
21	0x3fd1d794	1.6393914
22	0x409cb130	4.8966293
23	0x3fa8e565	1.3195006
24	0xc03531f8	-2.8311749
25	0xbf0429c4	-0.5162623
26	0xbd3147dc	-0.04328142
27	0xbe4baf41	-0.19891073
28	0x3f284ad8	0.657392
29	0x403d3490	2.9563332
30	0xc0175641	-2.3646395
31	0x40f48368	7.641041

encoder.0.1.running_var f4 [32]
0	0x4247f724	49.99135
1	0x424e897d	51.634266
2	0x42d6d469	107.41486
3	0x41f5d718	30.730026
4	0x418db7ad	17.714685
5	0x3d06b586	0.032887958
6	0x42072aca	33.791786
7	0x427e9361	63.643925
8	0x4250e21e	52.220818
9	0x420ac637	34.69357
10	0x429d5788	78.67096
11	0x4246c773	49.694775
12	0x41ab1c09	21.388689
13	0x41eec912	29.848179
14	0x421fad15	39.919025
15	0x42593173	54.29829
16	0x42556f28	53.35855
17	0x42c207b6	97.01506
18	0x41da702c	27.304771
19	0x422c90c1	43.14136
20	0x42e488c1	114.2671
21	0x42616fc2	56.35914
22	0x4248c8a0	50.195923
23	0x4231979f	44.398067
24	0x42572e4c	53.79521
25	0x42adb622	86.85573
26	0x42294457	42.31674
27	0x3d89a41c	0.067207545
28	0x4230863f	44.1311
29	0x4269d62b	58.45915
30	0x4223a935	40.91524
31	0x41b6d55c	22.85418

encoder.1.0.weight f4 [56, 32, 5]
0	0x3c3fd434	0.011708308
1	0xbded8d86	-0.11599259
2	0xbeff0048	-0.49804902
3	0xbf00e1c1	-0.50344473
4	0x3fbaa22e	1.4580743
5	0xbe09cd8c	-0.13457316
6	0xbd7a90cb	-0.06117324
7	0xbef10ee9	-0.47081688
8	0x3f9d50f1	1.2290326
9	0x402bcdaf	2.684429
10	0x3b74eca7	0.00373725
11	0xbd6e6ee2	-0.058211215
12	0xbffe6305	-1.9873968
13	0xbf671505	-0.9026645
14	0x3de73611	0.11289609
15	0x3df382c1	0.11890174
16	0x3e8b9a6d	0.27266255
17	0x3f8cbc4a	1.0994961
18	0x3f9a7731	1.2067624
19	0xbe8d3de9	-0.27586296
20	0xbdb96293	-0.09052005
21	0xbda91120	-0.082552195
22	0xbf0025c7	-0.50057644
23	0xbf7912fa	-0.9729458
24	0xbf7d9549	-0.99055916
25	0xbd4d610b	-0.050141376
26	0xbcabe061	-0.020981016
27	0x3d209679	0.039206002
28	0xbd5df4eb	-0.05418865
29	0xbc768a3f	-0.015047609
30	0xbe99e980	-0.3006096
31	0xbedf116c	-0.4356798
32	0x3edb8f07	0.4288256
33	0x3fbaa24c	1.4580779
34	0xbe2eeb8b	-0.1708204
35	0x3db73f75	0.0894765
36	0x3e3e9f48	0.18615448
37	0xbd53046c	-0.05151789
38	0xc09bb685	-4.86603
39	0x3ec8b413	0.39199886
40	0x3e000115	0.12500413
41	0x3ee8f517	0.4549949
42	0x3ee99014	0.45617735
43	0xbf4a9462	-0.79132664
44	0x3da32a40	0.07967043
45	0x3e1beef5	0.15227874
46	0x3d85d24c	0.065342516
47	0xbf4ccd93	-0.8000118
48	0x3f41a7fb	0.7564694
49	0xbeed8509	-0.4639056
50	0xbdbfede0	-0.09371543
51	0xbdaa66a1	-0.08320356
52	0xbd6e0796	-0.058112703
53	0x3fc67e54	1.5507302
54	0xbf806381	-1.0030366
55	0xbca2ab42	-0.019857053
56	0x3ce133f9	0.027490603
57	0xbe2557ad	-0.16146727
58	0xc0213911	-2.519108
59	0xc019c2de	-2.4025187
60	0x3e2befae	0.1679065
61	0x3e2d659c	0.16933292
62	0x3f2bebf8	0.67156935
63	0x3efc320b	0.4925693
64	0x3fabd89e	1.3425481
65	0x3e63982f	0.22226022
66	0x3f0b434f	0.5439958
67	0x3eaa999d	0.33320323
68	0xc01c1e62	-2.4393544
69	0x3edc6f9c	0.430539
70	0x3bb003c0	0.005371541
71	0x3cb860fe	0.022507187
72	0x3dd242f9	0.1026668
73	0xbebe898d	-0.37214318
74	0xc093e845	-4.622103
75	0xbca73531	-0.020411106
76	0xbce29b16	-0.027661841
77	0xbe246b72	-0.16056612
78	0xbf2cc7fd	-0.6749266
79	0xc0321208	-2.7823505
80	0xbcfadaec	-0.030621968
81	0x3d504a95	0.050852377
82	0x3ecc4320	0.39894962
83	0xbfd71947	-1.6804589
84	0x3dd28187	0.10278612
85	0x3e8c873b	0.27446923
86	0x3f15251f	0.5825977
87	0xbe8c51e9	-0.27406242
88	0xbebae3b1	-0.3650184
89	0x3e2050e4	0.15655857
90	0x3cb82663	0.022479242
91	0x3e05f1ae	0.13080475
92	0x3e4f6af8	0.20255649
93	0xbf3ff1c9	-0.7497831
94	0x3fb044e7	1.3771027
95	0x3c5ea9db	0.013590301
96	0x3c7a085c	0.015260782
97	0x3e6b95b7	0.2300633
98	0xbf2fa075	-0.68604213
99	0xc0565140	-3.348709
100	0x3e8f08d1	0.27936414
101	0x3d312672	0.043249555
102	0xbfce9501	-1.6139222
103	0x3f299fde	0.6625956
104	0x3f234be8	0.637877
105	0xbccdae3b	-0.025107494
106	0xbd6ce4d6	-0.057835422
107	0x3cfdd529	0.030985432
108	0x3f5dddca	0.8666655
109	0xbe65e8a7	-0.22452031
110	0x3c7f0cfd	0.0155670615
111	0x3893acac	7.041669e-05
112	0xbd926581	-0.071482666
113	0x3dc5b805	0.096542396
114	0xc06a843e	-3.6643214
115	0xbda08c36	-0.07839243
116	0x3d42d623	0.047567498
117	0x3ec1b7f7	0.37835667
118	0xc01733b7	-2.3625314
119	0xbe6c4ff9	-0.23077382
120	0x3d8241c0	0.06360197
121	0x3ec7ac7a	0.38998777
122	0x3e9fdfbd	0.31225386
123	0x3f342da2	0.7038213
124	0xbf0840c6	-0.53223836
125	0xbd51df3d	-0.051238287
126	0xbdaca957	-0.084307365
127	0xbefda383	-0.49538812
128	0x3ecd6577	0.40116474
129	0x3f44f6f8	0.76939344
130	0x3cfb3e4c	0.030669354
131	0x3b2a90b2	0.0026026187
132	0xbeaf8e1d	-0.3428811
133	0xc0718020	-3.7734451
134	0xbf6377a1	-0.88854414
135	0xbd8469b3	-0.06465473
136	0x3d395a85	0.04525234
137	0xbd8e4cec	-0.069482654
138	0xbd56f971	-0.05248398
139	0x3d2a9074	0.041641667
140	0x3d746a78	0.05967185
141	0xbe188295	-0.14893563
142	0xbee0a2e5	-0.4387428
143	0xbfa9f2e7	-1.3277253
144	0x3e324dac	0.17412442
145	0xbdb1e9c4	-0.086871654
146	0x3d2f6de2	0.0428294
147	0xbdb569c4	-0.08858064
148	0x3f62338a	0.8835989
149	0x3f952fa5	1.1655165
150	0x3b154a6a	0.002277995
151	0x3d944ce0	0.07241225
152	0x3c48ff12	0.012267845
153	0xc008e976	-2.1392493
154	0xc0025939	-2.0366957
155	0xbd262500	-0.04056263
156	0x3e1fb1a8	0.15595114
157	0x3e8c04b2	0.27347332
158	0x3fcbbbd2	1.5916693
159	0xbe0ffd2b	-0.1406142
160	0x3d577354	0.05260022
161	0xbc7d2731	-0.0154512385
162	0x3e56849f	0.20949028
163	0x3ec48d71	0.3838916
164	0x3ed063b0	0.40701056
165	0xbd8381e3	-0.06421258
166	0xbd289f63	-0.041167628
167	0x3ee13d3c	0.4399203
168	0x3fe52dd8	1.7904615
169	0xbf281143	-0.6565134
170	0xbe5690df	-0.20953701
171	0xbfbc33ef	-1.4703349
172	0xbf937a4f	-1.1521701
173	0x3ebb5e64	0.36595452
174	0x3e172dbf	0.14763544
175	0x3e9d2ecd	0.3069977
176	0x3f016e89	0.5055929
177	0x3fb3976f	1.4030589
178	0x3f79d226	0.97586286
179	0xbe4d526e	-0.20050976
180	0x3c4645c9	0.012101599
181	0xbe6e36de	-0.23263118
182	0xbefc6cd8	-0.4930179
183	0xc004f766	-2.0776
184	0xbce30504	-0.027712353
185	0x3c10ea13	0.00884487
186	0x3bce58dc	0.006297214
187	0xbd18bdec	-0.0372905
188	0xbd6af41d	-0.05736171
189	0x3d734a58	0.05939707
190	0xbf137848	-0.5760541
191	0x3ec4f210	0.3846593
192	0xbf9cff70	-1.2265453
193	0x3e07dad9	0.13267078
194	0x3e1d7d46	0.1537982
195	0xbd512756	-0.051062904
196	0xbeb74ed6	-0.35802335
197	0xc090a1c2	-4.519746
198	0x3ec42443	0.38308915
199	0x3c9f259b	0.019427111
200	0x3e156bae	0.14591858
201	0x3e5f54f4	0.21809751
202	0xbf1a249f	-0.6021213
203	0x3f14a13c	0.58058524
204	0xbe3c9286	-0.1841527
205	0xbdf231c7	-0.118259005
206	0xbf0e9f36	-0.55711687
207	0x3f74d4de	0.9563731
208	0xbe890b13	-0.2676626
209	0xbe42686c	-0.18985146
210	0xbe93c5fd	-0.2886199
211	0x3da692ab	0.081334434
212	0x3f4e0ad9	0.804853
213	0xbde1636f	-0.110052936
214	0xbe76b0c8	-0.24090874
215	0xbd7a8bb7	-0.0611684
216	0x3d2fbf55	0.042907078
217	0xc03650a5	-2.8486722
218	0xbfeff44e	-1.8746431
219	0x3d9d8eb4	0.07693234
220	0x3e5703b1	0.20997502
221	0x3f14bfaa	0.58104956
222	0x3fdafd99	1.7108642
223	0x3fd69af9	1.6766044
224	0x3ee81331	0.45327142
225	0x3dcb7d35	0.09935991
226	0x3e409020	0.1880498
227	0xc01eaef1	-2.4794276
228	0x3f41832e	0.7559079
229	0x3d9cdc51	0.076592095
230	0x3db82dae	0.08993088
231	0x3df7fcbf	0.12108754
232	0xbf077527	-0.52913135
233	0xc05ca6ce	-3.447681
234	0xbe9b2d82	-0.30308157
235	0x3dc085ef	0.09400546
236	0x3e021412	0.12702969
237	0xbf66755f	-0.90022844
238	0xc033d190	-2.8096657
239	0xbe3c1dea	-0.18370786
240	0xbe058e82	-0.13042644
241	0x3ea00fa2	0.31261927
242	0xc00e9f55	-2.2284749
243	0x3e3c1497	0.1836723
244	0x3ec6227d	0.38698187
245	0x3eef43d3	0.46731433
246	0xbe956450	-0.29178095
247	0xbea2726b	-0.3172792
248	0x3efd80a0	0.49512196
249	0xbe24ca21	-0.16092731
250	0x3dc34513	0.09534659
251	0x3e549154	0.20758563
252	0x3ee5eea2	0.44908625
253	0x3f9193ea	1.1373265
254	0x3d7ec93e	0.06220364
255	0x3c09736c	0.008389335

encoder.1.0.bias f4 [56]
0	0x3e8a7955	0.27045694
1	0x3e9b080a	0.3027957
2	0x3ea42444	0.32058918
3	0x3cebf8ed	0.02880522
4	0x3de212ed	0.11038766
5	0x40f14a0c	7.540289
6	0xbb888e4b	-0.0041673533
7	0xbc85133f	-0.016244529
8	0x3f74ce4e	0.95627296
9	0x3ee61636	0.4493882
10	0xbf7bc504	-0.98347497
11	0xbd862771	-0.065504916
12	0x3f7110a6	0.9416603
13	0xbf8c9855	-1.0983988
14	0xbba162c0	-0.004925102
15	0x3ddab7b5	0.106795706
16	0x4019b7cc	2.401843
17	0xbfee7fc3	-1.863274
18	0xbfe47ce9	-1.785062
19	0xbd281c8a	-0.041042842
20	0xbf4756c5	-0.77866775
21	0xbf3bc839	-0.7335239
22	0x3f915c55	1.1356302
23	0x3ed6d3d4	0.41958487
24	0xbc51e31f	-0.012810498
25	0x3fc25ffa	1.518554
26	0xbf6be2bc	-0.92142844
27	0x3e18ab53	0.14909105
28	0xbf63b57d	-0.88948804
29	0x3fe5cb38	1.7952642
30	0x3f9ab032	1.208502
31	0x3cd986be	0.026553508
32	0xbdbd2589	-0.09235675
33	0xbd0fc7f5	-0.035102803
34	0x3c45795a	0.012052858
35	0xbe69358b	-0.22774331
36	0x4005fe87	2.09366
37	0xbf254f7d	-0.64574414
38	0xc00e22a4	-2.2208643
39	0xc00dc9b5	-2.2154362
40	0x3d0dcdb8	0.034620017
41	0x400390ef	2.055721
42	0x3ecabe15	0.39598146
43	0xbcb7ab5d	-0.02242058
44	0xbf90ba42	-1.1306841
45	0xc02f0187	-2.7344682
46	0xbb517933	-0.003196311
47	0x3ffd3f93	1.9785026
48	0x3fee767e	1.8629911
49	0x3cf7bc51	0.030241163
50	0xbf76a239	-0.9634128
51	0xbe2c4081	-0.16821481
52	0xbfb21b59	-1.3914596
53	0x3e921700	0.28533173
54	0x3c09048e	0.008362902
55	0x3fbfe55a	1.4991868

encoder.1.1.weight f4 [56]
0	0x3f5a6840	0.8531532
1	0x3f6f957a	0.9358746
2	0x3f3a19b7	0.7269549
3	0xbf2c0919	-0.6720138
4	0xbf6b110a	-0.91822875
5	0xbe761b36	-0.24033818
6	0xbb8477b1	-0.0040425886
7	0x3bef3924	0.007300513
8	0x3f9fa715	1.2472864
9	0x3f3f1a5a	0.74649584
10	0xbf7f070d	-0.99620134
11	0xbc41677c	-0.011804458
12	0x3f71573b	0.9427373
13	0xbf3b0a3b	-0.73062485
14	0x3b8e3cbd	0.0043407367
15	0x3f29c39e	0.66314113
16	0x3f864134	1.0488648
17	0xbf43ef7e	-0.7653731
18	0xbf5b449f	-0.8565158
19	0x39afe08c	0.00033545902
20	0xbf9166ef	-1.1359538
21	0xbdb1ed96	-0.08687894
22	0x3eae2efb	0.34020218
23	0xbf424d12	-0.7589885
24	0x39d137e5	0.0003990523
25	0x3f37f6c6	0.7186092
26	0xbf4b9677	-0.79526466
27	0x3f91c407	1.1387948
28	0xbec76e65	-0.38951412
29	0x3eed6f3a	0.46373922
30	0x3e1e7007	0.15472423
31	0xbb351de3	-0.0027636222
32	0x3a5ff0f8	0.0008542682
33	0x3a268ec5	0.0006353672
34	0x3a05d27b	0.00051049114
35	0x3f720583	0.9453966
36	0xbe017d82	-0.12645534
37	0xbf92c75f	-1.1467093
38	0xbf06d352	-0.526662
39	0xbec8531a	-0.391259
40	0xbb209a0f	-0.0024505889
41	0xbe5c828c	-0.21534175
42	0x3f3d3f07	0.739243
43	0x3c0c9030	0.008579299
44	0xbf351379	-0.7073284
45	0xbf4e9395	-0.8069394
46	0xb9a4ef99	-0.00031459032
47	0x3f4ac0eb	0.7920062
48	0x3e1188f3	0.14212398
49	0x3991c62b	0.00027804202
50	0x3e7082ec	0.23487443
51	0x3f65fc68	0.89838266
52	0xbf66a7b3	-0.9009964
53	0x3f34b92d	0.70595056
54	0x3c1b8528	0.009492196
55	0xbe18eda1	-0.14934398

encoder.1.1.bias f4 [56]
0	0xbebc0e1c	-0.36729515
1	0xbeae9972	-0.34101444
2	0xbef24bca	-0.47323447
3	0xbe08bbf5	-0.1335295
4	0xbef92008	-0.4865725
5	0x3f37dfe9	0.71826035
6	0xbd903a8a	-0.070424154
7	0xbd5c2115	-0.053742487
8	0xbf273603	-0.6531679
9	0xbe9b8e9d	-0.30382243
10	0xbec1bb7a	-0.37838346
11	0xbd2960bd	-0.041352022
12	0xbf0c21bf	-0.5473899
13	0xbe06bcac	-0.1315791
14	0xbdd1eb9b	-0.10250016
15	0xbe03fea4	-0.12890106
16	0xbf0beca4	-0.5465796
17	0xbe9eb38f	-0.30996367
18	0xbf1dcda8	-0.6164193
19	0xbb9e051e	-0.0048223874
20	0xbf1a36d4	-0.6023991
21	0x3db52b65	0.088461675
22	0x3cef7637	0.029231174
23	0xbe4ee503	-0.20204549
24	0xbb9b0e72	-0.0047319466
25	0xbf000759	-0.5001121
26	0xbf009b5d	-0.50237066
27	0xbf1814dc	-0.5940683
28	0xbde56063	-0.11200025
29	0xbe525396	-0.20539698
30	0x3da167f6	0.07881157
31	0xbcff3ceb	-0.031156978
32	0xbcb5cc99	-0.022192286
33	0xbc423b84	-0.01185501
34	0xbd9eabce	-0.07747613
35	0xbef4124f	-0.47670218
36	0x3d919d16	0.0711004
37	0xbf12d20e	-0.5735177
38	0xbe89fb43	-0.2694951
39	0xbdff82b6	-0.12476103
40	0xbd0303cb	-0.03198604
41	0x3f1de1c0	0.6167259
42	0xbf1fb260	-0.62381554
43	0xbd88ba3d	-0.06676147
44	0xbe2849d7	-0.16434418
45	0xbf0240fe	-0.5088042
46	0xbd2c41b5	-0.04205485
47	0xbeac76bb	-0.33684334
48	0x3d9bf1dd	0.07614491
49	0xbc940e9e	-0.018073376
50	0x3f1bc450	0.60846424
51	0xbe7e4388	-0.24830449
52	0xbf06985d	-0.5257624
53	0xbe574036	-0.21020588
54	0xbe310ad4	-0.17289287
55	0x3d947d5a	0.072504714

encoder.1.1.running_mean f4 [56]
0	0xc0a14372	-5.039483
1	0xc083f6f3	-4.123895
2	0x4005ff50	2.093708
3	0x40d4822c	6.64089
4	0x3f85f325	1.0464827
5	0x416b9797	14.724509
6	0x3e3d7610	0.18502069
7	0xbf770179	-0.9648662
8	0xc02b67ce	-2.6782107
9	0xc0eff3b1	-7.4984975
10	0x411e5f04	9.898197
11	0x3f6cac92	0.9245082
12	0xbf9eb529	-1.2399036
13	0x416374fc	14.216061
14	0x3f0ba4c0	0.54548264
15	0xc12a35fc	-10.63818
16	0xc0841c76	-4.128474
17	0x40f3ab67	7.614673
18	0x402ebf96	2.7304435
19	0x3f13cca5	0.5773414
20	0x3f078201	0.52932745
21	0x3f8f7107	1.1206368
22	0xc1133bfa	-9.202143
23	0x40dd0692	6.907052
24	0xbfa47d9f	-1.2850837
25	0xbff5aeff	-1.919403
26	0xbfa40e39	-1.281684
27	0xc0638f41	-3.5556185
28	0x40b7cbef	5.743644
29	0xc156d755	-13.427571
30	0xc0213213	-2.5186813
31	0xbe28f919	-0.16501273
32	0xbf3072a6	-0.6892494
33	0x3e993e43	0.29930314
34	0xbefc281d	-0.49249354
35	0xc098c247	-4.7737155
36	0xc06b93d1	-3.680897
37	0x40238b42	2.5553746
38	0x4118588f	9.521621
39	0x40d710e2	6.720811
40	0xbd7ce1d2	-0.061738797
41	0xc004b8a7	-2.0737703
42	0x400a4301	2.1603396
43	0xbea332ad	-0.318746
44	0x40d3fff0	6.6249924
45	0x3fa6624e	1.299875
46	0xbde29e93	-0.11065402
47	0xc0b5b3b3	-5.678186
48	0xc0dacad0	-6.8372574
49	0xbf3974b5	-0.72443706
50	0xc0675f25	-3.6151822
51	0xc147fdc6	-12.499456
52	0x40225913	2.5366867
53	0xc1082b5a	-8.510584
54	0x3f927370	1.1441479
55	0xbfe550b2	-1.7915251

encoder.1.1.running_var f4 [56]
0	0x4306fcf2	134.98807
1	0x4307edb0	135.92847
2	0x41cc6912	25.551304
3	0x42f7b9e8	123.8631
4	0x422c8833	43.133007
5	0x40b7980e	5.7373114
6	0x3dbbd092	0.09170641
7	0x3fc0b455	1.5055033
8	0x429348cc	73.64218
9	0x42d6f4cd	107.47813
10	0x437b3f45	251.24715
11	0x3f01d71d	0.5071886
12	0x42a2d0aa	81.40755
13	0x43216314	161.38702
14	0x3e9e6b32	0.3094116
15	0x42f30cfd	121.52537
16	0x4329205d	169.12642
17	0x42f101fe	120.50389
18	0x421bfc39	38.99631
19	0x3f462d5c	0.7741296
20	0x4294d4e3	74.415794
21	0x418e3e32	17.780369
22	0x42943c08	74.11725
23	0x42ce754a	103.22908
24	0x3f2680c7	0.6504025
25	0x4188f661	17.120302
26	0x420b4b85	34.82375
27	0x42e1adbc	112.839325
28	0x425c76d9	55.116062
29	0x41f31ade	30.388119
30	0x42122ba9	36.542637
31	0x3e2adf4b	0.16686742
32	0x3eaad930	0.33368826
33	0x3ee9136c	0.4552263
34	0x3eb7339e	0.35781568
35	0x429815aa	76.04231
36	0x41de4865	27.785349
37	0x42cc0401	102.00782
38	0x4259e70b	54.475628
39	0x42136b60	36.85486
40	0x3e170780	0.14748955
41	0x40e28c84	7.079653
42	0x41376671	11.46251
43	0x3e1ded59	0.15422572
44	0x42d0768d	104.231544
45	0x41822232	16.266697
46	0x3df404f3	0.119150065
47	0x425613db	53.51939
48	0x41e71e4a	28.88979
49	0x3e4b4a85	0.19852646
50	0x41254653	10.329669
51	0x42f15231	120.66053
52	0x42d43787	106.10845
53	0x4234144b	45.019817
54	0x3e71ec41	0.2362528
55	0x413a2373	11.633655

encoder.2.0.weight f4 [98, 56, 5]
0	0x3b5005cc	0.0031741736
1	0x3e22e071	0.1590593
2	0x3dbef4d5	0.09324042
3	0xbdb0d64e	-0.086346254
4	0x3d97bdd0	0.07409251
5	0x3cbbfa52	0.02294651
6	0x3ca23379	0.019799935
7	0xbcd38acf	-0.025823025
8	0xbd116341	-0.035495047
9	0xbcd1bc06	-0.025602352
10	0xbd6ba01f	-0.05752575
11	0x3d785364	0.060626402
12	0xbc6bb1dd	-0.014385668
13	0xbd330c33	-0.043712806
14	0x3a8646f8	0.0010244539
15	0xbb92eee3	-0.004484044
16	0x3ab78739	0.0014002091
17	0xbd7f9520	-0.062398076
18	0xbce9c029	-0.028534012
19	0x3d52243e	0.051304094
20	0x3d4661b2	0.048433013
21	0xbd07e512	-0.033177443
22	0x3d9425c5	0.072337665
23	0xbd6b71da	-0.057481624
24	0x3bda6384	0.006664695
25	0x3dc3c332	0.09558715
26	0xbd45c5af	-0.04828423
27	0x3ceb97a8	0.028758839
28	0x3b90b08e	0.004415578
29	0x3bab6d33	0.0052315234
30	0xbdadbbf6	-0.08483116
31	0x3d95c0df	0.07312178
32	0xbe00f5e3	-0.12593798
33	0x3cf0dd52	0.029402409
34	0xbd30ee2b	-0.043195885
35	0xbd351d49	-0.04421738
36	0xba650c74	-0.00087375124
37	0xbdbc5aa7	-0.09196978
38	0x3d7d2b1e	0.061808698
39	0x3d06c326	0.03290095
40	0x3dd43a87	0.10362726
41	0x3c9d3533	0.019190406
42	0x3cfdfa86	0.031003248
43	0x3c2c8d71	0.010531769
44	0x3c0d8833	0.008638429
45	0xbdc18f18	-0.09451121
46	0xbd1b901c	-0.03797923
47	0xbd76653e	-0.060155146
48	0x3db1aa26	0.08675031
49	0xbdb60722	-0.08888079
50	0xbce326e9	-0.027728515
51	0x3c9f16bc	0.01942002
52	0xbd952933	-0.07283249
53	0xbc94a05a	-0.018142868
54	0xbd8de797	-0.06928938
55	0xbd2aee54	-0.041731194
56	0xbd162268	-0.036653906
57	0xbdc7360d	-0.09727106
58	0xba8b9a7e	-0.0010650901
59	0xbca4fe84	-0.020140894
60	0x3d3b90f4	0.045792535
61	0x3cc5de48	0.024153844
62	0xbce04083	-0.027374512
63	0xbd2debca	-0.042461194
64	0x3dbd0349	0.09229142
65	0x3d82ab65	0.06380347
66	0x3d24ca70	0.040232122
67	0x3de30064	0.11084059
68	0x3d41c042	0.047302492
69	0x3be8e7a0	0.00710769
70	0x3cc826fe	0.024432655
71	0x3d5cbf45	0.053893346
72	0x3e0924a7	0.13392888
73	0x3e3d42bf	0.18482493
74	0xbd47da97	-0.048792448
75	0x3baf1872	0.0053434903
76	0x3d114205	0.03546335
77	0x3e269ae5	0.16270025
78	0xbc448084	-0.011993531
79	0x3c538b55	0.012911637
80	0x3d8ab927	0.06773596
81	0x3dad875b	0.08473083
82	0xbd8312e0	-0.064000845
83	0xbcce9501	-0.025217535
84	0x3d8708f7	0.06593507
85	0x3cac48de	0.02103084
86	0xbd167aba	-0.036738135
87	0x3ce8b0b0	0.028404564
88	0x3ce0d2a3	0.02744419
89	0x3d0b44ac	0.034001037
90	0x3d8827e0	0.066482306
91	0x3d97f50d	0.074197866
92	0x3d495010	0.04914862
93	0xbd06cbd5	-0.032909233
94	0x3cb22ae9	0.021748977
95	0x3cd0ceb7	0.025489194
96	0xbd24e6e7	-0.040259268
97	0x3cf28816	0.029605906
98	0xbdba81a3	-0.091067575
99	0x3c411d9f	0.011786847
100	0x3d1b8d50	0.037976563
101	0x3d602c38	0.05472967
102	0x3c449b00	0.0119998455
103	0xbd050a8d	-0.032480765
104	0xbd68bed6	-0.05682262
105	0xbdb71270	-0.089390635
106	0xbdc5caa7	-0.096577935
107	0xbdd1dc3d	-0.10247085
108	0xbd9ce167	-0.076601796
109	0xbc97455a	-0.018465687
110	0x3d30e980	0.043191433
111	0x3d3736c7	0.044729974
112	0xbd8a5a08	-0.06755453
113	0xbd66308b	-0.056198638
114	0xbd0a75d3	-0.033803772
115	0xbd507705	-0.050894756
116	0x3de14980	0.11000347
117	0x3be757b9	0.007060018
118	0x3ce19bc2	0.027540091
119	0x3e2b1739	0.16708077
120	0xbc689466	-0.014195537
121	0x3ce421e8	0.027848199
122	0xbdbe1a07	-0.09282308
123	0x3c18b0b3	0.009319472
124	0xbd8bc204	-0.06824115
125	0x3b5640c8	0.0032692421
126	0xbc923ff9	-0.01785277
127	0xbd210fc5	-0.03932168
128	0x3c8f0ccf	0.017462162
129	0x3b0dfdf0	0.002166625
130	0x3d0ad95d	0.0338987
131	0xbbaff446	-0.005369696
132	0x3d6ae79f	0.057349797
133	0x3cb31f49	0.021865504
134	0x3d08c2f2	0.03338904
135	0x3da91491	0.08255876
136	0x3c89c6df	0.016818462
137	0x3c94b178	0.01815103
138	0xbc881126	-0.01660974
139	0xbc70e12a	-0.014702121
140	0x3c343b80	0.011000514
141	0xbd5e1cd3	-0.054226708
142	0xbd8e7fb3	-0.069579504
143	0xbdc630f1	-0.096773036
144	0xbe01f1c3	-0.12689881
145	0x3a10f061	0.00055289833
146	0xbc4136c5	-0.011792843
147	0xbc5cb5ae	-0.01347105
148	0xbcb7d32f	-0.022439567
149	0x3ca0dff3	0.019638037
150	0x3cd2821b	0.025696805
151	0x3cbc0adc	0.022954397
152	0xbd2e07bf	-0.042487856
153	0xbd6b9e9f	-0.05752432
154	0xbd51b096	-0.051193796
155	0x3d04d58e	0.032430224
156	0xbbbdbab8	-0.005790081
157	0xbd9785bf	-0.07398557
158	0x3e07d9b8	0.13266647
159	0x3ca1456a	0.01968642
160	0xbc296940	-0.010340035
161	0xbd12d0fe	-0.03584384
162	0x3c51bb60	0.012801021
163	0xbcba4845	-0.022739539
164	0x3ddd0288	0.107914984
165	0xbc6d2a0e	-0.014475359
166	0x3d815b6d	0.06316266
167	0x3d9baa3c	0.07600829
168	0x3c969f1a	0.018386412
169	0x3d2b2f48	0.041793138
170	0x3b172e20	0.0023068264
171	0x3d0dc35b	0.034610134
172	0xbd1acd30	-0.03779334
173	0xbcbd1919	-0.023083257
174	0x3d38bfc1	0.045104746
175	0x3c8d1313	0.01722101
176	0x3cba5e0e	0.022749927
177	0x3d236793	0.039893698
178	0x3ddfa3c4	0.10919908
179	0xbc69e827	-0.014276541
180	0xbd11868b	-0.0355287
181	0x3e23be28	0.15990508
182	0xbd2594d0	-0.04042512
183	0x3d4ea025	0.050445694
184	0x3d8d53c5	0.069007434
185	0x3dbff185	0.09372238
186	0xbc750ccd	-0.014956665
187	0x3dcc0447	0.09961753
188	0x3b287033	0.0025701642
189	0xbc37ab6b	-0.011210303
190	0x3d3706ac	0.044684097
191	0xbda749f1	-0.081684
192	0xbdc04c1a	-0.09389515
193	0x3da32608	0.07966238
194	0x3dcdf251	0.10055984
195	0xbc270617	-0.010194323
196	0x3d024dd8	0.03181252
197	0xbdacdea0	-0.084409
198	0x3d64d213	0.055864405
199	0x3a0dbf00	0.00054071844
200	0x3c5b0f40	0.013370335
201	0x3d9a26a2	0.075269
202	0x3cb3e03d	0.021957511
203	0xbd9427ce	-0.07234155
204	0xbc338988	-0.010958083
205	0x3e21b3b4	0.15791208
206	0xbd2c81ef	-0.0421161
207	0x396225ed	0.00021567168
208	0xbde6af22	-0.11263873
209	0x3cec15cb	0.028818985
210	0xbbc516b0	-0.0060146675
211	0xbceb37a0	-0.028713048
212	0xbc816b3b	-0.015798202
213	0x3d891f4a	0.06695421
214	0x3d34b544	0.04411818
215	0xbc1a284d	-0.0094090225
216	0x3c132a15	0.008982201
217	0xbd5d45e6	-0.05402174
218	0x3d515a67	0.051111605
219	0xbadded55	-0.0016931692
220	0xbc5e10fe	-0.013553856
221	0xbd298595	-0.04138716
222	0x3c8c0f6f	0.017097203
223	0xbc4d6f39	-0.012538725
224	0xbcc0ef2b	-0.023551544
225	0x3d4629f6	0.04837986
226	0x3d069be2	0.032863505
227	0x3b17ce4c	0.0023163734
228	0xbd89c33f	-0.06726693
229	0x3b2dd077	0.002652196
230	0x3d143a53	0.036188435
231	0xbd8d8c43	-0.069115184
232	0xbcab97be	-0.02094638
233	0xbc9199f2	-0.017773602
234	0xba75de10	-0.0009379098
235	0xbd833c54	-0.06407991
236	0xbd1b0a19	-0.037851427
237	0x3cbaf84b	0.022823473
238	0x3d469cf1	0.048489515
239	0xbc86fca8	-0.016477898
240	0xbd549be0	-0.051906466
241	0x3cf0dc82	0.029402021
242	0xbd2eeb5f	-0.042704936
243	0xbd57771d	-0.05260383
244	0x3d563d63	0.052304637
245	0xbbebc3b2	-0.0071949596
246	0xb781f502	-1.5492089e-05
247	0x3c0f253e	0.008736907
248	0xbd8d45cc	-0.06898078
249	0xbc980ea7	-0.018561674
250	0xbbdbc613	-0.006706962
251	0xbc646b0a	-0.013941536
252	0xbe3dcfe0	-0.1853633
253	0xbcddb936	-0.027065855
254	0xbdb4c94c	-0.08827457
255	0x3c41a628	0.0118194

encoder.2.0.bias f4 [98]
0	0xbdd79bc8	-0.1052776
1	0x40a15c78	5.0425377
2	0x3f81479e	1.0099981
3	0x3f55c214	0.83499265
4	0xbf9e63dc	-1.2374225
5	0x403dd04b	2.9658382
6	0xbfd6ef97	-1.6791867
7	0x3ef4fa21	0.47847083
8	0x3ffdacec	1.9818397
9	0xbc2827f6	-0.010263434
10	0x4086ed36	4.2164564
11	0x3f42958a	0.7600943
12	0x3f97a99f	1.1848639
13	0xbfba8db5	-1.4574496
14	0xbea419cc	-0.3205093
15	0xbf71bcb6	-0.94428575
16	0xc032610b	-2.787173
17	0x3f27094a	0.6524855
18	0x3f85d8f3	1.0456833
19	0x3f26857b	0.65047425
20	0x3c1f5361	0.009724469
21	0x3f16bb4a	0.5887953
22	0x3fc320ac	1.5244346
23	0x3d37c523	0.04486574
24	0x3dbd933f	0.092566006
25	0x403381eb	2.8048046
26	0x3f172318	0.59037924
27	0x3e95e5e2	0.2927695
28	0xbefe130e	-0.49623913
29	0x3fe44592	1.7833731
30	0xbf9de9b4	-1.2336946
31	0xbfa6ba4c	-1.3025603
32	0x3f852829	1.0402881
33	0xbd2ca57f	-0.042150017
34	0xbc837e6f	-0.0160515
35	0xbf89b125	-1.0757185
36	0x3eb0c978	0.34528708
37	0x3c122fcc	0.0089225285
38	0xbebb9c1e	-0.36642545
39	0x40897a60	4.2961884
40	0x3fe13b9b	1.7596315
41	0x3fc61e2f	1.5477961
42	0xc06b90d0	-3.6807137
43	0xbc1dea1e	-0.009638337
44	0xbee6f6d6	-0.45110196
45	0xbc6691a2	-0.0140728075
46	0xbf2cb64a	-0.6746565
47	0x3e16c467	0.14723359
48	0x3f03cdb3	0.5148575
49	0xc05be0d9	-3.4355986
50	0xbf781b39	-0.9691654
51	0xbd96626c	-0.07342991
52	0xbf98870a	-1.1916211
53	0xbf06ad44	-0.5260813
54	0x3fa816ab	1.3131918
55	0x3f50f497	0.81623214
56	0xc08ea0d6	-4.4571333
57	0x3f71ce11	0.9445506
58	0x4047eee3	3.1239555
59	0x3f213808	0.6297612
60	0x3fc33b84	1.5252538
61	0x4019f5e7	2.4056337
62	0x3f91ee3e	1.1400831
63	0x3e725e72	0.2366884
64	0xbe1f9282	-0.15583232
65	0xbfea1978	-1.8289022
66	0xbda3b138	-0.07992786
67	0x3e65d114	0.22443038
68	0xc05802ec	-3.3751783
69	0xc062ef50	-3.5458565
70	0xbf06c3a4	-0.52642274
71	0x3f0fe8ba	0.5621449
72	0xbeffc799	-0.49956968
73	0xbd0a7fb6	-0.0338132
74	0x40019efe	2.025329
75	0xbf37c50a	-0.7178503
76	0xbfbfd264	-1.4986081
77	0xbd0b6ff0	-0.0340423
78	0x3c36fb06	0.011168247
79	0x3c98f09d	0.01866942
80	0xbfe3cca8	-1.7796831
81	0x3f822301	1.0166932
82	0xbe1c771c	-0.15279812
83	0xbd2299cc	-0.039697453
84	0x3d48c274	0.04901357
85	0x3f9ad428	1.2095995
86	0x3f2aa91c	0.6666429
87	0x3f8822b1	1.0635587
88	0xc05aa29d	-3.4161751
89	0x3bee2c04	0.0072684307
90	0xbdc57f96	-0.09643476
91	0xbecd83b6	-0.4013955
92	0xc08166ab	-4.0437827
93	0x3f76c2ca	0.96390975
94	0x3fb2de02	1.3974001
95	0x3f9790f8	1.1841116
96	0x3e3629ca	0.17789379
97	0x4090634d	4.5121217

encoder.2.1.weight f4 [98]
0	0x3cd772e1	0.026299896
1	0x3eaeb6ad	0.34123746
2	0x3db8ca48	0.09022957
3	0x3e033962	0.12814859
4	0xbdb9c9d3	-0.09071698
5	0x3e1c1197	0.15241085
6	0x3ea02066	0.31274718
7	0xbdd2ba6c	-0.102894634
8	0xbda3c0d3	-0.07995763
9	0xbbe6626d	-0.0070307762
10	0xbe500718	-0.20315206
11	0x3e01d3c8	0.12678444
12	0x3df1a799	0.11799545
13	0xbe4f69f8	-0.20255268
14	0x3daaf376	0.08347218
15	0xbe42a7f3	-0.1900938
16	0x3e87c9e7	0.26521227
17	0x3e348d50	0.17632031
18	0xbe402448	-0.1876384
19	0x3e0a2b00	0.13492966
20	0xbe8053b0	-0.25063848
21	0x3e085c90	0.1331656
22	0xbe38c5a9	-0.18044151
23	0xbb0f92cb	-0.0021907564
24	0x3dc74c93	0.09731402
25	0x3dfe2a17	0.12410372
26	0x3dd21e3a	0.102596715
27	0xbe41a594	-0.1891082
28	0xbdfa9d87	-0.12237077
29	0xbef4db39	-0.47823504
30	0xbde0cbd1	-0.10976375
31	0xbe3f5dc0	-0.18688107
32	0xbdeafdaf	-0.114741676
33	0xbb9f7822	-0.004866616
34	0xbb8b4aaf	-0.0042508463
35	0xbe16ee11	-0.14739253
36	0x3db1ff52	0.086912766
37	0x3c48bb1d	0.0122516425
38	0xbe75b89e	-0.23996207
39	0x3e817d3c	0.2529086
40	0xbe31f8a2	-0.17380002
41	0x3e3dd3dc	0.18537849
42	0x3e83c40d	0.25735512
43	0xb9dc23e0	-0.000419884
44	0x3dccf2bc	0.100072354
45	0x3a8bcb85	0.0010665512
46	0x3e3315d1	0.17488791
47	0x3e4a24a3	0.19740538
48	0xbdc6f530	-0.097147346
49	0x3e9c48aa	0.30524188
50	0xbec04ebd	-0.37560073
51	0x3aea7539	0.0017887718
52	0xbdfee8f3	-0.12446775
53	0xbdfca3b5	-0.12335912
54	0xbe0cd74a	-0.13754001
55	0xbe287b3b	-0.16453259
56	0x3ea974da	0.33096963
57	0x3e430d18	0.19047964
58	0x3e9738c5	0.295355
59	0xbd989265	-0.074497975
60	0xbe30137c	-0.17194933
61	0xbe57a18e	-0.21057722
62	0x3ddb2078	0.10699552
63	0xbe46eaa1	-0.19425441
64	0xbe2c557c	-0.16829485
65	0x3e87e7f0	0.26544142
66	0x3b3b80f9	0.002861081
67	0x3dc26dc3	0.09493592
68	0xbe2cae44	-0.16863352
69	0x3e9f4385	0.311062
70	0xbe361536	-0.17781529
71	0xbe44cdf0	-0.19219184
72	0x3e4ac567	0.19801866
73	0x3c494ce0	0.012286395
74	0x3e8d3d47	0.27585813
75	0x3dc89799	0.0979454
76	0x3d8fd5b8	0.070231855
77	0x3c158084	0.009124879
78	0xbb11c169	-0.0022240526
79	0xba525735	-0.0008023859
80	0xbde16c87	-0.11007028
81	0x3e9ced3d	0.30649748
82	0xbe95b927	-0.29242823
83	0xbb56859b	-0.0032733444
84	0xba0119f2	-0.00049248256
85	0x3e18edab	0.14934413
86	0xbe14e344	-0.1453982
87	0x3de35b87	0.11101442
88	0xbe43c687	-0.19118701
89	0xbe440dca	-0.19145885
90	0xbe2dd1a6	-0.16974506
91	0x3e8d124f	0.2755303
92	0x3e84071f	0.25786683
93	0x3dfe1c4e	0.124077424
94	0xbe6d0046	-0.23144636
95	0x3e482688	0.19545949
96	0xbe25771f	-0.16158722
97	0x3e43655f	0.19081639

encoder.2.1.bias f4 [98]
0	0xbde317fb	-0.11088558
1	0xbbcd6cfd	-0.006269096
2	0x3c8eda7c	0.017438166
3	0xbc276828	-0.010217704
4	0x3d806af7	0.06270402
5	0x3e053067	0.13006745
6	0xbdead98a	-0.114672735
7	0x3d4b54ad	0.0496413
8	0x3dccc996	0.09999387
9	0xbd3e2ef4	-0.046431497
10	0xbde034b8	-0.10947555
11	0x3d958a51	0.073017724
12	0xbcdeabe5	-0.027181575
13	0xbe5217ba	-0.20516863
14	0xbbe7822e	-0.007065079
15	0xbc63e1f5	-0.013908853
16	0xbd05097c	-0.032479748
17	0x3c1b071a	0.009462142
18	0xbd5e1a57	-0.05422434
19	0x3dd5cfc2	0.10440017
20	0x3ee0728d	0.43837395
21	0x3d04e566	0.032445334
22	0x3ddb01c1	0.10693694
23	0xbdff1e79	-0.12456984
24	0x3da58281	0.08081532
25	0x3e134c58	0.14384592
26	0x3ddf2c67	0.10897141
27	0xbdceb787	-0.10093599
28	0x3ce1b5a9	0.027552443
29	0xbec94d14	-0.39316618
30	0x3d499760	0.049216628
31	0x3ebcd39e	0.368802
32	0x3dbf7dd9	0.093501754
33	0xbd14b496	-0.036305033
34	0xbd2cfb14	-0.042231634
35	0xbdf0614b	-0.11737307
36	0x3c70087f	0.014650463
37	0xbe08178d	-0.13290234
38	0xbe2613eb	-0.16218536
39	0xbe409cec	-0.18809861
40	0xbca57b6b	-0.020200452
41	0xbe2feb3e	-0.17179582
42	0x3f1da18a	0.61574614
43	0xbbb3f51c	-0.005491866
44	0x3d35e10c	0.044404075
45	0xbca993f0	-0.020700425
46	0x3dae4488	0.08509165
47	0xbc36b144	-0.011150662
48	0x3b074488	0.0020640213
49	0xbe3b558b	-0.18294351
50	0xbe3cb3cd	-0.18427964
51	0xbc55858b	-0.013032327
52	0xbb58211b	-0.0032978717
53	0xbd48d495	-0.04903086
54	0x3e1f208e	0.15539762
55	0xbd56df57	-0.052459087
56	0xbdf71015	-0.12063614
57	0xbe4fc5ac	-0.2029025
58	0xbe1e7ee3	-0.15478091
59	0x3d4c2934	0.04984398
60	0x3e0a27c1	0.13491727
61	0x3d73e592	0.059545107
62	0x3d13db4b	0.036097806
63	0xbd22ffc9	-0.039794717
64	0x3e451fa3	0.1925035
65	0xbe28a68d	-0.16469784
66	0xbcc9117e	-0.024544474
67	0x3cbad295	0.022805491
68	0x3e2d7a88	0.16941273
69	0x3bb74376	0.005592759
70	0xba30126b	-0.00067166117
71	0x3bfb8056	0.007675211
72	0xbca99bda	-0.020704199
73	0xbdbe2b88	-0.09285647
74	0x3e8a034c	0.2695564
75	0x3d3aed65	0.045636553
76	0x3cabbc73	0.020963883
77	0xbd83609d	-0.06414912
78	0xbd9b7ecf	-0.07592546
79	0xbcc8ebae	-0.024526443
80	0x3c56dfcf	0.013114884
81	0xbe6ce615	-0.23134644
82	0xbe8c9774	-0.274593
83	0xbc7a0130	-0.015259072
84	0xbc562623	-0.013070616
85	0x3b6db7f1	0.0036272968
86	0x3daf165e	0.08549188
87	0x3ca4db52	0.020124111
88	0xbc9e0244	-0.01928819
89	0x3e0b4d8f	0.13603805
90	0xbcd94981	-0.026524307
91	0xbe73edfb	-0.23821251
92	0xbd4b701c	-0.049667463
93	0xbd27bb3c	-0.040950045
94	0xbd8da8a5	-0.06916932
95	0xbe06d23c	-0.13166136
96	0x3e4e4d50	0.2014668
97	0xbd9918f9	-0.07475466
