models/best-vae_circ-ThreeGPP-noisy-3gpp-16rx-3p.pt (torch, 247695 bytes, 44 tensors)

embed_data.weight f4 [26, 2, 1]
0.88487023 -0.3771779 -0.2050606 -1.1456758 -0.020061696 0.002120615 0.15105109 0.9859421
-0.43418244 0.2408258 -0.019556198 -0.0019824621 -0.50669473 0.38304925 0.8491954 -0.44115064
-0.018774565 -0.0013972155 -0.24738346 0.5892369 0.56228024 0.11326207 0.4283031 0.34484917
-0.008908464 -0.011623141 -0.0144418245 -0.2052659 0.3910238 -0.4626679 -0.07213346 0.7893775
0.0842887 -1.0487019 1.0602927 0.19410425 -0.26724127 -0.5019242 1.0107405 0.3286842
0.9595273 0.21109004 -0.00802076 0.008610266 0.09211477 -1.0421863 0.52026653 -0.53353107
-0.98139656 -0.21464121 0.3018124 0.0918935
00000000: db86 623f 761d c1be 68fb 51be 81a5 92bf
00000010: 6d58 a4bc 04fa 0a3b 23ad 1a3e b466 7c3f
00000020: 294d debe 0a9b 763e 5234 a0bc 32ec 01bb
00000030: bfb6 01bf 081f c43e df64 593f 7fde e1be
00000040: 1ecd 99bc c622 b7ba 1752 7dbe 3bd8 163f
00000050: 99f1 0f3f f2f5 e73d 8b4a db3e 1290 b03e
00000060: cef4 11bc fd6e 3ebc 679d 6cbc 3931 52be
00000070: 4634 c83e cfe2 ecbe b5ba 93bd a514 4a3f
00000080: 8e9f ac3d dd3b 86bf acb7 873f 44c3 463e
00000090: d9d3 88be 1b7e 00bf f25f 813f 4c49 a83e
000000a0: 95a3 753f fd27 583e 8169 03bc 1312 0d3c
000000b0: aba6 bc3d 5c66 85bf 3030 053f 7e95 08bf
000000c0: ce3c 7bbf e8ca 5bbe 2887 9a3e a932 bc3d

embed_data.bias f4 [26]
1.1122048 0.383261 -0.85866433 -0.088115916 -0.34053448 -1.0609776 -0.24645208 -0.4018632
-1.1220697 0.20465125 -1.157211 0.85923386 0.0069503644 -1.110269 -0.12543376 0.29131275
-0.59882283 1.2224742 0.30311805 -0.6851033 -0.48193234 -0.025194254 -0.69030726 0.49849164
1.4256678 -1.3536195
00000000: ba5c 8e3f c93a c43e 6dd1 5bbf 1e76 b4bd
00000010: 895a aebe 1dce 87bf ef5d 7cbe 03c1 cdbe
00000020: fb9f 8fbf 1990 513e 7d1f 94bf c0f6 5b3f
00000030: e2bf e33b 4b1d 8ebf b571 00be f226 953e
00000040: 744c 19bf 097a 9c3f 4a32 9b3e ee62 2fbf
00000050: d6bf f6be 2e64 cebc fab7 30bf 4c3a ff3e
00000060: 487c b63f 6743 adbf

fc_mu_var.weight f4 [32, 79]
0.015278035 0.008970881 0.0014949673 0.008258085 -0.0044344827 -0.0009000066 -0.0060164123 0.0049419445
-0.06533381 0.003517739 0.006006549 -0.059748095 -0.0031963375 0.011851344 0.0007828515 0.012255241
0.018520987 -0.0051239314 0.07270246 0.044726145 -0.012164937 -0.011519919 -0.029465526 0.009699332
-0.00676637 -0.0048419805 0.08640251 0.01845313 -0.064647116 0.03211955 0.078029 -0.0009160597
0.013707854 -0.0044569937 -0.0010845177 -0.005599619 0.0034309966 0.0011749313 -0.001716736 0.0023921723
-0.0026575513 -0.005752941 0.0013579217 -0.011233598 -0.0026967681 0.00078840414 -0.0029864674 0.005816511
0.0048966412 0.0020835288 -0.010997206 -0.009716285 -0.0061571184 0.0068853134 0.10357604 0.004184458
-0.05653872 0.009975728 0.006922269 -0.009584319 -0.010329674 0.002217578 -6.72543e-05 -0.003729825
-0.018836642 0.012079197 -0.0079602385 -0.0025788224 -0.004299279 0.013776876 -0.00086384406 0.002070776
0.0031481455 -0.03381826 0.0059069274 0.055633876 -0.0018415926 -0.0038484894 -0.001243358 0.040454004
0.21421315 -1.0890763 0.2569467 -1.0547996 0.25606138 -0.6347511 -0.159206 0.03416548
-0.5272132 0.73778003 -0.11446946 0.44564435 0.35041276 0.25000212 0.015390764 -0.62651354
-0.09404005 0.022667104 -0.032875426 -0.035883866 -0.08196314 0.069140024 -0.8110474 -0.789821
0.037085053 -0.019854657 0.0011478248 -0.001993159 0.018873867 0.07334607 0.14351676 0.08112094
0.66622096 -0.9842764 0.31553054 -0.018164081 -0.12999088 0.11333054 -0.15765138 -0.47189212
-0.62970376 -0.42935285 0.2792401 0.3878089 0.13804138 -0.13599402 0.44031456 0.42166686
-0.20920841 0.41388294 0.3469983 0.70224357 -0.055951975 -0.048929196 0.05206118 -0.023373708
-0.17122528 -0.306306 -0.0686495 -0.6718044 -0.15407951 1.3928238 -0.4782222 -0.71316594
0.42880398 -0.8558576 0.23321539 -0.581982 0.09084373 0.015231293 0.43207404 -0.43265358
0.09342296 1.3593937 -0.05042562 0.17995726 -0.3528431 -0.45089963 -0.16516443 0.3739397
0.17473169 0.029817564 0.27175897 -0.25837335 -0.44827792 0.20216252 -0.027876748 -1.2996726
-0.5135276 0.0075759995 -0.1698057 -0.72299176 0.24625608 -0.08699823 -0.89397985 0.028281225
0.009928483 0.015005976 0.015403987 -0.24797185 -0.0035373182 0.87373906 -0.35256326 -0.08361199
-0.039014604 0.008644325 -0.00989562 -0.056635965 0.14284654 0.08371543 0.2369623 0.057440627
-0.49199617 -0.14448641 -0.6462954 0.13206467 -0.05772118 -0.37338865 0.30034003 0.105098546
0.75389904 0.31154186 -0.545465 0.06031607 0.08110038 -0.13062504 0.88565713 -0.14595523
-0.4289493 0.08896724 1.306249 0.052443344 -0.0068454565 0.26550648 -0.022378266 0.06826709
0.0725298 0.039717674 0.4676387 -0.3337628 0.92109436 -0.34875208 0.6517511 -0.8557083
-1.1156098 -0.35546428 0.22725198 0.18288091 0.60371906 0.8986512 -0.0020889898 0.830862
-0.68057346 0.05561172 -0.09787489 -0.7720542 0.009926166 -0.0037678436 -0.0011420107 0.0012993548
-0.005111622 0.002453406 0.011937638 0.006598508 -0.0020920143 -0.0019154389 0.014230724 0.0051792474
0.052210126 0.0040855245 -0.011771284 -0.027832141 -0.0062405197 0.0030229709 0.011334559 -0.008790661
00000000: b950 7a3c 9afa 123c c7f2 c33a eb4c 073c
00000010: 234f 91bb 6cee 6bba 5325 c5bb 09f0 a13b
00000020: bccd 85bd de89 663b 96d2 c43b 6bba 74bd
00000030: a579 51bb 242c 423c 4638 4d3a 35ca 483c
00000040: 53b9 973c a7e6 a7bb 07e5 943d c332 373d
00000050: 724f 47bc 0bbe 3cbc b061 f1bc f2e9 1e3c
00000060: 6db8 ddbb 7aa9 9ebb cdf3 b03d 052b 973c
00000070: b565 84bd ca8f 033d abcd 9f3d ba23 70ba
00000080: e896 603c f90b 92bb 6026 8eba 027d b7bb
00000090: 92da 603b 2700 9a3a 1a04 e1ba fec5 1c3b
000000a0: 502a 2ebb 2b83 bcbb 4bfc b13a 200d 38bc
000000b0: 43bc 30bb e8ac 4e3a 9cb8 43bb 6e98 be3b
000000c0: 0174 a03b d08b 083b a02d 34bc 0e31 1fbc
000000d0: a7c1 c9bb 329e e13b ad1f d43d c71d 893b
000000e0: 2595 67bd 3c71 233c 33d4 e23b 8c07 1dbc
000000f0: cb3d 29bc c954 113b e10a 8db8 1470 74bb
00000100: 4d4f 9abc d3e7 453c a96b 02bc 7601 29bb
00000110: f7e0 8cbb 68b8 613c 9873 62ba dbb5 073b
00000120: 1e51 4e3b 0485 0abd e68e c13b 59e0 633d
00000130: 9861 f1ba f036 7cbb 2cf8 a2ba 19b3 253d
00000140: b15a 5b3e da66 8bbf 858e 833e ac03 87bf
00000150: 7a1a 833e 0c7f 22bf e606 23be 1af1 0b3d
00000160: 72f7 06bf 27df 3c3f f76e eabd 7f2b e43e
00000170: 4d69 b33e 4700 803e 8b29 7c3c 3163 20bf
00000180: 1298 c0bd 5db0 b93c 62a8 06bd f6fa 12bd
00000190: 4adc a7bd 4999 8d3d cda0 4fbf b631 4abf
000001a0: 7fe6 173d 3ca6 a2bc 9c72 963a a99f 02bb
000001b0: 5e9d 9a3c 7736 963d 0ff6 123e bc22 a63d
000001c0: 758d 2a3f 8af9 7bbf 388d a13e d7cc 94bc
000001d0: 541c 05be d819 e83d 5d6f 21be d89b f1be
000001e0: 4434 21bf 23d4 dbbe 8ff8 8e3e e38e c63e
000001f0: b85a 0d3e 0442 0bbe e970 e13e b8e4 d73e
00000200: bb3a 56be 77e8 d33e c3a9 b13e 3cc6 333f
00000210: e62d 65bd fb69 48bd 1b3e 553d 387a bfbc
00000220: ae55 2fbe 24d4 9cbe 1c98 8cbd 60fb 2bbf
00000230: 05c7 1dbe 0d48 b23f 8ad9 f4be 0b92 36bf
00000240: 328c db3e 7c19 5bbf 04d0 6e3e c6fc 14bf
00000250: 470c ba3d ac8c 793c cf38 dd3e c584 ddbe
00000260: 8954 bf3d 9d00 ae3f 188b 4ebd b746 383e
00000270: daa7 b4be 51dc e6be dd20 29be 0675 bf3e
00000280: ddec 323e f743 f43c fe23 8b3e 8349 84be
00000290: af84 e5be b103 4f3e c75d e4bc ac5b a6bf
000002a0: 8b76 03bf 1740 f83b 8ce1 2dbe fd15 39bf
000002b0: 8e2a 7c3e 212c b2bd dddb 64bf 07ae e73c
000002c0: 13ab 223c a0db 753c 0161 7c3c 55ec 7dbe
000002d0: 5ad2 67bb 5dad 5f3f 2c83 b4be c33c abbd
000002e0: c7cd 1fbd eda0 0d3c 3d21 22bc 1dfb 67bd
000002f0: 5d46 123e ff72 ab3d 3fa6 723e dd46 6b3d
00000300: ece6 fbbe 3ff4 13be 9e73 25bf f63b 073e
00000310: 0b6d 6cbd cc2c bfbe 2bc6 993e e83d d73d
00000320: 87ff 403f 6a82 9f3e 98a3 0bbf fc0d 773d
00000330: f517 a63d 92c2 05be 6dba 623f 4a75 15be
00000340: 3e9f dbbe 7534 b63d 2b33 a73f d5ce 563d
00000350: da4f e0bb 77f0 873e a052 b7bc 9ecf 8b3d
00000360: 818a 943d 00af 223d 576e ef3e f5e2 aabe
00000370: d7cc 6b3f a28f b2be 29d9 263f b30f 5bbf
00000380: 4dcc 8ebf 6aff b5be beb4 683e 2245 3b3e
00000390: 558d 1a3f 010e 663f 6fe7 08bb 5fb3 543f
000003a0: 103a 2ebf 1dc9 633d a172 c8bd 58a5 45bf
000003b0: 5ca1 223c eded 76bb 85af 95ba 1d4f aa3a
000003c0: 657f a7bb 53c9 203b 1596 433c 4c38 d83b
000003d0: 2d1a 09bb 770f fbba fc27 693c adb6 a93b
000003e0: 49da 553d dddf 853b 58dc 40bc 3b00 e4bc
000003f0: 467d ccbb 091d 463b 96b4 393c b406 10bc

fc_mu_var.bias f4 [32]
0.00079203 0.09215796 -0.12492463 0.0003632007 -0.26856256 0.0022674787 -0.11612848 -0.00057822873
-0.0026123128 -0.002285193 -0.0031101839 -0.005872587 0.0027290857 0.0027759084 0.19673389 -0.0045867064
0.0019665454 -1.3994656 -0.9517663 0.0005535827 -0.2563541 0.0001447742 -0.4409288 -0.000985872
-0.0007727691 0.00054634834 -0.00047679752 0.0005257737 0.0010829961 0.000644303 -0.2900188 -0.00065552106
00000000: 3ca0 4f3a 50bd bc3d 7cd8 ffbd f96b be39
00000010: 0881 89be fb99 143b c5d4 edbd 4694 17ba
00000020: 5633 2bbb 2dc3 15bb 3ad4 4bbb d56e c0bb
00000030: 76da 323b 04ec 353b 9c74 493e 154c 96bb
00000040: 28e1 003b b021 b3bf f5a6 73bf 4e1e 113a
00000050: d840 83be 87ce 1739 6bc1 e1be 6038 81ba
00000060: a893 4aba d138 0f3a aefa f9b9 13d4 093a
00000070: 52f3 8d3a 71e6 283a 587d 94be 46d7 2bba

encoder.0.0.weight f4 [26, 26, 5]
-0.15705127 -1.1326823 -0.07407008 0.6601799 0.31172338 -0.045804236 0.48730284 0.005797082
-0.8881411 -0.2191506 0.03340382 -0.10196017 -0.17096262 0.075981826 -0.01504558 0.050972365
-0.5191818 0.004755677 0.79697055 0.20564935 0.12597035 0.98312867 -0.011672709 -0.5444629
-0.30850223 0.026464593 -0.1127523 -0.22260666 0.05400392 0.019610701 0.16555834 0.9466253
0.10716233 -0.47154233 -0.23519562 -0.17450899 -1.0534959 -0.0732797 0.6067363 0.33187026
0.056716077 -0.10064892 -0.21517572 0.019168932 -0.0052524493 0.080581926 0.2693882 -0.05818318
0.2092047 -0.01849037 -0.090081096 -1.2886536 -0.10484728 0.97593814 0.39895785 -0.088688925
-1.1864763 -0.007803132 1.1217927 0.38240305 -0.058553215 -0.01784568 0.0023912077 -0.02999386
0.11793925 -0.0046430766 0.26883382 0.07104716 -0.56925386 -0.13650931 -0.11533116 -0.6702715
-0.072980076 0.1028468 0.16142417 0.063859135 -0.1955728 -0.055413045 0.6116936 0.105365016
-0.0869241 0.19675092 0.054717615 -0.639058 -0.15172331 -0.103170656 -1.3961087 -0.12139851
1.1318196 0.38083944 -0.04955638 0.7877981 -0.04695038 -0.9371605 -0.26616544 -0.100614496
-1.3983964 -0.0772849 1.1842029 0.44114366 -0.09269875 -1.4646986 -0.12833467 1.1031153
0.43961808 0.0088520935 -0.050970312 -0.05352732 0.13137396 0.0735754 0.049334455 0.23080146
0.050487887 -0.64501125 -0.0458713 -0.09879208 -0.8317116 -0.03964186 0.22553906 0.21371472
0.14302011 1.424885 0.19283038 -1.1168509 -0.43031532 -0.025791975 -1.1912379 -0.09416529
0.9243332 0.36540088 0.10135188 0.10342141 -0.101200484 -0.94110847 -0.09589615 -0.01948792
0.031157985 0.890603 -0.542686 1.7723435 0.055444747 0.072631344 0.20041743 0.0212037
0.048840173 0.026273377 -0.02174104 -0.76819545 0.5211448 -1.7432144 -0.056656305 -0.1005403
-0.0414435 0.87006664 -0.021737268 0.042317912 0.12849098 0.50018835 -0.06367532 0.09269896
-0.020451415 -0.08088076 -0.15466142 0.9271507 -0.21972562 0.030986702 -0.0042441767 -0.023291018
-0.94711953 0.13108543 0.09411071 0.124236904 0.49260882 -0.04374437 0.079537764 -0.011119647
-0.024923503 -0.45312896 0.90175074 -0.8812902 0.062402226 0.041379277 -0.25539985 -0.50436723
-0.558862 0.08971188 0.039257348 -0.7207107 -0.0122691095 -1.4871234 0.11552348 0.16307056
-0.1300049 -0.19373775 0.23851606 0.002574286 -0.062927656 0.71797657 -0.46470413 1.3350412
0.055097733 0.020407628 0.3747922 -1.0057513 0.45401695 -0.02946328 0.0039102924 -0.6871114
0.6065509 -1.3120558 -0.06494767 -0.03256978 0.7643039 -0.7459732 1.4615746 0.10893987
0.0073718242 -0.44902477 -0.5071436 -0.7376405 -0.113801256 -0.03683546 0.78867334 -0.18292113
1.6867868 0.107039124 0.020660574 -0.5541905 -0.49084482 -0.798885 0.030483086 0.13431022
-0.502446 -0.53969836 -0.7916263 -0.107215844 -0.1322621 -0.18965504 0.06972662 0.15682223
-0.052109 0.015106502 0.77370334 -0.75239694 1.4394807 0.038539387 0.067598455 0.25854978
-1.0316925 0.29442334 -0.13376732 -0.023825092 0.41575593 0.543372 0.6438416 0.06950669
00000000: 0cd2 20be bcfb 90bf 0eb2 97bd 8d01 293f
00000010: 359a 9f3e 399d 3bbd c27f f93e 73f5 bd3b
00000020: 375d 63bf 0469 60be 72d2 083d 7ed0 d0bd
00000030: d310 2fbe 5c9c 9b3d bd81 76bc 66c8 503d
00000040: 19e9 04bf 83d5 9b3b 4306 4c3f be95 523e
00000050: 5ffe 003e 52ae 7b3f e43e 3fbc ec61 0bbf
00000060: 01f4 9dbe 46cc d83c aeea e6bd 00f3 63be
00000070: 3733 5d3d 9fa6 a03c 2088 293e 0956 723f
00000080: ec77 db3d ff6d f1be 1fd7 70be 7cb2 32be
00000090: f4d8 86bf ab13 96bd 1253 1b3f e6ea a93e
000000a0: 1e4f 683d 0521 cebd 0657 5cbe 2a08 9d3c
000000b0: bd1c acbb 2308 a53d 40ed 893e 7c51 6ebd
000000c0: c239 563e 1e79 97bc 707c b8bd 9af2 a4bf
000000d0: 2cba d6bd 15d7 793f 3444 cc3e 8aa2 b5bd
000000e0: 75de 97bf 6ab1 ffbb e796 8f3f 55ca c33e
000000f0: 7fd5 6fbd 1a31 92bc cfb5 1c3b afb5 f5bc
00000100: 228a f13d f324 98bb 96a4 893e 2c81 913d
00000110: 9fba 11bf 19c9 0bbe be32 ecbd ea96 2bbf
00000120: 9476 95bd 58a1 d23d 614c 253e 94c8 823d
00000130: 3c44 48be caf8 62bd f497 1c3f 9dc9 d73d
00000140: 4305 b2bd 1379 493e 941f 603d 4e99 23bf
00000150: 5b5d 1bbe 234b d3bd b1b3 b2bf c89f f8bd
00000160: 77df 903f 63fd c23e a1fb 4abd 23ad 493f
00000170: 0b4f 40bd c0e9 6fbf d646 88be f90e cebd
00000180: a7fe b2bf 8c47 9ebd f693 973f 95dd e13e
00000190: d8d8 bdbd 3e7b bbbf 2a6a 03be e232 8d3f
000001a0: 9f15 e13e 5f08 113c 3fc6 50bd 773f 5bbd
000001b0: e586 063e b3ae 963d ed12 4a3d 3857 6c3e
000001c0: 63cc 4e3d 751f 25bf 8be3 3bbd 8153 cabd
000001d0: 0deb 54bf 815f 22bd b6f3 663e 08d8 5a3e
000001e0: dd73 123e a262 b63f 5475 453e f8f4 8ebf
000001f0: 4a52 dcbe b149 d3bc 7c7a 98bf bbd9 c0bd
00000200: 1aa1 6c3f d315 bb3e 9391 cf3d 9bce d33d
00000210: 3342 cfbd 7cec 70bf 3365 c4bd 21a5 9fbc
00000220: 083f ff3c 8ffe 633f 78ed 0abf 27dc e23f
00000230: 081a 633d bebf 943d 3a3a 4d3e 62b3 ad3c
00000240: a20c 483d 443b d73c 441a b2bc 75a8 44bf
00000250: bf69 053f a621 dfbf 7110 68bd 13e8 cdbd
00000260: a9c0 29bd b0bc 5e3f 5b12 b2bc 8c55 2d3d
00000270: 2493 033e 580c 003f 3568 82bd f4d8 bd3d
00000280: ba89 a7bc d0a4 a5bd 905f 1ebe c059 6d3f
00000290: c1ff 60be d3d7 fd3c bc12 8bbb cecc bebc
000002a0: 6d76 72bf 423b 063e 1ebd c03d eb6f fe3d
000002b0: 3937 fc3e 4c2d 33bd b2e4 a23d 2e2f 36bc
000002c0: 602c ccbc 8500 e8be 23d9 663f 3c9c 61bf
000002d0: 7a99 7f3d 517d 293d c5c3 82be 361e 01bf
000002e0: 9411 0fbf ddba b73d 50cc 203d 7f80 38bf
000002f0: 6004 49bc 0f5a bebf 9397 ec3d f8fb 263e
00000300: 0120 05be 3063 46be 8e3d 743e 5ab5 283b
00000310: 37e0 80bd 50cd 373f b3ed edbe a1e2 aa3f
00000320: 29ae 613d e62d a73c c3e4 bf3e 75bc 80bf
00000330: e974 e83e fa5c f1bc e921 803b 88e6 2fbf
00000340: eb46 1b3f 72f1 a7bf 4903 85bd e467 05bd
00000350: 6ca9 433f 1af8 3ebf e014 bb3f de1b df3d
00000360: 588f f13b 93e6 e5be 2ad4 01bf 02d6 3cbf
00000370: a210 e9bd c8e0 16bd 7fe6 493f ad4f 3bbe
00000380: a1e8 d73f 5437 db3d 5d40 a93c 6edf 0dbf
00000390: 0350 fbbe ba83 4cbf aab7 f93c 9e88 093e
000003a0: 4da0 00bf ac29 0abf 05a8 4abf fb93 dbbd
000003b0: b76f 07be ee34 42be d5cc 8e3d 0296 203e
000003c0: 3f70 55bd 4381 773c 6c11 463f 169d 40bf
000003d0: e740 b83f 7adb 1d3d 0f71 8a3d a360 843e
000003e0: 800e 84bf a8be 963e 4dfa 08be d72c c3bc
000003f0: f6dd d43e 6d1a 0b3f ced2 243f 8659 8e3d

encoder.0.0.bias f4 [26]
-0.9901503 -1.0855836 0.9601079 -0.07154916 -0.31314307 0.5050297 -1.0834148 -0.026764788
1.163352 0.013955443 -1.1287321 0.2802208 -0.22500998 -0.050509565 -0.268845 0.016854934
-0.4620645 0.6436112 -0.6431491 -1.3296406 1.2601835 0.10406948 -0.48093483 0.21287055
-1.0744531 0.029667519
00000000: 7d7a 7dbf 67f4 8abf a2c9 753f 5e88 92bd
00000010: 4a54 a0be a049 013f 56ad 8abf d441 dbbc
00000020: b8e8 943f 5fa5 643c 4b7a 90bf 1a79 8f3e
00000030: 0469 66be 1ee3 4ebd 0da6 89be 5c13 8a3c
00000040: b893 ecbe b4c3 243f 6ba5 24bf aa31 aabf
00000050: b14d a13f 6122 d53d 173d f6be bdfa 593e
00000060: ae87 89bf 4c09 f33c

encoder.0.1.weight f4 [26]
-1.4877471 -0.8306246 1.0225918 0.0002445022 -1.6249654 1.7635118 -1.5410635 0.00047340788
0.9122004 -0.00018603858 -1.2246288 1.2255054 0.21824488 -1.6903749 -0.76110446 -0.0050884583
-0.85708606 1.6865565 -0.87274706 -1.0011655 1.1351132 0.0050709695 -0.8412931 0.9691066
-0.9358788 0.0023968678
00000000: 7f6e bebf d0a3 54bf 4ae4 823f 8830 8039
00000010: defe cfbf c1ba e13f 9241 c5bf bb33 f839
00000020: f785 693f 5a13 43b9 a3c0 9cbf 5cdd 9c3f
00000030: 967b 5f3e 345e d8bf bed7 42bf 15bd a6bb
00000040: fe69 5bbf 15e1 d73f 5a6c 5fbf 3126 80bf
00000050: 644b 913f 602a a63b fc5e 57bf 5f17 783f
00000060: c195 6fbf c514 1d3b

encoder.0.1.bias f4 [26]
0.012495022 0.021432687 0.16952218 -0.044676326 -0.005741126 -0.0021494657 0.002975117 -0.033720862
-0.23709124 -0.036875673 -0.004014986 -0.0036059862 1.0433947 0.0022186297 0.18931915 -0.09920844
0.204877 0.019771704 0.053738136 0.024926234 0.020794176 -0.08551656 0.2769244 -0.28872654
-0.23853585 -0.12240092
00000000: ecb7 4c3c 9a93 af3c 3997 2d3e 86fe 36bd
00000010: 0e20 bcbb 0dde 0cbb 2efa 423b e31e 0abd
00000020: 0cc8 72be f20a 17bd 2590 83bb 6952 6cbb
00000030: f58d 853f 6e66 113b e1dc 413e cb2d cbbd
00000040: 47cb 513e 45f8 a13c 851c 5c3d 1a32 cc3c
00000050: 8c58 aa3c 4e23 afbd 09c9 8d3e f7d3 93be
00000060: be42 74be 55ad fabd

encoder.0.1.running_mean f4 [26]
0.43461043 -3.47392 4.578475 0.236603 -1.4272829 0.94560885 -0.38809997 0.022118023
-7.0109205 0.37335157 -2.3556414 -0.54161316 -6.994065 0.21782884 -1.66538 0.9173286
9.948034 2.0732784 -4.5600176 5.7368913 -1.5211008 -0.52939415 4.3322277 6.050851
15.057025 -0.47663447
00000000: 4285 de3e b554 5ec0 de82 9240 0f48 723e
00000010: 35b1 b6bf 6c13 723f 0ab5 c6be db30 b53c
00000020: 7659 e0c0 f027 bf3e d4c2 16c0 29a7 0abf
00000030: 61cf dfc0 860e 5f3e 2c2b d5bf 0cd6 6a3f
00000040: 262b 1f41 98b0 0440 aaeb 91c0 9d94 b740
00000050: 6eb3 c2bf 6086 07bf 9ca1 8a40 92a0 c140
00000060: 93e9 7041 6f09 f4be

encoder.0.1.running_var f4 [26]
869.603 975.93616 2031.0537 0.30721655 902.28357 988.19885 915.2374 0.9097947
783.16864 0.29579428 851.5714 959.79395 997.115 1027.611 1414.37 0.49271685
1808.9047 882.54034 1365.9662 1194.3215 1064.2125 1.0155243 726.94257 2002.5747
1811.501 2.7972116
00000000: 9866 5944 eafb 7344 b8e1 fd44 7d4b 9d3e
00000010: 2692 6144 ba0c 7744 32cf 6444 4ee8 683f
00000020: cbca 4344 5972 973e 92e4 5444 d0f2 6f44
00000030: 5c47 7944 8d73 8044 d7cb b044 6245 fc3e
00000040: f31c e244 95a2 5c44 ebbe aa44 4a4a 9544
00000050: cd06 8544 b3fc 813f 53bc 3544 6452 fa44
00000060: 0870 e244 8405 3340

encoder.1.0.weight f4 [45, 26, 5]
0.22250782 0.29257467 0.04879985 0.17892852 -0.17757727 0.18591438 0.8332275 0.4478652
1.1368413 0.08837805 -0.4303899 0.60950583 0.21317795 0.98530066 0.38735658 -0.023434496
-0.04146082 -0.022713518 0.022831772 0.011780563 0.012921266 0.4710548 0.39927575 0.5292104
0.15349478 0.13099772 0.30325896 0.028783668 0.26070756 -0.0035640667 0.28342476 0.40625972
0.03814566 0.11705885 -0.49469712 0.014912073 -0.03365185 0.017601388 0.011417569 -0.0025784948
0.83635944 1.35292 0.8679704 0.83329105 -0.6284461 0.0622089 0.029953051 -0.03978042
0.0011988797 0.009635753 0.051372495 0.11875062 0.053781796 0.22230448 -0.036587 0.61897445
0.8862987 0.58783853 0.6712146 -0.7416532 1.4851619 -0.3808307 -0.63610446 -0.117845215
-2.4090488 0.22249517 0.3662791 0.2964076 0.29587185 -0.17060922 0.2307724 0.4653531
0.44425207 0.7048003 -0.28311542 0.071867265 0.04121321 0.08825483 -0.008985577 -0.0053031393
-0.42980674 0.19727561 0.18801074 0.8114474 0.6550579 -0.12537032 0.19267759 -0.051471878
0.23363814 -0.084113196 0.7099472 1.0947912 -0.14394504 0.9075582 -0.51553565 0.39358506
0.8154489 0.3519222 0.7958444 -0.01029906 0.12263374 0.7056595 0.5994363 0.9501535
0.1448744 0.05457295 -0.041753028 0.061163135 -0.03698481 -0.0831711 -0.041238595 1.7219924
0.51994056 1.1800025 0.39005408 1.0167981 1.213248 1.0125283 0.6231443 -0.52219146
0.81036735 0.58478093 0.43792242 0.5396763 -0.40114185 0.06797768 0.06712865 -0.004687888
0.02316186 -0.057184085 -0.0027783797 -0.030227596 -1.7583114 -0.6356247 0.050034624 -0.00041119326
0.33095303 -0.027700134 0.67650795 0.07364426 -0.038109235 -0.9497962 -0.90412474 0.61820203
0.036519818 0.0017564539 -0.009029976 0.07971101 -0.0520506 0.0011624665 0.080563724 -0.34767324
-1.148704 -0.28274986 -0.029948777 0.13690202 -0.57504445 -1.7847178 -0.05238017 0.023605453
0.036466543 -0.29164764 -1.7684296 -0.82147 0.030646918 -0.031099178 0.033274375 0.0721747
-0.018271046 0.09992177 0.04102183 0.18297257 1.3631533 1.2943134 0.11130478 0.03630577
0.008276539 -0.019219188 -0.004599348 -0.04709935 0.06933571 -0.31293282 -1.9031779 -0.27466008
-0.031765167 0.004641159 0.13468353 -1.0996057 -0.85332775 0.010109162 -0.10128797 -0.25804594
-3.6139114 0.3349365 -0.15355706 0.237351 -0.39460346 -1.0964323 -0.21506627 -0.026262265
-0.091196604 0.45407495 1.180494 1.6655821 0.094811246 0.035411205 0.018665818 0.042525176
-0.00053847 -0.0074888268 -0.2550764 -0.26252595 0.29893786 0.14605966 0.0053749317 0.09702045
-1.015048 -1.5534412 -0.05218946 -0.079521105 0.20491141 0.3840283 0.03281306 -0.5011128
-0.04832746 0.12980515 0.5355977 -0.30846584 0.44010654 0.1896004 0.22547922 0.20813483
-0.34809974 0.34743065 0.063746035 0.053248 -0.04023858 -0.034300804 0.030795205 0.0254501
-0.07735011 0.179994 0.70665085 0.34576914 0.22801365 0.02374378 1.602204 2.403672
1.7139163 0.18263258 0.18654774 -0.24592417 -0.5946381 -0.9119779 -0.27607268 -0.03706303
00000000: 17d9 633e 59cc 953e 5ae2 473d 0a39 373e
00000010: d1d6 35be 5760 3e3e 664e 553f 964e e53e
00000020: 0484 913f 8dff b43d 115c dcbe 9308 1c3f
00000030: 524b 5a3e aa3c 7c3f 9a53 c63e b3f9 bfbc
00000040: d2d2 29bd b311 babc b209 bb3c 4303 413c
00000050: b8b3 533c 182e f13e df6d cc3e 557a 073f
00000060: bc2d 1d3e 4424 063e c244 9b3e bacb eb3c
00000070: 767b 853e 1e93 69bb 0d1d 913e 4601 d03e
00000080: a03e 1c3d 8dbc ef3d f148 fdbe c451 743c
00000090: 86d6 09bd c930 903c c110 3b3c f7fb 28bb
000000a0: a71b 563f 7c2c ad3f 4f33 5e3f 9052 553f
000000b0: d8e1 20bf c2ce 7e3d 1a60 f53c cbf0 22bd
000000c0: ba23 9d3a 47df 1d3c f76b 523d 8633 f33d
000000d0: 4d4a 5c3d c9a3 633e 40dc 15bd 1c75 1e3f
000000e0: 79e4 623f 967c 163f b8d4 2b3f fcdc 3dbf
000000f0: c919 be3f 3efc c2be bed7 22bf d558 f1bd
00000100: db2d 1ac0 c6d5 633e ef88 bb3e bdc2 973e
00000110: 847c 973e 2fb4 2ebe 9a4f 6c3e c342 ee3e
00000120: 0275 e33e cb6d 343f 81f4 90be 252f 933d
00000130: 2fcf 283d f3be b43d 3e38 13bc f5c5 adbb
00000140: a10f dcbe 9e02 4a3e e385 403e 04bb 4f3f
00000150: e0b1 273f 1461 00be 464d 453e 2dd4 52bd
00000160: d63e 6f3e 8a43 acbd 1abf 353f 1e22 8c3f
00000170: 5466 13be bc55 683f 25fa 03bf fb83 c93e
00000180: 42c1 503f 262f b43e 75bc 4b3f 63bd 28bc
00000190: 6627 fb3d 1aa6 343f a874 193f 433d 733f
000001a0: f459 143e e387 5f3d 3905 2bbd 3286 7a3d
000001b0: 627d 17bd 9c55 aabd cde9 28bd 3f6a dc3f
000001c0: d31a 053f 520a 973f 2bb5 c73e 7126 823f
000001d0: b64b 9b3f 879a 813f 6386 1f3f 57ae 05bf
000001e0: 3c74 4f3f 34b4 153f 5e37 e03e 3a28 0a3f
000001f0: 7762 cdbe e237 8b3d bf7a 893d db9c 99bb
00000200: f1bd bd3c dc39 6abd 7a15 36bb dd9f f7bc
00000210: 5910 e1bf 4db8 22bf 1bf1 4c3d 6d95 d7b9
00000220: ad72 a93e 64eb e2bc a02f 2d3f cdd2 963d
00000230: 6e18 1cbd d825 73bf b874 67bf 7d42 1e3f
00000240: ce95 153d d038 e63a 77f2 13bc 873f a33d
00000250: 0333 55bd e75d 983a 98fe a43d 3a02 b2be
00000260: bc08 93bf 97c4 90be 2357 f5bc 0b30 0c3e
00000270: 1d36 13bf a271 e4bf 978c 56bd 3960 c13c
00000280: f15d 153d d752 95be e75b e2bf dc4b 52bf
00000290: 3f0f fb3c b4c3 febc b64a 083d 54d0 933d
000002a0: 29ad 95bc c9a3 cc3d 8206 283d 295d 3b3e
000002b0: cf7b ae3f 10ac a53f c3f3 e33d 5cb5 143d
000002c0: 529a 073c 8f71 9dbc 21b6 96bb 3feb 40bd
000002d0: e1ff 8d3d bb38 a0be 559b f3bf 3fa0 8cbe
000002e0: 311c 02bd dd14 983b 7bea 093e e1bf 8cbf
000002f0: b073 5abf e6a0 253c 1170 cfbd 991e 84be
00000300: 534a 67c0 cc7c ab3e 103e 1dbe 240c 733e
00000310: 7709 cabe e557 8cbf 553a 5cbe f623 d7bc
00000320: 49c5 babd 837c e83e 6d1a 973f cb31 d53f
00000330: 662c c23d 570b 113d 0fe9 983c e12e 2e3d
00000340: 1c28 0dba d564 f5bb 6099 82be cd69 86be
00000350: 620e 993e aa90 153e 3220 b03b a8b2 c63d
00000360: 18ed 81bf 29d7 c6bf 9dc4 55bd f6db a2bd
00000370: 4cd4 513e 5b9f c43e fd66 063d ee48 00bf
00000380: 04f3 45bd a4eb 043e ee1c 093f 3cef 9dbe
00000390: a555 e13e 9b26 423e 06e4 663e 4c21 553e
000003a0: 213a b2be 6ee2 b13e 488d 823d 931a 5a3d
000003b0: 36d1 24bd 007f 0cbd 3a46 fc3c ba7c d03c
000003c0: bc69 9ebd 5950 383e 12e7 343f a708 b13e
000003d0: 697c 693e 5182 c23c 0515 cd3f c3d5 1940
000003e0: 9c61 db3f 0904 3b3e 5f06 3f3e 8cd3 7bbe
000003f0: 343a 18bf 6277 69bf 6659 8dbe 67cf 17bd

encoder.1.0.bias f4 [45]
1.9070377 0.8084546 0.046838444 -0.0327455 -0.05636047 1.3123729 -1.185119 0.063447475
1.3229079 -1.9134834 -0.076117285 0.075095005 1.7114679 0.007860967 0.022349631 0.006017617
-0.72145027 0.009305443 0.034402974 0.020225702 -1.7732671 0.030902416 -0.6165903 -0.721257
-0.06339774 0.009215415 -0.0055135014 0.04736232 -0.09596818 -0.027069487 -2.4166696 -0.028185064
-0.0022507417 0.051805247 1.6038326 0.10237819 -0.023998989 0.5030299 0.33981305 -0.0037129698
0.73710716 -0.23853803 0.00062881206 0.019289598 0.011063368
00000000: d019 f43f e1f6 4e3f abd9 3f3d 2520 06bd
00000010: 3cda 66bd d6fb a73f fbb1 97bf c0f0 813d
00000020: 0c55 a93f 06ed f4bf 61e3 9bbd 69cb 993d
00000030: 6111 db3f 49cb 003c 9316 b73c 6e2f c53b
00000040: f7b0 38bf db75 183c 22ea 0c3d 5fb0 a53c
00000050: 6bfa e2bf 1027 fd3c ddd8 1dbf 4ca4 38bf
00000060: add6 81bd 41fc 163c 9aaa b4bb fefe 413d
00000070: f78a c4bd d4c0 ddbc b7aa 1ac0 5de4 e6bc
00000080: 2e81 13bb bd31 543d 634a cd3f a8ab d13d
00000090: 8799 c4bc 91c6 003f fafb ad3e 4c55 73bb
000000a0: 0eb3 3c3f 5043 74be ddd6 243a 3805 9e3c
000000b0: 2143 353c

encoder.1.1.weight f4 [45]
0.49586827 0.7882121 0.0044945586 -0.0008242049 -0.026654456 -0.5039002 -0.58928 -0.00066783885
0.6634614 -0.45542985 0.0031461457 1.0558193e-05 1.078991 -0.022321347 -0.002849666 -0.0004814964
0.7169414 -0.002334788 0.0009585912 0.0005596567 -0.7030767 -0.0007526454 -0.53558314 -0.26384223
-0.03641585 0.022248212 0.0033978354 0.005406145 -0.0019509334 -0.0008699131 -0.86856097 0.0004093765
-0.0011492883 0.0012805156 0.8977101 0.000291907 0.0060561886 -0.15407322 0.5606936 -0.005024717
0.8530398 0.30065325 -0.0002764871 0.0052460525 -0.004412983
00000000: 72e2 fd3e 45c8 493f 1747 933b 740f 58ba
00000010: 725a dabc 9aff 00bf 0edb 16bf e811 2fba
00000020: 9bd8 293f 1a2e e9be 912f 4e3b 1823 3137
00000030: 611c 8a3f 42db b6bc 76c1 3abb 5a71 fcb9
00000040: 7989 373f 3e03 19bb f749 7b3a edb5 123a
00000050: d6fc 33bf 2e4d 45ba fa1b 09bf 5416 87be
00000060: c928 15bd e241 b63c 38ae 5e3b 0826 b13b
00000070: 76b6 ffba e10a 64ba 035a 5ebf 95a1 d639
00000080: b7a3 96ba f9d6 a73a 54d0 653f 180b 9939
00000090: fe72 c63b 5fc5 1dbe 9e89 0f3f 62a6 a4bb
000000a0: d160 5a3f 39ef 993e 78f5 90b9 14e7 ab3b
000000b0: c99a 90bb

encoder.1.1.bias f4 [45]
-0.21784395 -0.46125257 -0.0674679 -0.025093602 -0.123238996 0.4258909 -0.31944895 -0.023430662
-0.24870197 -0.21969478 -0.07897662 -0.032666795 -0.65568185 -0.09411808 -0.01843112 -0.01156908
-0.22497043 -0.08789644 -0.0139781395 -0.0242372 -0.3441696 -0.041957166 -0.27381083 0.011649333
-0.11534596 -0.10861733 -0.04552837 -0.017516991 -0.015786324 -0.0250247 -0.44614837 -0.03732402
-0.10950959 -0.025049563 -0.48565593 -0.045188572 -0.1218398 0.12132887 -0.2248225 -0.037968125
-0.480635 0.16177101 -0.012873997 -0.07646312 -0.117563635
00000000: 7c12 5fbe 4c29 ecbe 9c2c 8abd 1991 cdbc
00000010: ba64 fcbd 5f0e da3e d08e a3be a9f1 bfbc
00000020: bbab 7ebe abf7 60be 7fbe a1bd 9ecd 05bd
00000030: c4da 27bf fbc0 c0bd dcfc 96bc 3d8c 3dbc
00000040: a65e 66be 0c03 b4bd 9104 65bc 188d c6bc
00000050: ff36 b0be 47db 2bbd ef30 8cbe d8dc 3e3c
00000060: 813a ecbd c372 debd f57b 3abd cb7f 8fbc
00000070: 5252 81bc 9a00 cdbc 8f6d e4be 12e1 18bd
00000080: 9046 e0bd be34 cdbc e5a7 f8be a717 39bd
00000090: 2587 f9bd 457b f83d df37 66be 7784 1bbd
000000a0: ca15 f6be 4da7 253e 75ed 52bc b298 9cbd
000000b0: 34c5 f0bd

encoder.1.1.running_mean f4 [45]
10.08939 -7.2679577 0.00033845898 0.070658475 0.43286303 9.202694 3.5380545 -0.49017784
-3.1226306 1.5236439 0.21135409 0.14505023 -8.345235 1.0174739 0.543496 -0.18858613
-11.091794 -0.20971818 -0.042723272 0.046558365 0.9342776 0.7878386 1.8942945 2.513863
0.65032905 -0.48999196 -0.16017538 -0.86122715 0.42858618 0.24201944 2.0019033 0.019329349
1.1568226 -0.1493337 -8.336847 -0.03835209 0.2910049 -4.022768 -5.15516 0.35614815
-2.3921893 -6.4911356 0.22055075 -1.269121 -0.032525323
00000000: 246e 2141 1c93 e8c0 3273 b139 64b5 903d
00000010: 39a0 dd3e 3c3e 1341 7c6f 6240 97f8 fabe
00000020: 2ed9 47c0 c306 c33f 356d 583e 0c88 143e
00000030: 1586 05c1 963c 823f 8e22 0b3f b91c 41be
00000040: fd77 31c1 5dc0 56be 99fe 2ebd fcb3 3e3d
00000050: d12c 6f3f caaf 493f 3e78 f23f 22e3 2040
00000060: f77b 263f 3ae0 fabe 0405 24be 6279 5cbf
00000070: a66f db3e f2d3 773e 2f1f 0040 9558 9e3c
00000080: c312 943f efea 18be ba63 05c1 1517 1dbd
00000090: 98fe 943e 84ba 80c0 12f7 a4c0 0d59 b63e
000000a0: a119 19c0 62b7 cfc0 0ed8 613e 8f72 a2bf
000000b0: 4639 05bd

encoder.1.1.running_var f4 [45]
97.23514 32.696754 0.33993813 0.1775449 0.45780155 96.8022 36.648735 0.47213748
47.23042 16.319988 0.08248363 0.2127356 58.162155 1.6912506 0.67270297 0.24906766
58.1473 0.15701704 0.117698096 0.14364235 28.557873 0.8080854 23.643572 16.033833
1.0877448 0.5745026 0.18534945 0.97912717 0.57258487 0.19869167 62.105263 0.116180904
1.5174314 0.27844745 85.217186 1.5929389 0.14291288 15.518357 46.860226 0.47793263
34.882397 30.620237 0.3996096 2.2562041 0.37656707
00000000: 6478 c242 7ac9 0242 5f0c ae3e 55ce 353e
00000010: f764 ea3e ba9a c142 4e98 1242 01bc f13e
00000020: f3eb 3c42 568f 8241 2ded a83d 5cd7 593e
00000030: 0ca6 6842 e67a d83f 4336 2c3f 980b 7f3e
00000040: d696 6842 13c9 203e b30b f13d fb16 133e
00000050: 8676 e441 afde 4e3f 0926 bd41 4a45 8041
00000060: 393b 8b3f 9a12 133f 3fcc 3d3e 14a8 7a3f
00000070: ec94 123f d475 4b3e ca6b 7842 41f0 ed3d
00000080: 313b c23f aa90 8e3e 336f aa42 6ce5 cb3f
00000090: c157 123e 314b 7841 df70 3b42 96b3 f43e
000000a0: 9387 0b42 3ff6 f441 a199 cc3e a665 1040
000000b0: 66cd c03e

encoder.2.0.weight f4 [79, 45, 5]
0.024007631 1.4232024 0.48232707 1.073886 0.078965865 -0.0049417843 -0.69323164 -0.51822287
-0.7200524 -0.031697102 0.026582379 0.001443155 0.060171455 0.007744032 -0.049993705 -0.014733935
0.13615164 -0.008757279 0.017212877 0.03538913 0.016505575 0.031533495 0.016598564 -0.055654645
-0.006536498 0.0025838115 0.32244635 0.14359377 -0.117542975 0.071875595 -0.042933162 -0.77177966
-0.66587037 -0.3884338 0.005107885 -0.0906555 0.0029038733 0.022661295 -0.006650091 0.04173541
0.05076 -0.19494562 -0.56113213 0.44765806 -0.01747042 -0.015299718 0.0085490085 -0.2895611
-0.5839649 0.014697418 -0.0033232372 0.05710164 0.05059735 -0.0021374351 -0.07869197 0.06546114
0.003939436 0.066558756 0.010587562 0.060835518 -0.047369413 0.2718191 0.1603883 -0.53166485
0.02122992 -0.0115050515 0.017032806 0.0035670158 0.008965263 0.019285697 0.019460397 -0.02565374
0.021030208 -0.04571872 0.0031254664 -0.02161689 0.029715858 0.054181945 0.05659691 -0.034982033
0.07024326 -0.06308444 0.47145528 0.9280813 0.016911412 0.074739434 -0.0302347 0.009051802
0.013067779 -0.063835956 -0.016481822 0.015116213 -0.015977388 0.0195743 -0.014808694 -0.08306461
0.04671241 0.015257127 0.0096690785 0.030377036 0.052586343 0.42396635 0.3254294 -0.076722816
-0.026842881 0.022973131 0.09539166 0.11985184 0.047132105 0.088274576 -0.05692873 -0.47432148
-0.5667112 -0.5289955 -0.04255689 -0.048763923 0.06730986 0.21937865 -0.0026756797 -0.04232816
-0.008079065 -0.0775264 -0.004244867 0.09902776 0.022578442 -0.0132659525 0.109759904 0.009649402
0.006747601 0.04077224 0.042732395 -0.008095881 0.06412799 0.056382097 -0.062688574 0.0029159274
-0.030617332 0.021162698 0.08204087 -0.118168645 0.067747876 0.085430056 -0.033551544 0.061143495
-0.021858834 -0.038203366 -0.0054011676 0.06353063 0.034436617 -0.000815635 -0.004502723 0.68006617
-1.1063557 0.44547492 -0.05071741 0.032042854 -0.060954828 -0.16587247 0.014151033 0.020807339
-0.0018276641 -0.060401443 -0.00069358014 0.06896774 -0.07513864 0.0062462226 0.026609588 -0.05586551
0.06400088 -0.034765106 -0.0035686274 0.25089023 -0.12187806 -0.44623625 -0.019669926 0.023731846
0.04784876 0.09151589 0.1252779 0.027444724 0.156251 0.032059968 0.0473254 -0.013974885
-0.058920648 -0.038762446 -0.5696821 0.09553012 -0.20505513 -0.0024548126 0.017541561 0.86274034
0.9322489 0.12848341 0.008090656 0.003741191 -0.04224917 0.023902332 -0.019624518 -0.02895361
-0.07397651 0.2963051 0.15134893 0.22598891 0.07529492 0.023627859 -0.28458923 -0.61737216
-0.5120482 -0.047924805 0.017174808 -0.02386605 0.0042022313 0.06416921 0.022584412 -0.05794316
-0.012344798 0.00861857 0.09341527 0.004534369 -0.051510375 -0.037152916 0.033895653 -0.047173906
-0.029250732 0.04307783 -0.8650559 -0.47227287 -0.47786972 -0.0047660815 -0.014376421 0.25086477
0.5550505 0.12378394 0.03360509 0.012936698 0.052701782 0.083820604 0.017271165 -0.051190473
0.03227531 -0.021262813 0.011187151 -0.046951022 0.0056470144 0.118119314 0.049322866 0.041640673
0.03751089 0.002739695 0.030965254 1.1850108 0.4837245 -0.70165706 -0.03910427 -0.067139424
00000000: a7ab c43c 7f2b b63f 93f3 f63e 1975 893f
00000010: dbb8 a13d b1ee a1bb a177 31bf 41aa 04bf
00000020: 5b55 38bf d2d4 01bd 4ac3 d93c 3f28 bd3a
00000030: 5876 763d a6c1 fd3b 33c6 4cbd 9a66 71bc
00000040: 566b 0b3e b17a 0fbc 0502 8d3c 31f4 103d
00000050: b336 873c 4429 013d b6f9 873c 20f6 63bd
00000060: 1f30 d6bb 2a55 293b b017 a53e 3f0a 133e
00000070: 5fba f0bd 8333 933d afda 2fbd 5a93 45bf
00000080: 7b76 2abf cce0 c6be 0c60 a73b 97a9 b9bd
00000090: e94e 3e3b 2ea4 b93c 02e9 d9bb c0f2 2a3d
000000a0: b8e9 4f3d d39f 47be 5ba6 0fbf 7033 e53e
000000b0: 201e 8fbc abab 7abc 2411 0c3c 5a41 94be
000000c0: b97e 15bf 70cd 703c abca 59bb 69e3 693d
000000d0: 2b3f 4f3d 3614 0cbb 4129 a1bd 7d10 863d
000000e0: 6216 813b f54f 883d 7477 2d3c aa2e 793d
000000f0: 6e06 42bd e02b 8b3e d53c 243e 301b 08bf
00000100: 5fea ad3c af7f 3cbc 6288 8b3c 98c4 693b
00000110: 0ae3 123c 0afd 9d3c 696b 9f3c cb27 d2bc
00000120: 8b47 ac3c 8d43 3bbd a0d4 4c3b e715 b1bc
00000130: ac6e f33c e3ed 5d3d 29d2 673d 5249 0fbd
00000140: b3db 8f3d 6a32 81bd 9662 f13e bc96 6d3f
00000150: cd89 8a3c fd10 993d c3ae f7bc 024e 143c
00000160: 3d1a 563c 6dbc 82bd e304 87bc fea9 773c
00000170: 03e3 82bc 485a a03c 2aa0 72bc c71d aabd
00000180: 8355 3f3d 07f9 793c 0e6b 1e3c 43d9 f83c
00000190: c764 573d 1e12 d93e af9e a63e da20 9dbd
000001a0: 9ae5 dbbc 2632 bc3c b45c c33d e274 f53d
000001b0: 980d 413d 4dc9 b43d 1a2e 69bd 44da f2be
000001c0: fc13 11bf 406c 07bf 2250 2ebd aebc 47bd
000001d0: c0d9 893d cca4 603e 755a 2fbb 4b60 2dbd
000001e0: 0e5e 04bc 29c6 9ebd 8618 8bbb 11cf ca3d
000001f0: 6df6 b83c 7059 59bc cdc9 e03d 8718 1e3c
00000200: fb1a dd3b cb00 273d 2a08 2f3d 96a4 04bc
00000210: 8955 833d eaf0 663d de62 80bd 2519 3f3b
00000220: 33d1 fabc 655d ad3c 0b05 a83d 6702 f2bd
00000230: 66bf 8a3d f4f5 ae3d 586d 09bd 9a71 7a3d
00000240: 4c11 b3bc 227b 1cbd 47fc b0bb 591c 823d
00000250: 690d 0d3d 57d0 55ba 948b 93bb d118 2e3f
00000260: 109d 8dbf 4a15 e43e 0fbd 4fbd 5e3f 033d
00000270: c5ab 79bd 79da 29be bcd9 673c 2774 aa3c
00000280: 3b8e efba 8167 77bd 60d1 35ba f53e 8d3d
00000290: 4ae2 99bd 1dad cc3b 5afc d93c 3cd3 64bd
000002a0: e512 833d db65 0ebd a2df 69bb af74 803e
000002b0: 349b f9bd 1479 e4be d322 a1bc 4a69 c23c
000002c0: 10fd 433d af6c bb3d da48 003e c2d3 e03c
000002d0: 4300 203e 5051 033d 47d8 413d ebf6 64bc
000002e0: c756 71bd 5fc5 1ebd b0d6 11bf 4ca5 c33d
000002f0: f9f9 51be ece0 20bb 52b3 8f3c 8ddc 5c3f
00000300: dda7 6e3f 2891 033e ac8e 043c c52e 753b
00000310: 770d 2dbd d3ce c33c 99c3 a0bc 1f30 edbc
00000320: ff80 97bd 4db5 973e 37fb 1a3e a369 673e
00000330: 3934 9a3d 368f c13c aeb5 91be 1a0c 1ebf
00000340: 9715 03bf cd4c 44bd 2fb2 8c3c bc82 c3bc
00000350: dfb2 893b 266b 833d f202 b93c cf55 6dbd
00000360: d641 4abc e734 0d3c 8150 bf3d 0b95 943b
00000370: 8bfc 52bd a82d 18bd 2bd6 0a3d 6d39 41bd
00000380: 3b9f efbc 6172 303d 4e74 5dbf c0cd f1be
00000390: 57ab f4be ca2c 9cbb 158b 6bbc 5971 803e
000003a0: ca17 0e3f 6f82 fd3d 7ea5 093d 72f4 533c
000003b0: d3dd 573d 23aa ab3d 427c 8d3c 1aad 51bd
000003c0: 1e33 043d 5a2f aebc 504a 373c b74f 40bd
000003d0: 970a b93b 8ae8 f13d c606 4a3d 698f 2a3d
000003e0: 05a5 193d 748c 333b d8aa fd3c 6fae 973f
000003f0: bdaa f73e cc9f 33bf cd2b 20bd 6580 89bd

encoder.2.0.bias f4 [79]
-0.33276278 0.05672217 0.03636403 -0.41384816 -0.11827927 0.7856212 -0.05406062 0.35788566
-0.0024869554 0.148542 0.25342244 0.021404507 0.55541885 0.3320869 0.90191036 -0.59349376
0.6931187 -0.38102302 0.018215714 -0.026352981 -0.007611673 1.4264612 0.07116533 -0.11659853
-0.37168288 -0.6955157 -0.015126382 -0.008412216 0.03962135 -0.0174916 -0.0030129529 0.08523624
-0.06642439 0.40911922 1.059329 -0.3994365 -0.32685438 -0.10031337 -0.30748048 0.31171742
-0.18378358 -0.22026548 0.608168 -0.32889768 0.8692179 0.20929436 0.75082093 -0.35282564
-0.15266709 -0.2667608 -0.06364194 -1.0241582 -0.2107003 -0.120571785 0.056712758 0.47602394
-0.055456184 0.051662788 0.20128332 -1.0752033 -0.26979354 -0.36225995 0.5186149 0.17483278
0.23532571 0.31908444 -0.122670434 -0.37031612 0.4420142 0.005073459 0.2181405 0.46676573
0.044110805 0.56678677 -0.21439724 0.008258398 0.10700796 0.39842564 -0.53766
00000000: e25f aabe 8255 683d 73f2 143d e8e3 d3be
00000010: 673c f2bd 791e 493f ab6e 5dbd ca3c b73e
00000020: 30fc 22bb 651b 183e 96c0 813e 8158 af3c
00000030: ee2f 0e3f 4b07 aa3e 99e3 663f 35ef 17bf
00000040: 3a70 313f 7315 c3be 1f39 953c 35e2 d7bc
00000050: 576b f9bb 4896 b63f 21bf 913d 36cb eebd
00000060: 384d bebe 510d 32bf a5d4 77bc 64d3 09bc
00000070: ff49 223d 8b4a 8fbc f674 45bb 5690 ae3d
00000080: 8309 88bd 1378 d13e 1898 873f f182 ccbe
00000090: 7559 a7be 1971 cdbd 156e 9dbe 6d99 9f3e
000000a0: c331 3cbe 468d 61be e6b0 1b3f 4765 a8be
000000b0: 1085 5e3f 4351 563e cd35 403f 90a5 b4be
000000c0: c354 1cbe df94 88be b556 82bd 9e17 83bf
000000d0: d2c1 57be 57ee f6bd a34b 683d 69b9 f33e
000000e0: 0626 63bd 5c9c 533d 371d 4e3e 43a0 89bf
000000f0: 6122 8abe 237a b9be f2c3 043f 5d07 333e
00000100: 39f9 703e 095f a33e a33a fbbd 139a bdbe
00000110: af4f e23e 423f a63b 3960 5f3e ebfb ee3e
00000120: 88ad 343d f018 113f f38a 5bbe 3b4e 073c
00000130: fd26 db3d 72fe cb3e 16a4 09bf

encoder.2.1.weight f4 [79]
-0.58761376 0.43714127 0.5799237 0.60773736 0.85297704 -0.40787956 0.35961866 -0.45610663
-0.007988372 -0.7354349 0.3992111 0.0011363301 0.30776224 -0.3383938 -0.42424557 -0.23499872
-0.63375986 0.27693996 0.0017291809 0.003297339 0.0017562357 0.4720485 0.002229285 -0.7019927
0.40523866 0.25146773 -0.00030207736 0.004513668 -0.007569752 -0.00044001685 0.0024857824 0.2544943
-0.52353054 -0.3435646 -0.76028806 -0.44464567 0.41423362 -0.26216686 -0.29109666 -0.3330031
-0.5142166 0.38102844 0.53991956 0.3671905 -0.56799006 0.39991453 0.3590941 0.44599435
-0.3227022 -0.3061879 -0.50405383 -0.42151228 0.54934573 -0.17772938 -0.002223165 0.48218
-0.0026794034 0.6158942 0.54662234 -0.23632708 0.46234208 0.5851599 -0.783768 -0.5015778
0.6453738 -0.47002462 0.51404035 -0.38037893 -0.32232928 0.47759956 -0.34271443 -0.386482
-0.5636191 0.57671434 0.78903294 -0.00065462966 0.38226274 -0.6952308 0.51941586
00000000: db6d 16bf fbd0 df3e e175 143f ad94 1b3f
00000010: b45c 5a3f 97d5 d0be f01f b83e cf86 e9be
00000020: a9e1 02bc 7645 3cbf 6665 cc3e e9f0 943a
00000030: 0393 9d3e f441 adbe b736 d9be 81a3 70be
00000040: 163e 22bf 13cb 8d3e afa5 e23a 2b18 583b
00000050: 7e31 e63a 57b0 f13e 3219 123b cbb5 33bf
00000060: 717b cf3e 61c0 803e 2360 9eb9 64e7 933b
00000070: af0b f8bb 10b2 e6b9 82e8 223b 144d 823e
00000080: 1906 06bf b3e7 afbe 3da2 42bf 99a8 e3be
00000090: 6e16 d43e bc3a 86be 9f0a 95be 627f aabe
000000a0: b3a3 03bf 2916 c33e 2b38 0a3f 6500 bc3e
000000b0: cc67 11bf 99c1 cc3e 2fdb b73e 5f59 e43e
000000c0: 3939 a5be a9c4 9cbe ac09 01bf 75d0 d7be
000000d0: eca1 0c3f b1fe 35be 85b2 11bb 4ce0 f63e
000000e0: ee98 2fbb 3eab 1d3f 71ef 0b3f baff 71be
000000f0: 1ab8 ec3e 0acd 153f 05a5 48bf 6767 00bf
00000100: 3837 253f 11a7 f0be 2698 033f 07c1 c2be
00000110: 5808 a5be ee87 f43e 4478 afbe f8e0 c5be
00000120: 5749 10bf 8da3 133f 10fe 493f 749b 2bba
00000130: f1b7 c33e a5fa 31bf 70f8 043f

encoder.2.1.bias f4 [79]
-0.20170392 0.044749606 -0.6171343 -0.3051233 -0.26143506 -0.013778827 0.14975652 -0.2814097
-0.029492514 -0.5729376 -0.53196186 -0.044360045 0.046611864 0.03754669 -0.2836457 0.52863246
-0.16966718 0.0777577 -0.057919126 -0.05926633 -0.022698032 -0.32458445 -0.016256971 -0.1687055
-0.11172815 -0.009454617 -0.019990658 -0.016252255 -0.056793462 -0.017053789 -0.01969568 0.15542239
-0.10522048 0.06126437 -0.22459805 0.021094965 -0.32231978 0.19482994 0.27733323 -0.15457684
-0.21479855 -0.036378898 -0.33606753 0.027990686 0.017390897 0.18814023 0.018970909 0.0003786447
0.18952712 0.10880264 -0.23997039 0.14420284 -0.19737974 -0.044532966 -0.08009542 -0.09998187
-0.09032622 -0.3635233 -0.32719275 0.14322194 -0.2598625 -0.36803254 -0.631555 -0.43569002
-0.37061617 -0.5987443 -0.7175549 0.10103427 0.3251893 -0.08278936 -0.23210935 -0.4479649
-0.19043803 -0.09140464 -0.65461457 -0.09312814 0.3449499 -0.16707696 -0.36959675
00000000: 798b 4ebe 5d4b 373d 83fc 1dbf 1f39 9cbe
00000010: d1da 85be 97c0 61bc c659 193e ef14 90be
00000020: 499a f1bc 0aac 12bf a72e 08bf e1b2 35bd
00000030: 15ec 3e3d 8fca 193d 023a 91be 7554 073f
00000040: 3cbd 2dbe 6e3f 9f3d 9b3c 6dbd 40c1 72bd
00000050: 39f1 b9bc ef2f a6be 572d 85bc 22c1 2cbe
00000060: bad1 e4bd 8ae7 1abc 73c3 a3bc 7323 85bc
00000070: 43a0 68bd 63b4 8bbc d658 a1bc 0c27 1f3e
00000080: d67d d7bd 59f0 7a3d 08fd 65be 59cf ac3c
00000090: 1907 a5be 8081 473e 9ffe 8d3e 6449 1ebe
000000a0: 27f4 5bbe 0a02 15bd 0b11 acbe b94c e53c
000000b0: 5b77 8e3c d5a7 403e e168 9b3c d584 c639
000000c0: 6613 423e ebd3 de3d ccba 75be e9a9 133e
000000d0: ea1d 4abe 3368 36bd 1109 a4bd 4bc3 ccbd
000000e0: f4fc b8bd ba1f babe cf85 a7be c6a8 123e
000000f0: b30c 85be c36e bcbe 97ad 21bf c312 dfbe
00000100: 67c1 bdbe 4e47 19bf aeb1 37bf 0eeb ce3d
00000110: 367f a63e 788d a9bd 13ae 6dbe a85b e5be
00000120: 3002 43be 5b32 bbbd d294 27bf f7b9 bebd
00000130: 469d b03e 3916 2bbe c93b bdbe

encoder.2.1.running_mean f4 [79]
-0.14670645 0.9781138 -0.13066748 -0.50661165 -0.56518173 0.5648313 -0.70759875 -0.7270434
-0.11768201 0.22405745 0.23649095 0.02832848 1.3274801 0.63896453 1.3142556 -0.40873152
0.43584788 -0.8287981 0.0050254613 -0.031778317 0.047948334 2.203501 0.094261035 -0.37923667
-0.13837373 -1.3818138 0.026664946 0.029556347 0.04383925 0.034209583 0.00067149487 -0.7579769
-0.09533672 0.26502746 0.84218645 -0.22673665 -0.6100662 0.57492626 -0.5440649 0.7035836
0.2170666 -0.9807765 -0.007648043 -0.4427459 0.78102654 1.1516408 0.34360635 0.26375008
0.4612678 0.043981355 0.4324384 -1.1918218 -0.32861254 -0.35364413 -0.0630159 0.29574028
0.038314585 -0.19081366 0.12361793 -0.60744125 -0.45555678 0.23835666 0.7046597 0.37558547
0.5693781 -0.55992925 1.2712327 0.27577534 1.6666495 0.33504957 0.35439283 0.74726963
-0.74083495 0.84325296 -0.6110327 0.144468 -0.070654124 0.86986893 0.20410651
00000000: 373a 16be aa65 7a3f b2cd 05be 4db1 01bf
00000010: c0af 10bf c998 103f 3125 35bf 841f 3abf
00000020: 4403 f1bd 516f 653e af2a 723e 2111 e83c
00000030: deea a93f 2e93 233f 8739 a83f 4245 d1be
00000040: 7427 df3e 1d2c 54bf a0ac a43b fb29 02bd
00000050: 7965 443d 2906 0d40 ee0b c13d 4f2b c2be
00000060: d8b1 0dbe 46df b0bf 7270 da3c 2720 f23c
00000070: c990 333d 591f 0c3d 4207 303a c60a 42bf
00000080: e63f c3bd aeb1 873e 8899 573f a72d 68be
00000090: 4c2d 1cbf 5e2e 133f d647 0bbf 0e1e 343f
000000a0: b546 5e3e 2b14 7bbf 6f9c fabb 97af e2be
000000b0: 5bf1 473f f768 933f 2ced af3e 400a 873e
000000c0: 4b2b ec3e cb25 343d 9168 dd3e 9e8d 98bf
000000d0: e73f a8be d810 b5be 7b0e 81bd 456b 973e
000000e0: c1ef 1c3d a864 43be 662b fd3d 4581 1bbf
000000f0: bd3e e9be c513 743e 9464 343f bd4c c03e
00000100: c3c2 113f 8657 0fbf c1b7 a23f 6d32 8d3e
00000110: c554 d53f 9e8b ab3e fa72 b53e 104d 3f3f
00000120: 5ca7 3dbf 6ddf 573f a46c 1cbf 6bef 133e
00000130: 1cb3 90bd bbaf 5e3f 4c01 513e

encoder.2.1.running_var f4 [79]
0.7970089 0.8540147 0.28932208 1.0258107 1.4120947 0.3833826 0.46823588 0.43249422
0.012380152 0.63050956 0.4351613 0.0020780119 0.48174676 0.23733434 0.26898983 0.10213985
1.2801689 0.38827762 0.0019395459 0.00058758847 0.0007190402 0.23036793 0.002738378 1.2403026
0.43615693 0.2773554 0.004560597 0.012260716 0.0017845412 0.0020851255 0.0017378172 0.3688748
0.5337691 0.35867634 0.99861425 0.516747 0.1697611 0.2970004 0.271446 0.16057768
0.42604274 0.42089432 0.34962773 0.27110064 0.60837257 0.40918878 0.42890152 0.4945836
0.344247 0.44378296 0.6329421 0.502821 0.5380799 0.0197048 0.011739105 0.4891685
0.0038436844 0.35850793 0.4980335 0.13237604 0.39107132 0.86612916 0.7585341 0.4135726
0.8300127 0.42521903 0.5048263 0.1898737 0.5114672 0.54867357 0.2038375 0.13346925
0.71037114 1.2426364 0.94759446 0.012936447 0.24779165 1.0273037 0.7558074
00000000: c608 4c3f b5a0 5a3f 0622 943e c44d 833f
00000010: 85bf b43f b94a c43e 9dbc ef3e e26f dd3e
00000020: 1fd6 4a3c 1369 213f 76cd de3e 412f 083b
00000030: 83a7 f63e c607 733e 09b9 893e b32e d13d
00000040: 93dc a33f 53cc c63e 5c38 fe3a 6508 1a3a
00000050: f97d 3c3a 92e5 6b3e 5c76 333b 3cc2 9e3f
00000060: f64f df3e 8701 8e3e 0f71 953b 2ce1 483c
00000070: 44e7 e93a 9aa6 083b 78c7 e33a 28dd bc3e
00000080: 17a5 083f 6da4 b73e 2fa5 7f3f 8849 043f
00000090: dbd5 2d3e 7010 983e f8fa 8a3e 7a6e 243e
000000a0: 4622 da3e 767f d73e 6802 b33e b4cd 8a3e
000000b0: 4ebe 1b3f 3181 d13e fb98 db3e 103a fd3e
000000c0: 2541 b03e 8537 e33e 7e08 223f e1b8 003f
000000d0: 9bbf 093f f66b a13c 6055 403c 4b74 fa3e
000000e0: 53e6 7b3b 5a8e b73e 3ffe fe3e 968d 073e
000000f0: 803a c83e a4ba 5d3f 4a2f 423f cabf d33e
00000100: b67b 543f 4fb6 d93e 4c3c 013f 406e 423e
00000110: 84ef 023f df75 0c3f c7ba 503e 2aac 083e
00000120: e2da 353f b60e 9f3f 8d95 723f 64f3 533c
00000130: 18bd 7d3e b07e 833f 987c 413f
