models/best-vae_circ-ThreeGPP-noisy-3gpp-4rx-3p.pt (torch, 98767 bytes, 44 tensors)

embed_data.weight f4 [17, 2, 1]
-1.1881053 -0.6596964 1.1428885 -0.47995153 -0.522466 -0.25105032 -0.9042461 -0.4341793
0.01641599 0.0040925844 -0.17083009 1.4639734 -1.251638 0.6472717 0.011152648 -0.0031000362
0.5271269 1.3193166 0.1897811 0.12853228 0.008354947 -0.00042615517 -0.009461265 0.0034001577
0.0212188 -0.0002782557 0.90068287 -0.4558846 -0.18415579 1.4925476 -0.020537037 -0.009318712
0.3673976 0.25259793
00000000: d613 98bf dde1 28bf 2c4a 923f 35bc f5be
00000010: 55c0 05bf ab89 80be ac7c 67bf c04c debe
00000020: d47a 863c 161b 863b 15ee 2ebe 7b63 bb3f
00000030: ad35 a0bf 99b3 253f 99b9 363c fa29 4bbb
00000040: caf1 063f 5edf a83f fa55 423e f79d 033e
00000050: 30e3 083c 946d dfb9 6c03 1bbc 2ed5 5e3b
00000060: 0dd3 ad3c d9e2 91b9 2793 663f b569 e9be
00000070: 5693 3cbe cd0b bf3f 4a3d a8bc 83ad 18bc
00000080: 8a1b bc3e 8454 813e

embed_data.bias f4 [17]
-0.0490884 -0.043142017 -0.16609803 0.021317463 0.013302366 0.41876662 0.032895867 -6.793591e-05
-0.29058862 -0.6852134 0.0011631156 0.0040325075 -0.0033844179 0.33816573 0.1386641 -0.009938145
0.09451615
00000000: eb10 49bd afb5 30bd 9a15 2abe f6a1 ae3c
00000010: 2bf2 593c 9468 d63e d1bd 063d d078 8eb8
00000020: 08c8 94be 256a 2fbf af73 983a 2023 843b
00000030: 1ccd 5dbb 0f24 ad3e f6fd 0d3e 9ad3 22bc
00000040: af91 c13d

fc_mu_var.weight f4 [32, 52]
-0.0009993587 -0.015864909 -0.0014064714 -0.0017664594 -0.013875651 0.0016252878 -0.0019919563 0.0021670372
5.5267312e-05 -0.034389522 0.0054783355 -0.0010744607 0.0011382356 0.007593019 -0.0005868488 -0.0036140073
0.042261966 0.001344857 -0.00053250656 -0.08618687 0.0007346953 -0.06317163 -0.016906835 -0.0029814243
0.13168249 0.09744665 0.002027927 -0.0039508585 -0.0019540982 -8.735393e-05 -5.6941364e-08 -0.06097628
0.041701056 -0.014638983 0.04060067 0.0007336832 -0.0011449984 -0.0007620166 -0.015831515 0.0026891187
-0.0012127908 -0.03057112 0.0038441534 0.0074296477 0.0023594634 0.002744037 0.033176117 0.0014250556
0.055953898 -0.03139376 0.00029349915 -0.0016663077 0.00086128555 0.00025069056 0.0016590286 -0.0011580606
-0.012490829 0.003914113 -0.00482687 0.0019013401 -0.0010294515 -0.079237886 0.06459828 -0.0034361696
-0.007930596 -0.0503221 0.0011736177 -0.006744675 0.06412427 0.0036161249 0.001137464 0.09300293
0.0008481479 -0.056070868 0.008602772 -0.005504226 0.0477959 0.046173003 0.012311388 -0.0040497542
0.00074939267 -0.0012902413 0.00050245033 -0.048244633 -0.03946471 -0.0021985052 0.0056507285 0.0046483767
-0.002013553 -9.6943375e-05 0.016472608 0.0035784594 0.001968285 0.022371449 0.0027220626 -0.007956434
-0.0004018039 -0.0194773 0.023082769 0.0040108548 -0.07893271 -0.0108254375 0.0012855607 -0.0035457565
-0.073163964 -0.029039271 -0.33194926 0.2588495 -0.0049511357 -0.09402608 -0.30070612 0.028299537
0.10425065 0.019914327 -0.01674885 -0.6035288 0.50331146 0.014637715 -0.18481892 -0.7666197
0.014043449 0.88265425 -0.065515764 -0.0089590335 -0.45412877 0.034385994 -0.024140844 -1.0398341
0.0025500322 0.005973022 -0.006728588 -0.42157876 0.574675 0.04604 0.8674152 0.08971121
0.03326102 -0.0049605547 0.02750643 -0.529489 0.17985272 0.61551756 -0.010137362 0.057049774
1.0672357 -0.025015466 -0.002505331 -0.07877913 -0.048390947 -0.016877674 0.04603783 0.09806761
-0.10678813 -0.003747334 0.28706217 -0.2906495 -0.0028961312 0.0023214726 0.0030738616 0.0034944369
-0.0008214092 0.0037765377 -0.0040979916 0.005320733 -0.0013652389 -0.024860293 -0.019762538 -0.0034934445
-0.0033003595 0.039558657 -0.002391259 -0.002629147 -0.04188957 -0.0038789657 -0.004025336 -0.021172721
0.00074034225 0.02687439 -0.021330597 0.005017447 -0.040547468 0.023221828 0.0045154477 0.003700409
0.0038324196 0.0014442106 0.0021062277 0.01995881 -0.09612155 0.023798367 0.0010930249 0.0077439183
0.0035936998 0.00064390193 0.016842633 -0.0034180132 -0.012102456 0.03084291 0.0053740493 0.0047202487
0.0020855097 0.02242705 -0.019822149 -0.00021023917 -0.04720089 -0.010517204 -0.006275811 -0.0019994045
-0.0017663894 -0.014728919 -0.004290706 -0.0006308817 -0.0036472352 -0.00030442298 0.00016048392 -0.001884359
0.0016098685 -0.038513962 0.0054259505 0.0002685723 0.010161919 -0.00086731877 -0.00074626075 0.0021299599
-0.042601053 0.0035930953 -0.0019505796 0.02972619 -0.0007873325 0.0029167493 -0.010106779 0.001770276
0.039679326 0.020734996 0.014725654 0.0006303197 -0.0008296871 -0.0008331309 -0.0015468227 0.0037517464
0.045602094 -0.0057491628 -0.026808476 -0.0013232247 -0.001359695 0.0028156308 -0.017071836 0.0020191045
0.0070336964 -0.029481964 -0.00036335294 0.053116184 -0.00045079304 -0.041445557 -0.017852837 -0.00048018157
00000000: eafc 82ba 20f7 81bc 5959 b8ba 8b88 e7ba
00000010: b356 63bc 9c07 d53a 7b8b 02bb da04 0e3b
00000020: d3ce 6738 07dc 0cbd 9c83 b33b ebd4 8cba
00000030: d930 953a dcce f83b c2d6 19ba fbd8 6cbb
00000040: e21a 2d3d ea45 b03a e997 0bba be82 b0bd
00000050: 9198 403a 2160 81bd 3480 8abc 0064 43bb
00000060: c6d7 063e 1c92 c73d f8e6 043b 3476 81bb
00000070: 5410 00bb c931 b7b8 b18f 74b3 44c2 79bd
00000080: bace 2a3d 58d8 6fbc e34c 263d a554 403a
00000090: c513 96ba 12c2 47ba 18b1 81bc ed3b 303b
000000a0: 82f6 9eba 4970 fabc 31ee 7b3b 6774 f33b
000000b0: 3aa1 1a3b 4dd5 333b aee3 073d eec8 ba3a
000000c0: ea2f 653d be96 00bd cae0 9939 0268 daba
000000d0: e5c7 613a 1e6f 8339 c373 d93a 11ca 97ba
000000e0: 56a6 4cbc f641 803b b82a 9ebb 6336 f93a
000000f0: a9ee 86ba 7947 a2bd 1a4c 843d 5c31 61bb
00000100: 55ef 01bc 8c1e 4ebd 13d4 993a 6f02 ddbb
00000110: 9653 833d 82fc 6c3b f516 953a 5278 be3d
00000120: 3e56 5e3a 91aa 65bd a4f2 0c3c cb5c b4bb
00000130: a2c5 433d e71f 3d3d b4b5 493c cdb3 84bb
00000140: e472 443a 501d a9ba dfb6 033a 2a9c 45bd
00000150: bfa5 21bd cc14 10bb bf29 b93b 6951 983b
00000160: d0f5 03bb 144e cbb8 90f1 863c 9684 6a3b
00000170: 58fe 003b 5444 b73c a264 323b b45b 02bc
00000180: 35a9 d2b9 dc8e 9fbc 1318 bd3c 7d6d 833b
00000190: 79a7 a1bd 2d5d 31bc 4280 a83a ec5f 68bb
000001a0: fdd6 95bd c4e3 edbc 41f5 a9be ec87 843e
000001b0: 233d a2bb bf90 c0bd 27f6 99be 6ed4 e73c
000001c0: 5d81 d53d 5f23 a33c e234 89bc dd80 1abf
000001d0: 05d9 003f 07d3 6f3c 2c41 3dbe 3041 44bf
000001e0: 7f16 663c a1f5 613f 212d 86bd e9c8 12bc
000001f0: 9183 e8be 54d8 0c3d 05c3 c5bc 4919 85bf
00000200: 711e 273b 57b9 c33b 7d7b dcbb 2cd9 d7be
00000210: e71d 133f 7094 3c3d ec0e 5e3f 83ba b73d
00000220: b53c 083d 268c a2bb 2a55 e13c 978c 07bf
00000230: 502b 383e 8f92 1d3f 2e17 26bc 06ad 693d
00000240: 2e9b 883f 3ced ccbc 7b30 24bb f456 a1bd
00000250: 9635 46bd 0c43 8abc 2a92 3c3d acd7 c83d
00000260: bcb3 dabd d595 75bb d0f9 923e 03d0 94be
00000270: 05cd 3dbb d923 183b d772 493b ec02 653b
00000280: d753 57ba ca7f 773b 7248 86bb 8b59 ae3b
00000290: d1f1 b2ba d0a7 cbbc 0ce5 a1bc 46f2 64bb
000002a0: d84a 58bb 4208 223d abb6 1cbb c44d 2cbb
000002b0: 6694 2bbd 3f36 7ebb f7e6 83bb 6a72 adbc
000002c0: 8713 423a ae27 dc3c 81bd aebc 6569 a43b
000002d0: 1a15 26bd b43b be3c 52f6 933b 9082 723b
000002e0: 5529 7b3b ab4b bd3a a308 0a3b a980 a33c
000002f0: 60db c4bd cbf4 c23c d443 8f3a b2c0 fd3b
00000300: 4784 6b3b 87cb 283a 90f9 893c bf00 60bb
00000310: 6149 46bc 45aa fc3c cb18 b03b 51ac 9a3b
00000320: 0cad 083b efb8 b73c 0f62 a2bc a673 5cb9
00000330: b855 41bd 5a50 2cbc 52a5 cdbb 7108 03bb
00000340: 3186 e7ba 9051 71bc 0d99 8cbb c161 25ba
00000350: 7406 6fbb f69a 9fb9 9347 2839 99fc f6ba
00000360: 3902 d33a d1c0 1dbd 2ccc b13b 2acf 8c39
00000370: 2d7e 263c c75c 63ba b6a0 43ba cc96 0b3b
00000380: 717e 2ebd 237a 6b3b 97aa ffba 5784 f33c
00000390: fd64 4eba ef26 3f3b e796 25bc 9b08 e83a
000003a0: ca86 223d 70dc a93c df43 713c 0a3c 253a
000003b0: 5c7f 59ba 7866 5aba c2be caba dcdf 753b
000003c0: 43c9 3a3d 7963 bcbb 739d dbbc 0e70 adba
000003d0: cb37 b2ba 7286 383b 3cda 8bbc f452 043b
000003e0: ec7a e63b 2984 f1bc 6880 beb9 5b90 593d
000003f0: 6b58 ecb9 d1c2 29bd 1d40 92bc e1c0 fbb9

fc_mu_var.bias f4 [32]
0.0010240899 -0.00038124702 -0.18869728 0.00085197104 -0.0014926759 0.005526841 -0.0013070698 0.10550204
0.0011080805 -0.003542193 0.0010567748 -0.00097480783 0.0006964986 0.0007572828 0.0011616066 -0.0021814194
7.315171e-05 7.685865e-06 -0.13775933 -0.00016495648 0.00028501346 0.0017552351 -0.00024777383 -0.29572415
-0.00033702547 0.00041674566 -0.00031494556 0.00032467465 0.00021017055 -0.000112632966 -4.17644e-05 9.9512596e-05
00000000: c13a 863a 1ce2 c7b9 dc39 41be cf56 5f3a
00000010: e4a5 c3ba 811a b53b fc51 abba 7411 d83d
00000020: 033d 913a 2324 68bb 7a83 8a3a 3f8a 7fba
00000030: 3b95 363a 6384 463a 0d41 983a 25f6 0ebb
00000040: 0669 9938 8af2 0037 c810 0dbe 2bf8 2cb9
00000050: dc6d 9539 eb0f e63a a4e7 81b9 2869 97be
00000060: cbb2 b0b9 a87e da39 471f a5b9 1839 aa39
00000070: 3a61 5c39 5d35 ecb8 2f2c 2fb8 6bb1 d038

encoder.0.0.weight f4 [17, 17, 4]
0.075606324 0.065539196 1.0503802 -1.4063628 -0.07580316 -0.111823454 -0.32835156 -0.27818948
0.0007793976 0.10255768 0.9367276 -1.0941064 0.024522036 0.083613545 0.9564267 -1.2465484
-0.015704943 -0.076262385 0.0025324677 0.013098594 0.05309455 -0.051853742 -0.67656803 1.825488
0.11055471 0.024384394 0.3360971 0.35849968 -0.06932235 -0.0062012207 -0.05938794 -0.008818522
0.0025009878 -0.0029900605 -1.0929176 1.9486411 -0.09847477 0.035569154 -0.8141267 0.9924884
0.002367773 -0.07379168 -0.06855889 0.021798322 0.007505026 -0.016185924 -0.08285804 0.016690541
-0.03879466 -0.062534444 -0.08991073 0.005802961 -0.09163927 -0.061004575 -0.3850306 -0.350392
0.0771165 0.011927113 -0.66528827 1.7937341 0.015546484 0.080068134 -0.009457 -0.011937601
0.04039957 -0.04273684 -0.96337146 1.2732432 -1.3754889 0.3455997 -0.10968103 -0.105894975
0.006728563 0.4499462 0.21865937 0.1541805 -1.1578397 0.23040833 -0.025075033 -0.08572853
-1.2389632 0.23853832 -0.07359551 -0.1694088 -0.10622762 0.004790289 0.0019278354 0.058413405
1.29687 -1.0877466 -0.14222048 -0.23839097 0.16809157 -0.5395877 -0.23134442 -0.18047588
-0.038236845 0.0093646 0.0014195285 0.017235802 2.0846725 -1.0704241 -0.032019008 0.18977211
1.4073452 -0.60695505 0.0041509704 0.62710565 -0.011624099 0.021255728 -0.092265256 0.011744032
0.0012314675 0.019449914 -0.007833858 0.0145828305 -0.05121286 -0.033448383 -0.18999207 -0.14805052
-0.1523383 0.54342663 0.2225559 -0.019957896 1.4499665 -1.1323907 -0.15613174 -0.100300305
0.1014607 -0.015877398 0.041513376 -0.027963685 1.307024 -0.48858634 0.10566716 0.08698605
-0.0054860306 -2.9719195 -0.4198586 0.050191324 -0.042774938 0.54862577 -0.22196402 0.22200862
0.09747986 -2.4211009 -0.342312 -0.09256058 -0.07841567 -2.6568532 -0.3596857 -0.07128389
-0.1713068 -0.009178783 0.08127732 -0.049449895 -0.09001991 0.56667346 0.71806425 -0.14832033
0.12737933 -0.5152887 0.28641957 -0.102482155 0.044738714 -0.009163719 -0.06267929 0.081457175
0.13949376 1.4335849 0.7013006 -0.14453214 0.44956392 1.6528391 0.43176135 -0.012915783
-0.095906675 -0.05226185 -0.028013494 0.02275606 0.0199424 -0.018484537 -0.028267564 0.0011775976
-0.008888997 0.02355656 -0.076018244 0.1537866 -0.26021817 0.64927655 -0.21458684 0.12943298
-0.007795156 0.53871036 0.6718214 -0.16848846 0.16268727 0.020666756 -0.14878076 0.010329872
-0.045912392 2.3176332 0.44731316 -0.015235381 -0.07475233 1.1621152 0.17421594 0.54857653
0.06669751 -2.9049454 -0.22371288 0.10538766 -0.117740706 1.0373058 0.21524166 0.6978677
-0.06408916 1.1452469 0.15515621 0.3766203 0.06049778 -0.06945011 0.06283253 -0.062211152
0.09482011 0.42026365 -0.103812344 -1.0562361 -0.06080399 2.8214943 0.092568815 -0.18930934
-0.08349469 -0.005134715 -0.096102595 -0.07895129 -0.080236696 -0.15897524 -0.08188844 -0.44534233
-0.19463527 -0.5878456 -0.09384978 0.98170114 -0.06964715 -0.08633234 0.12593395 0.030001279
0.098497875 -0.06499461 -0.03413874 -0.007566864 -0.01451471 0.036084812 0.039414696 0.070408165
00000000: 7dd7 9a3d 6a39 863d dc72 863f b203 b4bf
00000010: b03e 9bbd b203 e5bd b21d a8be da6e 8ebe
00000020: 7d50 4c3a c309 d23d 61cd 6f3f ae0b 8cbf
00000030: 70e2 c83c 943d ab3d 61d8 743f e68e 9fbf
00000040: a7a7 80bc 742f 9cbd c2f7 253b 7c9b 563c
00000050: ac79 593d 9764 54bd 9033 2dbf 97a9 e93f
00000060: 826a e23d c8c1 c73c eb14 ac3e 458d b73e
00000070: e0f8 8dbd 9c33 cbbb c540 73bd 907b 10bc
00000080: 9de7 233b e4f4 43bb b9e4 8bbf 126d f93f
00000090: 24ad c9bd f6b0 113d 9b6a 50bf b813 7e3f
000000a0: a42c 1b3b 1820 97bd 9a68 8cbd 6592 b23c
000000b0: b9ec f53b 5898 84bc 7ab1 a9bd 9aba 883c
000000c0: 26e7 1ebd 0f12 80bd 1e23 b8bd c426 be3b
000000d0: 5fad bbbd efdf 79bd bb22 c5be 9566 b3be
000000e0: 41ef 9d3d f069 433c 5550 2abf 1499 e53f
000000f0: aeb6 7e3c c3fa a33d 88f1 1abc ed95 43bc
00000100: 057a 253d d30c 2fbd 839f 76bf a2f9 a23f
00000110: 0510 b0bf 72f2 b03e 73a0 e0bd 77df d8bd
00000120: 477b dc3b 595f e63e 3ee8 5f3e 7ee1 1d3e
00000130: 1734 94bf 29f0 6b3e 286a cdbc 7192 afbd
00000140: 5996 9ebf 6443 743e 3eb9 96bd 8079 2dbe
00000150: de8d d9bd dbf7 9c3b 6caf fc3a e542 6f3d
00000160: d6ff a53f 483b 8bbf 3fa2 11be c31c 74be
00000170: 3220 2c3e 6b22 0abf 8de5 6cbe abce 38be
00000180: 3d9e 1cbd fb6d 193c 790f ba3a 1932 8d3c
00000190: 466b 0540 a803 89bf 5d26 03bd 9f53 423e
000001a0: e323 b43f 6861 1bbf dd04 883b ff89 203f
000001b0: 0173 3ebc 7e20 ae3c 91f5 bcbd 0a6a 403c
000001c0: 3169 a13a 6d55 9f3c 9559 00bc d3ec 6e3c
000001d0: 93c4 51bd 2c01 09bd 488d 42be 8e9a 17be
000001e0: 92fe 1bbe 021e 0b3f b2e5 633e be7e a3bc
000001f0: 8198 b93f 2ef2 90bf 00e1 1fbe 3f6a cdbd
00000200: a1ca cf3d 5111 82bc ee09 2a3d 1914 e5bc
00000210: 904c a73f fd27 fabe 0668 d83d be25 b23d
00000220: 29c4 b3bb ee33 3ec0 b5f7 d6be 6b95 4d3d
00000230: c634 2fbd bd72 0c3f 894a 63be 3a56 633e
00000240: 85a3 c73d 51f3 1ac0 8543 afbe 6790 bdbd
00000250: 6598 a0bd e209 2ac0 b928 b8be 4afd 91bd
00000260: 0d6b 2fbe 9b62 16bc b974 a63d f98b 4abd
00000270: 5c5c b8bd 8311 113f 0fd3 373f 49e1 17be
00000280: ba6f 023e f6e9 03bf 96a5 923e 2ae2 d1bd
00000290: f13f 373d 6c23 16bc 005e 80bd 05d3 a63d
000002a0: 74d7 0e3e b67f b73f 7088 333f 3c00 14be
000002b0: 3e2d e63e 3b90 d33f d30f dd3e b89c 53bc
000002c0: b86a c4bd 8610 56bd 8e7c e5bc eb6a ba3c
000002d0: 3e5e a33c e26c 97bc 6191 e7bc 9e59 9a3a
000002e0: 28a3 11bc b0f9 c03c 74af 9bbd 3c7a 1d3e
000002f0: 513b 85be fd36 263f a7bc 5bbe 148a 043e
00000300: 826e ffbb ece8 093f 7dfc 2b3f 3d88 2cbe
00000310: 7e97 263e 544d a93c fc59 18be a03e 293c
00000320: a20e 3cbd 1a54 1440 3b06 e53e d29d 79bc
00000330: c017 99bd 31c0 943f aa65 323e 836f 0c3f
00000340: b498 883d a0ea 39c0 fd14 65be 7cd5 d73d
00000350: 0a22 f1bd 70c6 843f 4f68 5c3e 75a7 323f
00000360: 2d41 83bd 7397 923f 45e1 1e3e 60d4 c03e
00000370: 85cc 773d dc3b 8ebd 57ae 803d 1fd1 7ebd
00000380: 0c31 c23d cc2c d73e 919b d4bd bf32 87bf
00000390: 9b0d 79bd 5d93 3440 b894 bd3d 4fda 41be
000003a0: 44ff aabd 1c41 a8bb 70d1 c4bd 37b1 a1bd
000003b0: 2353 a4bd 68ca 22be 20b5 a7bd e903 e4be
000003c0: 784e 47be 0d7d 16bf 5034 c0bd c450 7b3f
000003d0: 2aa3 8ebd 03cf b0bd d4f4 003e 3ec5 f53c
000003e0: 41b9 c93d e51b 85bd 10d5 0bbd 75f3 f7bb
000003f0: 1bcf 6dbc abcd 133d 4e71 213d 2832 903d

encoder.0.0.bias f4 [17]
-0.08073603 0.08273635 0.025885602 -0.03739355 0.017623164 0.07633402 0.007599071 0.005661118
-0.27778623 -0.35994065 0.05095717 0.12991704 0.08073842 0.05287256 -0.283104 -0.094993025
-0.056353617
00000000: ef58 a5bd ad71 a93d 0b0e d43c fb29 19bd
00000010: 745e 903c 0355 9c3d a101 f93b e680 b93b
00000020: ff39 8ebe 244a b8be 77b8 503d f908 053e
00000030: 2f5a a53d e690 583d 02f3 90be b48b c2bd
00000040: 0dd3 66bd

encoder.0.1.weight f4 [17]
-1.6364601 1.0289419 1.0462205 1.048436 0.9526126 -0.0058241636 0.0015562887 -0.0005636515
-1.4553034 -1.1000224 1.1243448 1.6217219 0.0015026273 1.071936 -1.2477945 -0.6071265
-0.00015785085
00000000: 8677 d1bf 5eb4 833f 8eea 853f 2733 863f
00000010: 6bde 733f a0d8 bebb 62fc cb3a 03c2 13ba
00000020: 6247 babf 89cd 8cbf 88ea 8f3f 9594 cf3f
00000030: cef3 c43a 3335 893f bbb7 9fbf a46c 1bbf
00000040: c484 25b9

encoder.0.1.bias f4 [17]
0.0013616683 -0.014248725 -0.009168058 0.033217844 -0.024740968 -0.09619172 -0.022448452 -0.06378797
0.069092594 -0.0024505355 -0.014057071 0.029811949 -0.049510553 -0.0066443533 0.032094814 -0.65492874
-0.0055576484
00000000: 027a b23a 7c73 69bc 9f35 16bc 6f0f 083d
00000010: 92ad cabc 2a00 c5bd d1e5 b7bc 44a3 82bd
00000020: 6b80 8d3d 2a99 20bb a14f 66bc 3038 f43c
00000030: 94cb 4abd e0b8 d9bb da75 033d 69a9 27bf
00000040: ef1c b6bb

encoder.0.1.running_mean f4 [17]
0.119139634 -0.51057327 -0.20383558 -1.341848 -1.2676625 -0.011825418 -0.07304687 -0.040208817
0.72994834 0.67030555 0.25217563 0.2307385 0.07383855 -0.24558821 0.5257172 0.22011204
-0.09752024
00000000: 7bff f33d eeb4 02bf 46ba 50be adc1 abbf
00000010: c442 a2bf 66bf 41bc 9999 95bd 00b2 24bd
00000020: e5dd 3a3f 2599 2b3f 2a1d 813e b746 6c3e
00000030: aa38 973d 7a7b 7bbe 6795 063f 0d65 613e
00000040: b1b8 c7bd

encoder.0.1.running_var f4 [17]
441.56592 378.04794 598.29285 621.74426 374.86768 0.2947226 5.2886763 0.35653076
509.5926 507.74872 465.80444 516.4381 11.802826 468.67255 885.4503 413.05414
1.0977713
00000000: 70c8 dc43 2306 bd43 be92 1544 a26f 1b44
00000010: 106f bb43 e1e5 963e d63c a940 338b b63e
00000020: dacb fe43 d6df fd43 f8e6 e843 0a1c 0144
00000030: 60d8 3c41 1656 ea43 d25c 5d44 ee86 ce43
00000040: c583 8c3f

encoder.1.0.weight f4 [29, 17, 4]
-0.018204454 -0.14581044 -0.027440116 0.017397687 -0.012312389 -0.050132062 0.04090451 -0.05482715
0.0010830535 -0.042985573 -0.026121126 0.062540494 -0.056757953 -0.046545118 -0.086775064 -0.17078468
-0.012275916 -0.08200537 0.081647106 0.015899647 0.006778659 0.071086064 -0.001924769 -0.04322776
-0.14042467 0.0116882 0.041754827 -0.10457168 0.043815013 0.07013306 -0.07944381 -0.037134133
-0.11559145 0.017148118 -0.0011944888 0.032745223 0.014683465 -0.09844557 -0.02031713 0.01580968
0.054120973 0.038877297 -0.06271595 -0.16478822 0.01627774 -0.013485939 -0.07839324 -0.07290511
0.03026926 0.025412558 -0.055858064 -0.031292077 0.070905164 -0.06758368 -0.021917608 -0.22528839
0.019021684 -0.0008103877 0.0072876746 -0.11651328 -0.15395279 -0.04574726 -0.00037242344 0.004827593
0.0307176 -0.085534185 -0.09242992 0.02763666 -0.02954328 0.07742836 0.11289346 0.026571926
0.051149752 0.0967527 0.08304708 0.063441165 0.10505533 0.114233956 0.05081618 0.010916242
0.047677025 0.03613325 0.070245914 0.010205385 0.0016939358 0.038839966 -0.018666279 0.023156572
0.036622245 -0.012108226 -0.050637167 -0.0029352705 -0.032248136 0.004499805 0.13023172 0.006737867
0.08143937 -0.11678138 0.040705737 -0.103896074 0.12145143 0.08077375 0.008093081 -0.014787433
0.043355886 -0.042690806 0.06690945 -0.08791413 -0.062239755 0.009878411 0.050508015 0.066409044
0.10102696 -0.07211049 0.09314145 0.059344966 -0.032339863 -0.07202387 0.07172299 -0.049604934
-0.03216511 0.13895844 0.051287096 0.011680383 0.069728434 -0.01721067 -0.047785234 0.0077661225
-0.0019165609 -0.022749795 -0.040125515 0.11532932 0.01138792 0.010083563 -0.10594113 -0.0004141006
0.15673827 0.06990859 -0.1422354 0.023728807 0.026988447 -0.03882263 0.029847687 -0.0012763721
-0.027219256 -0.027856156 -0.0677936 -0.114367105 0.04102474 0.18517236 0.032300577 -0.079631716
0.009680801 0.012320249 0.04179171 -0.066936836 -0.015633604 0.010103611 -0.06336769 -0.02325881
-0.0423714 -0.0065306914 0.03449144 0.024917448 -0.10326735 0.07116735 0.024427954 -0.025121802
0.019073369 0.07381308 0.07513345 -0.050093334 -0.017627096 0.0023011484 -0.082919724 -0.04922128
-0.06660992 0.02691024 0.042892333 -0.0005781517 0.0055040796 -0.025601625 -0.00089269166 0.002436319
0.046414576 -0.019922486 0.12606588 -0.063177116 0.081553996 -0.0097831655 0.03422085 -0.000120313234
0.032113094 -0.05204261 0.063417085 -0.06867705 0.057083834 -0.039911944 0.017217375 -0.035450675
-0.05683906 0.105431266 -0.006684179 -0.048354898 0.86956257 0.81839234 0.9709698 -1.2243296
-0.22287378 0.051959686 0.53490424 -0.25902393 -0.04903085 0.37686437 0.66461194 -0.7747721
-0.11601701 0.6170235 0.16530457 0.11203458 0.09967003 0.51725376 0.7012955 -0.73103887
0.068452284 -0.030537317 -0.03279112 -0.10725389 -0.047691762 0.032143947 -0.0037874898 -0.04154388
-0.040584058 0.014804876 0.050783176 -0.011891144 1.0933883 0.32785177 0.43069047 -1.6705983
0.15386832 0.015413608 1.0372262 0.2506467 -0.03307147 0.92451614 0.58597404 -0.66186535
0.98165476 0.63716114 0.5447956 -2.0205455 -0.0073970105 0.028725583 0.06796911 -0.10998764
00000000: 8221 95bc 554f 15be 18ca e0bc 9885 8e3c
00000010: e7b9 49bc 4757 4dbd 7d8b 273d 6f92 60bd
00000020: 3ff5 8d3a a411 30bd f9fb d5bc 3b15 803d
00000030: 077b 68bd 18a6 3ebd 20b7 b1bd 2ee2 2ebe
00000040: ec20 49bc 6ef2 a7bd 9936 a73d fa3f 823c
00000050: 831f de3b 9295 913d 8848 fcba 970f 31bd
00000060: 7ccb 0fbe dd7f 3f3c 1c07 2b3d ad29 d6bd
00000070: 5f77 333d eca1 8f3d 70b3 a2bd f619 18bd
00000080: 36bb ecbd 367a 8c3c 6590 9cba db1f 063d
00000090: ea92 703c d59d c9bd 1c70 a6bc 4d83 813c
000000a0: f4ad 5d3d cd3d 1f3d 3871 80bd 3ebe 28be
000000b0: e558 853c 21f4 5cbc a38c a0bd 464f 95bd
000000c0: 3df7 f73c ff2d d03c 6dcb 64bd 1f2c 00bd
000000d0: ba36 913d 5069 8abd 8e8c b3bc 00b2 66be
000000e0: 5dd3 9b3c 3370 54ba 72cd ee3b 849e eebd
000000f0: cda5 1dbe 7b61 3bbd d441 c3b9 c930 9e3b
00000100: 7aa3 fb3c 8c2c afbd e64b bdbd 4766 e23c
00000110: c004 f2bc c392 9e3d b034 e73d 5ead d93c
00000120: 6782 513d 4826 c63d 9614 aa3d 71ed 813d
00000130: 4027 d73d 7ef3 e93d a024 503d 0ada 323c
00000140: fc48 433d 7500 143d 17dd 8f3d 7d34 273c
00000150: 0e07 de3a a816 1f3d 06ea 98bc dab2 bd3c
00000160: 3501 163d 9561 46bc eb68 4fbd ab5d 40bb
00000170: 9f16 04bd 1a73 933b 775b 053e 53c9 dc3b
00000180: afc9 a63d 132b efbd 0fbb 263d 77c7 d4bd
00000190: 87bb f83d b56c a53d d898 043c fd46 72bc
000001a0: f195 313d 8edc 2ebd d207 893d 530c b4bd
000001b0: 1def 7ebd 0fd9 213c 7ee1 4e3d 7701 883d
000001c0: 39e7 ce3d aaae 93bd f2c0 be3d b513 733d
000001d0: ce76 04bd 4081 93bd 81e3 923d 8b2e 4bbd
000001e0: 90bf 03bd 1f4b 0e3e 6b12 523d 145f 3f3c
000001f0: c8cd 8e3d 64fd 8cbc 73ba 43bd f57a fe3b
00000200: 1d35 fbba c75d babc a75a 24bd c731 ec3d
00000210: 6694 3a3c 8735 253c aaf7 d8bd a41b d9b9
00000220: ff7f 203e 3c2c 8f3d 28a6 11be ea62 c23c
00000230: e016 dd3c 7a04 1fbd 2383 f43c f14b a7ba
00000240: ebfa debc 9832 e4bc 5fd7 8abd 4d39 eabd
00000250: 8f09 283d d39d 3d3e 9c4d 043d f415 a3bd
00000260: 399c 1e3c dfda 493c c92d 2b3d 2e16 89bd
00000270: 0b12 80bc 9e89 253c ebc6 81bd 4389 bebc
00000280: a28d 2dbd 69ff d5bb e546 0d3d ad1f cc3c
00000290: d57d d3bd 30c0 913d 221d c83c 3dcc cdbc
000002a0: c13f 9c3c 502b 973d 91df 993d ab2e 4dbd
000002b0: b366 90bc ddce 163b d1d1 a9bd 419c 49bd
000002c0: c86a 88bd dd72 dc3c dfaf 2f3d 1b8f 17ba
000002d0: 915b b43b 80ba d1bc 8603 6aba a6aa 1f3b
000002e0: 361d 3e3d 7b34 a3bc 6a17 013e 0163 81bd
000002f0: c805 a73d 9249 20bc 292b 0c3d ad50 fcb8
00000300: 0589 033d a22a 55bd d1e0 813d 8ea6 8cbd
00000310: bdd0 693d b57a 23bd 740b 8d3c ba34 11bd
00000320: 13d0 68bd 59ec d73d f506 dbbb c90f 46bd
00000330: a79b 5e3f 2982 513f 7a91 783f d5b6 9cbf
00000340: 0639 64be aed3 543d 7cef 083f c99e 84be
00000350: 93d4 48bd 5ef4 c03e 0224 2a3f 7757 46bf
00000360: 539a edbd 41f5 1d3f 9a45 293e 6372 e53d
00000370: cd1f cc3d be6a 043f 1a88 333f 5d25 3bbf
00000380: b630 8c3d 6529 fabc fb4f 06bd eda7 dbbd
00000390: 7058 43bd 5fa9 033d 8937 78bb ea29 2abd
000003a0: 783b 26bd 2790 723c 0502 503d 13d3 42bc
000003b0: 26f4 8b3f 30dc a73e 7683 dc3e 2ad6 d5bf
000003c0: a88f 1d3e 5c89 7c3c d4c3 843f c454 803e
000003d0: f375 07bd 17ad 6c3f 6502 163f 0270 29bf
000003e0: ba4d 7b3f fe1c 233f b977 0b3f 9e50 01c0
000003f0: 9f62 f2bb ea51 eb3c 6433 8b3d 3341 e1bd

encoder.1.0.bias f4 [29]
-0.018999903 -0.020475348 0.018798565 -0.14921777 -0.0023772873 -0.062153175 -0.006634864 -0.023320012
-0.20925555 -0.05339796 0.044267897 0.031542942 -0.01775239 0.03314576 -0.020777453 0.040883843
0.19117135 -0.580092 -0.05076038 -0.0051427907 -0.01009769 -0.09044456 0.18696928 -0.03880343
0.037941698 -0.21492927 0.24245566 -0.12849608 -0.35241076
00000000: afa5 9bbc ebbb a7bc 73ff 993c 8bcc 18be
00000010: 43cc 1bbb 5494 7ebd 4669 d9bb 9c09 bfbc
00000020: 1647 56be d2b7 5abd 4152 353d 2c33 013d
00000030: 766d 91bc d9c3 073d 7a35 aabc d175 273d
00000040: 6cc2 433e e980 14bf 1eea 4fbd db84 a8bb
00000050: c870 25bc ff3a b9bd e074 3f3e 58f0 1ebd
00000060: c168 1b3d 6b16 5cbe 4c46 783e 7a94 03be
00000070: 2f6f b4be

encoder.1.1.weight f4 [29]
-0.0020885551 -0.0041981493 0.0004906156 -1.7360837 -0.0033537934 0.26094052 -0.00015865771 0.00013842247
-0.7181162 -0.0029193491 0.014744645 -0.013759369 0.00017957865 0.0052980054 0.4180501 -0.0015953112
-1.717285 1.0078453 0.0063934103 -0.0011522796 0.0033532097 0.5318857 0.6639686 -0.009987889
0.00034307063 -0.6338249 -1.3727878 0.48826814 0.6911121
00000000: 24e0 08bb a190 89bb a89c 003a fe37 debf
00000010: 51cb 5bbb ff99 853e 5b5d 26b9 8025 1139
00000020: 77d6 37bf 8d52 3fbb 8693 713c fa6e 61bc
00000030: 474d 3c39 e49a ad3b aa0a d63e c319 d1ba
00000040: ffcf dbbf 1301 813f d07f d13b 1608 97ba
00000050: 86c1 5b3b a929 083f d9f9 293f 3ea4 23bc
00000060: 29de b339 5942 22bf 83b7 afbf 48fe f93e
00000070: b9ec 303f

encoder.1.1.bias f4 [29]
-0.034244325 -0.044034123 -0.16851878 -0.6212881 -0.052433185 0.3585118 -0.04313211 -0.022603694
0.06622497 -0.046882596 -0.07490067 -0.13189536 -0.041778065 -0.08528478 -0.007277447 -0.022270631
0.16858153 0.35232735 -0.086047605 -0.13815956 -0.05461203 0.098378405 -0.29874572 -0.13502803
-0.14487524 -0.28018883 -0.15352975 -0.7678205 -0.1674828
00000000: c743 0cbd 205d 34bd 3090 2cbe bd0c 1fbf
00000010: 2ec4 56bd dc8e b73e 4cab 30bd 622b b9bc
00000020: f5a0 873d f707 40bd 8665 99bd 940f 07be
00000030: 7a1f 2bbd c9a9 aebd a677 eebb e670 b6bc
00000040: a3a0 2c3e 4064 b43e ba39 b0bd b379 0dbe
00000050: ddb0 5fbd 9e7a c93d 33f5 98be ca44 0abe
00000060: 2d5a 14be e974 8fbe e736 1dbe e28f 44bf
00000070: 9c80 2bbe

encoder.1.1.running_mean f4 [29]
-0.39159077 0.42105338 0.10167461 3.7997513 -0.20662542 -1.0412703 0.48007557 0.34464446
3.3968027 -0.18148631 -0.54452497 0.3563541 -0.074050926 -0.05442962 8.235998 -0.06226495
4.7774816 -5.228257 -0.24041222 -0.20249 0.07876646 -1.5354173 -1.1180947 -0.40737915
-0.6044329 1.4040656 4.8839417 3.2314878 -2.2795799
00000000: 967e c8be 4f94 d73e c73a d03d 202f 7340
00000010: 9d95 53be 5848 85bf 77cc f53e 3d75 b03e
00000020: 3765 5940 8cd7 39be fd65 0bbf 0b74 b63e
00000030: 03a8 97bd 98f1 5ebd a6c6 0341 8809 7fbd
00000040: 21e1 9840 e24d a7c0 9f2e 76be 8a59 4fbe
00000050: 4f50 a13d 8e88 c4bf ba1d 8fbf 0094 d0be
00000060: 1dbc 1abf 6cb8 b33f 4049 9c40 b2d0 4e40
00000070: a3e4 11c0

encoder.1.1.running_var f4 [29]
0.2620537 0.28142303 0.14566393 24.972395 0.14032562 4.2403274 0.35146394 0.23494133
22.66893 0.13670339 0.49827567 0.15882836 0.051949874 0.15777928 66.35212 0.16168946
23.027246 22.416328 0.24153088 0.088650905 0.09378094 10.789313 3.4022605 0.20620054
0.5035196 7.1973977 21.784727 12.364239 6.752217
00000000: e72b 863e ae16 903e ed28 153e 77c7 c741
00000010: 85b1 0f3e c3b0 8740 15f3 b33e 7694 703e
00000020: f859 b541 f9fb 0b3e fd1d ff3e e7a3 223e
00000030: 64c9 543d e490 213e 49b4 8442 ec91 253e
00000040: cd37 b841 a454 b341 df53 773e 9b8e b53d
00000050: 3910 c03d 07a1 2c41 a3be 5940 3c26 533e
00000060: a9e6 003f 1551 e640 1f47 ae41 ecd3 4541
00000070: 2912 d840

encoder.2.0.weight f4 [52, 29, 4]
-0.008143019 0.014441327 -0.007725444 0.06679054 -0.035739597 0.031560812 -0.038114097 -0.035826314
0.022336122 0.025997076 -0.07416541 0.05854094 -0.029687589 0.7032624 -3.746771 0.010201825
-0.012271462 0.0072274506 -0.0077350587 0.060268965 -0.056502905 -0.05985523 -0.17989261 0.05388492
-0.006696423 0.06186076 -0.034267608 -0.14292154 -0.039525744 -0.11058851 -0.11867519 0.059194695
-0.034847613 0.11610993 0.029197987 0.045712426 0.02165721 -0.0021251335 -0.12037104 0.0024509826
0.059484202 0.014797494 0.04930792 -0.045789015 0.07797141 0.006856099 -0.005099126 0.016151348
-0.051535632 -0.018223565 0.12303386 0.0050745117 -0.0582272 -0.017745724 -0.037861995 0.024282454
0.056613863 -0.2191075 -0.034425676 0.030080995 -0.13203965 -0.011471324 0.08862468 0.016750794
0.05027349 -0.91139084 0.14983892 -0.035685506 0.036952112 -0.05069966 1.0008631 -0.07788615
-0.0010103186 0.025665976 -0.020535003 0.061321866 -0.13688764 -0.020315247 0.07222454 -0.026229432
-0.06211562 -0.023061622 -0.040554933 0.015469386 0.06811519 -0.11281774 -0.50213647 0.0052508386
-0.011256977 1.5484921 1.347304 -0.046522956 0.02838016 0.013634079 0.02368676 -0.011448919
-0.058049764 0.004198494 -0.15074264 0.06564542 0.04298465 -0.19812746 1.2515731 0.007946072
0.038313083 -0.5992943 -0.24706158 -0.025496682 -0.06520207 -0.14461876 0.311637 -0.068802476
0.10059003 0.076186575 0.61123705 -0.07974608 -0.084364824 0.078054644 0.01499336 -0.093787454
0.028569058 0.0639651 0.041595 0.032578923 0.0016005862 0.12119241 0.018697586 0.043453578
0.006630473 0.16770926 -0.0901605 -0.095249034 -0.059688967 0.077066734 0.009417784 0.0132082105
-0.09705643 -0.1631621 -0.3147671 0.06181364 -0.038765416 -0.011713187 0.0088362945 0.011798532
-0.029717652 -0.09321614 -0.10982749 -0.02878501 0.02492969 -0.3075675 -0.25336558 0.093702175
0.053736854 0.04811039 0.0058131865 -0.040289406 0.056200534 -0.062046885 -0.039654676 0.051049914
-0.086286016 0.018158663 0.027057003 -0.024331974 0.09686936 -0.062146988 -0.046687003 0.0044792197
0.02765404 -0.13302743 -0.08855413 -0.03903535 0.027218139 -0.19182752 -0.034934 0.04524482
-0.05693834 -0.06063649 -0.012930435 -0.048669096 0.013523998 0.058595303 0.39810628 -0.051051527
-0.012457433 0.024988422 0.10754454 -0.103268504 -0.025694225 -0.009477933 -0.044382446 0.06798393
0.008602646 -0.0026829082 0.01982522 -0.019787064 -0.014544978 0.039836604 0.020001443 -0.023074726
0.014826004 -0.0028594085 -0.06589648 -0.021739675 0.012905173 -0.30811456 -0.36784655 -0.016729904
-0.03755006 0.08605393 -0.027808765 0.040092807 -0.033287898 0.014359894 0.041997377 0.036456488
-0.0004205707 -0.13939922 -0.014460803 -0.044967398 0.05308038 0.13383746 0.37386674 -0.01315372
-0.03623424 0.18766557 0.12152223 0.008845541 0.027694423 0.39590722 -0.09994331 -0.035018
0.050819773 0.022766743 0.065781705 0.0015940523 -0.026122823 0.07185473 -0.02368164 0.041034084
-0.0118406555 -0.025271345 -0.018233499 0.012053924 0.055477172 0.08571823 -1.2597739 0.01445213
-0.044544037 -0.03311248 -0.0047415886 -0.039644115 -0.004141293 -0.05498131 -0.056428418 0.025433604
00000000: 4c6a 05bc 519b 6c3c b925 fdbb 7bc9 883d
00000010: af63 12bd e945 013d 871d 1cbd 9dbe 12bd
00000020: 3efa b63c d2f7 d43c 09e4 97bd a0c8 6f3d
00000030: 6333 f3bc 0109 343f 19cb 6fc0 8e25 273c
00000040: 3e0e 49bc 40d4 ec3b 6076 fdbb 97dc 763d
00000050: 976f 67bd c22a 75bd c535 38be 6fb6 5c3d
00000060: ab6d dbbb b561 7d3d 315c 0cbd 065a 12be
00000070: bfe5 21bd 3b7c e2bd fa0b f3bd 2376 723d
00000080: 5fbc 0ebd 0bcb ed3d 9e30 ef3c f43c 3b3d
00000090: 766a b13c d345 0bbb 1885 f6bd aaa0 203b
000000a0: b5a5 733d 3071 723c 1af7 493d 438d 3bbd
000000b0: 79af 9f3d 20a9 e03b 9216 a7bb d54f 843c
000000c0: 0717 53bd 9649 95bc 2df9 fb3d 1748 a63b
000000d0: a57f 6ebd 7b5f 91bc 2e15 1bbd ffeb c63c
000000e0: f0e3 673d b75d 60be f001 0dbd 6b6c f63c
000000f0: 6735 07be 38f2 3bbc db80 b53d f638 893c
00000100: 93eb 4d3d e950 69bf 606f 193e f72a 12bd
00000110: 195b 173d 72aa 4fbd 481c 803f c682 9fbd
00000120: ab6c 84ba 7441 d23c 0639 a8bc a32c 7b3d
00000130: 462c 0cbe 296c a6bc 76ea 933d 1bdf d6bc
00000140: f36c 7ebd baeb bcbc ee1c 26bd 4f73 7d3c
00000150: fa7f 8b3d fd0c e7bd 048c 00bf 3a0f ac3b
00000160: 2f6f 38bc fd34 c63f 7574 ac3f db8e 3ebd
00000170: 827d e83c 7961 5f3c bc0a c23c 3f94 3bbc
00000180: 97c5 6dbd 8593 893b 475c 1abe 1b71 863d
00000190: ac10 303d ede1 4abe 8c33 a03f 3e30 023c
000001a0: 2eee 1c3d 5a6b 19bf b6fd 7cbe 6bde d0bc
000001b0: aa88 85bd f116 14be e38e 9f3e 50e8 8cbd
000001c0: 2502 ce3d b507 9c3d 087a 1c3f ea51 a3bd
000001d0: 77c7 acbd 1ddb 9f3d b6a6 753c a313 c0bd
000001e0: a809 ea3c 2200 833d 855f 2a3d 7a71 053d
000001f0: c3ca d13a ba33 f83d ae2b 993c 61fc 313d
00000200: 7044 d93b fabb 2b3e 11a6 b8bd ed11 c3bd
00000210: 6b7c 74bd 2ad5 9d3d 0d4d 1a3c 4067 583c
00000220: 86c5 c6bd f713 27be 2729 a1be 4d30 7d3d
00000230: 7cc8 1ebd abe8 3fbc 1bc6 103c a14e 413c
00000240: 6f72 f3bc 1be8 bebd 3ced e0bd 8bce ebbc
00000250: 5939 cc3c 7d79 9dbe 22b9 81be ede6 bf3d
00000260: 2d1b 5c3d 660f 453d 8b7c be3b 8106 25bd
00000270: 8832 663d e024 7ebd f16c 22bd b719 513d
00000280: b9b6 b0bd 7ac1 943c a6a6 dd3c d953 c7bc
00000290: 7163 c63d d78d 7ebd df3a 3fbd 6bc6 923b
000002a0: ba8a e23c 5838 08be de5b b5bd 88e3 1fbd
000002b0: 93f8 de3c 6f6e 44be f416 0fbd a252 393d
000002c0: 2d38 69bd f85d 78bd 2dda 53bc 3f59 47bd
000002d0: c293 5d3c a101 703d 96d4 cb3e 681b 51bd
000002e0: 431a 4cbc 85b4 cc3c 5040 dc3d 707e d3bd
000002f0: b27c d2bc 5549 1bbc 5eca 35bd 293b 8b3d
00000300: 1df2 0c3c bbd3 2fbb 8068 a23c 7b18 a2bc
00000310: 0f4e 6ebc b52b 233d 11da a33c 3507 bdbc
00000320: c5e8 723c ea64 3bbb bcf4 86bd 6717 b2bc
00000330: 3870 533c 31c1 9dbe 6256 bcbe 270d 89bc
00000340: 17ce 19bd 0b3d b03d 35cf e3bc 5b38 243d
00000350: e458 08bd c345 6b3c 7105 2c3d 6653 153d
00000360: 0b80 dcb9 abbe 0ebe 01ed 6cbc bc2f 38bd
00000370: d06a 593d b00c 093e 766b bf3e b382 57bc
00000380: 5b6a 14bd 672b 403e a6e0 f83d e3ec 103c
00000390: 6adf e23c 5ab4 ca3e 14af ccbd 096f 0fbd
000003a0: 6528 503d 5281 ba3c 8fb8 863d 85ef d03a
000003b0: 88ff d5bc 9328 933d 0000 c2bc 5b13 283d
000003c0: 4fff 41bc da05 cfbc 6b5e 95bc d27d 453c
000003d0: 083c 633d 0a8d af3d 4540 a1bf a0c8 6c3c
000003e0: cf73 36bd f4a0 07bd 545f 9bbb de61 22bd
000003f0: afb3 87bb 1534 61bd 7c21 67bd 225a d03c

encoder.2.0.bias f4 [52]
0.15958227 -0.0624762 0.13162696 -0.030660862 0.029395657 0.3381273 -0.13594979 -0.15842392
0.13396502 -0.0033278903 0.023057487 -0.16004182 0.21934019 -0.045173466 -0.053489275 0.0052249897
0.05697982 -0.26792446 -0.015254443 -0.06104803 0.011954381 -0.035987504 -0.019977719 0.12064214
-0.008035814 0.034674216 -0.039214194 -0.24471085 -0.015720997 -0.2912022 -0.09892821 0.058350883
0.046482112 0.20125534 0.05276419 0.11345448 -0.080464765 0.024338342 -0.041947003 0.21641451
0.706379 0.038960192 0.02278487 -0.0027736584 -0.10802889 -0.13177554 -0.11414451 -0.30262014
-0.01576138 0.05587521 -0.22422527 0.0904092
00000000: 8969 233e 0be7 7fbd 38c9 063e 7d2c fbbc
00000010: 29cf f03c 051f ad3e 6c36 0bbe e139 22be
00000020: 202e 093e bc18 5abb 0ee3 bc3c 01e2 23be
00000030: b79a 603e d007 39bd 9217 5bbd 6436 ab3b
00000040: ac63 693d 652d 89be c5ed 79bc 800d 7abd
00000050: 4fdc 433c a267 13bd 50a8 a3bc 3a13 f73d
00000060: a6a8 03bc 8d06 0e3d 109f 20bd 7b95 7abe
00000070: 52c9 80bc 7418 95be e09a cabd 5601 6f3d
00000080: 0764 3e3d e115 4e3e 431f 583d d35a e83d
00000090: b6ca a4bd 3461 c73c 9fd0 2bbd c49b 5d3e
000000a0: 41d5 343f b994 1f3d 56a7 ba3c 44c6 35bb
000000b0: 403e ddbd 2bf0 06be 99c4 e9bd 07f1 9abe
000000c0: 021e 81bc 67dd 643d 4f9b 65be 7528 b93d

encoder.2.1.weight f4 [52]
-0.38997412 0.0020598504 -0.33961585 0.5839918 -0.0045747445 -0.3819401 0.59020144 0.2987214
-0.3863776 -0.00074418116 -0.01695778 -0.31631023 0.46499407 0.0042479234 0.4327053 0.4927886
0.0024685145 0.17269236 -0.46806523 0.0040814485 -0.25183395 -9.8108656e-05 0.014460625 0.44943744
-0.019433182 -0.0052238214 -9.62566e-05 -0.15792488 0.46421438 -0.5596005 -0.3460857 -0.0028306253
-0.0023147133 -0.012227754 0.0021257817 0.53347534 0.28563657 0.12232731 0.00059998914 -0.20398414
0.4474977 -0.0004776487 -4.1242674e-05 0.03331278 0.35574812 0.008744115 0.0029205864 -0.24906492
-0.010782014 0.0039881165 0.37036234 -0.4354122
00000000: b0aa c7be 8efe 063b 21e2 adbe 7d80 153f
00000010: bde7 95bb a78d c3be 7117 173f 03f2 983e
00000020: 49d3 c5be 2715 43ba 0beb 8abc 6af3 a1be
00000030: b413 ee3e 2a32 8b3b 8d8b dd3e ca4e fc3e
00000040: cdc6 213b 44d6 303e 3fa6 efbe acbd 853b
00000050: 61f0 80be afbf cdb8 42ec 6c3c aa1c e63e
00000060: 5632 9fbc 972c abbb 5edd c9b8 0fb7 21be
00000070: 82ad ed3e fa41 0fbf 2532 b1be 0382 39bb
00000080: 72b2 17bb eb56 48bc b350 0b3b d791 083f
00000090: f53e 923e be86 fa3d 9748 1d3a 38e1 50be
000000a0: 6b1e e53e ec6c fab9 fcfb 2cb8 fb72 083d
000000b0: 9e24 b63e 7a43 0f3c 4f67 3f3b e00a 7fbe
000000c0: 0ba7 30bc bfae 823b 22a0 bd3e 59ee debe

encoder.2.1.bias f4 [52]
-0.27327496 -0.005885308 -0.15806401 -0.24218154 -0.019456265 -0.21591909 -0.23279166 0.026423212
-0.40191984 -0.06805771 -0.11481186 -0.14434835 -0.6665573 -0.038412068 -0.7137963 -0.26115707
-0.041724678 0.24573 -0.56417376 -0.014440514 0.28695962 -0.103685744 -0.062125225 -0.6065775
-0.13183795 -0.066654846 -0.002212727 0.41176873 -0.45320353 -0.17508629 -0.22082898 -0.044982694
-0.10459847 -0.2642007 -0.06347097 -0.20208581 0.17422001 0.09764141 -0.011308875 0.06707041
0.07860742 -0.1582576 -0.0014947476 -0.08252911 0.12332173 -0.098618105 -0.023025133 -0.026104638
-0.13670659 -0.065124 -0.054120593 -0.47674817
00000000: b2ea 8bbe 8bd9 c0bb 88db 21be 70fe 77be
00000010: bf62 9fbc e519 5dbe f060 6ebe 7e75 d83c
00000020: 70c8 cdbe d761 8bbd 7b22 ebbd 0ed0 13be
00000030: 80a3 2abf f955 1dbd 5bbb 36bf 61b6 85be
00000040: 7fe7 2abd a5a0 7b3e b16d 10bf e897 6cbc
00000050: 5fec 923e 3159 d4bd 0577 7ebd aa48 1bbf
00000060: 8700 07be 5682 88bd 6603 11bb 5ad3 d23e
00000070: 4b0a e8be d249 33be fe20 62be c63f 38bd
00000080: b937 d6bd 5045 87be 11fd 81bd 95ef 4ebe
00000090: bb66 323e 38f8 c73d dc48 39bc 365c 893d
000000a0: edfc a03d 480e 22be 68eb c3ba 0605 a9bd
000000b0: 1a90 fc3d 4af8 c9bd 349f bcbc 65d9 d5bc
000000c0: d0fc 0bbe bb5f 85bd 8ead 5dbd 5618 f4be

encoder.2.1.running_mean f4 [52]
0.10059239 0.20797284 -0.5840375 0.5115593 0.33565578 0.99610865 -0.69011056 0.11137666
0.12695529 0.13565885 0.17650425 -0.065983266 0.061689466 -0.25451767 0.33985028 0.5998094
0.06628756 -1.3651631 0.24594058 -0.16662228 -0.5040079 -0.0057411767 0.42407456 -0.99259436
0.16475724 0.20186687 -0.17253385 0.006888574 0.008359489 0.029389104 0.53490967 0.16415438
0.13347563 -1.2549574 0.12458802 1.0231409 0.7783748 -0.010200196 0.349564 2.0926445
1.9031336 -0.09392975 -0.20351866 0.21228169 3.4850008 -0.1678919 -0.19048035 0.18858263
-0.034212757 -0.010855143 1.8964168 0.4215829
00000000: 6203 ce3d d5f6 543e 7b83 15bf 8df5 023f
00000010: 13db ab3e fa00 7f3f 16ab 30bf 7219 e43d
00000020: 9100 023e 27ea 0a3e 88bd 343e 3c22 87bd
00000030: 18ae 7c3d 2450 82be db00 ae3e 1c8d 193f
00000040: c6c1 873d aabd aebf d9d7 7b3e 089f 2abe
00000050: a906 01bf 7b20 bcbb 4d20 d93e aa1a 7ebf
00000060: 1fb6 283e 30b6 4e3e b7ac 30be 8cb9 e13b
00000070: 3df6 083c 6bc1 f03c d7ef 083f 1618 283e
00000080: d6ad 083e 72a2 a0bf 0128 ff3d 48f6 823f
00000090: 9243 473f b91e 27bc 0dfa b23e e3ed 0540
000000a0: e299 f33f 3e5e c0bd 3267 50be 5f60 593e
000000b0: 410a 5f40 dbeb 2bbe 480d 43be ce1b 413e
000000c0: ad22 0cbd c5d9 31bc c9bd f23f b7d9 d73e

encoder.2.1.running_var f4 [52]
0.55647415 0.16942854 0.5948866 0.90227735 0.0873598 0.66668016 0.57394606 0.83859104
0.6327083 0.021924963 0.003877082 0.28855234 1.6296734 0.04223972 0.10507421 0.8030779
0.025447946 1.1737698 0.22296888 0.012878003 1.0088574 0.006087289 0.18079367 0.5004612
0.008306214 0.0036387765 0.05089765 0.8827775 0.36551118 0.97651255 0.30125183 0.00400205
0.001922061 0.4266102 0.0027840068 1.1706036 0.61181116 0.350502 0.3435785 0.61782515
4.6356544 0.021010963 0.08095957 0.049784075 4.4220076 0.13975282 0.20244978 0.30122998
0.0010829325 0.072737545 2.3464441 0.23696968
00000000: 1775 0e3f ad7e 2d3e 7d4a 183f a6fb 663f
00000010: b2e9 b23d 8dab 2a3f 21ee 123f e7ad 563f
00000020: 2cf9 213f fb9b b33c a416 7e3b 22bd 933e
00000030: 2399 d03f 8e03 2d3d 2631 d73d 8396 4d3f
00000040: 3678 d03c 173e 963f f451 643e 42fe 523c
00000050: 3d22 813f e277 c73b fa21 393e 3a1e 003f
00000060: c916 083c 8a78 6e3b 0e7a 503d b5fd 613f
00000070: 4824 bb3e bafc 793f ae3d 9a3e a123 833b
00000080: aaed fb3a a76c da3e e273 363b 57d6 953f
00000090: a89f 1c3f 0075 b33e 85e9 af3e ca29 1e3f
000000a0: 4857 9440 2f1f ac3c 22ce a53d 63ea 4b3d
000000b0: 1681 8d40 5d1b 0f3e ff4e 4f3e d13a 9a3e
000000c0: 2ff1 8d3a 6cf7 943d 242c 1640 2ea8 723e

decoder_input.weight f4 [52, 16]
-0.017216843 -0.03148441 0.70461833 0.037701413 -0.020795085 -0.027692763 -0.021545453 1.7637632
0.0054235766 0.074655935 0.015679328 0.011984736 0.007936607 -0.05046224 0.0017591038 -0.016284954
0.0035813772 -0.0025416645 0.18277025 -0.011078386 -0.012240782 0.007565857 0.031137314 -4.3984933
0.024679147 -0.003826867 0.0035029158 -0.0025931597 -0.023573756 0.012926575 0.0015596205 0.01823052
0.035052493 0.06533168 -1.0027431 -0.0050472063 -0.013312865 -0.00017115864 -0.006860389 0.027735475
0.026387265 0.018922342 0.013517685 -0.06315648 0.074080385 -0.10449654 0.03903507 0.0013807395
-0.010807566 -0.036940366 -0.8371945 0.018270697 -0.0067263907 0.02960321 -0.007990094 0.108145714
0.011220089 0.024287548 0.0039381944 0.03778296 0.027015852 -0.016674481 -0.0074403924 -0.030054608
-0.060349964 -0.062649615 -0.7669347 -0.052699864 0.029032433 -0.06737083 0.031795852 4.0181866
0.05185669 -0.012772004 0.030706536 -0.063228406 0.05243369 0.04367431 0.040381543 -0.05483988
-0.009421043 -0.0018049678 0.7470545 0.045339573 0.008374394 -0.033310793 0.011938776 1.5988533
0.030309588 0.06808783 0.01210109 0.030602355 -0.0019370009 -0.03258813 0.008403834 -0.011033189
0.06656674 -0.0005992171 -1.270571 -0.0060496037 -0.016382888 0.021362538 -0.0486613 0.12144005
-0.06379784 0.014464143 0.0336801 -0.043373905 -0.04717403 0.0032641578 0.04599579 0.006851234
-0.004131746 -0.039727923 -1.2549103 -0.06057508 0.0019379188 0.08250023 0.0053460225 0.08029961
-0.013605844 -0.032326087 -0.00028249522 0.032573894 -0.056335974 0.0788523 -0.023721043 0.046082128
0.031262007 0.0021240525 -1.1008927 0.01766462 -0.014485164 0.021134512 -0.035902124 0.12163558
-0.001494624 -0.0071095536 0.018622696 0.005729326 0.007889759 -0.0173509 0.017019242 -0.021760056
0.041724533 0.006231536 -0.83001286 0.057140164 0.010861052 -0.06892259 -0.007326328 -0.1531719
-0.020340987 0.009984419 -0.0047914544 -0.008914104 -0.021812752 -0.062467806 0.042419672 -0.0893626
-0.020010889 -0.04890733 -0.82414824 0.033414893 0.005234281 0.02162635 0.014757237 0.24965644
0.011784747 0.029776525 -0.010696615 0.0150196925 0.019611763 -0.02508319 -0.0027980367 -0.02765108
0.08196487 0.034635462 -1.1619967 0.027646204 0.016219014 -0.072923765 -0.02020855 -0.022978297
-0.070963696 0.01735566 0.025302649 -0.02812102 -0.04521754 -0.044190317 0.07619786 -0.054767404
0.022446414 0.06208904 -0.6455861 -0.04704478 0.00998009 0.060609166 -0.03493531 -2.387082
-0.03680152 -0.008689658 -0.036587562 -0.12654619 0.028099705 0.055865914 -0.0048942333 -0.016690405
-0.006548214 -0.029516155 -0.4648265 0.014681502 0.027998421 -0.03808111 0.02341249 4.766593
0.04541502 -0.037636545 0.007283698 -0.056549724 -0.0059391144 0.004300702 -0.03062122 -0.04038933
-0.037160616 -0.023105213 -0.86568904 0.00096813886 -0.03416007 0.083786726 0.0013546722 -0.1849707
0.00835885 0.005462745 0.028481763 0.013559515 0.053880442 -0.009176659 -0.020253435 0.04295149
0.018489735 0.02615993 -0.659511 -0.034209035 0.021146271 0.03926712 -0.023394322 -1.6830289
-0.04681225 -0.06475644 -0.03638706 -0.08729746 -0.01310191 0.036798734 -0.0020793532 0.015498701
00000000: 560a 8dbc ccf5 00bd de61 343f cc6c 1a3d
00000010: 745a aabc efdb e2bc 1780 b0bc fec2 e13f
00000020: 42b8 b13b 36e5 983d ef71 803c a05b 443c
00000030: 8b08 023c 7eb1 4ebd bb91 e63a 0668 85bc
00000040: 8ab5 6a3b 0e92 26bb 2028 3b3e 1e82 35bc
00000050: 908d 48bc 02eb f73b ae13 ff3c 75c0 8cc0
00000060: ec2b ca3c 2dcc 7abb 2d91 653b 00f2 29bb
00000070: c01d c1bc fcc9 533c 2e6c cc3a 2c58 953c
00000080: 3493 0f3d 9ecc 853d e359 80bf 0963 a5bb
00000090: 341e 5abc 0c79 33b9 1dcd e0bb 8235 e33c
000000a0: 1b2a d83c 0703 9b3c 4879 5d3c 2f58 81bd
000000b0: 75b7 973d 4802 d6bd 3de3 1f3d eef9 b43a
000000c0: 3812 31bc c84e 17bd 6152 56bf 6eac 953c
000000d0: 0e69 dcbb 6e82 f23c e2e8 02bc 807b dd3d
000000e0: 77d4 373c aef6 c63c f80b 813b 4ec2 1a3d
000000f0: 5950 dd3c ec98 88bc 89ce f3bb 1535 f6bc
00000100: 8631 77bd 714e 80bd d555 44bf d0db 57bd
00000110: 6dd5 ed3c b8f9 89bd 5e3c 023d fc94 8040
00000120: ae67 543d ab41 51bc 468c fb3c e57d 81bd
00000130: b5c4 563d d5e3 323d 1e67 253d c89f 60bd
00000140: b85a 1abc ab94 ecba f73e 3f3f fdb5 393d
00000150: c134 093c e670 08bd db9a 433c 3aa7 cc3f
00000160: d04b f83c a271 8b3d a643 463c cab1 fa3c
00000170: f7e2 fdba 227b 05bd 3cb0 093c 8cc4 34bc
00000180: 2554 883d c714 1dba 12a2 a2bf c13b c6bb
00000190: 6835 86bc 7d00 af3c 1251 47bd 90b5 f83d
000001a0: 71a8 82bd 03fb 6c3c 25f4 093d d6a8 31bd
000001b0: 8e39 41bd 7beb 553b 1566 3c3d 5180 e03b
000001c0: 9963 87bb bfb9 22bd e7a0 a0bf 931d 78bd
000001d0: c401 fe3a e1f5 a83d b02d af3b 1f74 a43d
000001e0: 0ceb 5ebc 5c68 04bd de1b 94b9 346c 053d
000001f0: 8dc0 66bd 517d a13d a252 c2bc 9dc0 3c3d
00000200: 970c 003d b033 0b3b 0dea 8cbf 65b5 903c
00000210: 2e53 6dbc 4922 ad3c 1b0e 13bd 131c f93d
00000220: 42e7 c3ba 42f7 e8bb a08e 983c 12bd bb3b
00000230: 0c44 013c 7a23 8ebc f06b 8b3c 2542 b2bc
00000240: 58e7 2a3d ea31 cc3b b97b 54bf ce0b 6a3d
00000250: 8ef2 313c 4927 8dbd b211 f0bb 18d9 1cbe
00000260: 24a2 a6bc b095 233c a201 9dbb 760c 12bc
00000270: a8b0 b2bc 3ede 7fbd 40c0 2d3d bd03 b7bd
00000280: e0ed a3bc 0d53 48bd 61fb 52bf 0ede 083d
00000290: 5584 ab3b be29 b13c 57c8 713c f0a5 7f3e
000002a0: d014 413c e6ed f33c db40 2fbc 2815 763c
000002b0: d9a8 a03c 437b cdbc 445f 37bb 8584 e2bc
000002c0: 33dd a73d eadd 0d3d 4fbc 94bf 4b7a e23c
000002d0: bddd 843c 0e59 95bd 678c a5bc fb3c bcbc
000002e0: 6a55 91bd 752d 8e3c 8047 cf3c 0e5e e6bc
000002f0: 0736 39bd e800 35bd a00d 9c3d c953 60bd
00000300: 8be1 b73c 1451 7e3d 2145 25bf 07b2 40bd
00000310: 8883 233c 5141 783d 5418 0fbd f4c5 18c0
00000320: 31bd 16bd 115f 0ebc d7dc 15bd 5395 01be
00000330: 5a31 e63c a8d3 643d ce5f a0bb 51ba 88bc
00000340: 6692 d6bb ddcb f1bc bdfd edbe af8a 703c
00000350: f25c e53c f0fa 1bbd 8dcb bf3c ee87 9840
00000360: 1a05 3a3d c728 1abd 16ac ee3b afa0 67bd
00000370: e79c c2bb e7ec 8c3b 5ad9 fabc 486f 25bd
00000380: bb35 18bd 2547 bdbc cc9d 5dbf b3ca 7d3a
00000390: 6eeb 0bbd 6098 ab3d 428f b13a f668 3dbe
000003a0: 8ff3 083c d400 b33b 9652 e93c ba28 5e3c
000003b0: bdb1 5c3d b359 16bc 88ea a5bc e7ed 2f3d
000003c0: c977 973c 594d d63c b7d5 28bf c61e 0cbd
000003d0: f23a ad3c 8fd6 203d 73a5 bfbc 7e6d d7bf
000003e0: 34be 3fbd 069f 84bd 990a 15bd 03c9 b2bd
000003f0: 65a9 56bc 45ba 163d c245 08bb 43ee 7d3c

decoder_input.bias f4 [52]
2.3703272 -2.135107 -2.1297133 -2.0869284 2.0417876 2.417096 -1.4646354 -1.539728
-1.7811735 -2.0078917 -2.1173837 -1.523289 -2.5682013 1.57617 -2.304689 -2.5409346
1.5193318 -0.8870274 -2.286733 -2.3641713 -2.6153517 -2.2202427 2.1451645 0.8882995
-1.8569696 -2.0538301 2.4957922 2.4326484 -2.2933433 -0.24433613 0.32790783 2.0965996
1.8827986 -2.1753101 -1.8033388 -2.0343761 1.9378837 1.3926331 -2.0623271 -1.9297704
2.3537002 2.1447055 1.1956806 0.07508175 -1.8718644 1.5132028 -2.1672206 2.035579
-1.9668286 -0.13176544 -2.3149626 1.0728829
00000000: 71b3 1740 98a5 08c0 394d 08c0 3c90 05c0
00000010: a6ac 0240 b3b1 1a40 2c79 bbbf cf15 c5bf
00000020: 7efd e3bf 4c81 00c0 3783 07c0 22fb c2bf
00000030: 695d 24c0 f0bf c93f 0680 13c0 ac9e 22c0
00000040: 7779 c23f 3a14 63bf d559 12c0 954e 17c0
00000050: ec61 27c0 7518 0ec0 604a 0940 9967 633f
00000060: 2eb1 edbf f471 03c0 0fbb 1f40 83b0 1b40
00000070: 23c6 12c0 4033 7abe 89e3 a73e b02e 0640
00000080: 8bff f03f 4838 0bc0 ced3 e6bf 3833 02c0
00000090: 930c f83f cd41 b23f 2bfd 03c0 b702 f7bf
000000a0: 06a3 1640 db42 0940 100c 993f 76c4 993d
000000b0: 4199 efbf a1b0 c13f beb3 0ac0 ed46 0240
000000c0: 0ac1 fbbf 85ed 06be 5928 14c0 3a54 893f
